results/test1/CarParking/CarParking-500007.onnx (onnx, 141699 bytes, 7 tensors)

network_body._body_endoder.seq_layers.0.weight f4 [128, 136]
00000000: 809b 45bd d7e5 3e3d 93ab e93b c4bd 543d
00000010: dc40 993c 8d11 ebbd e71d c6bd c4ae 47bd
00000020: 9fad 7c3c 85ed 873d 16af a73d 15cd 5fbc
00000030: 4238 193e b8aa 69be e535 d0bd b00c 44bc
00000040: 0f7b 963d 9d87 d4bd f7a7 833d 1411 6bbc
00000050: 70cf dc3d c0a3 00be bf3d dfbd 1ffa ec3d
00000060: 8d60 f83d 690e a2bc 7b13 6b3d 8ac4 5e3d
00000070: f9f4 0f3d b0c5 083e 77bc c53d 01e3 61bd
00000080: 2dcc 76bd ca81 ce3d daf8 26be 214b f33d
00000090: b9f3 6739 a558 e03d 1d92 023e 81b6 c9bc
000000a0: cd99 733d a5cb ae3d 4f97 57bd e92c 8e3c
000000b0: e87f 45bd 3ccc 543d c66f a63b 17aa 5abd
000000c0: 52fe 80bc 8cee da3d 30c5 453c 2ed3 f73d
000000d0: 3b6e 75bd 8c4e 3ebd 3b52 36bc d0fd 58bd
000000e0: f5e3 103e 0d96 70bc df0c d1bd 3375 a63d
000000f0: 2a7e 0137 62d1 a33d 457f 0d3d 0438 143e
00000100: 2497 74bc a91e 3c3d be4b 573c 95b0 cebd
00000110: b086 353d 76e9 fcbd f096 d83c dcad d33d
00000120: 16c3 3dbe 8d99 e5bd 85d0 b43d 2882 0a3d
00000130: 1c57 013d 64ef c6bd 2c09 90bc 6eb9 fa3c
00000140: aa2c 02bd ebab 83bc 9201 26bb 80e7 6e3b
00000150: 5ff0 943c 54e7 af3c 7688 9c3d a3e1 2cbd
00000160: b2e4 a03d 3373 2e3d d08c e93d c198 db3d
00000170: dcad af3c 85e6 73be 220c 7abd 8302 413d
00000180: 4b2c 0cbe 286f 3cbd 5bd2 523d bb70 103e
00000190: f3e1 f23d 2faf 72bd cbdd c2bd efdd 013c
000001a0: 1c7e ce3c 938b 8e3d 58f7 213e 0edf 53bd
000001b0: 8026 123e ce45 3cbe edce f9ba 33a0 2e3d
000001c0: efc4 b23d 073e d93d 2af3 c2bd 383b 963a
000001d0: f282 5dbd 89a6 753d c26e d53d bbce 0fbe
000001e0: f77b 973b 3454 4e3d e008 d2bd 2d7f 993d
000001f0: 8e69 013d d33c 293e b2ae 9d3d 5cac 72bd
00000200: 4ed3 ebbd 97b1 7a3d 0f08 173e 8766 053c
00000210: 9e8f cfbc 7b5f 7ebd 1bbb f6bc eac6 b2bd
00000220: 5aad 8c3d 5097 e2bd 4cda fb3d 6289 933d
00000230: e07a 8abc a60f e4bd 4084 21be 0ed8 1a3b
00000240: 2aac bdbc 79c0 ac3d bf7b 75bd 2f26 b9bd
00000250: 67c7 433e 6272 f03d 4744 47be ab13 c03d
00000260: c42c 1b3d a9ec 49bd 8ebc 0abe eacf 10be
00000270: e9a9 7c3d b5dc 41be 22c5 cfbd 31b9 503e
00000280: 4825 403c 6685 c83d 58c7 4ebd 57f3 e6bd
00000290: 9103 a5bd a697 88bc a701 c53d ee40 cd3d
000002a0: dadd 093d f56e 3ebe 87b5 c9bb 6b34 5a3d
000002b0: 8a6f 0cbd eeb5 1abd 4747 04bd 82d2 3dbe
000002c0: ff06 97bc f756 96bd bf8f a5bd 60dc 913d
000002d0: d5e2 30bd 813b d43c 33ad 943c 8fcf 37bc
000002e0: e5af 163b 8065 043d a0ee 33bd 3129 06be
000002f0: dce4 5bbd 9ca5 4dbb 696d d7bb be7a 9c3d
00000300: b8b5 1cbe 0e7e 693c 4616 fa3c 8e41 72bd
00000310: e6ff bc3d 35ad 2dbe 19d1 4dbc 91b0 8d3b
00000320: c394 203d e629 7a3e 83ca bebc 6c27 4cbc
00000330: f12c 913d 1627 abbd 5b42 babc 0505 60bc
00000340: b8f5 0d3e 5bee 443d 51af b73c 6815 f53c
00000350: 85fa aabd a79d bfbc 9a39 e0bd a75d 55bd
00000360: 5a38 f13c 293a ddbd ae93 42bd f0e3 66be
00000370: 1b36 d2bc aff5 05bd 6120 07be 4111 20bd
00000380: 9211 d8bc 738b 96bc b3bf cc3d c613 47be
00000390: 8feb 47bd 60f2 a5bd a5f5 9fbd 4036 993c
000003a0: 2381 8e3d 33d1 023d e095 d2bd c8be f73d
000003b0: d708 6fbd a3e4 4bbe b0ab 113d 706d aebb
000003c0: 8751 ccbc ac3d bcbd 82b5 71bd 6a91 bfbd
000003d0: 7d4a 0f3d 208e ea3c d5a4 e23c fa2a c1bd
000003e0: 1dc9 0c3d a8e1 b1bc 52d4 d4bd 3a0b 433e
000003f0: 7e86 c33d cf16 143d 4cfd 823c 7d2b 9c3d
-0.048244 0.04660591 0.007131049 0.051938787 0.018707685 -0.11477957 -0.09673672 -0.048750654
0.015422254 0.066371 0.08187692 -0.013659735 0.14962867 -0.2281903 -0.101665296 -0.011965916
0.0734769 -0.10377429 0.06428521 -0.014347333 0.10781753 -0.12562466 -0.10900449 0.11571144
0.121277906 -0.019782262 0.057391625 0.054386653 0.035145734 0.13356662 0.096550874 -0.05514813
-0.06025331 0.10083349 -0.16305867 0.11879564 0.0002212067 0.109544076 0.1275105 -0.024623157
0.059472848 0.08534936 -0.052634533 0.0173554 -0.048217684 0.051952586 0.0050792424 -0.053384867
-0.01574627 0.106900305 0.012070939 0.12100826 -0.059919577 -0.046461627 -0.011128004 -0.05297643
0.14149459 -0.014684212 -0.10207533 0.08127823 7.718374e-06 0.07998921 0.0345452 0.14474493
-0.014928613 0.045927677 0.013140617 -0.10092274 0.0443179 -0.12349217 0.02643916 0.103358954
-0.1853145 -0.11210928 0.088288344 0.033815533 0.031577215 -0.09713629 -0.017582498 0.030605998
-0.031780876 -0.016073188 -0.0025330526 0.0036453903 0.018181024 0.02147261 0.07643215 -0.04220737
0.0785612 0.04259033 0.11403811 0.10722495 0.021445207 -0.23818405 -0.061046727 0.047121536
-0.13688771 -0.046004444 0.05147014 0.14105503 0.11859503 -0.0592491 -0.0951496 0.007926448
0.025206618 0.069602154 0.1581701 -0.051726393 0.14272499 -0.18386003 -0.0019058861 0.042633247
0.08728968 0.10607534 -0.09519036 0.001146174 -0.054079957 0.059973273 0.10421516 -0.14043705
0.004622932 0.05037327 -0.10255599 0.0749496 0.031594805 0.16527109 0.07699336 -0.059246406
-0.115149125 0.06120452 0.14749168 0.00814212 -0.025337037 -0.062102776 -0.030118516 -0.08729346
0.06869002 -0.11064017 0.12297496 0.07203938 -0.016904294 -0.11135797 -0.15773106 0.0023627314
-0.023153383 0.08435149 -0.059932467 -0.09040486 0.19119035 0.11740567 -0.1945964 0.09378751
0.03788449 -0.049297962 -0.1354849 -0.14141813 0.061685476 -0.1893185 -0.10145022 0.20383145
0.011727639 0.09791069 -0.050483078 -0.11276882 -0.08057321 -0.016673874 0.09619456 0.1002215
0.03365884 -0.18597014 -0.006155673 0.053272646 -0.03428606 -0.037771158 -0.032294538 -0.18537334
-0.018435953 -0.07340806 -0.08084058 0.07122111 -0.043185074 0.02590728 0.018148994 -0.011218919
0.0022993025 0.03232336 -0.043928742 -0.13101651 -0.053685054 -0.0031379228 -0.006574322 0.07640599
-0.15303695 0.014251245 0.030528199 -0.05914455 0.09228496 -0.16960604 -0.01256206 0.004324027
0.03920437 0.24430045 -0.023289924 -0.012460571 0.0708865 -0.083570644 -0.022736719 -0.013673072
0.13863266 0.048078876 0.022422465 0.029917434 -0.08348564 -0.023390604 -0.109484866 -0.052091267
0.029445816 -0.10802109 -0.04750412 -0.22547889 -0.025660565 -0.032705005 -0.13195945 -0.039078955
-0.026375566 -0.018377041 0.09997501 -0.19441137 -0.04880863 -0.0810287 -0.07810525 0.018702626
0.069582246 0.03193779 -0.10282493 0.120969355 -0.05835804 -0.19911437 0.035564125 -0.0053231046
-0.024941219 -0.091914505 -0.05901099 -0.093539074 0.034983147 0.028632224 0.027666489 -0.09432025
0.034371484 -0.021714047 -0.103920594 0.19047251 0.09547137 0.036154564 0.015989922 0.07625482

network_body._body_endoder.seq_layers.0.bias f4 [128]
00000000: df0d 1b3d a1be 0f3d 2783 0d3c 2634 073d
00000010: 5425 a53c 2cba b53b 0a06 9d3c 1db4 d2bc
00000020: 0dd1 babc fa43 f83c 3a18 123c 52ec 583d
00000030: 09a9 c53c dba3 043d 3bcd 753d e45d acbb
00000040: a206 3b3c 08e9 aabc 447e a1ba ce89 a2bc
00000050: 105a 8f3c 4eca e63c 62c0 30bd c417 e7bc
00000060: 9fb3 8aba 19c8 0ebc 6771 543c aab7 b83a
00000070: 9ce1 75bc f2c6 ab3b 7080 4a3d b434 903b
00000080: d7f7 92bb 2055 0bbd de35 1d3d eb54 46bc
00000090: b556 6c3d 27ab 273c 51d8 c9bc 07d1 f53b
000000a0: 5798 a33b 495d 583d b642 5fbc 5597 ee3c
000000b0: 6b38 593d d0b3 9abb 924f 2c3c 52d1 943c
000000c0: c121 743b 127e ac3c 172f 09bd 3946 c73c
000000d0: 15e8 a0bc 83dc 143c 958e 1d3d 57ed 5cbb
000000e0: 4b39 5cbc 4cf2 33bc 6c42 013d 63e4 813c
000000f0: 3308 fa3c 92e8 8abc 1c3a 323d bba0 1b3d
00000100: 06ca cebc e102 6e3c 7e29 233d e6d5 3c3d
00000110: 37fd f93c 6cfe e23c 32a4 e63c a21f 053b
00000120: 78b1 453d 13a6 e5bb 6708 193c 383e 0c3d
00000130: 4eb4 e0bc 245a 2cbc 122b 483d c6f6 0e3d
00000140: efc7 90ba de81 be3c d021 b0bc c372 d3bb
00000150: 5709 db3b d5c4 b73b 9656 b83c a791 863d
00000160: be5c 153c e659 863c 57c7 603c c89a 143c
00000170: 72f1 c2bb efaf bfba 2ec7 25bc d20b d03c
00000180: e698 2e3d 1995 653c 1be5 5b3d 276a 2b3c
00000190: 282a 013d 628b c43b 7170 a73c fc27 253d
000001a0: 2106 d93b eb08 b33c 7806 3dba 1803 c93c
000001b0: 7231 e03c 0ec1 ac3c b8fc 63bb 32fa a8bc
000001c0: ca74 11bc 9c8b 3c3d fdc9 103d 0847 8b3d
000001d0: c6ac f03c b794 2c3c b45e 733d 7871 f23c
000001e0: b140 5d3d f14f a7bb 9730 973c db63 c4bc
000001f0: 6ffa 513c 5fb5 b53c eebd 723c 8e42 e43b
0.037855025 0.035093907 0.008637226 0.033008717 0.020159401 0.005545875 0.019167919 -0.02572065
-0.022804761 0.030305851 0.008916909 0.052959748 0.024128454 0.032382827 0.060010176 -0.005260216
0.011415156 -0.020863071 -0.0012320955 -0.019841101 0.017499 0.028172638 -0.04315222 -0.028209575
-0.0010582096 -0.008714699 0.01296649 0.0014092822 -0.015007403 0.005242222 0.049438894 0.004400814
-0.004485111 -0.03401673 0.03838145 -0.012105207 0.057699878 0.010233677 -0.02463928 0.0075017246
0.0049925256 0.05282334 -0.013626745 0.029124895 0.05303232 -0.0047211424 0.010517018 0.018166218
0.0037251564 0.021056209 -0.033492174 0.024325477 -0.019641915 0.009085777 0.038466055 -0.0033710802
-0.013441394 -0.010983061 0.031557485 0.015855974 0.030521488 -0.016956601 0.04351245 0.03799508
-0.025242817 0.014527054 0.039834492 0.046102427 0.03051625 0.027709208 0.028154466 0.0020313044
0.04826495 -0.007008323 0.009340382 0.034239024 -0.027429726 -0.010519538 0.0488692 0.03490331
-0.0011045913 0.023255285 -0.021500498 -0.0064528896 0.006684463 0.005608181 0.022502225 0.0657075
0.00911635 0.016400289 0.013719401 0.009070106 -0.0059491927 -0.0014624576 -0.010118289 0.025396261
0.042626284 0.014012598 0.05368529 0.01046232 0.031534344 0.005998061 0.020439358 0.040321335
0.006623045 0.021854838 -0.0007210742 0.024537608 0.027367327 0.02108815 -0.0034788083 -0.020627115
-0.008877942 0.04603158 0.03534888 0.068006575 0.02937926 0.010533503 0.059416488 0.029595122
0.054016773 -0.0051059653 0.018455787 -0.023973396 0.012816056 0.022181211 0.014815791 0.0069659417

network_body._body_endoder.seq_layers.2.weight f4 [128, 128]
00000000: 4c32 a33c 1607 9dbd 8b85 64be 5a24 e03d
00000010: 0eaf e13d 2fc5 fcbd b3ce 74bd c20e 7fbb
00000020: e454 b2bc 4cc5 eabd 1904 e53d 1df1 82bc
00000030: 19fd e3bc 784b b43d 5ea2 bc3c 34d9 e63c
00000040: eac5 0b3c 304c 48bc 1fd4 17bd 2eb4 7d3d
00000050: 2390 11bb f53b 67bd 38f2 5abd f1d5 8cbd
00000060: 6342 6ebc eefe aa3e 3cf6 2fbe 2400 cf3c
00000070: 19e1 b2bc 8a34 bdbd 239e eabd c47e 5f3d
00000080: 9fa5 6cbd b8f7 9e3c 0b18 2c3e 63af ef3c
00000090: feb2 243d a2eb 2dbe c391 d2bd 26cc b6bd
000000a0: 495f 84bc e5cc 3d3d 3b1b 8fbd 907a 3cbc
000000b0: 099a bbbd 7d2b 0dbb 1269 69bd 28db d43d
000000c0: ddfe 023e d362 21bd 9070 0c3d d230 443d
000000d0: b7e2 6cbc 085f 2ebc bd1c bdbd c8ae 37be
000000e0: ad34 52bd 14d7 bfbd 591f 67bd f737 d7bc
000000f0: 9235 ad3c 5c02 f2bc de35 6abd 7c86 cebd
00000100: 27dc 163e e352 343e 9e26 1b3c a2a9 123e
00000110: bb70 e3bd 7f98 d03b f3d4 103d f02a 9a3d
00000120: abdd 5f3d 94c3 043d 1f08 0e3d b0a8 193e
00000130: ecea 1f3d 4bf0 d1bd 7e01 4dbe e38a 4c3e
00000140: ea13 1ebc 0410 74bd 82a0 4dbd 9d7e 2bbc
00000150: f5a9 153e f3e1 8ebd 53d7 f037 d19f f9bc
00000160: 6e2f 0abe 6518 f63c 9cec cb3d 86ab a0bd
00000170: 2ffb 8dbd ad90 9b3d 4e5c d13d f5a6 6bbd
00000180: 0fdf ba3b fd32 ff3b 4254 91bd 2256 b8bd
00000190: 69c0 303d 9eb5 5cbc 3014 e5bc 260f 863c
000001a0: 065f 8ebc 2bc0 15be 01a9 51bd 8203 243b
000001b0: ed58 563d bfcd 2c3d 84be ff3c 383a b0bd
000001c0: 8341 f6bd 5bb1 cabd 1ce9 d13d 72c6 c13c
000001d0: c932 4a3d af33 0abd 4441 7cbb 4864 b93d
000001e0: c22e d33b ee5e 37bd cf13 1a3e a439 acbd
000001f0: 5aa2 513d ec96 dabd 3712 31bd a2ff 25bb
00000200: 9568 e7bd ac7e 09be 3435 a8bc 1968 f23c
00000210: c17b 8c3d b557 543d edfe 083d 6999 513d
00000220: b651 1e3c 5ebf 633b 75f8 3a3e 8714 47bb
00000230: 7d81 7a3c 73c6 a23c f32e f4bb 80c3 bd3d
00000240: 2fa7 1c3e 3b93 98bc 4e94 dfbd 24b5 6abb
00000250: 8294 163e d816 e7bd 5846 65bd beeb 793b
00000260: 2444 083e 372b dabd 49d7 73bd 1c6c dd3a
00000270: 75fc 603d c2f8 22bd b0ef 65bc a4cf dc3d
00000280: 4031 ecbd da23 d63d f6c5 ee3c 4ef9 9e3d
00000290: 5a65 a13d a520 debd 9cf7 893b b9e2 ccbd
000002a0: 1b79 a03c ee60 f23d fc28 71bd 6af5 b7bd
000002b0: 4c6c e9bd 0b7c 2abc b7e1 c8bd 83a2 193d
000002c0: 4c69 10bd 2988 323e 46c4 9cbb c0b3 9bbd
000002d0: d168 363c 3b52 963c 7e3b 1e3e c002 683b
000002e0: 25fd 8f3c b8e6 7c3d d6bf c4bd eb87 d23d
000002f0: 6014 09bd e982 a93d 13bb 0dbe 343b 45bd
00000300: e441 e73d c5eb 6cbd 0922 82bb ef6e 553c
00000310: 3ae2 82bc d6b0 ae3c 75b9 983d d030 f73c
00000320: 33a5 e33c 16c0 23be ca27 83be 0841 47bd
00000330: faaa e2bb 194f 473e 70e8 ba3c 66a9 963d
00000340: 1a18 b63c 1767 3fbd 3b2a 84bc 102a 713e
00000350: a523 813d 21c1 1a3c 6ba8 4ebd f8d6 dbbb
00000360: fe51 5e3c 2463 85bd 9a4f 4c3c 50cf 88bd
00000370: e445 273e d9a3 783c 2632 d83c 7cf8 02be
00000380: f127 99bd 4b1f 853d 00ed df3d 0327 e73d
00000390: a7c6 113e 2e8c 613d 4342 32bd 575e 523c
000003a0: 13d6 14bd 4107 4ebc ece2 c5bd 51be df3c
000003b0: 2a4b b7bd b37d 213d 99b5 09bd 91dc 023c
000003c0: 8d9c 733a 4246 1e3d 6a32 abbc a3e4 7abe
000003d0: 5e8d 0dbd 707d 33bb c77b a53c 9a30 143d
000003e0: 1377 18bd f0af 033d 9308 7d3e e078 4d3d
000003f0: 9ae9 23bb a827 d7bd 4aad 58bd b758 ecbc
0.019921444 -0.07667367 -0.22316568 0.109444335 0.11019717 -0.12342297 -0.059767436 -0.0038918708
-0.021768995 -0.11463413 0.11182422 -0.015984112 -0.027830647 0.08803457 0.023026641 0.028179742
0.008531073 -0.012225196 -0.03706753 0.06193941 -0.0022211156 -0.056453664 -0.053453654 -0.068767436
-0.014542195 0.3339762 -0.17183775 0.025268622 -0.02183585 -0.09238537 -0.114559434 0.054564252
-0.057775136 0.01940523 0.16806047 0.029258436 0.040209763 -0.16984418 -0.10281708 -0.08925657
-0.016158717 0.04633798 -0.06987616 -0.011503831 -0.09160239 -0.0021540814 -0.05698497 0.10393363
0.12792535 -0.039400887 0.034287035 0.04789812 -0.01445835 -0.010642774 -0.09233997 -0.17937768
-0.051319767 -0.09367195 -0.05642638 -0.026271803 0.021143708 -0.02954214 -0.057180278 -0.100842446
0.14732419 0.17609744 0.009469656 0.14322522 -0.11105486 0.006365835 0.035359334 0.07527721
0.05465476 0.03241308 0.034675714 0.15005755 0.0390424 -0.1025091 -0.200201 0.19974856
-0.009648303 -0.059585586 -0.0502019 -0.010467199 0.14615615 -0.0697669 2.8710498e-05 -0.030471714
-0.13494655 0.03004093 0.09957239 -0.078452155 -0.06932675 0.07595954 0.10222684 -0.05753227
0.00570286 0.0077880607 -0.07096149 -0.090008035 0.043152247 -0.013471035 -0.027963728 0.016364645
-0.017379295 -0.14624088 -0.051186565 0.0025026505 0.0523309 0.042188402 0.031218775 -0.08604854
-0.12024214 -0.09897109 0.1024954 0.023654196 0.04936484 -0.033740696 -0.003849105 0.0905233
0.006444783 -0.044768266 0.15046619 -0.084094316 0.05118022 -0.10673317 -0.04323026 -0.002532937
-0.11299244 -0.13427228 -0.020533182 0.029590653 0.06859542 0.051841456 0.03344624 0.051171694
0.009663036 0.0034751515 0.18258841 -0.0030377225 0.0152896615 0.019870019 -0.007451886 0.09265804
0.1529815 -0.018624892 -0.10916959 -0.0035813535 0.14705089 -0.11283654 -0.05597529 0.0038134898
0.13307244 -0.10652774 -0.059531484 0.0016893181 0.05492826 -0.039788015 -0.014034197 0.10781792
-0.11532831 0.10456057 0.02914713 0.07762395 0.078806594 -0.1084607 0.0042104255 -0.100041814
0.019588998 0.11834894 -0.058876976 -0.08982356 -0.11397609 -0.010405551 -0.09808677 0.0375085
-0.03525667 0.17434753 -0.00478414 -0.07602644 0.011133389 0.018349757 0.15452382 0.003540203
0.017576763 0.061743468 -0.09606902 0.102798305 -0.033466697 0.08276922 -0.13840894 -0.048152164
0.112918645 -0.057842035 -0.0039713425 0.013026937 -0.015977014 0.021324556 0.07457248 0.030174643
0.027788734 -0.15991244 -0.25616294 -0.048646003 -0.0069173547 0.19463767 0.022815913 0.07356529
0.02222829 -0.046729174 -0.016133418 0.23551202 0.06305627 0.00944546 -0.050453585 -0.006708976
0.013569353 -0.0651305 0.01247015 -0.06680167 0.16335255 0.015175783 0.0263911 -0.12790102
-0.07478321 0.06500109 0.10933876 0.11286738 0.14235936 0.055065326 -0.043520223 0.012839875
-0.03633697 -0.012574972 -0.096624225 0.02731243 -0.08949883 0.039426517 -0.03362045 0.007987157
0.0009293042 0.03864122 -0.020898063 -0.2450128 -0.034558646 -0.0027388 0.020200623 0.036179163
-0.037222933 0.03215021 0.24710302 0.050164104 -0.0025011064 -0.10505611 -0.052899636 -0.028850896

network_body._body_endoder.seq_layers.2.bias f4 [128]
00000000: f226 8b3c 805c 82bc bf18 02bd b3f0 ed3c
00000010: f16f a43c 700a b73a 9f4f 54bc bcde 003d
00000020: 95cf e53c 6703 7fbc 72b8 433d e397 f93c
00000030: aaa8 ef3c edbb 493d 40ff 0abc 1d2c 3fbc
00000040: 759e 2c3d 85ce 383c b029 e6bb c9a2 c23c
00000050: 47b9 56bc 87f9 9c3a 3b47 ef3c 2c1d 23bc
00000060: fec9 a93c eacd c2ba 3ccb 22bc dc89 2cbb
00000070: 19d2 c23c 7746 9bbb e2cc 153d 6e0e e43b
00000080: b189 c23a 74c2 90bc 2558 f33c 109d 233c
00000090: 0265 0e3c 980b 9b3c 1799 cebc 74b3 c73c
000000a0: 7abe b1bc 4109 d73c a7cd 30bb af8e 013d
000000b0: 1060 a83a 0c3b 5bbc de2d 43bc 5a09 abbb
000000c0: ed27 bcbc 0c67 5d3c 296a 0cba b74f 923b
000000d0: 2a3d d43c 6142 e33c 5275 b83c 07ae dfbb
000000e0: 117d 30bc f681 f4bb 0b99 eb3c 749b edbc
000000f0: 49f5 8bbc fbb8 bf3c 09a7 c83b a470 303d
00000100: 61a2 f63c 3489 d03c ddd5 b73c 0248 133d
00000110: 9451 86bb d6bc f0bb 87a6 983c 805f 263d
00000120: 9ed3 91bc 0f6e c43c f15b afbc 7327 cf3c
00000130: dc65 923c 952a 0f3d 3a0b 9fbc ba9f 80bc
00000140: 2e6d b53a 3997 cd3c ef78 f43c afbc aa3c
00000150: afb3 9cbb 66e3 6e3c 2aa2 693b 2a6e 0cbc
00000160: bc7e 073d 7804 78bb b8a7 0bbc 1a41 2a3d
00000170: 6a27 9ebc f3c9 c93c 7d91 613b 27bb c03c
00000180: e4ac ff3b 40e4 5f3c 04ed d13c 6c24 32bc
00000190: 8ccd f93c c265 0a3d a616 a03b 4e8e 86bb
000001a0: 2665 a23c 8baf 0d3c 0aea bcbc 6966 c8bc
000001b0: 371d a9bc 118f b1ba f9c9 113d aec9 ff3b
000001c0: e3c8 b73c 62e2 c2bc ae4c 173d e5f3 333a
000001d0: 7402 f1bc a4ac 43bc b5ab 46bc 146a 70bb
000001e0: be74 4abc 79b4 0e3d 266e d93c ab5a bdbc
000001f0: 6b20 ea3b b437 a5bc 04ca 183d 133f f53c
0.016986344 -0.015913248 -0.03176188 0.029045438 0.02007291 0.0013964903 -0.012958436 0.031462416
0.028053084 -0.015564776 0.047783323 0.030467933 0.02925523 0.049251486 -0.008483708 -0.011668232
0.042143304 0.011279707 -0.0070240125 0.023759263 -0.013105697 0.001197622 0.02920877 -0.009955686
0.0207262 -0.0014862393 -0.00993615 -0.0026327288 0.023781823 -0.0047386247 0.036572345 0.006959728
0.0014842061 -0.017670847 0.029705117 0.009986177 0.008691074 0.018926427 -0.025219483 0.024377562
-0.021697272 0.02624953 -0.0026978047 0.031630214 0.0012846012 -0.013380777 -0.011912791 -0.0052196207
-0.022968257 0.013513338 -0.0005356395 0.004465069 0.025908072 0.027741613 0.02251688 -0.0068261656
-0.010772006 -0.0074617816 0.0287595 -0.02900479 -0.017084735 0.023403635 0.006123428 0.043076172
0.030106725 0.025456049 0.022440845 0.035957344 -0.0040990803 -0.0073467297 0.018634094 0.04061842
-0.017801102 0.023978261 -0.021406146 0.025287366 0.017870836 0.03495272 -0.019414533 -0.015701164
0.0013841742 0.025096523 0.029842822 0.020841924 -0.004782162 0.014580583 0.0035649636 -0.008571187
0.033079848 -0.003784446 -0.008523874 0.041565992 -0.019305903 0.02463243 0.0034418993 0.023526741
0.0078025926 0.013665259 0.025625713 -0.010872941 0.03049352 0.03378845 0.0048855124 -0.0041063195
0.019823622 0.00864781 -0.023060817 -0.024462895 -0.020643814 -0.0013546665 0.035593007 0.0078060245
0.022434657 -0.023789588 0.03693836 0.0006864651 -0.029420115 -0.011943016 -0.012125899 -0.0036684321
-0.012356935 0.03484008 0.02654178 -0.023114523 0.007144978 -0.020168163 0.037302032 0.029937303

action_model._continuous_distribution.log_sigma f4 [1, 2]
00000000: 92fd 84bb 4676 66bd
-0.0040585482 -0.056265138

action_model._continuous_distribution.mu.weight f4 [2, 128]
00000000: 91cc 823d 9854 643c 1969 50bb ebdb 103d
00000010: f937 e33b 217f 3e3d e4ec 04bd 4705 a8bd
00000020: 086a d6bc 4d1a 08bd 9e26 fcbb 668e a03c
00000030: 4eb4 d43b d492 a93b d239 ae3c 2cf4 7abb
00000040: dbb1 a83c 3f01 6b3d 0ce5 cdbc b7da 4b3d
00000050: faeb 20bd b83a 70bd 7748 953d 42ea 3e3c
00000060: 6d35 dd3c 2c36 49bd c2ef 75bd ae47 95bd
00000070: ce8a 7f3d 5e17 07bd be8c 883d 2048 39bd
00000080: 96d1 163d 5f48 773b 7d10 413c 5817 dcbc
00000090: 5720 053d 6fc1 063d 7abf 80bc 754b 663d
000000a0: 0a01 ccbc 28e7 0b3d fe84 113d 3a1b 2b3d
000000b0: 4e7d 203d 5181 b7bc bdc9 0bbd c27c b13c
000000c0: 8ebf 7fbb 7049 79bd e1e5 363d afb0 0cbd
000000d0: 64e1 703d 3e70 003d 887c 433d f06f c13c
000000e0: a968 f4bc bf8c 0bbd 49cf 00ba 5276 d4bc
000000f0: 0d63 ccbc 1731 b1bc a6ce b73c 002a b43c
00000100: 7077 2e3d 1c0d fdbb 4a80 53bd 52f3 21bd
00000110: 6175 bbbc db4e f5bc 1f82 e4bc 2f20 82bc
00000120: 5ffa 3fbb 8ab4 0c3c dc26 55bc 6e58 ad3c
00000130: 316e 4c3d 57e8 c3bc a546 933b 9f36 6ebc
00000140: fba3 4a3d bb06 303c a0ca 30bd 8ea7 193d
00000150: 0aac 193d 6b92 173d 1361 d33c 2118 8f3c
00000160: fbcd 593c 8fe4 d33c a2b3 983c b598 8fbc
00000170: ec6d 083c 4d1f d13c 2a3e 16bd 95bf d13c
00000180: 2b76 c9bc 42b5 993c e1f5 8b3d da38 24bd
00000190: b264 ddbc b5eb ac3a 46a6 07bd 39ca dd3c
000001a0: 1d77 ca3c 3f6c f63c c145 bfbc d006 07bd
000001b0: 8d7c 0cbd f908 b93c f68c 36bc bf8c 10bd
000001c0: 5026 2dbd ff0e 0dbc 6923 193c 1aef 7fbd
000001d0: e542 72bc b9b6 0ebd 72e4 2bbd 925a 5bbd
000001e0: e187 3b3c f7fd 72bd cc60 043d 2366 98bc
000001f0: 7221 55bd 0292 97bc 45bf b1bc 9bdb e23c
00000200: 9dca 98bc 50d7 90bd a07c dbbc 25ba c73c
00000210: 067e af3c 7c60 54bd f85b 58bd ea10 933d
00000220: efd2 033d df03 50bd d200 0d3d 0675 2d3d
00000230: 86f3 763d 2fcd 973d d0f7 40bd 0544 61bd
00000240: 5da1 333d 3458 cabc 232e 82bb 4ef7 9f3c
00000250: b4d0 b9bc 3726 a3bc 7b18 163d d136 80bd
00000260: e02c 89bc 5ca6 02bd 6290 cdbc f3f4 28bd
00000270: 1275 f43c 6c1e 1cbd 9556 683d dde3 ae3b
00000280: 7cce a4bc 835e 94bd 2095 683d 4780 683c
00000290: a36f 493b aba1 1a3c 7371 d4bc c25c 783b
000002a0: cba5 9cbc 89ad 823c 4fe2 bbbc ffb8 e43c
000002b0: ae3d 28bd 0a42 47bd 4e14 3dbc 7d1d 8bbc
000002c0: 910e 11bd f83c e4bb 07af 3ebd b5f7 a73b
000002d0: 028a e13c eb9b 4b3d 63ba f5b9 1d26 a3bd
000002e0: 549c 1cbd ad34 1ebd e59e 543d 6ee8 d3bc
000002f0: 54e7 5fbc 7082 5b3d cab1 fdbb 5660 803d
00000300: c667 183d 5348 1f3d 62e4 2c3d aae7 d63c
00000310: 6be0 4cbb 7368 8dbd 8f33 853c 6eb2 ce3d
00000320: 0670 8dbd 10ec b83c c7a7 75bd f6c3 473c
00000330: f518 03bb 4b03 393d bd66 9dbc ead6 19bd
00000340: 293a 89bd e157 e63c 3687 183d 4f84 573c
00000350: 3532 21bd a510 ddbb 493e 83bd 0e86 50bc
00000360: 16fc 4b3d f795 01bd 34fd 8bbd b363 793d
00000370: 143e fdbc 59cf 123d d83d 0fbc 6f1c 39ba
00000380: a82a 953c 631b 843b 35d2 c43b a9a7 4abd
00000390: 8c36 693d fc7a 613d d811 2abc 7c46 71bd
000003a0: 0157 803c d913 10bc e77c 48bd 48c8 6bbd
000003b0: a21c 37bd 1749 d1bc 1941 b63d d7e1 fa3c
000003c0: 6a1d 2a3d 986e 17bd 8eb4 493d 1504 1b3b
000003d0: 4f50 3fbd a04e bbbc daba 73bd 204d f4bc
000003e0: aa2a 48bd 3100 943d 6dd5 093d 6f35 7ebd
000003f0: 7c8d 80bc 297c 1cbd c505 853d ed4a 3a3d
0.06386674 0.013936184 -0.0031800924 0.03536598 0.0069341627 0.04650796 -0.03245248 -0.082041316
-0.026173607 -0.033228207 -0.007695033 0.01959915 0.0064912206 0.005174974 0.021267805 -0.003829251
0.02059262 0.057374235 -0.025133632 0.04976913 -0.039287545 -0.05864975 0.07289212 0.011652531
0.027003014 -0.049123928 -0.060043104 -0.072890624 0.062388234 -0.03298127 0.066674694 -0.0452348
0.03682097 0.0037732346 0.011783716 -0.0268666 0.032501545 0.032899316 -0.015716303 0.056224305
-0.02490284 0.034155995 0.03552722 0.041774012 0.039182 -0.02240053 -0.03412794 0.021665934
-0.0039024088 -0.06086105 0.044652823 -0.034348186 0.0588087 0.031357042 0.047726184 0.023612946
-0.029835062 -0.034069773 -0.00049137004 -0.025935326 -0.024949575 -0.021629853 0.022437405 0.021992683
0.042594373 -0.00772251 -0.051636018 -0.03953869 -0.022883119 -0.029944828 -0.027894078 -0.015884487
-0.002929352 0.008587966 -0.013009753 0.02116033 0.049909774 -0.0239145 0.0044945055 -0.01453939
0.04947279 0.010743792 -0.04316199 0.03751331 0.037517585 0.03700487 0.025803125 0.01746756
0.0132937385 0.025865821 0.018640343 -0.017528871 0.008326989 0.02552762 -0.036680378 0.025604049
-0.02459248 0.018763188 0.06834007 -0.04009328 -0.027025554 0.0013192805 -0.033117555 0.027073966
0.024715 0.030080913 -0.023348691 -0.03296548 -0.03429847 0.022587286 -0.011142006 -0.035290476
-0.042272866 -0.008609532 0.009346821 -0.062483884 -0.014786457 -0.034842227 -0.04196591 -0.05355317
0.01144597 -0.05932423 0.032318875 -0.01860339 -0.05203385 -0.01850224 -0.02169765 0.027692607
-0.018651301 -0.070723176 -0.026792824 0.024380753 0.021422397 -0.051849827 -0.052822083 0.071809605
0.032183584 -0.05078494 0.03442461 0.04234793 0.060290836 0.074121825 -0.047111332 -0.05499651
0.04385506 -0.024700262 -0.003972785 0.019527104 -0.022682525 -0.019915683 0.03664444 -0.062604554
-0.01674503 -0.031896934 -0.025093261 -0.041249227 0.02984098 -0.03811495 0.056723196 0.005337222
-0.02011799 -0.07244589 0.05678284 0.01419074 0.0030736707 0.009437959 -0.025933003 0.0037897085
-0.019122025 0.015951889 -0.02293506 0.027920244 -0.041074447 -0.048646964 -0.011540486 -0.016981835
-0.035414282 -0.006965276 -0.046553638 0.0051259645 0.027531628 0.04970924 -0.0004686891 -0.07966254
-0.038235024 -0.038624454 0.051909346 -0.025867667 -0.013665993 0.05359119 -0.0077421414 0.062683746
0.03720834 0.038887333 0.04220999 0.026233513 -0.0031261693 -0.06904688 0.016259937 0.100926265
-0.069061324 0.0225735 -0.059974458 0.012192717 -0.002000389 0.045169156 -0.019214028 -0.037558474
-0.06700546 0.028118076 0.037238322 0.013154103 -0.03935452 -0.006746369 -0.06408364 -0.012727274
0.049800955 -0.03163716 -0.06835404 0.060886096 -0.03091339 0.035842273 -0.008742772 -0.0007061427
0.018208817 0.004031585 0.006006504 -0.0494763 0.056936786 0.055048928 -0.010380231 -0.05890511
0.015666487 -0.008793795 -0.04894724 -0.05756405 -0.04470504 -0.025547547 0.08899135 0.030625267
0.041531958 -0.036970705 0.049244456 0.0023653556 -0.046707448 -0.02286464 -0.059504367 -0.029821932
-0.048868813 0.07226599 0.033650804 -0.062062677 -0.015692465 -0.038204346 0.06495241 0.04548161

action_model._continuous_distribution.mu.bias f4 [2]
00000000: c515 083c c165 ce3c
0.0083059715 0.025195004
