results/TestDrive01/ParkingCar/checkpoint.pt (torch, 531490 bytes, 36 tensors)

network_body._body_endoder.seq_layers.0.weight f4 [128, 35]
00000000: 0f49 9abe 5e87 43bd 5cc4 1dbe 7b29 91be
00000010: ea27 ae3e f19c 543e bd73 2b3d 0ebc 303e
00000020: fb68 6d3e 9091 2e3e d74b 393e cf03 413e
00000030: d5e7 ddbd 936b 033d a0d3 d53d 3b5d 003e
00000040: 1427 57bd 1cb0 003e 6098 353e 98eb 6fbe
00000050: a22d 6e3e 1392 1f3e 60e8 063d df84 583d
00000060: c9a3 5cbd 5d8d 2abe 370c 4d3e 441f 76bb
00000070: 29f7 19bb c1db 61bc a9ad 463e 13a5 e5bc
00000080: 8c07 77be e876 64be 15c2 be3b c5aa 11be
00000090: 0974 3e3e 30a1 393e 8670 89bc a2be 30bd
000000a0: 8d8c 463e 5672 373d cf93 9bbe ed28 05be
000000b0: c742 21bd 3418 163b ff8e afbe 9a82 a1be
000000c0: 87e7 cbbc 9bdd 8ebe 7ef6 443e 2802 793e
000000d0: d587 b23d a549 4c3e 2a18 8cbe 1b18 3abd
000000e0: 8be7 4b3e 1658 2abe 0f30 fb3d fb80 e9bd
000000f0: ce9b bcba 8879 28be 8822 c7ba 36c8 e8bb
00000100: 7c54 083f 2de7 36be 85d2 65bd 929c 053d
00000110: adfd dd3e 3ec5 e2bd 0162 26be a5d3 59be
00000120: a452 983d 50a3 d13e 082a 14be 136b ba3d
00000130: 86e6 f3bd 397d cdbd 0022 563d 2ddb b83d
00000140: 91e8 01be af3b 04be f98e 7b3e cf50 243d
00000150: 0c8f 41be 8bab 093e 2fbb 10bd 83cc 1cbe
00000160: 9253 62be f6d4 313e d6ee 77be 0559 183e
00000170: 4b75 733e 4e0b ec3b 3a99 023e da12 38be
00000180: bab6 71be 2ebc 883c a6d0 d03c 376e 37bd
00000190: 660a 0d3e 6b06 02be 47ec 78bc 9c31 85bd
000001a0: 5c26 9a3e fae8 ebbd 4d70 c2bd 5ad2 503d
000001b0: 0ebc babd 9ebc a93c c09e 263e 8f4d 8abe
000001c0: 9f0d b0be 1b9b 12be 1a33 cebc bfcc 843d
000001d0: bbdb 0fbc d86b 88be dd04 51be a811 52be
000001e0: a1b7 cc3c 4483 e63c 0157 fabd 44e8 263e
000001f0: d2ff 133e a3f0 723d a6cb 22bc f8bb 77be
00000200: e4eb 15bd 7292 173d e1af a23e 678c bb3d
00000210: 83d3 9cbd 997f 613e c557 e7bd 4710 db3c
00000220: ed24 40bd e44b 4d3e 6054 f73b bace 31be
00000230: eaba 1f3d 9667 a5bd 29c0 1cbe 7411 b3bd
00000240: 2684 903d 7643 bb3c 769d 65be 8851 243d
00000250: 5598 70be 7281 c13d 75cb d9bb 96e4 d3bd
00000260: a383 9a3e 7ce0 123e 1a10 95be 49bd d83d
00000270: f546 123e 668b 953e 4c25 453e fb03 b13e
00000280: 5f62 1fbe dbe9 0c3d a6fb f1bd 34ed 94bd
00000290: a867 1d3e 123b a93d 8d5e 483d 3ceb 24be
000002a0: 3219 933d 1e22 8abe bf3e 313e 4171 793d
000002b0: f856 0b3e d3cc c03c 8a73 dbbd 9641 f7bd
000002c0: 5803 b23c 25c0 5fbd 394a 8d3e 3e28 acbd
000002d0: f3f9 09be 9724 4b3d 1986 7b3e b6fd 03be
000002e0: 6a9a 943e 54b6 ccbd ed62 e0bd 28a0 763d
000002f0: 831a 973d 264d 1bbe af8a 453d c5a1 76bd
00000300: a313 c0bd d57b afbe 2482 a5be fcb1 efbe
00000310: eef4 293e d6a8 d8bd b4fc 2c3d 1e8a fcbd
00000320: 6b7f 9e3d faa4 33be 535a be3d b246 93be
00000330: 2e13 3b3e 6cb7 3d3e 7ad7 813d 6e9b 7cbe
00000340: 4ab1 04be 0a64 08bd ff47 563d e5da 23bd
00000350: d1ab a33c 4ca4 6e3b d2c2 423d def8 4b3d
00000360: 67ad 4d3e 7944 ba3a 77a2 b9bc fa14 e7bd
00000370: 45bb a9bd 8b69 073d 7f38 b4bc 96e4 ad3d
00000380: 201b 153d 22f2 4dbe 8e28 abbe 9c0b 9abd
00000390: 3f3b 47be 9331 41be 64d8 adbe 6b01 5bbe
000003a0: 1210 a03e 7be4 f8bc 9271 c93d 00fa 453d
000003b0: d4e3 cebd edc8 2cbe 6852 c6bc 7417 3fbe
000003c0: 19dc 9c3d 68b7 cfbe 55f0 e43d eeb0 713e
000003d0: 6509 2e3e 6a6f 1abe a3b0 d8bb a5ed 2ebe
000003e0: 88a6 1d3e e265 393e 2737 c93d f35b ab3e
000003f0: 40a3 96bc 12d1 123e f460 26bd 3274 3b3e
-0.30133864 -0.047736518 -0.15406936 -0.2835196 0.34014827 0.20762993 0.041858424 0.17259237
0.23184578 0.17047715 0.18095337 0.18849109 -0.10835234 0.032085013 0.10440755 0.12535565
-0.052527502 0.1256718 0.17733908 -0.23429716 0.23259595 0.15583067 0.032936454 0.05286109
-0.053867135 -0.16655488 0.20024191 -0.0037555257 -0.0023493266 -0.013785304 0.19402184 -0.028032815
-0.24123973 -0.22310984 0.005821476 -0.142253 0.18598951 0.18127894 -0.016777288 -0.04315055
0.19389553 0.044786774 -0.30386207 -0.13003893 -0.039370324 0.002290261 -0.34288785 -0.31544954
-0.024890674 -0.27903447 0.19234654 0.24317229 0.08717314 0.19949968 -0.27362186 -0.045433145
0.19912545 -0.16635165 0.12265026 -0.11401554 -0.0014389695 -0.1645261 -0.0015192786 -0.007103945
0.5325391 -0.17861624 -0.05610897 0.03262002 0.43357602 -0.11072777 -0.16248323 -0.21272142
0.074376374 0.4094491 -0.14469159 0.09102454 -0.11909203 -0.1003365 0.05227852 0.090261795
-0.12686373 -0.12913392 0.24566258 0.040116128 -0.18902224 0.13444345 -0.035334762 -0.1531239
-0.22102192 0.17366394 -0.24212202 0.14877708 0.23775212 0.007203496 0.12753764 -0.17975941
-0.23604861 0.016691294 0.025490116 -0.044782843 0.13773498 -0.12697761 -0.015193052 -0.06503603
0.3010739 -0.11519046 -0.09494076 0.050981857 -0.091179 0.020719822 0.16271496 -0.27012298
-0.34385392 -0.1431698 -0.025170851 0.06484365 -0.008780415 -0.26644778 -0.20412011 -0.20514548
0.024989905 0.028138764 -0.12223626 0.1629954 0.14453056 0.05931152 -0.009936249 -0.24192798
-0.036601916 0.037004896 0.3177481 0.09157639 -0.0765753 0.22021331 -0.112960376 0.02674116
-0.046910215 0.20048481 0.0075479 -0.17364016 0.038996615 -0.08076398 -0.15307678 -0.08743563
0.07056455 0.022859316 -0.22423348 0.040116817 -0.2349561 0.09448518 -0.0066465684 -0.10346334
0.30178556 0.14343446 -0.29113847 0.10582978 0.1428488 0.29207915 0.19252509 0.3457335
-0.1556487 0.03440271 -0.11815576 -0.072718054 0.15371573 0.0826322 0.048918296 -0.1610536
0.0718254 -0.26979154 0.17309092 0.060899023 0.13607395 0.023535168 -0.10715397 -0.120730564
0.02173011 -0.054626603 0.2759569 -0.08406113 -0.13474254 0.04959544 0.24562873 -0.12889752
0.2902406 -0.09995714 -0.109563686 0.06021133 0.073781036 -0.15166149 0.048227962 -0.06021287
-0.093787454 -0.34274164 -0.32325852 -0.4681548 0.1659734 -0.10579078 0.042233184 -0.12331031
0.07739147 -0.17543402 0.09294572 -0.28764874 0.18269035 0.18527001 0.06339927 -0.24668667
-0.12958255 -0.03329853 0.052314755 -0.040003676 0.01997939 0.0036413847 0.047549076 0.049797885
0.20085679 0.001421108 -0.022660477 -0.11283298 -0.08287672 0.033059638 -0.021999596 0.08490865
0.03640282 -0.20111898 -0.33429378 -0.075217456 -0.19456194 -0.18866567 -0.33954155 -0.2138726
0.3126226 -0.030382385 0.09836115 0.04833412 -0.101020485 -0.16873522 -0.024209216 -0.1866129
0.07659168 -0.40569615 0.11178652 0.2360265 0.16995771 -0.15081564 -0.0066128536 -0.17082842
0.15395558 0.18105271 0.098249726 0.3346859 -0.01838839 0.14337566 -0.040619805 0.18306044

network_body._body_endoder.seq_layers.0.bias f4 [128]
00000000: e22a ffbb b809 95bc ed8a ab3c 7800 9cbc
00000010: 0d35 2aba aeb5 73bb 796d 08bd c39a 9abb
00000020: c321 16bc 2d0c a23c 15e9 65bc 862d 83bb
00000030: 9428 243b 7c09 043c 58b6 87ba 997e 65bc
00000040: 33c6 db3c b79c e9bb 4f78 70bb 9a95 21bc
00000050: d5f0 cdbb a0e3 dfbc fef5 ff3b 9692 61bb
00000060: 86ec b4bc 2312 c9bb 0b78 68bc ceef d73a
00000070: 2dd6 6e3b b866 18bc 1e55 20bc b0ab 9e3b
00000080: f483 573b e703 f4bb de31 183c 7055 0c3d
00000090: d844 02bd b178 263b 6ba6 cabc 76f5 963b
000000a0: 641e 003b 4bce 57bd e5b3 843c 0dde 913c
000000b0: ce91 b83b 7b63 413c b8ca 16bd a78f 12bd
000000c0: 6fab 18bb 4835 dfbb 2366 9f3c 411d 163c
000000d0: ed21 64bc c8d6 ddbb 4664 063c 8cd6 8abc
000000e0: 14cd 8e3c b969 d43a 174c 0ebc 84bd 93bb
000000f0: 7c90 ccba 049f b4bc c03f 0fbd 73ea f3ba
00000100: ac95 8bbc 820a 583b 5ade 873a 76d4 873c
00000110: 6ab3 0f3d 0f58 743c 53d8 05bb 6639 b33c
00000120: 6e95 a13b 038c 9a3c 53e2 99bb f99a c1ba
00000130: 363b 123c a013 e13b 6fb9 503c e9e4 803c
00000140: 7ad0 9cbb 1210 883c 875a a1bc e3bf bebb
00000150: 5e22 69bc f007 aebb a343 67bb 8a9b 5dbb
00000160: e047 bdbb ccb6 1ebc d9d0 91ba 316d 463c
00000170: b3de 813c ce9d d4bb 9662 18bc 8720 00bd
00000180: 2f8e dc3b a8f1 57bb cf49 043d 87c4 753c
00000190: c671 0cbc 7d93 253c fcbb 1c3d d494 3239
000001a0: a114 3cba 17fd 283c 62d8 17bc 381e bc3b
000001b0: 16ee a43c b307 683c 5e30 0ebc 4475 163b
000001c0: 3e57 13bb 1e84 bc39 bc62 ddbb 0562 83bc
000001d0: 0e0a 30bb 028d 9d3b a01d 1cbb b145 d93b
000001e0: 6a92 1a3a f3a3 07bb 6766 57bb ceb1 e5bc
000001f0: cdc8 8bbc 7dfb 9dbb 1552 2cbb 6032 86bb
-0.0077870945 -0.01819311 0.020940268 -0.019043192 -0.00064928905 -0.0037187147 -0.033307526 -0.004718156
-0.009163323 0.019781196 -0.014032622 -0.0040032296 0.00250486 0.008058902 -0.0010354025 -0.014007234
0.026827907 -0.0071292776 -0.0036692803 -0.009862328 -0.006284813 -0.02733022 0.007811307 -0.0034419647
-0.02208544 -0.0061361953 -0.014188777 0.0016474666 0.0036443577 -0.009301834 -0.0097859185 0.004842244
0.0032885047 -0.0074467543 0.009289233 0.034261167 -0.031803936 0.0025401528 -0.024737557 0.004606898
0.0019549364 -0.05268697 0.016199062 0.017806077 0.0056326156 0.011803503 -0.03681442 -0.03578153
-0.0023295542 -0.0068117715 0.019457882 0.009162248 -0.013924104 -0.0067699887 0.008202618 -0.016948007
0.017431773 0.0016205824 -0.008685133 -0.004508676 -0.0015607025 -0.02204848 -0.034972906 -0.00186093
-0.017039143 0.0032965248 0.0010365949 0.016580801 0.035083212 0.014913573 -0.0020423129 0.021877956
0.0049311435 0.01886559 -0.0046961694 -0.0014770917 0.00892525 0.0068687946 0.012739523 0.015734153
-0.0047855945 0.016609225 -0.019696487 -0.0058212145 -0.014229385 -0.005311005 -0.0035288117 -0.0033814632
-0.0057763904 -0.009687137 -0.0011124864 0.012110994 0.015853262 -0.0064885383 -0.0093008485 -0.03128102
0.006730817 -0.0032950435 0.03229695 0.015000469 -0.008572048 0.010105965 0.038265213 0.00017030846
-0.0007174705 0.010314248 -0.009267898 0.005740907 0.02013306 0.014161992 -0.008678524 0.002295808
-0.002248242 0.0003595659 -0.006756155 -0.01603795 -0.0026861462 0.004808069 -0.0023821369 0.0066306223
0.0005896451 -0.0020697087 -0.0032867433 -0.028038885 -0.017063523 -0.0048212395 -0.0026294042 -0.0040953606

network_body._body_endoder.seq_layers.2.weight f4 [128, 128]
00000000: 6365 8fbd 1619 dfbd 7a89 09bc f28d 3cbd
00000010: e606 273e 3e42 de3d 7a62 b5bc 0e1b ce3c
00000020: e0c8 e2bd c059 5fbd a468 9cbd 98b8 af3d
00000030: a2ae 9e3c b959 5ebd 78a2 0c3a 3f10 7c3c
00000040: 8602 82bc 86f9 023e a2d5 803d cfe5 bbbd
00000050: 9114 afbc d10d be3d 8a38 50bd 2205 ccbd
00000060: 8fc2 b43d 201f adbd 0fc6 cebc 5872 9c3d
00000070: 71c6 503c 033c fe3c 01be 4d3d 8073 bf3d
00000080: c24e 7c3c 71b7 f43d a457 4a3d 96bb 093d
00000090: fafd cf3d 765f ca3d 9634 473d 621e b83d
000000a0: 193f db3c 5167 53bd cf5a 42bd 62f4 1cbe
000000b0: ba90 ce3b c508 62bb 7306 77bd 6cbe 85bd
000000c0: 5be7 febd b6a4 013d bb22 a93d 32a8 ab3c
000000d0: 2ae6 4cbd 875a d13c 36fa 4abd 8cba babd
000000e0: da9e f13d 2444 52bc 3ca9 f73d 5368 f5bb
000000f0: ea30 2c3e 10da c9bc b361 b23d 8147 06be
00000100: c85a dd3b 800a 1fbd b979 a63c 7def a0bc
00000110: bf0d 71bd 7086 6a3e 03cd 80bd 92f6 e93d
00000120: 33f5 ccbd c9ea 073d a681 413d be8d 583d
00000130: edb0 b73c 5cbb 96bd d71f 6a3e e564 ddbd
00000140: 0c99 cc3d 3049 6abe d496 753c d83c f3bd
00000150: d871 d53d 480b 93bd 40ac b63d 0bf4 54be
00000160: c3c8 6c3d e565 9e3d d3f1 9fbd 2a83 c2bd
00000170: c0d0 e13d 0f44 99bd 08c8 793d 5cba 403d
00000180: 8220 833d fb71 9d3d 8f1c 0b3d 3582 1e3d
00000190: 70a1 2bbd 85e6 a83c a279 d53d 097c 343e
000001a0: 8f25 a83d 230a 19be d98e c33c 5838 153e
000001b0: 581c 55bc 4dd2 b23d b75c 453e 9f40 2b3c
000001c0: a496 f9bc f1b3 ddbc 1e52 2f3c 1c11 bd3d
000001d0: 45b3 1d3c ceb0 8b3d 559e 8e3d 89a8 ad3d
000001e0: 0457 b83d b518 42bc e1a6 13be 5c78 e53d
000001f0: 288e 393c d165 87bd 201f 1dbd 8df2 803d
00000200: 41e8 de3b 1173 29ba b15c d13d 8f67 83bd
00000210: db10 473d 5ec4 4dbe 8edf 5abe d2fd 52bc
00000220: 8ef2 91bd 1a2e af3d 43da 9bbd fc98 02bd
00000230: 0200 523d e6d7 34be 7775 0ebc e0ff d8bd
00000240: f3bd 1b3e d421 643d 3054 85bd ec5a 8abc
00000250: c3c1 21be 7667 7f3b e340 07be eac5 853c
00000260: c0cf e5ba 04df 973c e915 15be d40d e0bd
00000270: b487 cd3d 81fb 653d e363 8c3c c217 1fbd
00000280: 5c42 76be 055e 473e f4ee 003e e973 293b
00000290: 8082 cebd c912 abbc 39b5 993d cd7c f63d
000002a0: a4cd 0fbd 9f60 d5bd bd70 ccba 1c48 063d
000002b0: 38c6 f8bc c466 683d a1f1 94bd 87ab 4bbd
000002c0: ae42 05be 2435 673d 455d 40bd f9c1 09be
000002d0: b248 dcbd a483 9fbd 8960 bd3d b299 5ebd
000002e0: cf53 19be e30a 413d 140b c2bd 78a6 abbd
000002f0: df0d 093e 9d46 7d3d f866 d1bd e973 18bd
00000300: ed8c 1a3e f363 e53b 39c0 3cbd 12ba 303b
00000310: 65ff d73d 5cfb 8f3d 3394 30bd a641 0dbe
00000320: caf2 683d 7025 83bd 930a f83d 7350 3b3c
00000330: ac65 a33d 7348 60bd e746 f03d 9f55 c0bc
00000340: bc27 acba 62b0 eebb 981a 933b f448 6ebb
00000350: 67dd 11bd 2713 5c3d dab2 c13c 8276 d23c
00000360: 0fff 813b c042 85bd e1f4 adbd 1d85 cb3d
00000370: 644c babd 1b89 24bc 15ea a6bd 7fb8 0bbe
00000380: b7c6 cdbd 6ec1 853d 3fe2 d13d 22fd 85bd
00000390: be4b 17be 072e fe3b 8b22 4bbd 7ea5 01bd
000003a0: 2035 183e 4bdd 053e c774 38be a984 763e
000003b0: 6bfa 04bd 48ae 113d 1583 6dbd 6fa6 263d
000003c0: bc07 4e3c 2df8 f9bc 1479 193d d43a d1bd
000003d0: 38a7 11bc 8b21 c43d 2193 76be 95f9 313e
000003e0: 30bb 81bd 8c47 f63c e531 6e3d 7ede d8bc
000003f0: a72b 01bd 487e e0bc 114f 3ebe 1c01 8bbd
-0.0700176 -0.10893457 -0.008394593 -0.046033807 0.16311225 0.108524784 -0.022141684 0.025159385
-0.1107347 -0.05452895 -0.07637146 0.0858013 0.01937038 -0.054284785 0.0005364786 0.015384733
-0.015870344 0.12790498 0.06290747 -0.09174692 -0.021372112 0.09279979 -0.05083517 -0.099619165
0.088261716 -0.08453202 -0.025240926 0.07638997 0.012742625 0.031034475 0.05023003 0.09348202
0.015399637 0.11949051 0.049399987 0.03362616 0.10155864 0.09881489 0.048634134 0.0899017
0.026763486 -0.051612202 -0.047449883 -0.153276 0.006303874 -0.003449009 -0.060308885 -0.06530461
-0.12446471 0.03165122 0.082585774 0.020954225 -0.05002419 0.025555862 -0.049555026 -0.09117612
0.11797877 -0.012833629 0.12092826 -0.007489243 0.16815534 -0.024640113 0.08710041 -0.13113214
0.0067552067 -0.038828373 0.020321714 -0.019645447 -0.058851 0.22902846 -0.06289103 0.11423983
-0.100077055 0.033182893 0.047242783 0.05286955 0.022423232 -0.07359955 0.22863708 -0.1081026
0.09990129 -0.22879481 0.0149895735 -0.118768394 0.104221046 -0.07179886 0.08919573 -0.2079622
0.05780865 0.077342786 -0.07809796 -0.09497674 0.11026144 -0.07483684 0.06098178 0.047052726
0.06402685 0.07687756 0.033962782 0.038698394 -0.041902006 0.020617733 0.1042359 0.1762544
0.08210289 -0.14945273 0.023871826 0.14572275 -0.013007246 0.08731518 0.19273649 0.010452419
-0.030467339 -0.027063342 0.010700731 0.09231779 0.009625261 0.06820832 0.06963793 0.08479411
0.09000972 -0.011846711 -0.14419128 0.11204597 0.011325397 -0.06611217 -0.03835976 0.06296263
0.006802589 -0.00064639846 0.102227576 -0.064162366 0.04860006 -0.2009444 -0.21374342 -0.012877898
-0.07126342 0.08553715 -0.076099895 -0.03188418 0.05126954 -0.17660484 -0.008694998 -0.10595679
0.15209179 0.055696324 -0.06510198 -0.016889058 -0.1579657 0.003897158 -0.13208346 0.016329724
-0.0017533228 0.01853896 -0.1455914 -0.109401375 0.10035649 0.056148056 0.017137473 -0.038841017
-0.24048752 0.1946946 0.12591153 0.0025856441 -0.10083485 -0.02088298 0.075052686 0.120355226
-0.035108224 -0.1041882 -0.0015597563 0.032783613 -0.030367956 0.05673863 -0.072726496 -0.049724128
-0.13013718 0.056447163 -0.04696395 -0.13452901 -0.10756053 -0.0778878 0.09246928 -0.054345794
-0.14973377 0.047129523 -0.09474769 -0.08381361 0.13384198 0.06183492 -0.10224718 -0.037219916
0.15092821 0.0070004403 -0.046081755 0.0026966375 0.105467595 0.07030365 -0.043110084 -0.13794574
0.056872167 -0.06403625 0.12111392 0.011432755 0.07978377 -0.054756593 0.117322735 -0.023478327
-0.00131344 -0.00728421 0.004489254 -0.0036359401 -0.035611536 0.053729203 0.023644853 0.025691275
0.003967173 -0.06506872 -0.084939726 0.09937499 -0.090966016 -0.010042454 -0.08150116 -0.13644598
-0.100476675 0.065310344 0.10248231 -0.06542422 -0.14774987 0.0077569517 -0.04959349 -0.031651966
0.14864016 0.13072698 -0.18013297 0.24074043 -0.03246538 0.0355666 -0.057986338 0.040686067
0.012575086 -0.030513847 0.037468985 -0.10216299 -0.008889966 0.0957671 -0.24079563 0.17380364
-0.06334531 0.030063413 0.058153052 -0.02647328 -0.03153577 -0.027403966 -0.18584849 -0.06787321

network_body._body_endoder.seq_layers.2.bias f4 [128]
00000000: 94b0 acba a558 a03c b3d2 c93c 3741 fdbb
00000010: 479c 50ba f689 183a b1b3 d03a a325 673b
00000020: 5c21 f3bb c9cb 3d3c 19e8 dcbb 2278 bbbc
00000030: b063 08bc c98b 863c e8b1 37bc 54e7 a73b
00000040: 549c 353c 4069 17bc 6f46 e4bb e50b d83b
00000050: f364 273c a2d2 32bc 5821 923a a0cd 383c
00000060: f24f e7bb 6e89 39bc 0715 87ba 2609 24ba
00000070: 7866 f339 b3bc 0d3b 4e9d 53bb 96a4 c83c
00000080: 8187 c7bc bac9 903c e247 36bc 80ff 873b
00000090: 0968 f1bb 75e7 3e3b 88a9 8bba 0c7b 063d
000000a0: 38b1 a33b a883 0e3c 8bf4 ecb9 4feb 0dbd
000000b0: 37e1 863c 22fc acbb 6317 a3bc 8d4f b03b
000000c0: f35f f2bb 9359 7e3b 8284 633c 2ca8 b93a
000000d0: a344 e23b 73de efbb ba2e 1939 5925 cb3a
000000e0: 6c12 b73b b067 463a a235 0bbc dfba 4d3b
000000f0: abea 35bb 4bec f5bb d8e7 153c 63e8 593c
00000100: e204 853b 35b6 68ba e84c 993b 85c6 d33c
00000110: 72cc 15bc c70c 13bc 6e63 673c 76d9 113d
00000120: 746d e539 4cc4 843b 5fda f6bb a95f eb3a
00000130: c1be c43b 5a7d b23b d7e5 65bc 59aa 8cbb
00000140: 5913 dab9 0280 713b 6efe 53bc c99d c73b
00000150: e015 abba 5ce3 99bb 402d 6a3c eb41 2d3c
00000160: 812b 963c 3777 ac3c 82b4 aebb 4fdd c8bb
00000170: 5867 04bd aa82 b53c 8d50 0eb9 0fe3 643c
00000180: b8e8 6bbb b51c 7bbb aaa6 2dbc 2d9e 5cbc
00000190: 82b1 4f3c 9c16 eb3a 43a8 d0bb f455 3ebd
000001a0: 9919 8a3c 645e 3cbc de81 9b3b c097 39bc
000001b0: 2001 5dbc 898f c43c 7eaa 8f3c f308 b83c
000001c0: 58d5 843c c05e a93c 8fea 7f3c 7282 013d
000001d0: 877e 403c 126b d53a d9f1 403c 5200 a13c
000001e0: 0568 d73a 3ee6 53bb a875 e3bb 7a29 2d3c
000001f0: bb8d b33b 412d d7bb fed3 49bc 04b3 26bb
-0.0013175183 0.019573519 0.024636602 -0.0077287215 -0.00079578575 0.00058188976 0.0015922693 0.0035270236
-0.007419748 0.011584231 -0.0067415354 -0.022884432 -0.008324549 0.016424077 -0.01121185 0.005124012
0.011084635 -0.009241402 -0.006966404 0.006593215 0.010216939 -0.010914477 0.0011148853 0.011279494
-0.007059091 -0.01132427 -0.0010305949 -0.0006257467 0.00046424917 0.0021627366 -0.0032289806 0.024492543
-0.024356605 0.017674316 -0.011125537 0.004150331 -0.0073671383 0.0029129658 -0.0010655383 0.03283219
0.0049954914 0.0086983815 -0.00045195626 -0.034648236 0.016464813 -0.00527908 -0.019908613 0.005380577
-0.007396692 0.0038810715 0.013886573 0.0014164499 0.006905155 -0.007320219 0.00014608624 0.0015498801
0.005586913 0.0007568551 -0.008496674 0.0031391901 -0.0027758281 -0.007504975 0.009149514 0.013300034
0.00405942 -0.00088772486 0.0046783574 0.025851497 -0.009142982 -0.008975214 0.014122827 0.035607778
0.00043759833 0.0040517207 -0.007533356 0.0017957586 0.006004185 0.005447072 -0.014031849 -0.004292768
-0.00041594615 0.003684998 -0.012939079 0.0060918075 -0.0013052784 -0.004696293 0.014293015 0.010574798
0.018331291 0.02105294 -0.005331577 -0.0061298977 -0.03232512 0.022157032 -0.00013572183 0.013970151
-0.0035996865 -0.0038316671 -0.010598818 -0.013465446 0.0126765985 0.0017935815 -0.0063677146 -0.04646869
0.016857909 -0.011497114 0.004745706 -0.011327684 -0.013489038 0.023994224 0.017537352 0.022465205
0.016215011 0.020675063 0.015619888 0.031618543 0.0117489165 0.001628252 0.011776411 0.019653473
0.0016434198 -0.003233328 -0.006941516 0.010568971 0.005479542 -0.006566674 -0.012318609 -0.0025436291

action_model._continuous_distribution.log_sigma f4 [1, 2]
00000000: 6ca8 00ba c020 57bc
-0.00049079093 -0.013130367

action_model._continuous_distribution.mu.weight f4 [2, 128]
00000000: c71c 7cbc 0233 0e3b b0ee 033c cbcf c1bc
00000010: 13bf 38bb c745 983c 8516 763c 92b8 363c
00000020: d1a1 113c 7e1d cf3b f0cb 0ebc 274b edbc
00000030: 0522 13bd 1cc0 20b9 1aa2 b7bc d31b 9b3c
00000040: 8fca 8b3b 943b 2dbc ebd4 a53b 5f42 153c
00000050: 0be9 b13c b112 b13a a671 183c 332e 5e3c
00000060: 9fc3 12bc a269 16bc 9f02 7ebb abb7 89bc
00000070: 422c 4c3c 60cb c1bb 0ac5 bf3a 1d88 883c
00000080: 7d05 10bc c79f 303a fede 84bb e81d 263c
00000090: 0506 9dbc 1f3b 8abb ce4d 2fbd bff4 643c
000000a0: a2c4 323b 51a5 db3c 8e3b 093c d5ed 4dbc
000000b0: 4092 013c e7fa 3fbc 81a5 13bd a443 0a3d
000000c0: 083c 7ebc c0b9 a93c fc1f 563c 47b4 6d3c
000000d0: ce29 9e3c 2783 42bc 9114 c03b a297 86bc
000000e0: 4bc3 d53c 0e5f 823c 3ee5 143b 3206 773b
000000f0: c25b afb9 cf06 afb9 a846 9d3c 3221 6f3c
00000100: 57f1 263c f82d 023c 9b93 ecbb f771 a93b
00000110: 7d55 1abc 5668 c8bc 39a9 fcbc 6f31 c73b
00000120: 5bb8 ab3b 78d8 0c3d 84e6 35bb 3bf6 e6bb
00000130: 6ed1 a03b a6f5 b73c 815d d1bb dd07 17bc
00000140: 8585 b0bb 378c 133c e88e 99bc e2d1 563c
00000150: f759 413c 26d2 d83b 7d4a 82bc a9a8 243d
00000160: eabe ca3c a720 923c dfd7 60bc 8f14 023c
00000170: 0c01 a2bc 3d84 b339 8e04 09bc 9502 18bc
00000180: b088 c4bb c00b 8bba 3f8b e7bc b0dd f4bc
00000190: c310 793c 49bf e33b 2bd7 35bd ca73 a4bc
000001a0: d5b8 543d ff8c d83b aca8 db3c 7af5 16bd
000001b0: 80dc 2dbd 077d ffba 71f5 043d 0e7c 663c
000001c0: 211a e03c c3f8 35bc c2d5 1dbb 2593 643c
000001d0: 8a69 e43b 224f 4d3b 7430 023d 67ea ec3b
000001e0: e683 c4bb 818a a33c a363 9bbb f6ce 6f3c
000001f0: 297e a9bb 7925 18ba e386 dbbc ff6a c5bc
00000200: fb5a b0bc a475 12bd 58ae f0bb 6a3f febb
00000210: e5df e9bc 7a74 443c 2f89 b3bb e147 2f3c
00000220: 5aa1 703b 7f9f a9bc ccc9 1a3d 7a1a 9d3c
00000230: 46aa e53b 4cc9 40bc 92ef 1fbb e362 cb3a
00000240: d717 19bc e121 163c 392f 743c ef8e 89ba
00000250: ff63 30bc 490f 8b3b b6b9 853c 6d61 e0bc
00000260: 2cc8 b33a 841a 323b a34c ebbb 75c5 e9bc
00000270: 4f8f 893a 5047 80bb 9c6d 8d3c c61c 17bd
00000280: 3fe1 a13c 010b 70bc 2244 ef3b d0c2 ee3b
00000290: 4267 0d3a 7210 b0bc 93c6 c8bc 4c4a 3abd
000002a0: fc86 efbb f5cc 34b9 30c6 d53c 603c 1d3c
000002b0: e82b 88bc 90f1 903c e3f2 333c b9d8 c43c
000002c0: a78b c03b a8e4 863c bddd 85bc 2af4 7e3c
000002d0: 298c c6bb 4eba a9bb 7eb9 013d 7a88 a1bc
000002e0: e4dc 9b3b cdb0 d93c 1df5 2b3c 8acd dfb9
000002f0: 1f8b 023d 4993 183d 4e9f 1dbc 1090 6ebc
00000300: 32f2 583c 4237 4b3d b690 0ebd 6988 8ebc
00000310: cd6b 2f3b cd29 f63b 3856 09bd d713 91bc
00000320: bbad d63c 0fbb 83bb fb9f 703b 447a 7ebc
00000330: 6e24 a2bb 4ca4 233c 3330 4b3c c1da 183d
00000340: 0068 4cbc ef32 ba3b a188 133c 9c76 bcbc
00000350: 7c0a 2d3d cf14 aa3c 6b01 5bbd e63e 9fbc
00000360: b1c6 debc 4b86 ffbc de7e 6fbb 360c d63c
00000370: 2d63 6e3c 2e3d e1bc 1d92 f9bb 1695 44bd
00000380: d4a9 6a3d 8929 b0bc f134 923b 6139 a53b
00000390: 0b23 37bb dc93 153c 0d10 4f3c 4f14 ae3c
000003a0: 9745 00bd 1245 483c dd02 e43c 09f4 b23b
000003b0: a57f e13a ab75 a5bc ca6c febc d9c9 9dbc
000003c0: 417c 8ebc 8a25 8cbc c49a 95bb a22d 06bd
000003d0: d5d5 ccbc 57fb dfbc 8185 d0bc b01c 30bd
000003e0: 773f acbc f962 1c3c ae30 a23a 0c7a 33bc
000003f0: 8875 14bc abea 533c 8a28 9c3c fbb0 8fbc
-0.01538772 0.0021697883 0.008052513 -0.023658654 -0.002819006 0.01858796 0.0150200175 0.011152403
0.008888678 0.0063206544 -0.008715615 -0.0289665 -0.035921115 -0.00015330355 -0.022416163 0.018934166
0.00426609 -0.010573287 0.005060782 0.009110062 0.021717569 0.0013509599 0.00930444 0.013560819
-0.0089577725 -0.009180458 -0.0038758887 -0.016811213 0.012461724 -0.005914137 0.0014630866 0.016666466
-0.008790371 0.0006737676 -0.004054903 0.010138966 -0.01916791 -0.0042184736 -0.04279881 0.013974368
0.0027277847 0.026812227 0.008376015 -0.012568911 0.007908404 -0.011717535 -0.03604651 0.033755913
-0.015517242 0.020718455 0.013069149 0.0145083135 0.019307043 -0.0118720895 0.0058618267 -0.016429726
0.0260941 0.015914466 0.0022719647 0.0037692902 -0.00033446966 -0.00033383674 0.01919873 0.014595317
0.010189376 0.00794553 -0.0072197444 0.0051710564 -0.009419796 -0.024463814 -0.03084241 0.006078891
0.0052404827 0.03438613 -0.0027755806 -0.007048396 0.0049077785 0.022456001 -0.0063893204 -0.009218183
-0.0053870105 0.009005598 -0.0187449 0.013111563 0.011801234 0.0066168485 -0.01590466 0.04019991
0.024749238 0.017837835 -0.013723343 0.007939472 -0.01977589 0.00034240066 -0.008362902 -0.009277959
-0.0059977397 -0.001060836 -0.02826464 -0.029890865 0.01520175 0.006950293 -0.044394653 -0.020074744
0.051934082 0.006608605 0.026813827 -0.0368552 -0.042446613 -0.0019492217 0.032460634 0.014067663
0.02735621 -0.011106673 -0.0024083708 0.013951098 0.006970589 0.0031327684 0.03178449 0.0072300914
-0.005997169 0.019963505 -0.004742102 0.014636746 -0.00517251 -0.00058039237 -0.026797717 -0.024098871
-0.021527758 -0.035756722 -0.007345002 -0.0077590244 -0.028549144 0.011990661 -0.005479 0.01069829
0.0036717267 -0.020705936 0.037790105 0.019177664 0.0070088236 -0.011766743 -0.002440427 0.0015517141
-0.009344063 0.009163351 0.014903837 -0.0010494868 -0.010766028 0.0042437655 0.016323905 -0.027390206
0.0013716272 0.002717645 -0.0071807667 -0.028536538 0.001049498 -0.003914751 0.01726418 -0.036892675
0.019760726 -0.014651061 0.0073018232 0.007286407 0.000539411 -0.021492217 -0.02450875 -0.04548101
-0.0073097926 -0.0001724249 0.02609548 0.009596914 -0.016622499 0.017693311 0.010983202 0.024029123
0.005876023 0.016466454 -0.016341085 0.015561143 -0.006059189 -0.00517968 0.03167104 -0.019718397
0.004756557 0.026573563 0.010495451 -0.00042687013 0.031870957 0.037249837 -0.009620501 -0.014560714
0.013241338 0.049613245 -0.034805976 -0.01739903 0.0026767135 0.0075123073 -0.03352949 -0.017709656
0.026205888 -0.004020102 0.003671645 -0.01553208 -0.0049481904 0.009987902 0.012401628 0.037317995
-0.012475967 0.0056823413 0.009004743 -0.023005776 0.042246327 0.020761875 -0.05346815 -0.019439172
-0.027194353 -0.031191966 -0.0036544125 0.02612887 0.014550013 -0.027494993 -0.007616295 -0.047993742
0.057290867 -0.02150418 0.0044618775 0.0050422405 -0.0027944471 0.009129491 0.012638104 0.021249918
-0.031316366 0.012223499 0.027833397 0.00546122 0.0017204179 -0.02019771 -0.031057734 -0.019261288
-0.017393233 -0.017107744 -0.0045655686 -0.032758363 -0.025004307 -0.027341528 -0.025454285 -0.04299611
-0.021026356 0.009545081 0.0012374127 -0.010954391 -0.009061225 0.012934367 0.0190623 -0.017540446

action_model._continuous_distribution.mu.bias f4 [2]
00000000: 4763 2b3c 31d1 06bc
0.010460681 -0.008228586

exp_avg f4 [128, 35]
00000000: 49bd 87b8 3a3e 2b35 4be4 6d0b 3a4f acb7
00000010: 50ee 5fb8 91b9 39b7 a78e c734 173b 95b7
00000020: 3536 88b8 4fa0 0a35 ab28 ba34 b922 c5b7
00000030: 48aa 40b7 f503 5db8 32da c133 a74c 26b7
00000040: 5efc 87b8 20ea b134 6ea8 e334 f8b9 06b8
00000050: c68c f5b7 61fc 13b8 5296 fa34 2c06 9db7
00000060: d191 86b8 8a9e 9434 d232 53b4 1d55 63b8
00000070: 5aa6 15b8 8971 8fb6 66b3 53b8 e327 4cb9
00000080: 40b6 0135 3826 ee31 41df 5637 4442 aeb7
00000090: ea18 e232 4821 2c8a 166d cdb6 841a 9bb7
000000a0: 7e3f 14b6 bb9c 4eb3 3212 bdb6 0dfb b0b7
000000b0: 8109 d434 59ae 3db3 5130 eeb6 79fc c6b5
000000c0: 8e56 a1b7 b5d0 06b3 5dd5 11b6 5fbc b0b7
000000d0: 9809 d334 d385 99b3 13ab 22b7 24cf 08b7
000000e0: 8613 52b7 006a 98b3 acb3 a4b6 d8dc adb7
000000f0: fd6b af34 d6a5 bab4 c52d 86b7 3e6f 64b7
00000100: a0e5 cab5 13d5 7db7 82e4 69b8 36e6 7334
00000110: 7dc0 09b2 b32c e936 a05c 8038 694a db33
00000120: ce9b bc09 29d1 9837 92d6 8c38 9daf c6b6
00000130: 2167 9f33 e8c2 a337 401a 8138 e12f abb4
00000140: a386 9133 94a8 af37 5b36 a835 dc8d 7b38
00000150: e7af ae33 82aa d036 0911 8138 7134 8bb4
00000160: a9e1 d932 6c0f ef37 9997 c537 2f41 1e38
00000170: f83a cf32 9ba4 7c37 f521 7f38 48e9 5cb4
00000180: 8076 3835 ab33 4a38 cffd 2538 2e1f 9a36
00000190: 5415 3238 a0db 3439 0a26 9134 e920 8cb2
000001a0: 557a 00b8 9e21 50b7 e455 8ab4 662d 9b09
000001b0: 7f0b 21b6 0d13 5cb7 4c04 e734 d243 cd32
000001c0: 2367 36b6 a7d8 58b7 71b1 7f34 9028 cb32
000001d0: e860 3db6 9ea4 b436 0a82 97b7 8afe 7532
000001e0: 9e08 d335 75b5 58b7 e056 8034 87c5 7932
000001f0: 6889 7fb6 8750 5336 76b6 84b7 0511 1232
00000200: af4f b535 8ecd 51b7 9a88 0c34 0e1c 9bb4
00000210: 2230 eeb6 5969 4bb7 d057 aeb5 28da d3b6
00000220: 2ef6 6ab7 aca8 4134 7b0e 92b2 a7bd 6937
00000230: 040e 4138 7a1a a8b5 083d 178c 4c94 8237
00000240: dfda e737 9849 8f37 18cf 6b33 6550 3c37
00000250: 394c 3d38 09f3 c9b4 5ae6 a632 8ed3 9237
00000260: ad23 a637 0ad7 ce37 dee9 a734 1173 3e37
00000270: 6b2c 3b38 b1f4 70b4 65dc c834 599d c437
00000280: 1495 9d37 7833 d637 8074 f434 a98d 6937
00000290: 7c41 3b38 a0c0 8cb4 dc99 d234 8db9 2038
000002a0: 4d39 c937 4728 4136 3f0a 1438 a5d0 2339
000002b0: bc91 9135 2508 cc30 b621 f136 abdb 43b8
000002c0: 2601 63b2 9d31 968b ae44 40b7 e64b 57b8
000002d0: 22e4 9836 ce0c 8b33 30e0 54b7 0f72 46b8
000002e0: 919d 1735 3df6 2633 05fd 5bb7 1e48 8d36
000002f0: 7784 56b8 f597 7134 1cda 3ab5 d474 47b8
00000300: 31f7 1335 e78d 9d34 0b2c 94b7 aa57 2db6
00000310: b872 3ab8 c42b af34 e90d 2fb6 bdb5 44b8
00000320: dcbe 7934 eb71 37b3 3338 0fb8 8fea 1bb8
00000330: cfa2 85b6 4d30 01b8 b1ab b8b8 8ab4 07b5
00000340: 4632 30b2 75ee d437 0069 c636 d1d2 0635
00000350: fa9e 9c06 8a32 0136 522c 6036 0aaf 4e36
00000360: 8355 a9b1 0d15 c435 70a4 d236 ee96 1834
00000370: 0f42 97b1 59b1 1836 7818 31b6 68f2 1737
00000380: 708a 29b1 ddec 19b3 4f92 d136 0f45 4234
00000390: 2434 42b2 42c1 4f36 50da 9036 8591 0d36
000003a0: 007b 3fb2 c610 2736 c0da c536 bbbc 9334
000003b0: f9cc 8234 b684 a136 23f6 5736 42f8 e434
000003c0: 84bb ba36 1857 9837 f525 2ab5 3063 8e31
000003d0: 2069 14b7 8df1 6636 3770 bf34 103e 018b
000003e0: bfee bf34 8b06 a036 9515 96b5 60d4 1d34
000003f0: e942 4e35 0c90 7536 95f7 7a32 af48 0534
-6.472559e-05 6.3793016e-07 4.5816288e-32 -2.054089e-05 -5.338929e-05 -1.1070065e-05 3.7170432e-07 -1.77897e-05
-6.495082e-05 5.1642286e-07 3.467479e-07 -2.3500399e-05 -1.14837385e-05 -5.269419e-05 9.026952e-08 -9.912218e-06
-6.484309e-05 3.3139167e-07 4.2404594e-07 -3.2121286e-05 -2.9271829e-05 -3.5282577e-05 4.66755e-07 -1.8718732e-05
-6.416778e-05 2.76825e-07 -1.9669395e-07 -5.4200285e-05 -3.5679295e-05 -4.2749493e-06 -5.0473398e-05 -0.00019469815
4.8321454e-07 6.9310566e-09 1.2807374e-05 -2.0773274e-05 2.6321192e-08 -8.287758e-33 -6.1221754e-06 -1.8489787e-05
-2.2090676e-06 -4.8105658e-08 -5.634757e-06 -2.109774e-05 3.9494992e-07 -4.416356e-08 -7.0985775e-06 -1.4825629e-06
-1.9233e-05 -3.1389124e-08 -2.1730878e-06 -2.1068552e-05 3.9308793e-07 -7.14896e-08 -9.695784e-06 -8.15446e-06
-1.2521521e-05 -7.097333e-08 -4.9084974e-06 -2.0726045e-05 3.2674862e-07 -3.476586e-07 -1.5995358e-05 -1.361576e-05
-1.5117002e-06 -1.5129585e-05 -5.5764343e-05 2.2714889e-07 -8.018216e-09 6.949145e-06 6.1207684e-05 1.0211517e-07
4.540587e-33 1.821721e-05 6.715687e-05 -5.921304e-06 7.4227735e-08 1.9521874e-05 6.156089e-05 -3.1886069e-07
6.776579e-08 2.0940126e-05 1.2532795e-06 5.997518e-05 8.134503e-08 6.218733e-06 6.1543724e-05 -2.5928924e-07
2.5364743e-08 2.8498202e-05 2.3554823e-05 3.7730842e-05 2.4124788e-08 1.5058696e-05 6.0828363e-05 -2.0573964e-07
6.871778e-07 4.8208673e-05 3.9575443e-05 4.5931874e-06 4.245837e-05 0.00017247954 2.7036032e-07 -1.631311e-08
-3.063151e-05 -1.2405593e-05 -2.5766997e-07 3.7357585e-33 -2.399756e-06 -1.31174575e-05 4.303023e-07 2.3895982e-08
-2.7180147e-06 -1.2925047e-05 2.3813278e-07 2.3650756e-08 -2.8219602e-06 5.383582e-06 -1.8061157e-05 1.4318752e-08
1.5723233e-06 -1.2916852e-05 2.3905068e-07 1.453862e-08 -3.8077942e-06 3.1488323e-06 -1.5820591e-05 8.502188e-09
1.3508742e-06 -1.250523e-05 1.3088211e-07 -2.8891412e-07 -7.098556e-06 -1.2124271e-05 -1.2989567e-06 -6.3136868e-06
-1.4004805e-05 1.8035888e-07 -1.7003222e-08 1.3932039e-05 4.602784e-05 -1.2524681e-06 -1.1650983e-31 1.5566264e-05
2.7639266e-05 1.7081198e-05 5.4903552e-08 1.12243915e-05 4.51321e-05 -3.7616e-07 1.9429695e-08 1.750307e-05
1.9805355e-05 2.4657249e-05 3.1276335e-07 1.13516735e-05 4.462564e-05 -2.244076e-07 3.741326e-07 2.3438291e-05
1.8785278e-05 2.5534755e-05 4.5533307e-07 1.3920865e-05 4.464526e-05 -2.6217185e-07 3.9227496e-07 3.831978e-05
2.398775e-05 2.8782686e-06 3.5295492e-05 0.00015622618 1.0845756e-06 1.4845268e-09 7.186284e-06 -4.6696205e-05
-1.32134e-08 -5.785255e-32 -1.14600825e-05 -5.133068e-05 4.556511e-06 6.475021e-08 -1.2688382e-05 -4.7313104e-05
5.648117e-07 3.887384e-08 -1.3112328e-05 4.210523e-06 -5.1144943e-05 2.2500156e-07 -6.960779e-07 -4.7554102e-05
5.512148e-07 2.9346776e-07 -1.7663484e-05 -2.5830036e-06 -4.4452696e-05 3.2628134e-07 -2.608513e-06 -4.68993e-05
2.3259366e-07 -4.2711616e-08 -3.4146196e-05 -3.717333e-05 -3.9826623e-06 -3.080098e-05 -8.805784e-05 -5.055414e-07
-1.0255979e-08 2.538341e-05 5.9130834e-06 5.022567e-07 5.8914273e-35 1.9251916e-06 3.34044e-06 3.0798278e-06
-4.928269e-09 1.4609265e-06 6.2776307e-06 1.4211011e-07 -4.4021884e-09 2.2752995e-06 -2.6389298e-06 9.056741e-06
-2.467143e-09 -3.5838514e-08 6.245718e-06 1.8092781e-07 -1.1304142e-08 3.0957895e-06 4.3169493e-06 2.109534e-06
-1.114563e-08 2.4894703e-06 5.8965234e-06 2.7518203e-07 2.4363524e-07 4.8136235e-06 3.2180767e-06 4.264894e-07
5.5650617e-06 1.8160368e-05 -6.338517e-07 4.1440202e-09 -8.845964e-06 3.4413272e-06 3.565817e-07 -2.4891187e-32
3.5750233e-07 4.7691333e-06 -1.1182152e-06 1.4699026e-07 7.683835e-07 3.6591691e-06 1.4608209e-08 1.2413032e-07

exp_avg_sq f4 [128, 35]
00000000: 3382 f631 0006 ba30 86b9 db2e e604 a130
00000010: a27c 9c31 57aa 5f31 e2f9 0a2f 48a9 8e30
00000020: 5d01 e731 99e1 cd30 60ac 0d2f 2aa8 cd30
00000030: d45f 6831 0db6 8b31 d2bf be2f 7b72 d330
00000040: 5cdf e931 b284 9330 b0db d52f 756b 4031
00000050: b0e6 ca31 21ee c430 66cc c42f e0b6 5331
00000060: 0ea0 0432 e737 f62f 52c8 1830 9dc4 b431
00000070: c084 dd30 2ea0 822e f231 e931 3c20 7234
00000080: f326 882d 21ae d728 1b5d 1531 26e6 e030
00000090: 7340 4530 5d73 1e2d 9df1 3b2f 2f71 4030
000000a0: 7a6f d730 370b 282d 286a ce2e b157 0031
000000b0: b19e fc2f 8d84 272d a0fc 862f e7d8 6e30
000000c0: 996c bf30 1a60 5c2d f6af 3e2f f834 1031
000000d0: 26ab 752f 51d2 692d c269 0330 13b2 dc30
000000e0: fb0f 0b30 a19a 612d d507 1a30 14cb 1731
000000f0: 4ace 062f e786 cd2d 8e17 ae30 b472 0630
00000100: ee97 012e 23c4 ff30 f67b f132 c91c d72c
00000110: b6b0 2b27 9dc2 8030 7a1a 3f32 3287 2631
00000120: 39bd 192d 4469 b630 30b9 cf31 a4d2 eb31
00000130: 7f8f 382d f446 6d30 09e2 4a32 e249 f930
00000140: 5e51 392d 3789 0031 5507 d131 c40d e331
00000150: be78 a82d 551c c030 9c11 5d32 bad7 4230
00000160: 4702 5f2e 3fa1 8431 9646 0732 4365 9031
00000170: d1c4 592f 55c0 6831 3235 6932 992d 712f
00000180: 8354 b62f 7aa2 1032 d84e 5731 5f4e 2d2f
00000190: 7cef 2b32 9b92 3834 7dd2 212e c1ef 4628
000001a0: 919e c831 817d e830 0a58 7e2f 3cc6 032c
000001b0: 31f4 352f 97cf 8730 20c8 8430 8913 0a2c
000001c0: edad d82e 17f6 ec30 06c0 4e2f 3f75 082c
000001d0: 0c55 722f 21c1 8a30 de79 8230 95de e32c
000001e0: 49e3 362f d7a3 fb30 3f52 062f 1e3f ed2d
000001f0: c9be f02f 2868 c830 e55b ed2f a057 792c
00000200: 139d fa2f 738f f730 77cb de2e 3d56 b02d
00000210: 76ff 8930 ebc1 2730 ec46 0d2e 7234 b030
00000220: cd59 b032 3733 8f2c 4efe f126 f465 0a30
00000230: 8782 0332 823d 2831 9a0b 9c31 3bbf c931
00000240: a212 f631 8bd1 3331 b1ae a531 115a d531
00000250: 05f0 0e32 24ac d930 b174 a631 55f8 db31
00000260: 099a ee31 fb12 1931 40b1 b231 a6ba f431
00000270: 833b 0732 2fd9 ae30 4603 b831 2fdb fc31
00000280: 2fc9 0232 52e3 dd30 fe7d a631 a4d2 0d32
00000290: 2e19 0b32 01f7 2430 7aab da31 8803 2632
000002a0: 0ef3 6031 d46e 212f 86bc 4732 9a3a 8736
000002b0: 43dc 492e 70dd 2e29 f313 ac31 88e0 4932
000002c0: dbd8 2831 8692 8230 d478 3931 d162 3a32
000002d0: 55ee 2e31 ad99 8630 bd94 5631 d7ba 0c32
000002e0: eed2 9531 1a1b 8730 74f5 3b31 c520 1332
000002f0: dce9 8531 d086 a930 8f04 a431 51ee 1832
00000300: cc89 9531 3bf9 9d30 5dbd 9331 ab60 1932
00000310: c3c5 6531 91d8 ce30 f33f 0432 0be3 2f32
00000320: 9aaa 0631 158d 0831 6caf 0132 6d36 3831
00000330: 8eec 7e2e 4517 4c32 dad7 8935 88cb 142e
00000340: 6c90 d728 3eb7 9731 7ede a130 4906 8e2f
00000350: 4c32 b826 2e14 2f2f c4dd 6130 c50a 1530
00000360: 1e24 b628 9d2d 182f 85f4 9b30 a2fd 802f
00000370: 7cc4 c228 1cea 5c2f 28ba 4c30 521d 1930
00000380: 354f 392d bbcf 872f 06be a030 b9e5 822f
00000390: 5654 4b2d 7176 dd2f c138 8d30 161f 982f
000003a0: eeb4 882d e8b0 0930 b29b ad30 80ca f42e
000003b0: 14f4 562e 543c 5730 b7de a62f 2ff3 e62d
000003c0: c50c 9330 516b b032 b668 9d2c 3342 a526
000003d0: ead3 4030 7d82 8130 649e ab2f 9de4 0230
000003e0: 69e2 2d30 5d7e 8c30 fcf7 7e2f e88e 0d30
000003f0: 8fd7 3f30 1738 9530 80ee 142f b468 0e30
7.1743442e-09 1.3534986e-09 9.9919226e-11 1.1715684e-09 4.5543667e-09 3.2547598e-09 1.2639803e-10 1.0379972e-09
6.72314e-09 1.4979832e-09 1.2885115e-10 1.4963508e-09 3.3814915e-09 4.066129e-09 3.4697095e-10 1.5384808e-09
6.8065855e-09 1.0733372e-09 3.8900572e-10 2.800076e-09 5.9052e-09 1.4328557e-09 3.5797426e-10 3.0808494e-09
7.7198035e-09 4.478686e-10 5.558195e-10 5.261042e-09 1.6117596e-09 5.940169e-11 6.7868706e-09 2.2549733e-07
1.5478707e-11 2.3945311e-14 2.1735278e-09 1.6363557e-09 7.175977e-10 9.006876e-12 1.7093389e-10 7.0010037e-10
1.5674992e-09 9.5521846e-12 9.3866526e-11 1.8676298e-09 4.595129e-10 9.522283e-12 2.455396e-10 8.689213e-10
1.3927944e-09 1.2526891e-11 1.7342913e-10 2.0984867e-09 2.2343424e-10 1.3291216e-11 4.7807813e-10 1.6057718e-09
5.0590615e-10 1.2824104e-11 5.6036004e-10 2.2088829e-09 1.2260518e-10 2.336571e-11 1.2666861e-09 4.891192e-10
2.9466145e-11 1.8609437e-09 2.8112463e-08 6.1138633e-12 2.3826812e-15 9.368538e-10 1.1123683e-08 2.423303e-09
8.739059e-12 1.3272161e-09 6.0455463e-09 6.8633472e-09 1.0491052e-11 8.632093e-10 1.1809342e-08 1.8138133e-09
1.05341e-11 1.870445e-09 6.083534e-09 6.6081345e-09 1.9153009e-11 1.3977891e-09 1.2867897e-08 7.0883355e-10
5.0706352e-11 3.860037e-09 7.874084e-09 4.2024637e-09 1.9805958e-10 3.3869771e-09 1.357448e-08 2.1935022e-10
3.3165656e-10 8.418846e-09 3.1331435e-09 1.5762101e-10 1.00079625e-08 1.718967e-07 3.6794113e-11 1.1043196e-14
5.838793e-09 1.6915892e-09 2.3132443e-10 1.8726262e-12 1.6548608e-10 9.881543e-10 9.661143e-10 1.9621824e-12
9.853438e-11 1.7241203e-09 1.8803811e-10 1.9391847e-12 2.2039987e-10 1.0095712e-09 9.493382e-10 6.4764396e-12
1.6633551e-10 1.830922e-09 1.2216449e-10 2.697181e-11 4.3791307e-10 1.4581518e-09 4.3175344e-10 3.543367e-12
4.5586343e-10 1.8012386e-09 1.0131534e-10 2.0047181e-11 1.0040668e-09 6.102982e-10 3.212268e-11 1.2820591e-09
2.0529933e-08 4.0699904e-12 1.6791664e-15 5.034899e-10 7.654882e-09 2.448218e-09 4.5415165e-09 5.8716103e-09
7.1616606e-09 2.616704e-09 4.821992e-09 6.2093553e-09 8.320062e-09 1.5837753e-09 4.844502e-09 6.401971e-09
6.9442234e-09 2.227522e-09 5.200633e-09 7.122554e-09 7.871566e-09 1.2721894e-09 5.355477e-09 7.3590836e-09
7.61274e-09 1.6144475e-09 4.8455595e-09 8.255174e-09 8.09659e-09 6.0013866e-10 6.3641297e-09 9.663275e-09
3.273445e-09 1.4682239e-10 1.162619e-08 4.0301356e-06 4.589774e-11 3.8827828e-14 5.008127e-09 1.1750792e-08
2.4570486e-09 9.500389e-10 2.6989726e-09 1.0849093e-08 2.5455809e-09 9.79346e-10 3.1225647e-09 8.191555e-09
4.3604507e-09 9.830246e-10 2.7351605e-09 8.563977e-09 3.897396e-09 1.2334684e-09 4.7735464e-09 8.901751e-09
4.3521364e-09 1.1494089e-09 4.299791e-09 8.927752e-09 3.34363e-09 1.5050025e-09 7.697952e-09 1.0237964e-08
1.9596542e-09 1.98708e-09 7.548675e-09 2.6806461e-09 5.7963016e-11 1.1879654e-08 1.0270116e-06 3.3832076e-11
2.3932428e-14 4.4155106e-09 1.1777528e-09 2.5834115e-10 1.2781198e-15 1.5923327e-10 8.216967e-10 5.422119e-10
2.0221722e-14 1.3840525e-10 1.1347231e-09 2.346328e-10 2.1623538e-14 2.0092056e-10 7.447931e-10 5.570274e-10
1.053362e-11 2.4703958e-10 1.169554e-09 2.381009e-10 1.155794e-11 4.0283823e-10 1.0275231e-09 2.7670727e-10
1.5541759e-11 5.009171e-10 1.2631658e-09 1.11318066e-10 4.887475e-11 7.8302276e-10 3.0353473e-10 2.6255968e-11
1.0699287e-09 2.0537898e-08 4.4738336e-12 1.1467118e-15 7.015034e-10 9.423072e-10 3.1217262e-10 4.7618604e-10
6.325878e-10 1.0222255e-09 2.3189267e-10 5.1498583e-10 6.979172e-10 1.0857119e-09 1.3545254e-10 5.180809e-10

exp_avg f4 [128]
00000000: cb66 86b8 c109 aeb7 7193 8038 4b74 54b7
00000010: 2dcd 3b38 d9e9 43b8 5843 d736 85df 7e36
00000020: 859b 8938 a2b3 4438 1fe0 9336 5d8a 1738
00000030: cb53 57b8 379e ff36 af8e e736 7221 60b6
00000040: edf5 f738 bd4d 84b7 ffae 90b8 9902 3b38
00000050: 4a05 dbb7 ee36 f5b7 2e32 cd35 5053 9bb8
00000060: 334d d0b7 b2e3 8db6 ed0d 9ab7 881b 1db8
00000070: 4bc7 5c38 68ad 9eb8 03cb 72b6 e020 38b8
00000080: 3b2f 5936 fb13 45b8 4ce4 0d39 e680 e538
00000090: ab20 71b8 d48f 4b38 e5c8 6ab7 9a7e a238
000000a0: 54c6 6538 5720 4d37 f90b 47b7 d619 1038
000000b0: 5603 dfb8 d453 af38 62d2 8ab7 36cc 4eb6
000000c0: 9b50 d636 0a64 fc38 2c6f a438 8faf d6b7
000000d0: 85cf f5b7 d29a a8b8 e346 a238 95b8 f2b8
000000e0: f5d6 c338 0e09 05b8 5b3d a7b7 cfc8 cfb7
000000f0: 1e33 a237 1902 51b7 476e fc36 5284 a638
00000100: 532a 2836 52d7 b037 dd10 de37 2b3b d0b6
00000110: 83a1 bc38 7586 9d38 b2e4 89b8 4097 c338
00000120: 02b4 8db7 e54a 7138 ae9f 01b7 94a3 ee37
00000130: 353f da38 a751 94b8 2ee4 de38 a452 0338
00000140: 6f39 36b8 45b3 9f38 feaf 23b8 02ec 50b8
00000150: edab 812f 2589 2bb8 af96 92b7 de1c 3c38
00000160: a110 47b8 e0c8 1eb8 e90f 01b8 bf03 3037
00000170: 9785 8c38 c3f8 a0b8 8c01 97b7 6c00 09b6
00000180: e96d 72b8 5e66 55b7 75a6 0338 ce84 e538
00000190: 8555 01b8 dff9 9038 055f db36 b4f3 86b8
000001a0: 1ea5 4238 0736 0939 9720 9bb7 c5cb 29b8
000001b0: 0dd2 5338 d3cd 3639 3cc9 feb8 9aac ba38
000001c0: 68e4 8ab9 8667 42b8 8c3b 81b7 de30 efb7
000001d0: 1e69 44b8 158b b937 c9d6 2437 c070 5cb8
000001e0: 96c6 08b9 9c19 4938 00b8 cdb7 1895 6535
000001f0: bc7d a8b8 5dbe 10b7 6520 65b8 1fe0 59b6
-6.4087646e-05 -2.0746958e-05 6.130979e-05 -1.2663261e-05 4.477536e-05 -4.670941e-05 6.415339e-06 3.7979055e-06
6.561637e-05 4.6897338e-05 4.4070325e-06 3.6130066e-05 -5.1338033e-05 7.618011e-06 6.900947e-06 -3.3398069e-06
0.00011823685 -1.5771826e-05 -6.899051e-05 4.4586694e-05 -2.6109297e-05 -2.9231855e-05 1.5288294e-06 -7.406494e-05
-2.4831481e-05 -4.2286347e-06 -1.8364715e-05 -3.7457357e-05 5.2637693e-05 -7.5663265e-05 -3.6178978e-06 -4.3899636e-05
3.2363012e-06 -4.698707e-05 0.00013531855 0.0001094358 -5.7489302e-05 4.8532922e-05 -1.3994261e-05 7.748343e-05
5.4782562e-05 1.2226482e-05 -1.1864112e-05 3.4356337e-05 -0.0001063409 8.3602645e-05 -1.6548849e-05 -3.0815258e-06
6.3870807e-06 0.0001203493 7.840837e-05 -2.5592539e-05 -2.930291e-05 -8.039702e-05 7.737966e-05 -0.0001157384
9.3383635e-05 -3.1718104e-05 -1.9936522e-05 -2.4769832e-05 1.9335708e-05 -1.2457859e-05 7.523023e-06 7.9401434e-05
2.5058587e-06 2.1081101e-05 2.6472315e-05 -6.205771e-06 8.9946225e-05 7.511388e-05 -6.575267e-05 9.326497e-05
-1.6892332e-05 5.752863e-05 -7.7261775e-06 2.8447983e-05 0.00010406823 -7.072399e-05 0.00010628287 3.13098e-05
-4.344567e-05 7.6151024e-05 -3.9026134e-05 -4.9810864e-05 2.3587124e-10 -4.0897303e-05 -1.7474724e-05 4.4849578e-05
-4.7460784e-05 -3.7857215e-05 -3.0770814e-05 1.049129e-05 6.700603e-05 -7.67573e-05 -1.8001323e-05 -2.0414836e-06
-5.7799658e-05 -1.2719624e-05 3.138786e-05 0.00010944308 -3.0835643e-05 6.912997e-05 6.5377703e-06 -6.435011e-05
4.640698e-05 0.00013085465 -1.8492616e-05 -4.0482515e-05 5.0501945e-05 0.00017433548 -0.00012149147 8.901321e-05
-0.00026491587 -4.6349618e-05 -1.5405727e-05 -2.8513776e-05 -4.682794e-05 2.2118484e-05 9.82517e-06 -5.2557094e-05
-0.0001304395 4.7945985e-05 -2.4523586e-05 8.552611e-07 -8.034284e-05 -8.627391e-06 -5.4628024e-05 -3.2465975e-06

exp_avg_sq f4 [128]
00000000: b1c1 1432 5a1f 2231 1238 7032 1ad3 0531
00000010: 3628 8132 7824 7b32 aae1 c730 3557 fd30
00000020: 0ffe 3933 97da 8632 65b3 9030 8dc7 3d32
00000030: d3e0 1d33 0bdb 3833 2c7f 7131 b33c 3b31
00000040: ad6e 9833 f89b 2932 3267 1f33 bfe2 be32
00000050: 85ec 2e31 258f 5c32 9f95 6731 c047 1c33
00000060: 7bc9 ba31 98c3 1f32 f764 fc30 a6a9 9732
00000070: 2235 2032 1d0e 0734 dec3 3c31 59f0 9032
00000080: a0f9 4e31 7a08 2d33 5ce0 ae33 df7a 0333
00000090: 9d8e 6531 14f7 7032 b42a 0231 e5c9 c232
000000a0: 5c35 0a33 6fab 9730 8bf6 d331 4833 1133
000000b0: 3375 e832 8b9f 2433 f673 2431 1e9e 7130
000000c0: fb50 b631 3a58 4633 e317 b532 06b3 7631
000000d0: 218e 3231 6091 8533 6ec1 f033 b87e cb32
000000e0: e513 bd33 948d 2833 a4d5 0232 660e b231
000000f0: e547 0632 33e6 bd30 be08 902f 7637 b832
00000100: 2dbf 812f ea63 8131 b969 2032 ba47 6033
00000110: 311f c532 52b2 9e32 3181 fd32 f8fd 9033
00000120: 4ee9 4831 ca36 9a32 e6e8 2431 5222 4532
00000130: a672 e232 c9f7 9932 e891 ad33 36b1 b632
00000140: 3974 8633 859d d732 5816 5632 1fcc a331
00000150: faca 9530 e52a 2833 b5b3 ed2f 3fdb 6331
00000160: ac78 fa31 d411 8032 8a3b 7d32 6e81 5433
00000170: 6d28 3b33 eaa5 d032 94bd 7f31 6126 cf2f
00000180: 61e2 3c32 fcfb 2332 2f53 da31 13a8 3d33
00000190: 6d67 8f32 491e 1034 f5d9 2430 5146 0433
000001a0: 1025 7732 a05d 3833 8791 6532 bb4a 9e33
000001b0: 4d02 d431 1e16 c833 449d 3233 7328 2333
000001c0: 23de 8434 6617 0232 4bbc 0133 7180 4331
000001d0: ed52 8633 54ef c732 9aa2 6631 d0fd 9c32
000001e0: 8a4c 0334 6269 2a32 6704 a832 e263 6030
000001f0: 902e e332 aad8 8130 d15e fa31 d464 4931
8.658774e-09 2.3591924e-09 1.39825875e-08 1.9474045e-09 1.5035862e-08 1.4618415e-08 1.4543293e-09 1.8432958e-09
4.3304734e-08 1.5699056e-08 1.0528366e-09 1.10466205e-08 3.6758887e-08 4.3040057e-08 3.5142405e-09 2.7246585e-09
7.0981834e-08 9.872558e-09 3.7113928e-08 2.2222023e-08 2.5454778e-09 1.2838233e-08 3.3699974e-09 3.6386837e-08
5.436218e-09 9.299491e-09 1.8364109e-09 1.765586e-08 9.325307e-09 1.2577989e-07 2.7468938e-09 1.6873104e-08
3.011884e-09 4.028741e-08 8.143317e-08 3.0612565e-08 3.3404952e-09 1.4026018e-08 1.8941764e-09 2.2676383e-08
3.217916e-08 1.103542e-09 6.168937e-09 3.3807083e-08 2.706165e-08 3.832933e-08 2.3931057e-09 8.789999e-10
5.3061036e-09 4.618071e-08 2.1082036e-08 3.5899475e-09 2.59832e-09 6.219739e-08 1.12110556e-07 2.3689935e-08
8.804617e-08 3.9244313e-08 7.615572e-09 5.1821187e-09 7.8161735e-09 1.3816986e-09 2.619966e-10 2.144564e-08
2.3600802e-10 3.765753e-09 9.337264e-09 5.22193e-08 2.2948003e-08 1.8474712e-08 2.9511826e-08 6.751719e-08
2.9236449e-09 1.7952875e-08 2.3997528e-09 1.1474713e-08 2.6361999e-08 1.7924224e-08 8.0824805e-08 2.1268175e-08
6.261002e-08 2.5100926e-08 1.246152e-08 4.7671302e-09 1.0898866e-09 3.915456e-08 4.3237738e-10 3.3157475e-09
7.2896764e-09 1.4909268e-08 1.4740076e-08 4.9477812e-08 4.3576097e-08 2.4289836e-08 3.7215147e-09 3.768035e-10
1.0994513e-08 9.545143e-09 6.354092e-09 4.4157854e-08 1.6694424e-08 1.3422063e-07 5.997259e-10 3.0797597e-08
1.4385719e-08 4.292599e-08 1.3362643e-08 7.371042e-08 6.1702736e-09 9.317249e-08 4.1586887e-08 3.7988183e-08
2.4748542e-07 7.572316e-09 3.0206404e-08 2.8449245e-09 6.2549454e-08 2.3275483e-08 3.3561833e-09 1.827621e-08
1.222817e-07 9.919264e-09 1.9559776e-08 8.163267e-10 2.6447452e-08 9.447565e-10 7.286737e-09 2.9306664e-09
