results/TestDrive01/ParkingCar/ParkingCar-512.pt (torch, 179650 bytes, 12 tensors)

network_body._body_endoder.seq_layers.0.weight f4 [128, 35]
-0.06889485 0.015118247 -0.093306266 0.008920367 -0.07723089 -0.08186472 -0.2375779 0.05465658
-0.25457534 -0.08801595 -0.06412354 -0.17143239 0.2013381 0.07528987 -0.2550033 0.04209392
-0.1996641 0.09617495 -0.117369205 -0.24840009 -0.22040035 -0.13025326 0.53424805 -0.09476984
0.11161105 -0.03288536 -0.21999142 -0.26794386 0.16335697 0.13586365 -0.12938643 0.2311904
-0.22136556 -0.24406064 -0.025355862 -0.24293256 -0.1660963 -0.17324811 -0.0918514 0.03264407
-0.04989715 -0.08253803 -0.19342697 0.16299692 -0.07140375 0.16812272 -0.059721258 0.076506734
0.06680988 0.0074351323 -0.018244335 0.038288835 0.03501673 -0.12741892 0.16669013 -0.13352014
-0.055961516 -0.0036233137 0.41246623 0.09275484 -0.29195434 -0.37532184 -0.02663903 -0.072017364
0.124518655 0.019371487 0.089381106 -0.005509892 -0.4882611 -0.1704695 -0.1622413 -0.11104568
0.051350538 0.10435706 0.1587313 -0.008000893 0.023793522 0.012592468 -0.06275424 0.093804084
0.16153459 -0.24498594 -0.19549084 -0.050051857 -0.06059629 -0.086813256 -0.27629465 0.0077391653
-0.13863254 -0.18056186 0.12151257 -0.17414828 -0.06429347 -0.16960232 -0.1655864 -0.022960575
0.10484307 0.077497646 -0.21591662 0.12046393 0.025036046 -0.17290169 -0.20493665 0.20412572
-0.128178 -0.16079655 -0.103364974 0.040706653 0.21511726 0.29555243 0.123226985 -0.07127395
-0.06506248 -0.06005175 -0.10255501 -0.2526 0.37551555 -0.20661181 -0.031855747 -0.27007172
0.17463474 0.1120213 -0.17004061 0.015817119 0.08738027 0.2678076 0.14663789 -0.21013427
-0.31316942 0.0026787252 -0.14561053 -0.06385984 -0.064631596 0.06400009 0.278236 0.27658182
-0.18653888 -0.27541456 -0.05830967 -0.104659356 -0.14308389 -0.09473468 0.009182673 -0.37146512
0.12735936 -0.18763062 0.017424988 -0.056847382 -0.24434239 -0.13268813 0.22233742 0.02193553
-0.34101996 -0.07386162 -0.18489847 -0.077400036 0.010212309 0.11789575 -0.08021563 0.3222881
0.07637958 -0.1473295 -0.196298 -0.26378578 0.1755149 -0.061870955 0.28723907 -0.060898468
-0.07874991 -0.15278508 0.07498109 0.10374815 -0.06505199 -0.1633069 -0.15096958 -0.40923858
-0.3925216 -0.113886364 -0.38568428 0.027326588 -0.051988896 -0.19874705 0.29864916 -0.07451385
-0.06066475 -0.25086504 -0.40356112 0.0346865 0.036832146 0.13364567 -0.034822036 -0.54482186
-0.42721823 0.040992033 -0.16723476 0.28590068 -0.06925676 -0.057875875 0.09043435 -0.42697614
0.17020342 -0.19827418 -0.03139526 -0.16949488 -0.14501178 0.16886745 0.21498792 -0.08694722
0.026282623 0.08483766 -0.013916164 0.3143612 0.22226986 -0.10952711 -0.14586769 0.0050288825
0.0889126 -0.032164767 0.0817997 0.05125006 0.07232807 -0.132989 -0.057008006 0.015044684
0.2436479 -0.081626356 -0.09840519 -0.16954356 0.21277626 0.06520907 0.30562633 -0.05110748
-0.363227 -0.15602249 0.10817863 0.40505794 0.16641475 0.091065034 -0.1121167 0.24939923
-0.26089266 0.041412085 0.15549782 -0.04655489 -0.14973424 -0.09822594 -0.08262294 0.164793
-0.021132667 0.29686716 -0.1641249 0.37136927 -0.009042752 0.3328213 0.08238863 0.19926582
00000000: be18 8dbd 86b2 773c 5b17 bfbd bb26 123c
00000010: 3b2b 9ebd b1a8 a7bd 9f47 73be 94df 5f3d
00000020: b357 82be b541 b4bd 3453 83bd f98b 2fbe
00000030: 932b 4e3e 9331 9a3d cb8f 82be ad6a 2c3d
00000040: bf74 4cbe 5ff7 c43d 445f f0bd 985c 7ebe
00000050: a1b0 61be 1c61 05be 7bc4 083f b116 c2bd
00000060: 5694 e43d cdb2 06bd 6e45 61be f02f 89be
00000070: 0d47 273e d71f 0b3e e07d 04be 2dbd 6c3e
00000080: a7ad 62be 08eb 79be 19b7 cfbc 50c3 78be
00000090: 2615 2abe f467 31be 961c bcbd cab5 053d
000000a0: f460 4cbd b309 a9bd b811 46be aae8 263e
000000b0: 213c 92bd 5d28 2c3e 479e 74bd 90af 9c3d
000000c0: 9ed3 883d 69a2 f33b 2575 95bc c1d4 1c3d
000000d0: b46d 0f3d 1b7a 02be d1b0 2a3e 81b9 08be
000000e0: e737 65bd 1e75 6dbb c62e d33e 40f6 bd3d
000000f0: 0a7b 95be 2f2a c0be 183a dabc d77d 93bd
00000100: a303 ff3d f4b0 9e3c 710d b73d 538c b4bb
00000110: 5cfd f9be 8e8f 2ebe 9522 26be eb6b e3bd
00000120: f154 523d 27b9 d53d 758a 223e 2d16 03bc
00000130: a2ea c23c a450 4e3c 4c85 80bd 5b1c c03d
00000140: 5369 253e 98dd 7abe c02e 48be 2d03 4dbd
00000150: d133 78bd 26cb b1bd 7e76 8dbe d398 fd3b
00000160: b0f5 0dbe 35e5 38be 95db f83d ed53 32be
00000170: 4bac 83bd 3bac 2dbe 7b8f 29be d117 bcbc
00000180: f7b7 d63d 16b7 9e3d 3f19 5dbe cbb5 f63d
00000190: 6518 cd3c 240d 31be eada 51be 5506 513e
000001a0: 1841 03be daa7 24be 04b1 d3bd 05bc 263d
000001b0: b347 5c3e a652 973e 6e5e fc3d 14f8 91bd
000001c0: 7a3f 85bd d3f8 75bd 5c08 d2bd ca54 81be
000001d0: 9343 c03e 0c92 53be 2c7b 02bd d746 8abe
000001e0: 73d3 323e 6c6b e53d 201f 2ebe e792 813c
000001f0: 6df4 b23d 141e 893e 3e28 163e 702d 57be
00000200: be57 a0be 8d8d 2f3b ed1a 15be f3c8 82bd
00000210: 925d 84bd 7b12 833d f374 8e3e 229c 8d3e
00000220: 0c04 3fbe 2303 8dbe 1fd6 6ebd a557 d6bd
00000230: 9584 12be 4204 c2bd ec72 163c ad30 bebe
00000240: 7e6a 023e 3e22 40be d9be 8e3c cdd8 68bd
00000250: e434 7abe 66df 07be 6cac 633e 24b2 b33c
00000260: 2b9a aebe c344 97bd 0656 3dbe e983 9ebd
00000270: 8751 273c 5473 f13d 1848 a4bd f202 a53e
00000280: e66c 9c3d 8bdd 16be 5802 49be ee0e 87be
00000290: 2eba 333e 666c 7dbd 0011 933e ac70 79bd
000002a0: a247 a1bd b173 1cbe b08f 993d e979 d43d
000002b0: fa39 85bd ed39 27be c597 1abe b887 d1be
000002c0: 97f8 c8be 413d e9bd 6978 c5be 02dc df3c
000002d0: 4ff2 54bd 5984 4bbe 8be8 983e b89a 98bd
000002e0: 9a7b 78bd 6271 80be 909f cebe 6e13 0e3d
000002f0: 4edd 163d 69da 083e 8da1 0ebd 7279 0bbf
00000300: 59bc dabe 43e7 273d 973f 2bbe 9361 923e
00000310: 7dd6 8dbd 410f 6dbd a535 b93d 9e9c dabe
00000320: ce49 2e3e 6308 4bbe 5198 00bd 1190 2dbe
00000330: f87d 14be 97eb 2c3e cb25 5c3e 6211 b2bd
00000340: a84e d73c 5ebf ad3d 9f00 64bc f4f3 a03e
00000350: b69a 633e c04f e0bd 575e 15be 53c9 a43b
00000360: cf17 b63d 34bf 03bd 9a86 a73d 95eb 513d
00000370: bd20 943d 452e 08be 3a81 69bd fa7d 763c
00000380: d67e 793e b82b a7bd a988 c9bd d49c 2dbe
00000390: 05e2 593e 558c 853d 0e7b 9c3e 1456 51bd
000003a0: e4f8 b9be 5cc4 1fbe c28c dd3d c163 cf3e
000003b0: a168 2a3e 4e80 ba3d 719d e5bd 8362 7f3e
000003c0: b993 85be b89f 293d d23a 1f3e 57b0 3ebd
000003d0: ef53 19be ae2a c9bd 3736 a9bd 7fbf 283e
000003e0: 6a1e adbc f9fe 973e 5c10 28be 1d24 be3e
000003f0: 0d28 14bc 8e67 aa3e 5fbb a83d 570c 4c3e

network_body._body_endoder.seq_layers.0.bias f4 [128]
0.0 0.0 0.0 0.0 0.0 0.0 0.0 0.0
0.0 0.0 0.0 0.0 0.0 0.0 0.0 0.0
0.0 0.0 0.0 0.0 0.0 0.0 0.0 0.0
0.0 0.0 0.0 0.0 0.0 0.0 0.0 0.0
0.0 0.0 0.0 0.0 0.0 0.0 0.0 0.0
0.0 0.0 0.0 0.0 0.0 0.0 0.0 0.0
0.0 0.0 0.0 0.0 0.0 0.0 0.0 0.0
0.0 0.0 0.0 0.0 0.0 0.0 0.0 0.0
0.0 0.0 0.0 0.0 0.0 0.0 0.0 0.0
0.0 0.0 0.0 0.0 0.0 0.0 0.0 0.0
0.0 0.0 0.0 0.0 0.0 0.0 0.0 0.0
0.0 0.0 0.0 0.0 0.0 0.0 0.0 0.0
0.0 0.0 0.0 0.0 0.0 0.0 0.0 0.0
0.0 0.0 0.0 0.0 0.0 0.0 0.0 0.0
0.0 0.0 0.0 0.0 0.0 0.0 0.0 0.0
0.0 0.0 0.0 0.0 0.0 0.0 0.0 0.0
00000000: 0000 0000 0000 0000 0000 0000 0000 0000
00000010: 0000 0000 0000 0000 0000 0000 0000 0000
00000020: 0000 0000 0000 0000 0000 0000 0000 0000
00000030: 0000 0000 0000 0000 0000 0000 0000 0000
00000040: 0000 0000 0000 0000 0000 0000 0000 0000
00000050: 0000 0000 0000 0000 0000 0000 0000 0000
00000060: 0000 0000 0000 0000 0000 0000 0000 0000
00000070: 0000 0000 0000 0000 0000 0000 0000 0000
00000080: 0000 0000 0000 0000 0000 0000 0000 0000
00000090: 0000 0000 0000 0000 0000 0000 0000 0000
000000a0: 0000 0000 0000 0000 0000 0000 0000 0000
000000b0: 0000 0000 0000 0000 0000 0000 0000 0000
000000c0: 0000 0000 0000 0000 0000 0000 0000 0000
000000d0: 0000 0000 0000 0000 0000 0000 0000 0000
000000e0: 0000 0000 0000 0000 0000 0000 0000 0000
000000f0: 0000 0000 0000 0000 0000 0000 0000 0000
00000100: 0000 0000 0000 0000 0000 0000 0000 0000
00000110: 0000 0000 0000 0000 0000 0000 0000 0000
00000120: 0000 0000 0000 0000 0000 0000 0000 0000
00000130: 0000 0000 0000 0000 0000 0000 0000 0000
00000140: 0000 0000 0000 0000 0000 0000 0000 0000
00000150: 0000 0000 0000 0000 0000 0000 0000 0000
00000160: 0000 0000 0000 0000 0000 0000 0000 0000
00000170: 0000 0000 0000 0000 0000 0000 0000 0000
00000180: 0000 0000 0000 0000 0000 0000 0000 0000
00000190: 0000 0000 0000 0000 0000 0000 0000 0000
000001a0: 0000 0000 0000 0000 0000 0000 0000 0000
000001b0: 0000 0000 0000 0000 0000 0000 0000 0000
000001c0: 0000 0000 0000 0000 0000 0000 0000 0000
000001d0: 0000 0000 0000 0000 0000 0000 0000 0000
000001e0: 0000 0000 0000 0000 0000 0000 0000 0000
000001f0: 0000 0000 0000 0000 0000 0000 0000 0000

network_body._body_endoder.seq_layers.2.weight f4 [128, 128]
-0.01890782 0.012304157 -0.09258165 -0.051002253 -0.018629773 -0.08015883 -0.12377607 0.017922277
-0.033803016 0.009326105 -0.19852123 0.19149484 0.025969753 -0.00615964 -0.06637581 -0.043827344
0.01319896 0.09511043 -0.010568969 -0.0715619 0.016224835 0.06347223 0.020130547 -0.04964884
-0.012437814 0.049292352 -0.112485535 -0.112404786 0.13384114 -0.06500949 0.14062722 0.032904275
0.012026184 -0.094969295 -0.035014775 0.08146652 0.018982194 -0.026859393 -0.18808296 -0.030438827
9.8958095e-05 0.14537124 -0.01603389 0.1351093 -0.05081587 0.009122005 -0.068556726 -0.16595545
0.023406547 -0.03805631 -0.16696943 -0.09323955 -0.12400476 0.018577076 -0.112180926 0.004010538
-0.08427912 0.09801537 -0.053196177 0.17127126 -0.06863411 -0.09246296 -0.056552086 -0.01574328
0.06929333 -0.072644494 0.01770546 -0.059908666 -0.059613388 0.00012072654 -0.046509404 0.068740584
0.04325261 -0.054915745 0.08857724 -0.08895699 -0.027091743 0.0038656378 0.061113983 0.018992936
-0.12074179 -0.20546755 0.13262355 0.07414266 -0.10543791 0.13574745 0.13441858 -0.068667814
-0.039550517 0.030062037 -0.073852666 -0.02840584 0.031513605 0.14427778 0.0116283335 0.034741487
0.009175784 -0.16369027 0.1588265 0.043087438 -0.13688643 -0.061162382 0.012141723 -0.06428619
0.05639737 0.15138973 -0.042834852 -0.023661077 0.047832526 -0.13666703 0.1291024 0.10373227
-0.11236446 0.11285417 0.14957987 0.09596085 0.072949596 -0.024966002 0.124555536 -0.03541877
-0.18133962 0.13994251 0.027233409 0.04643491 -0.114258945 -0.03993673 -0.04170087 -0.05765634
0.021681052 -0.0154677285 0.0024643408 -0.010707014 -0.036185607 -0.07815429 -0.082611606 0.041769993
0.14095926 -0.046912976 0.010077628 -0.11289413 -0.010383669 0.20561638 -0.09228855 -0.059188727
-0.004605975 -0.1882824 -0.01698859 0.054898635 -0.15129167 -0.059997365 0.044968754 -0.041641682
-0.013101224 -0.044521745 0.07022196 0.04260027 -0.01855454 0.08358787 -0.026549542 0.01869628
-0.069121666 0.03511397 0.06532863 -0.18913741 -0.20997153 0.044644814 -0.038527366 -0.022281421
0.053972706 0.033421803 -0.18115155 -0.09166655 0.015539946 -0.12117818 -0.036011092 0.02074586
0.061006054 -0.041773655 -0.0511474 0.0147349965 0.04507968 0.1303314 0.057087854 0.015409584
-0.14536367 0.25217617 -0.06018886 0.15657988 -0.057826508 0.01520176 -0.069600664 0.0072063976
-0.036777746 -0.05273223 -0.08815868 -0.1254685 0.007889019 0.059093162 -0.044968322 -0.009221608
-0.035407897 -0.010372103 -0.15055814 -0.026183536 0.051486116 -0.15134989 0.22765464 -0.0046355594
-0.1034312 -0.057535063 0.19183648 -0.06967059 -0.012786382 0.0381532 0.039886814 -0.09862305
0.049609702 0.044879507 0.05088346 0.028440172 -0.04196625 -0.06348225 0.07111489 0.025269246
0.10412149 0.112580955 0.027978456 0.09114334 0.0093686115 0.017113106 -0.19119759 -0.15933262
-0.009960916 0.06819397 -0.03849685 0.01104267 0.05043546 0.049146213 -0.056408916 0.009749449
-0.058055338 0.035467163 0.002658192 0.02725415 0.16717628 -0.03170347 -0.0025768415 0.082463615
0.16219331 0.1102934 0.104809076 0.053907983 -0.18491131 -0.0482624 0.045048736 0.100843206
00000000: 93e4 9abc 6097 493c 739b bdbd bde7 50bd
00000010: 779d 98bc 502a a4bd 4f7e fdbd bdd1 923c
00000020: 0875 0abd 85cc 183c 2649 4bbe 3917 443e
00000030: 85be d43c ced6 c9bb 0af0 87bd 4d84 33bd
00000040: 7340 583c 42c9 c23d 7829 2dbc 0c8f 92bd
00000050: f2e9 843c bbfd 813d d1e8 a43c 955c 4bbd
00000060: f9c7 4bbc c7e6 493d d15e e6bd 7b34 e6bd
00000070: a70d 093e b223 85bd 9500 103e a2c6 063d
00000080: 7909 453c 437f c2bd a76b 0fbd ebd7 a63d
00000090: 8c80 9b3c 3b08 dcbc d298 40be d95a f9bc
000000a0: b987 cf38 33dc 143e 8159 83bc 185a 0a3e
000000b0: 4d24 50bd 7674 153c 7867 8cbd 3af0 29be
000000c0: 16bf bf3c efe0 1bbd 09fa 2abe 61f4 bebd
000000d0: 35f6 fdbd f42e 983c 1dbf e5bd d56a 833b
000000e0: 889a acbd 48bc c83d 3ce4 59bd bc61 2f3e
000000f0: 0a90 8cbd 385d bdbd 29a3 67bd 0df8 80bc
00000100: a9e9 8d3d a3c6 94bd 0a0b 913c ca62 75bd
00000110: 2b2d 74bd 912e fd38 a580 3ebd ddc7 8c3d
00000120: a629 313d 55ef 60bd fc67 b53d 152f b6bd
00000130: 81ef ddbc a456 7d3b a852 7a3d 1397 9b3c
00000140: 7947 f7bd 1666 52be 78ce 073e 1bd8 973d
00000150: d5ef d7bd 6101 0b3e 06a5 093e b6a1 8cbd
00000160: b9ff 21bd a944 f63c 1140 97bd 5db3 e8bc
00000170: 6914 013d 8ebd 133e c484 3e3c 174d 0e3d
00000180: 0756 163c 6c9e 27be 6aa3 223e 747c 303d
00000190: f52b 0cbe 6885 7abd 14ee 463c 7aa8 83bd
000001a0: ee00 673d e905 1b3e 9973 2fbd e0d4 c1bc
000001b0: 0aec 433d 71f2 0bbe 6b33 043e 9671 d43d
000001c0: 571f e6bd 1620 e73d 772b 193e 1f87 c43d
000001d0: 9966 953d 8085 ccbc f916 ff3d 4613 11bd
000001e0: 18b1 39be 174d 0f3e 9918 df3c 8832 3e3d
000001f0: 9800 eabd b294 23bd 88ce 2abd 0e29 6cbd
00000200: 769c b13c 5b6c 7dbc c780 213b 796c 2fbc
00000210: 5c37 14bd 5b0f a0bd 4630 a9bd 0317 2b3d
00000220: a057 103e d227 40bd a31c 253c 0a35 e7bd
00000230: 4420 2abc 1a8d 523e c801 bdbd e16f 72bd
00000240: b8ed 96bb 1acd 40be a82b 8bbc 64dd 603d
00000250: 34ec 1abe ccbf 75bd 2831 383d 7890 2abd
00000260: 84a6 56bc 6f5c 36bd 88d0 8f3d 9f7d 2e3d
00000270: b1ff 97bc 1e30 ab3d 6d7e d9bc f128 993c
00000280: a98f 8dbd abd3 0f3d 04cb 853d 3dad 41be
00000290: c702 57be 7bdd 363d dfce 1dbd 8787 b6bc
000002a0: 7c12 5d3d 4de5 083d cb7f 39be acbb bbbd
000002b0: 429b 7e3c 442c f8bd 5e80 13bd 39f3 a93c
000002c0: 7ce1 793d da1a 2bbd f07f 51bd 0e6b 713c
000002d0: 78a5 383d 9875 053e f4d4 693d 7b78 7c3c
000002e0: 37da 14be 3c1d 813e 9888 76bd 7a56 203e
000002f0: 7ddb 6cbd ce10 793c cb8a 8ebd a523 ec3b
00000300: 43a4 16bd c0fd 57bd 8a8c b4bd d17a 00be
00000310: f240 013c ac0b 723d b430 38bd 3a16 17bc
00000320: df07 11bd c1ef 29bc ea2b 1abe db7e d6bc
00000330: 1be3 523d 77fb 1abe 4c1e 693e e4e5 97bb
00000340: bdd3 d3bd e3a9 6bbd c870 443e 74af 8ebd
00000350: f97d 51bc 8846 1c3d 5b60 233d e2fa c9bd
00000360: 8b33 4b3d 93d3 373d 2d6b 503d 5dfb e83c
00000370: cde4 2bbd fb02 82bd afa4 913d 7301 cf3c
00000380: a63d d53d d890 e63d 1333 e53c 5ca9 ba3d
00000390: ce7e 193c c930 8c3c 4dc9 43be 1728 23be
000003a0: 1c33 23bc 48a9 8b3d dfae 1dbd 51ec 343c
000003b0: 6a95 4e3d 8a4d 493d 090d 67bd 27bc 1f3c
000003c0: 6fcb 6dbd 0446 113d 1035 2e3b 1844 df3c
000003d0: 4230 2b3e 7fdb 01bd 3ae0 28bb afe2 a83d
000003e0: 0116 263e 82e1 e13d 24a6 d63d 9ece 5c3d
000003f0: 6459 3dbe cbae 45bd 0685 383d e286 ce3d

network_body._body_endoder.seq_layers.2.bias f4 [128]
0.0 0.0 0.0 0.0 0.0 0.0 0.0 0.0
0.0 0.0 0.0 0.0 0.0 0.0 0.0 0.0
0.0 0.0 0.0 0.0 0.0 0.0 0.0 0.0
0.0 0.0 0.0 0.0 0.0 0.0 0.0 0.0
0.0 0.0 0.0 0.0 0.0 0.0 0.0 0.0
0.0 0.0 0.0 0.0 0.0 0.0 0.0 0.0
0.0 0.0 0.0 0.0 0.0 0.0 0.0 0.0
0.0 0.0 0.0 0.0 0.0 0.0 0.0 0.0
0.0 0.0 0.0 0.0 0.0 0.0 0.0 0.0
0.0 0.0 0.0 0.0 0.0 0.0 0.0 0.0
0.0 0.0 0.0 0.0 0.0 0.0 0.0 0.0
0.0 0.0 0.0 0.0 0.0 0.0 0.0 0.0
0.0 0.0 0.0 0.0 0.0 0.0 0.0 0.0
0.0 0.0 0.0 0.0 0.0 0.0 0.0 0.0
0.0 0.0 0.0 0.0 0.0 0.0 0.0 0.0
0.0 0.0 0.0 0.0 0.0 0.0 0.0 0.0
00000000: 0000 0000 0000 0000 0000 0000 0000 0000
00000010: 0000 0000 0000 0000 0000 0000 0000 0000
00000020: 0000 0000 0000 0000 0000 0000 0000 0000
00000030: 0000 0000 0000 0000 0000 0000 0000 0000
00000040: 0000 0000 0000 0000 0000 0000 0000 0000
00000050: 0000 0000 0000 0000 0000 0000 0000 0000
00000060: 0000 0000 0000 0000 0000 0000 0000 0000
00000070: 0000 0000 0000 0000 0000 0000 0000 0000
00000080: 0000 0000 0000 0000 0000 0000 0000 0000
00000090: 0000 0000 0000 0000 0000 0000 0000 0000
000000a0: 0000 0000 0000 0000 0000 0000 0000 0000
000000b0: 0000 0000 0000 0000 0000 0000 0000 0000
000000c0: 0000 0000 0000 0000 0000 0000 0000 0000
000000d0: 0000 0000 0000 0000 0000 0000 0000 0000
000000e0: 0000 0000 0000 0000 0000 0000 0000 0000
000000f0: 0000 0000 0000 0000 0000 0000 0000 0000
00000100: 0000 0000 0000 0000 0000 0000 0000 0000
00000110: 0000 0000 0000 0000 0000 0000 0000 0000
00000120: 0000 0000 0000 0000 0000 0000 0000 0000
00000130: 0000 0000 0000 0000 0000 0000 0000 0000
00000140: 0000 0000 0000 0000 0000 0000 0000 0000
00000150: 0000 0000 0000 0000 0000 0000 0000 0000
00000160: 0000 0000 0000 0000 0000 0000 0000 0000
00000170: 0000 0000 0000 0000 0000 0000 0000 0000
00000180: 0000 0000 0000 0000 0000 0000 0000 0000
00000190: 0000 0000 0000 0000 0000 0000 0000 0000
000001a0: 0000 0000 0000 0000 0000 0000 0000 0000
000001b0: 0000 0000 0000 0000 0000 0000 0000 0000
000001c0: 0000 0000 0000 0000 0000 0000 0000 0000
000001d0: 0000 0000 0000 0000 0000 0000 0000 0000
000001e0: 0000 0000 0000 0000 0000 0000 0000 0000
000001f0: 0000 0000 0000 0000 0000 0000 0000 0000

action_model._continuous_distribution.log_sigma f4 [1, 2]
0.0 0.0
00000000: 0000 0000 0000 0000

action_model._continuous_distribution.mu.weight f4 [2, 128]
0.010052882 0.00797217 0.008023141 -0.008883025 0.026532395 0.011006758 -0.0047106375 -0.0075389505
0.02468731 -0.029294817 0.007249181 -0.016162042 -0.001856445 -0.0036402307 -0.019217359 0.021940662
-0.028509963 0.014117665 -0.0026227187 0.021440206 -0.013749974 -0.014520462 0.017990706 -0.02259381
-0.014847661 0.022899693 -0.00011488145 0.0042773425 -0.005215469 -0.0079448465 -0.015391307 0.029452622
-0.03345187 -0.015047689 -0.023130765 0.01188967 -0.01929041 -0.011096602 -0.008961524 0.023320789
0.0048569287 -0.017978972 -0.015247527 0.013011801 -0.013005837 0.01942849 -0.012069236 -0.01574949
-0.008978639 -0.013515137 0.0073699965 -0.010120827 -0.04629567 0.010078638 0.009971912 -0.0148915965
0.013827733 0.0069809677 -0.0115371235 0.0047410293 -0.004215215 0.012799687 -0.007555086 -0.0069745863
4.2603788e-05 0.008685971 0.020396357 0.046618383 0.02059937 -0.002407503 -0.024546964 0.051708896
0.02885418 -0.0010544659 0.025473837 -0.009424394 0.038523328 -0.03241085 -0.0050595896 -0.0073120794
-0.01615884 -0.030062377 0.018172137 0.012779705 -0.01930176 0.040683046 0.005097688 -0.00399553
0.0020607754 0.041141596 0.017524747 0.009893182 0.017394451 -0.019986352 -0.010376517 0.02263772
-0.00779676 -0.0091045275 -0.012214119 0.0053882413 -0.00030359227 0.04470402 0.014283322 -0.005113235
0.024748996 0.01958319 -0.00039678952 0.015037322 0.020224327 -0.008063001 0.015472742 -0.0061522606
-0.003584106 0.022883745 -0.0066049704 -0.0062897466 0.026353193 -0.007941367 0.0110817505 0.013380393
0.014531921 -0.0017127031 0.011567789 0.0013392805 -0.032309074 0.002042807 0.003710606 -0.0050972137
0.011124695 0.010945942 -0.002737865 0.0076628397 -0.03668471 0.0263295 -0.0076609217 -0.007779494
-0.010069332 0.0035718635 -0.018073767 -0.02587879 -0.031225225 0.017483754 0.030141205 -0.009148498
-0.010351997 0.006432014 0.036398992 -0.029602546 -0.0030934985 0.014359648 -0.025952263 0.009583274
-0.014903516 -0.029566262 -0.013065233 -0.014020823 -0.018815195 -0.014169796 0.0034494386 0.009259145
-0.007868147 0.023785358 0.00040268307 -0.0035844545 -0.008238573 -0.008382219 -0.018139277 0.020350972
-0.007260173 -0.029315254 0.0071203946 0.018771224 0.008322861 0.0020194768 0.0034591637 -0.00040575006
0.0037023213 -0.008700027 0.0050843074 0.020189371 -0.029963037 -0.010271813 -0.006437089 -0.0019318787
-0.0022910424 -0.02185924 -0.005476115 0.004070424 -0.022686195 -0.036619104 0.0065528746 -0.027534876
0.021980511 -0.004689501 -0.025266781 -0.019944763 0.010195024 -0.032591745 0.006213618 0.0054835496
-0.044109974 -0.02946178 0.007433161 0.00035514528 -0.0135091785 0.02879527 -0.017622774 -0.026128372
0.00038433596 0.0047763316 -0.017432204 -0.006334459 -0.021660915 -0.019805828 0.013413011 -0.0015807197
0.006880045 -0.006158439 -0.010198563 0.024967825 -0.022672761 0.0028650197 0.031069992 -0.040457077
0.0028614851 -0.010838485 0.03127725 0.0047458983 0.017637763 0.0010363564 0.0005083471 -0.020835156
0.0006364056 0.03750352 -0.038763862 0.021828027 -0.0052310424 -0.0010789459 -0.00207902 0.016270658
-0.018416634 -0.015629625 -0.00044745492 -0.010447373 -0.0032383748 -0.022253169 -0.026531035 0.01059957
-0.0056440295 0.011695742 -0.011150973 -0.0075354204 0.016536744 -0.00576713 -0.020418754 -0.0039793747
00000000: d8b4 243c b49d 023c 7e73 033c 1b8a 11bc
00000010: 775a d93c b055 343c b15b 9abb 4d09 f7bb
00000020: 0b3d ca3c affb efbc 8a8a ed3b 4266 84bc
00000030: f553 f3ba f090 6ebb b96d 9dbc e7bc b33c
00000040: ba8d e9bc c74d 673c ebe1 2bbb 5fa3 af3c
00000050: 9247 61bc 3be7 6dbc 3f61 933c a716 b9bc
00000060: 9b43 73bc 2398 bb3c 82ec f0b8 f328 8c3b
00000070: 86e6 aabb 1a2b 02bc d22b 7cbc a046 f13c
00000080: d404 09bd 958a 76bc bb7c bdbc e4cc 423c
00000090: ec06 9ebc 86ce 35bc 5bd3 12bc 3d0b bf3c
000000a0: df26 9f3b a348 93bc c3d0 79bc 732f 553c
000000b0: 6f16 55bc 7f28 9f3c 0bbe 45bc 1305 81bc
000000c0: 241b 13bc 986e 5dbc 0380 f13b d3d1 25bc
000000d0: 87a0 3dbd df20 253c 3b61 233c e2fb 73bc
000000e0: b78d 623c 9ac0 e43b 3406 3dbc a35a 9b3b
000000f0: c91f 8abb c7b5 513c a890 f7bb 128b e4bb
00000100: 78b1 3238 9a4f 0e3c 4316 a73c ebf2 3e3d
00000110: 03c0 a83c 33c7 1dbb b716 c9bc b5cc 533d
00000120: 9a5f ec3c 0136 8aba 82ae d03c c668 1abc
00000130: a3ca 1d3d 3dc1 04bd eaca a5bb 2b9a efbb
00000140: 8b5f 84bc 6045 f6bc bcdd 943c f861 513c
00000150: b91e 9ebc 44a3 263d 820a a73b efec 82bb
00000160: 130e 073b 1784 283d 0f90 8f3c 0317 223c
00000170: cf7e 8e3c 6bba a3bc 4402 2abc bd72 b93c
00000180: f77b ffbb 282b 15bc ba1d 48bc d88f b03b
00000190: 772b 9fb9 901b 373d 9804 6a3c ed8c a7bb
000001a0: 68be ca3c ed6c a03c 3008 d0b9 1a5f 763c
000001b0: 7dad a53c ad1a 04bc 6281 7d3c e798 c9bb
000001c0: 52e3 6abb b176 bb3c 826e d8bb 381a cebb
000001d0: a7e2 d73c 821c 02bc 3b90 353c 7039 5b3c
000001e0: 4b17 6e3c c87c e0ba d386 3d3c cc8a af3a
000001f0: 8556 04bd 9de0 053b a32d 733b 8706 a7bb
00000200: 5a44 363c 9c56 333c c16d 33bb 8f18 fb3b
00000210: b542 16bd f7b0 d73c 7808 fbbb 20eb febb
00000220: d7f9 24bc ed15 6a3b 700f 94bc c2ff d3bc
00000230: 0bcc ffbc 173a 8f3c b0ea f63c 95e3 15bc
00000240: 6c9b 29bc a5c3 d23b 1c17 153d 0a81 f2bc
00000250: 4bbc 4abb bb44 6b3c d799 d4bc 2a03 1d3c
00000260: e02d 74bc f234 f2bc 8f0f 56bc 98b7 65bc
00000270: 5322 9abc 6f28 68bc fa0f 623b abb3 173c
00000280: 67e9 00bc 83d9 c23c 351f d339 2be9 6abb
00000290: 14fb 06bc 9355 09bc d298 94bc 15b7 a63c
000002a0: bfe6 edbb 8b26 f0bc 3352 e93b 1cc6 993c
000002b0: 9c5c 083c 3359 043b 23b3 623b daba d4b9
000002c0: a5a2 723b 8f8a 0ebc 439a a63b 2e64 a53c
000002d0: 0b75 f5bc 1b4b 28bc 37ee d2bb 1837 fdba
000002e0: 5025 16bb 2612 b3bc fb70 b3bb 3161 853b
000002f0: 66d8 b9bc eafd 15bd 7fb9 d63b d290 e1bc
00000300: 7910 b43c 63aa 99bb 48fc cebc 3363 a3bc
00000310: 0809 273c ec7e 05bd 9b9b cb3b 59af b33b
00000320: a9ac 34bd d559 f1bc e091 f33b cb32 ba39
00000330: 9a55 5dbc 0fe4 eb3c a35d 90bc 2b0b d6bc
00000340: b380 c939 c682 9c3b fbcd 8ebc 4b91 cfbb
00000350: 3b72 b1bc d53f a2bc 3fc2 5b3c 2730 cfba
00000360: 0072 e13b bbcc c9bb e017 27bc 5389 cc3c
00000370: 3abc b9bc 0ec3 3b3b 7f86 fe3c 52b6 25bd
00000380: c187 3b3b e793 31bc 931c 003d 7b83 9b3b
00000390: 127d 903c 5ad6 873a 9942 053a 7dae aabc
000003a0: 75d4 263a 4a9d 193d dbc6 1ebd b1d0 b23c
000003b0: 2a69 abbb 6b6b 8dba 2b40 08bb 0b4a 853c
000003c0: 7bde 96bc b309 80bc 6298 eab9 752b 2bbc
000003d0: ea3a 54bb 474c b6bc 9d57 d9bc d2a9 2d3c
000003e0: 8df1 b8bb 7f9f 3f3c 92b2 36bc b0eb f6bb
000003f0: 1178 873c 31fa bcbb 3b45 a7bc 6a65 82bb

action_model._continuous_distribution.mu.bias f4 [2]
0.0 0.0
00000000: 0000 0000 0000 0000

network_body._body_endoder.seq_layers.0.weight f4 [128, 35]
0.19161619 -0.13322362 0.19753774 0.091599494 0.18691023 -0.060348004 0.34848076 -0.014481521
0.12277038 -0.16356948 0.043247264 0.18479156 -0.10706749 0.04871334 0.15682362 -0.16196351
-0.015582129 -0.016245475 -0.05146787 0.0092810765 -0.359534 0.015943285 -0.095979355 -0.12872934
-0.2702461 0.054930236 0.11585045 0.07895891 0.0051039997 -0.05574847 0.15270148 0.094560474
-0.2121134 -0.38390175 -0.038290396 -0.17562151 0.1207644 0.15455015 0.13901725 -0.040724058
0.12300326 -0.10772457 -0.21764442 0.037055224 -0.008328357 -0.07895305 -0.11507099 0.059566718
0.063608006 -0.10836314 -0.2697717 0.06767785 0.12280309 -0.08748821 0.23503229 0.13052218
0.09542784 0.07978551 -0.15778516 -0.2179185 -0.10115091 -0.014680756 0.23244056 0.09287332
0.031354576 -0.08159726 -0.06487397 -0.33280745 0.04158251 -0.10054625 0.08035118 0.0463551
0.26740286 0.1833526 -0.03495608 0.2646275 0.08611306 0.26736495 0.14287952 0.047575008
0.03470132 -0.0119555555 -0.092430994 -0.026740493 0.12970121 -0.08925287 0.099378765 -0.036482714
0.14542207 -0.06283825 -0.095035985 0.004478814 -0.0848255 -0.34888902 -0.078034595 0.10452824
-0.24500811 -0.14614512 -0.3129256 0.18231884 -0.021118857 0.072075255 -0.012562716 -0.18091963
-0.06856537 -0.07460763 -0.37170872 -0.14482999 0.08888478 -0.06718463 0.25697902 -0.00821341
-0.26264885 -0.08556884 -0.03334376 -0.07962094 -0.110713124 0.08220057 0.2287713 0.036684617
-0.042177126 0.059122767 -0.27200598 -0.036305275 0.053990863 0.044699047 -0.07394514 0.04499966
0.17807801 -0.108720735 0.12830403 -0.05497849 0.028037654 0.22466254 0.2639699 0.21786882
-0.069838725 -0.10869567 -0.082895786 -0.12838052 -0.08171501 -0.15317255 -0.023827571 0.1435483
-0.24470289 0.28234926 -0.27471283 0.28104243 -0.115685895 0.060834296 -0.060437955 -0.058951788
0.32644603 0.14176883 -0.40513745 -0.34431905 -0.13538484 0.08025184 -0.054876104 -0.102222525
-0.18705273 0.056778952 0.1070643 -0.37235236 -0.24911335 0.09963545 0.019366821 -0.06626031
-0.0646243 -0.103382654 0.15723918 -0.19763483 0.21144411 -0.06223422 -0.1848709 -0.08178417
0.031149114 -0.06911159 0.3849283 -0.1754879 0.24554716 0.108799234 -0.45689124 0.19522294
0.12031574 -0.25905105 0.10437531 0.064670205 0.13749696 -0.34684682 -0.06005686 0.2184156
-0.37769663 -0.060581308 0.19747764 0.19225723 0.014047432 -0.15287784 -0.02539703 -0.33631608
-0.2535165 0.08793378 0.094359316 -0.15620781 -0.26531225 0.11519917 0.092735 -0.25992
0.34358618 0.1492437 -0.088787675 0.06514931 0.026114445 -0.3097514 -0.2058593 -0.06394497
0.28647408 0.05641183 -0.2775398 0.047314145 -0.14877614 0.17372915 0.15482788 0.17432329
-0.019421995 -0.082047574 -0.15455532 0.060408138 -0.2519126 0.29297724 0.14279902 0.02615137
-0.24304351 0.1514215 -0.21008453 -0.05895181 0.09424413 0.17325492 -0.12996441 0.009217013
-0.0025943827 0.20142862 0.13429795 0.21423863 -0.12309053 0.045217935 0.013955037 0.21992317
0.18096589 0.032059755 0.08467817 -0.035364192 -0.051797982 0.34863985 -0.188313 0.191773
00000000: 0937 443e c66b 08be 5547 4a3e 8498 bb3d
00000010: 6565 3f3e 782f 77bd 126c b23e e743 6dbc
00000020: 096f fb3d c27e 27be 0b24 313d 003a 3d3e
00000030: 3346 dbbd a487 473d 5f96 203e c3d9 25be
00000040: 304c 7fbc 3b15 85bc f9cf 52bd a80f 183c
00000050: d714 b8be 7e9b 823c d390 c4bd a0d1 03be
00000060: b25d 8abe 87fe 603d 0043 ed3d 36b5 a13d
00000070: 743f a73b 8258 64bd c75d 1c3e eca8 c13d
00000080: 4134 59be c58e c4be 64d6 1cbd 20d6 33be
00000090: 5353 f73d 6542 1e3e 8a5a 0e3e 45ce 26bd
000000a0: 22e9 fb3d b39e dcbd 2ede 5ebe 38c7 173d
000000b0: a973 08bc 23b2 a1bd 57aa ebbd 3bfc 733d
000000c0: ea44 823d 7eed ddbd 841f 8abe af9a 8a3d
000000d0: 3080 fb3d 052d b3bd 4eac 703e 9ba7 053e
000000e0: ac6f c33d 9666 a33d 6f92 21be 0726 5fbe
000000f0: 3528 cfbd 8e87 70bc e604 6e3e 5e34 be3d
00000100: a86d 003d 771c a7bd a5dc 84bd bd65 aabe
00000110: 6c52 2a3d 31eb cdbd 298f a43d d8de 3d3d
00000120: 07e9 883e c9c0 3b3e 1b2e 0fbd 417d 873e
00000130: 0b5c b03d 0fe4 883e 024f 123e 03de 423d
00000140: f922 0e3d 3ce1 43bc 764c bdbd e10e dbbc
00000150: 65d0 043e 35ca b6bd 1887 cb3d e66e 15bd
00000160: 86e9 143e 57b1 80bd 3aa2 c2bd 04c3 923b
00000170: feb8 adbd 95a1 b2be 9ad0 9fbd e712 d63d
00000180: 68e3 7abe 11a7 15be c937 a0be cab1 3a3e
00000190: 7401 adbc 319c 933d dad3 4dbc ff42 39be
000001a0: 006c 8cbd e3cb 98bd 9b50 bebe 504e 14be
000001b0: 3909 b63d 1898 89bd c192 833e 8a91 06bc
000001c0: e979 86be b73e afbd 7793 08bd 4e10 a3bd
000001d0: 90bd e2bd c658 a83d 0643 6a3e 9c42 163d
000001e0: ecc1 2cbd b72a 723d 5e44 8bbe d7b4 14bd
000001f0: 8625 5d3d 5916 373d 8d70 97bd 9051 383d
00000200: 155a 363e faa8 debd 2262 033e 2031 61bd
00000210: 39af e53c f00d 663e 1027 873e 0119 5f3e
00000220: 9b07 8fbd d69b debd 44c5 a9bd 2f76 03be
00000230: 335a a7bd 44d9 1cbe 0a32 c3bc 53fe 123e
00000240: 6593 7abe 1590 903e 29a7 8cbe cbe4 8f3e
00000250: baec ecbd 622d 793d ca8d 77bd 6e77 71bd
00000260: ef23 a73e d92b 113e 2d6e cfbe 964a b0be
00000270: 53a2 0abe 145b a43d c4c5 60bd 0b5a d1bd
00000280: c08a 3fbe 0c91 683d 8744 db3d f8a4 bebe
00000290: 9217 7fbe ac0d cc3d 2ba7 9e3c 7cb3 87bd
000002a0: bf59 84bd 49ba d3bd 4f03 213e c960 4abe
000002b0: ce84 583e 4fe9 7ebd cc4e 3dbe 757e a7bd
000002c0: 6d2c ff3c 618a 8dbd 5215 c53e 1ab3 33be
000002d0: b770 7b3e 22d2 de3d a6ed e9be 86e8 473e
000002e0: 1968 f63d 57a2 84be b9c2 d53d d071 843d
000002f0: 01cc 0c3e e895 b1be 2ffe 75bd 57a8 5f3e
00000300: 7461 c1be 1b24 78bd 9437 4a3e 14df 443e
00000310: 3327 663c 028c 1cbe 6f0d d0bc 9f31 acbe
00000320: eacc 81be a016 b43d 753f c13d f1f4 1fbe
00000330: 02d7 87be 8bed eb3d d9eb bd3d 3c14 85be
00000340: 87ea af3e 57d3 183e 50d6 b5bd 006d 853d
00000350: f6ed d53c bc97 9ebe c8cc 52be 95f5 82bd
00000360: bbac 923e 1710 673d b219 8ebe 7acc 413d
00000370: c658 18be 0ee6 313e 338b 1e3e ce81 323e
00000380: e01a 9fbc 8f08 a8bd c043 1ebe 866e 773d
00000390: b0fa 80be 1d01 963e e839 123e 663b d63c
000003a0: 66e0 78be 3d0e 1b3e 6620 57be 7477 71bd
000003b0: 1103 c13d bd69 313e 6415 05be f402 173c
000003c0: 8506 2abb 4e43 4e3e 6785 093e 5f61 5b3e
000003d0: e316 fcbd 7136 393d aba3 643c 8a33 613e
000003e0: 1f4f 393e 1751 033d c06b ad3d 0bda 10bd
000003f0: 1f2a 54bd ec80 b23e 20d5 40be 2460 443e

network_body._body_endoder.seq_layers.0.bias f4 [128]
0.0 0.0 0.0 0.0 0.0 0.0 0.0 0.0
0.0 0.0 0.0 0.0 0.0 0.0 0.0 0.0
0.0 0.0 0.0 0.0 0.0 0.0 0.0 0.0
0.0 0.0 0.0 0.0 0.0 0.0 0.0 0.0
0.0 0.0 0.0 0.0 0.0 0.0 0.0 0.0
0.0 0.0 0.0 0.0 0.0 0.0 0.0 0.0
0.0 0.0 0.0 0.0 0.0 0.0 0.0 0.0
0.0 0.0 0.0 0.0 0.0 0.0 0.0 0.0
0.0 0.0 0.0 0.0 0.0 0.0 0.0 0.0
0.0 0.0 0.0 0.0 0.0 0.0 0.0 0.0
0.0 0.0 0.0 0.0 0.0 0.0 0.0 0.0
0.0 0.0 0.0 0.0 0.0 0.0 0.0 0.0
0.0 0.0 0.0 0.0 0.0 0.0 0.0 0.0
0.0 0.0 0.0 0.0 0.0 0.0 0.0 0.0
0.0 0.0 0.0 0.0 0.0 0.0 0.0 0.0
0.0 0.0 0.0 0.0 0.0 0.0 0.0 0.0
00000000: 0000 0000 0000 0000 0000 0000 0000 0000
00000010: 0000 0000 0000 0000 0000 0000 0000 0000
00000020: 0000 0000 0000 0000 0000 0000 0000 0000
00000030: 0000 0000 0000 0000 0000 0000 0000 0000
00000040: 0000 0000 0000 0000 0000 0000 0000 0000
00000050: 0000 0000 0000 0000 0000 0000 0000 0000
00000060: 0000 0000 0000 0000 0000 0000 0000 0000
00000070: 0000 0000 0000 0000 0000 0000 0000 0000
00000080: 0000 0000 0000 0000 0000 0000 0000 0000
00000090: 0000 0000 0000 0000 0000 0000 0000 0000
000000a0: 0000 0000 0000 0000 0000 0000 0000 0000
000000b0: 0000 0000 0000 0000 0000 0000 0000 0000
000000c0: 0000 0000 0000 0000 0000 0000 0000 0000
000000d0: 0000 0000 0000 0000 0000 0000 0000 0000
000000e0: 0000 0000 0000 0000 0000 0000 0000 0000
000000f0: 0000 0000 0000 0000 0000 0000 0000 0000
00000100: 0000 0000 0000 0000 0000 0000 0000 0000
00000110: 0000 0000 0000 0000 0000 0000 0000 0000
00000120: 0000 0000 0000 0000 0000 0000 0000 0000
00000130: 0000 0000 0000 0000 0000 0000 0000 0000
00000140: 0000 0000 0000 0000 0000 0000 0000 0000
00000150: 0000 0000 0000 0000 0000 0000 0000 0000
00000160: 0000 0000 0000 0000 0000 0000 0000 0000
00000170: 0000 0000 0000 0000 0000 0000 0000 0000
00000180: 0000 0000 0000 0000 0000 0000 0000 0000
00000190: 0000 0000 0000 0000 0000 0000 0000 0000
000001a0: 0000 0000 0000 0000 0000 0000 0000 0000
000001b0: 0000 0000 0000 0000 0000 0000 0000 0000
000001c0: 0000 0000 0000 0000 0000 0000 0000 0000
000001d0: 0000 0000 0000 0000 0000 0000 0000 0000
000001e0: 0000 0000 0000 0000 0000 0000 0000 0000
000001f0: 0000 0000 0000 0000 0000 0000 0000 0000

network_body._body_endoder.seq_layers.2.weight f4 [128, 128]
-0.050246846 0.059674345 0.044014655 -0.01753179 -0.12957339 0.06198072 -0.10286897 -0.0567185
0.087429464 -0.059251618 -0.043801226 0.02157697 -0.06190996 0.010403578 0.07876339 0.007122756
0.025544357 -0.014391629 0.037933744 0.09240501 0.007330655 -0.10083331 0.04324054 -0.043909654
-0.05719644 -0.06824666 -0.14525747 -0.09651529 0.05067162 0.049650956 0.062111687 -0.11170751
-0.038965903 -0.11785163 0.059030958 -0.01454923 -0.042115215 0.071568616 -0.15212743 0.035726003
-0.0024106323 0.07653189 0.087879315 0.12684761 0.003339866 0.09002279 0.016574966 0.0111429375
-0.08167436 0.120004445 0.024158025 0.03184566 0.016767055 -0.093288794 0.042692564 0.03481357
-0.07021242 -0.044662233 -0.0023562342 0.12194705 -0.113573596 0.041937117 -0.10105906 0.026704915
-0.13136628 -0.045913965 0.09016671 0.031342 0.05060787 -0.040488202 -0.056573257 0.10274365
0.17863813 0.0739852 0.12302026 0.021273956 0.014112869 -0.057645302 -0.09476094 0.09538714
-0.054651186 -0.0037232589 0.1304493 -0.025623105 0.12976144 0.04456216 -0.046647627 -0.036466125
0.024873054 0.054390363 -0.054018777 -0.02555111 -0.0011830445 0.036910385 -0.0035158147 0.081101775
0.09911081 -0.057875425 0.08378082 0.22224034 0.025896091 -0.05680995 0.106842756 -0.07554593
0.10607744 0.043016993 -0.15581597 0.24327083 0.10020091 0.015483356 -0.027982322 0.00032594305
-0.072794676 0.054480813 0.026462883 -0.03881078 0.0006110646 0.06857253 -0.087999865 -0.072905235
-0.019843591 0.0061040916 -0.12347476 -0.081912965 0.1273975 0.024390627 -0.0025792217 -0.18242098
0.1389435 -0.0706589 0.17307305 -0.07373517 -0.03009862 -0.059164353 -0.035446707 0.07532879
0.10948168 0.012016836 -0.023589164 0.09243634 0.15814862 0.12824808 -0.06458357 0.1027946
-0.09746546 0.0547063 0.21538666 -0.0829347 -0.053044412 0.023161504 -0.05066519 -0.10004068
-0.047504675 0.099145874 0.044975564 -0.05597363 -0.19021617 0.25986707 -0.11323385 -0.015321848
-0.07391583 0.09386355 0.08838499 -0.0073566916 0.002939743 0.06359551 0.028808448 0.09338874
-0.04492242 -0.103448026 0.019286705 0.064287834 -0.010052396 -0.094032146 0.015579874 0.097407684
-0.040985607 0.019683952 -0.053998232 -0.13830192 0.11766925 0.100591294 -0.021788053 -0.0077786427
-0.13749494 -0.031065585 0.0465143 0.08998328 -0.22720356 -0.087854184 -0.0457161 0.037596285
-0.08797009 0.09974483 0.108872935 -0.10757692 -0.15150504 -0.009754478 0.08643244 0.20883879
0.089501 0.03324164 0.10201977 -0.027186295 0.050707273 0.02855525 0.05622191 0.0027556163
0.037863053 -0.10171359 -0.0038409808 0.14321372 0.0399174 -0.056075115 0.08866915 -0.04582296
0.032104652 -0.02590277 -0.26836795 0.039283916 -0.10358597 0.049663454 0.014640973 0.03696629
-0.07455722 -0.021552665 0.06919773 0.14291956 -0.036232527 -0.041099947 0.17074835 -0.026109682
0.031938665 -0.0885904 -0.027785312 -0.08742284 0.038478438 -0.04343122 0.08282444 -0.09374144
-0.058385514 -0.043673743 -0.061418235 -0.090730414 0.08670177 -0.18746558 -0.11580523 -0.073138684
0.015426289 -0.028685521 0.019865584 -0.119338065 -0.0062991777 0.106015824 -0.11338459 -0.09627503
00000000: a3cf 4dbd 166d 743d b648 343d d49e 8fbc
00000010: e3ae 04be 7fdf 7d3d f7ac d2bd a851 68bd
00000020: 380e b33d d3b1 72bd ea68 33bd 30c2 b03c
00000030: 4c95 7dbd c573 2a3c b34e a13d 0266 e93b
00000040: 6642 d13c deca 6bbc 6a60 1b3d d63e bd3d
00000050: fe35 f03b b281 cebd fe1c 313d 9cda 33bd
00000060: d046 6abd e8c4 8bbd 60be 14be cfa9 c5bd
00000070: 0b8d 4f3d cd5e 4b3d d368 7e3d e8c6 e4bd
00000080: b69a 1fbd 325c f1bd 72ca 713d e55f 6ebc
00000090: 0181 2cbd 9192 923d 4bc7 1bbe 6e55 123d
000000a0: b3fb 1dbb c0bc 9c3d 12fa b33d 57e4 013e
000000b0: a7e1 5a3b de5d b83d 39c8 873c de90 363c
000000c0: e344 a7bd e4c4 f53d 0de7 c53c 9870 023d
000000d0: 105b 893c 320e bfbd 66de 2e3d ad98 0e3d
000000e0: 87cb 8fbd bfef 36bd 0d6b 1abb 60bf f93d
000000f0: 4699 e8bd 41c6 2b3d 0df8 cebd 44c4 da3c
00000100: e284 06be 4810 3cbd 53a9 b83d 7860 003d
00000110: 334a 4f3d f5d6 25bd 5cb9 67bd 436b d23d
00000120: eaec 363e 8d85 973d 0cf2 fb3d b846 ae3c
00000130: aa39 673c 7b1d 6cbd 0612 c2bd 555a c33d
00000140: ecd9 5fbd eb01 74bb 8094 053e 8ce7 d1bc
00000150: 2fe0 043e d086 363d 9511 3fbd 815d 15bd
00000160: 93c2 cb3c 6ec8 5e3d cb42 5dbd 9050 d1bc
00000170: 6310 9bba 582f 173d 9569 66bb b018 a63d
00000180: 9cfa ca3d c80e 6dbd 4795 ab3d f992 633e
00000190: 0a24 d43c 8db1 68bd 60d0 da3d d3b7 9abd
000001a0: 213f d93d 9632 303d 398e 1fbe fd1b 793e
000001b0: 2236 cd3d e7ad 7d3c 2f3b e5bc 56e3 aa39
000001c0: 6015 95bd 4627 5f3d b0c8 d83c 0df8 1ebd
000001d0: da2f 203a c16f 8c3d 4639 b4bd 574f 95bd
000001e0: 078f a2bc d504 c83b 56e0 fcbd fcc1 a7bd
000001f0: 7e74 023e dace c73c 2908 29bb 91cc 3abe
00000200: 3447 0e3e 9db5 90bd 103a 313e 7702 97bd
00000210: 6291 f6bc 5256 72bd 9130 11bd fb45 9a3d
00000220: ee37 e03d 43e2 443c 103e c1bc 444f bd3d
00000230: b6f1 213e 7753 033e 6444 84bd fa85 d23d
00000240: f99b c7bd b713 603d 528e 5c3e abd9 a9bd
00000250: 1945 59bd 32bd bd3c 4d86 4fbd 21e2 ccbd
00000260: 4394 42bd fe0c cb3d 4c38 383d 9b44 65bd
00000270: 07c8 42be 4c0d 853e 26e7 e7bd 7d08 7bbc
00000280: 2f61 97bd 883b c03d 3103 b53d 6710 f1bb
00000290: b4a8 403b 5d3e 823d b2ff eb3c 9942 bf3d
000002a0: 9200 38bd 8fdc d3bd 27ff 9d3c 57a9 833d
000002b0: ceb2 24bc ed93 c0bd ba42 7f3c ae7d c73d
000002c0: 86e0 27bd 3d40 a13c 402d 5dbd 059f 0dbe
000002d0: 93fc f03d cf02 ce3d dc7c b2bc fce3 febb
000002e0: 79cb 0cbe 417d febc c785 3e3d 2749 b83d
000002f0: 0da8 68be e5ec b3bd ce40 3bbd 90fe 193d
00000300: aa29 b4bd 0447 cc3d c6f8 de3d 4a51 dcbd
00000310: 2324 1bbe 3fd1 1fbc 7e03 b13d d6d9 553e
00000320: 4d4c b73d 6328 083d beef d03d cbb5 debc
00000330: 6eb2 4f3d b3ec e93c f248 663d 9297 343b
00000340: 4a16 1b3d 374f d0bd f7b8 7bbb 9ea6 123e
00000350: 6d80 233d 05af 65bd 2c98 b53d dbb0 3bbd
00000360: 2b80 033d 0c32 d4bc 8667 89be 2ce8 203d
00000370: e224 d4bd e86b 4b3d b1e0 6f3c f769 173d
00000380: 75b1 98bd 378f b0bc 8ab7 8d3d 8159 123e
00000390: 8f68 14bd 6b58 28bd a8d8 2e3e f9e3 d5bc
000003a0: 1ed2 023d e26e b5bd 069e e3bc bf0a b3bd
000003b0: 919b 1d3d efe4 31bd dc9f a93d 83fb bfbd
000003c0: a625 6fbd 3de3 32bd b091 7bbd ded0 b9bd
000003d0: b390 b13d faf6 3fbe 4b2b edbd bcc9 95bd
000003e0: 8cbe 7c3c e6fd eabc 26bd a23c 8467 f4bd
000003f0: 5569 cebb d31e d93d 2e36 e8bd d82b c5bd

network_body._body_endoder.seq_layers.2.bias f4 [128]
0.0 0.0 0.0 0.0 0.0 0.0 0.0 0.0
0.0 0.0 0.0 0.0 0.0 0.0 0.0 0.0
0.0 0.0 0.0 0.0 0.0 0.0 0.0 0.0
0.0 0.0 0.0 0.0 0.0 0.0 0.0 0.0
0.0 0.0 0.0 0.0 0.0 0.0 0.0 0.0
0.0 0.0 0.0 0.0 0.0 0.0 0.0 0.0
0.0 0.0 0.0 0.0 0.0 0.0 0.0 0.0
0.0 0.0 0.0 0.0 0.0 0.0 0.0 0.0
0.0 0.0 0.0 0.0 0.0 0.0 0.0 0.0
0.0 0.0 0.0 0.0 0.0 0.0 0.0 0.0
0.0 0.0 0.0 0.0 0.0 0.0 0.0 0.0
0.0 0.0 0.0 0.0 0.0 0.0 0.0 0.0
0.0 0.0 0.0 0.0 0.0 0.0 0.0 0.0
0.0 0.0 0.0 0.0 0.0 0.0 0.0 0.0
0.0 0.0 0.0 0.0 0.0 0.0 0.0 0.0
0.0 0.0 0.0 0.0 0.0 0.0 0.0 0.0
00000000: 0000 0000 0000 0000 0000 0000 0000 0000
00000010: 0000 0000 0000 0000 0000 0000 0000 0000
00000020: 0000 0000 0000 0000 0000 0000 0000 0000
00000030: 0000 0000 0000 0000 0000 0000 0000 0000
00000040: 0000 0000 0000 0000 0000 0000 0000 0000
00000050: 0000 0000 0000 0000 0000 0000 0000 0000
00000060: 0000 0000 0000 0000 0000 0000 0000 0000
00000070: 0000 0000 0000 0000 0000 0000 0000 0000
00000080: 0000 0000 0000 0000 0000 0000 0000 0000
00000090: 0000 0000 0000 0000 0000 0000 0000 0000
000000a0: 0000 0000 0000 0000 0000 0000 0000 0000
000000b0: 0000 0000 0000 0000 0000 0000 0000 0000
000000c0: 0000 0000 0000 0000 0000 0000 0000 0000
000000d0: 0000 0000 0000 0000 0000 0000 0000 0000
000000e0: 0000 0000 0000 0000 0000 0000 0000 0000
000000f0: 0000 0000 0000 0000 0000 0000 0000 0000
00000100: 0000 0000 0000 0000 0000 0000 0000 0000
00000110: 0000 0000 0000 0000 0000 0000 0000 0000
00000120: 0000 0000 0000 0000 0000 0000 0000 0000
00000130: 0000 0000 0000 0000 0000 0000 0000 0000
00000140: 0000 0000 0000 0000 0000 0000 0000 0000
00000150: 0000 0000 0000 0000 0000 0000 0000 0000
00000160: 0000 0000 0000 0000 0000 0000 0000 0000
00000170: 0000 0000 0000 0000 0000 0000 0000 0000
00000180: 0000 0000 0000 0000 0000 0000 0000 0000
00000190: 0000 0000 0000 0000 0000 0000 0000 0000
000001a0: 0000 0000 0000 0000 0000 0000 0000 0000
000001b0: 0000 0000 0000 0000 0000 0000 0000 0000
000001c0: 0000 0000 0000 0000 0000 0000 0000 0000
000001d0: 0000 0000 0000 0000 0000 0000 0000 0000
000001e0: 0000 0000 0000 0000 0000 0000 0000 0000
000001f0: 0000 0000 0000 0000 0000 0000 0000 0000

value_heads.value_heads.extrinsic.weight f4 [1, 128]
0.18158008 0.12825164 0.1760806 0.1286756 0.12986603 -0.029506259 -0.00717698 0.050676342
0.19128588 0.18598828 0.0018826176 0.14999034 -0.09826114 -0.08876394 -0.18674617 0.13957296
0.009842923 -0.18609643 0.15193626 0.11228913 -0.0010558696 0.090634614 0.06337693 0.0028315492
0.19374186 -0.011674905 0.12846904 -0.18800269 -0.093937986 0.053678706 0.21439561 0.10891017
0.017236877 0.09758876 0.19738986 0.013688937 -0.027411476 -0.042209473 0.17220171 -0.19504814
-0.02926873 0.11429631 -0.025184918 -0.19641243 0.11380945 -0.07793793 0.04111594 -0.10781411
-0.13504843 0.021386543 0.18459432 -0.18497215 0.1320584 0.08943376 -0.13775147 0.04467915
0.05400812 -0.11157979 -0.11829369 0.018169919 -0.100435 -0.14132442 0.18758082 0.061538022
-0.14330503 -0.18918255 0.02394655 -0.07394806 0.14403145 -0.05209316 -0.11956205 -0.18057626
0.0995074 -0.13731676 -0.0014871309 0.053143952 0.14711757 -0.11458555 0.10189909 -0.17425932
-0.093873054 0.19755471 -0.16183653 -0.087258056 0.013317617 0.2029028 -0.055785637 -0.17253163
-0.18665498 0.04618235 -0.21072778 0.020246077 -0.15611562 0.019531177 0.14361508 0.0682614
-0.1854268 0.004477358 -0.14147913 0.044648454 0.20660023 -0.07795769 0.19182025 0.14621736
0.09072558 -0.08959119 -0.03679367 -0.021140093 -0.089315444 -0.109135516 -0.07876107 0.07079866
0.020643415 -0.18163161 0.19996169 -0.1785513 0.17055985 -0.1681268 -0.0463463 -0.11876028
-0.1321726 0.13393232 0.10232344 -0.1700433 -0.113714166 0.18393305 0.0087573975 0.006831151
00000000: 21f0 393e 6654 033e 794e 343e 89c3 033e
00000010: 9afb 043e 1cb7 f1bc df2c ebbb ff91 4f3d
00000020: 72e0 433e b673 3e3e 2ac2 f63a 1197 193e
00000030: 233d c9bd dec9 b5bd 633a 3fbe 37ec 0e3e
00000040: 3644 213c 1090 3ebe 2e95 1b3e d8f7 e53d
00000050: 1b65 8aba a49e b93d c4cb 813d 8391 393b
00000060: 4464 463e 1a48 3fbc 638d 033e c783 40be
00000070: 8f62 c0bd 34de 5b3d 868a 5b3e 4c0c df3d
00000080: 5a34 8d3c 9edc c73d 9120 4a3e 9047 603c
00000090: 088e e0bc d7e3 2cbd a555 303e b3ba 47be
000000a0: fac4 efbc 2f14 ea3d 9a50 cebc 5720 49be
000000b0: ee14 e93d ec9d 9fbd 3069 283d a5cd dcbd
000000c0: 234a 0abe d532 af3c 4b06 3d3e 5769 3dbe
000000d0: 513a 073e 0c29 b73d b90e 0dbe 7c01 373d
000000e0: 9e37 5d3d f283 e4bd f643 f2bd 15d9 943c
000000f0: deb0 cdbd 59b7 10be 3015 403e 4b0f 7c3d
00000100: 8ebe 12be 12b9 41be 8e2b c43c 1572 97bd
00000110: fb7c 133e a35f 55bd f3dc f4bd fce8 38be
00000120: 89ca cb3d c49c 0cbe d5eb c2ba 79ad 593d
00000130: fda5 163e d4ab eabd 78b0 d03d 0971 32be
00000140: 8440 c0bd c84b 4a3e 7ab8 25be 5ab4 b2bd
00000150: 2232 5a3c c0c5 4f3e 7b7f 64bd 22ac 30be
00000160: 7c22 3fbe b429 3d3d 06c9 57be 1adb a53c
00000170: c6dc 1fbe d9ff 9f3c d50f 133e a2cc 8b3d
00000180: 86e0 3dbe cdb6 923b e8df 10be 4ce1 363d
00000190: 038f 533e 48a8 9fbd 876c 443e 01ba 153e
000001a0: 55ce b93d 967b b7bd f6b4 16bd fd2d adbc
000001b0: 04eb b6bd 7182 dfbd 7c4d a1bd e3fe 903d
000001c0: 611c a93c a3fd 39be c2c2 4c3e 27d6 36be
000001d0: 3ea7 2e3e 6f29 2cbe 9ed5 3dbd 9738 f3bd
000001e0: 4158 07be 8e25 093e f48e d13d d51f 2ebe
000001f0: f9e2 e8bd f258 3c3e 307b 0f3c d9d7 df3b
