results/test/CarParking/CarParking-220730.pt (torch, 842203 bytes, 36 tensors)

network_body._body_endoder.seq_layers.0.weight f4 [128, 136]
-0.031029785 -0.09687192 -0.06723039 -0.009539336 0.14893198 0.0005379911 -0.07812431 0.013917193
0.024391826 -0.091920935 -0.1105796 0.07433922 0.057068147 0.09221152 0.060374327 -0.16207257
0.1525374 -0.09371501 0.040506 0.030635528 -0.0574981 -0.035643913 -0.049958978 0.118182406
0.110542156 -0.06932084 0.11045329 0.12870787 -0.026148226 0.017405543 0.05488403 0.036127225
0.06067262 -0.008673703 0.023923127 -0.10865921 -0.08163375 0.18923642 -0.045279037 -0.062147763
-0.012798839 -0.09460081 0.07841914 -0.04067436 -0.0071913344 -0.01799126 -0.11681128 -0.14234883
0.097061284 0.028967962 0.08302353 -0.0034676164 0.03241607 0.047121234 -0.09027327 -0.1480859
0.14141318 0.048283752 0.009086597 -0.012999182 -0.11074134 0.019461704 0.040672176 -0.056503445
0.056634452 -0.14189899 0.045925103 0.057764255 -0.25095928 -0.11574309 0.024003703 -0.08855855
-0.060427133 0.1225898 -0.103806295 0.038590632 0.028928395 0.073819645 0.013180972 -0.029422918
-0.006481432 0.032230724 0.076065995 0.018951172 0.08342232 0.14975797 -0.12941633 0.043400396
-0.02018971 -0.1517555 -0.18210436 -0.14556119 0.041376755 0.13651045 0.031727877 -0.10753794
0.015982447 -0.14409009 0.050844233 0.06303425 -0.0012584426 -0.0035427613 0.01312212 7.085204e-06
0.017760808 0.13057895 -0.026664551 0.033910867 0.12559707 -0.000862037 0.15093817 0.12688777
-0.13228658 0.0054591293 -0.0521218 -0.08212499 -0.08562885 0.035502445 0.026947247 0.042857844
0.043601345 -0.09104442 -0.09790802 0.03449837 -0.038966384 -0.08127489 -0.19121763 -0.08454568
0.14405714 -0.042455073 0.15107855 0.08185004 -0.063169576 0.16920787 0.14006583 0.097204536
0.13068834 -0.0880056 0.0005824417 -0.108014844 0.10524143 -0.035284687 -0.054619927 0.09150278
0.15996364 0.088937245 0.03770183 0.16081545 -0.05728771 -0.06274333 0.017993832 0.07019443
0.0037720883 -0.0052482076 -0.08552686 0.10614083 0.022452647 0.004535601 -0.014730325 -0.0071068285
-0.1126564 -0.015149889 -0.09950373 -0.060990475 0.096449755 -0.052378397 0.090192564 0.108545765
0.04419165 -0.12549661 -0.020903572 0.06031888 -0.051844217 0.1070615 -0.104096435 -0.078676
0.06068735 0.04957391 -0.048046313 0.026629506 0.17957373 0.018504323 0.03527314 -0.119802505
-0.032084912 0.015089681 0.09674253 0.07748417 -0.13974106 0.18435088 0.05184445 0.091813214
-0.049209427 -0.09673185 0.18881358 0.039460532 0.11500478 -0.0603452 -0.09975428 -0.19564573
0.020279123 -0.110503055 0.06259898 0.018855583 0.07935987 0.008369055 0.06989393 0.028099086
-0.013942318 -0.038060836 -0.029218923 0.09587509 0.035323977 0.08933282 0.055040263 0.117140196
-0.036760304 -0.012059654 0.1277557 -0.075673856 -0.059919376 -0.25988448 -0.11671673 -0.005513181
0.08065544 0.028131591 -0.23711936 0.10282828 0.12229897 -0.015551089 0.041610416 0.14147547
-0.043717213 0.06143619 -0.045164786 -0.016841307 -0.019581638 -0.05395884 0.027839636 -0.09679126
-0.09543443 -0.033815317 0.017486762 -0.14491104 -0.06783975 -0.031975724 -0.029353632 -0.09941547
0.008227196 0.08569877 0.10678298 -0.0008467238 -0.033755295 0.09239043 -0.14700279 0.091618486
00000000: 2d32 febc c964 c6bd 16b0 89bd e04a 1cbc
00000010: a081 183e f907 0d3a a3ff 9fbd f004 643c
00000020: 5ed1 c73c 0b41 bcbd 8f77 e2bd 293f 983d
00000030: 4ac0 693d 65d9 bc3d 124b 773d 5af6 25be
00000040: c432 1c3e a8ed bfbd 9fe9 253d 5cf7 fa3c
00000050: 2183 6bbd 5aff 11bd c9a1 4cbd 9e09 f23d
00000060: ed63 e23d 16f8 8dbd 5635 e23d ffcb 033e
00000070: ce34 d6bc 1296 8e3c 14ce 603d 24fa 133d
00000080: da83 783d 261c 0ebc 6ffa c33c b888 debd
00000090: 982f a7bd 31c7 413e 8376 39bd a78e 7ebd
000000a0: 39b2 51bc 12be c1bd 379a a03d 289a 26bd
000000b0: 49a5 ebbb 6862 93bc c13a efbd e4c3 11be
000000c0: 11c8 c63d 384e ed3c 3e08 aa3d f340 63bb
000000d0: b7c6 043d 3202 413d 31e1 b8bd d5a3 17be
000000e0: 9ece 103e 2fc5 453d f3df 143c 85fa 54bc
000000f0: 5bcc e2bd 276e 9f3c de97 263d 2870 67bd
00000100: 87f9 673d f84d 11be f61b 3c3d 369a 6c3d
00000110: bc7d 80be b70a edbd 6aa3 c43c 2f5e b5bd
00000120: 7182 77bd 5c10 fb3d 6598 d4bd 3611 1e3d
00000130: 3efb ec3c c12e 973d 01f5 573c 5508 f1bc
00000140: 3162 d4bb 5d04 043d 7dc8 9b3d 7d3f 9b3c
00000150: 52d9 aa3d 275a 193e b785 04be 9dc4 313d
00000160: e464 a5bc cb65 1bbe 9179 3abe fe0d 15be
00000170: ac7a 293d 65c9 0b3e 17f5 013d da3c dcbd
00000180: 9fed 823c 5a8c 13be 0b42 503d 1a18 813d
00000190: 54f2 a4ba ac2d 68bb 29fe 563c 70bd ed36
000001a0: 1d7f 913c 7db6 053e 9e6f dabc 1fe6 0a3d
000001b0: 859c 003e 53fa 61ba 898f 1a3e deee 013e
000001c0: 2276 07be 7fe2 b23b ab7d 55bd 2631 a8bd
000001d0: 2e5e afbd 036b 113d 79c0 dc3c b58b 2f3d
000001e0: 5397 323d 7f75 babd 0084 c8bd 2a4e 0d3d
000001f0: 379b 1fbd 7373 a6bd 8ece 43be 4926 adbd
00000200: b783 133e 5fe5 2dbd 56b4 1a3e fea0 a73d
00000210: 0d5f 81bd d444 2d3e 6b6d 0f3e 2c13 c73d
00000220: 2ad3 053e 483c b4bd 00af 183a e336 ddbd
00000230: d288 d73d ad86 10bd 25b9 5fbd cf65 bb3d
00000240: 82cd 233e bb24 b63d 3c6d 1a3d ceac 243e
00000250: 85a6 6abd 937f 80bd cd67 933c 19c2 8f3d
00000260: 2435 773b 28f9 abbb b528 afbd 5d60 d93d
00000270: 9dee b73c 619f 943b 7657 71bc 66e0 e8bb
00000280: 66b8 e6bd 3d37 78bc 9dc8 cbbd 26d1 79bd
00000290: 7387 c53d bb8a 56bd e1b6 b83d 3e4d de3d
000002a0: 4e02 353d 2f82 00be f83d abbc ee10 773d
000002b0: 9a5a 54bd 0f43 db3d 8330 d5bd e220 a1bd
000002c0: 4c93 783d 030e 4b3d 36cc 44bd 1f26 da3c
000002d0: 2de2 373e 6196 973c 917a 103d 045b f5bd
000002e0: 786b 03bd b63a 773c f320 c63d 05b0 9e3d
000002f0: 4818 0fbe 7ac6 3c3e d95a 543d 9108 bc3d
00000300: d38f 49bd 591b c6bd 5958 413e 5ea1 213d
00000310: a087 eb3d 872c 77bd f94b ccbd 5b57 48be
00000320: 6720 a63c 6d4f e2bd e533 803d 0677 9a3c
00000330: 6d87 a23d 5c1e 093c 8c24 8f3d 0e30 e63c
00000340: 526e 64bc aee5 1bbd 865c efbc 295a c43d
00000350: e0af 103d 20f4 b63d e671 613d 33e7 ef3d
00000360: f991 16bd db95 45bc 64d2 023e e5fa 9abd
00000370: 056e 75bd 940f 85be 2e09 efbd eaa7 b4bb
00000380: ae2e a53d 3974 e63c 6bcf 72be a297 d23d
00000390: e277 fa3d ffc9 7ebc af6f 2a3d f2de 103e
000003a0: d210 33bd 84a4 7b3d b6fe 38bd c8f6 89bc
000003b0: ac69 a0bc f203 5dbd f30f e43c 7f3a c6bd
000003c0: 2073 c3bd ee81 0abd 6640 8f3c 8f63 14be
000003d0: 91ef 8abd faf8 02bd 0777 f0bc 579a cbbd
000003e0: 5ccb 063c d682 af3d 09b1 da3d acf6 5dba
000003f0: fe42 0abd 3237 bd3d e687 16be 79a2 bb3d

network_body._body_endoder.seq_layers.0.bias f4 [128]
0.006157094 0.009877144 0.009864383 -0.0028472266 0.01899283 0.018917724 -0.008048495 0.009561358
0.003949487 -0.007319516 0.009243872 -0.016511878 0.0024422437 0.0114545105 -0.01459864 -0.0027534198
-0.001981474 0.005683815 0.020517016 0.00044552833 0.009891417 -0.017256543 0.011690419 0.010279635
0.0077957553 0.009655922 0.0153932115 0.0049073426 0.01969842 0.0014511553 0.033483382 -0.00809651
0.008708397 0.016707622 0.0059192064 0.00012705465 0.0006758783 -0.011621661 0.005155588 0.014677516
0.013505502 0.008686689 0.00085049955 0.0020880448 0.015940638 0.01814789 0.0005103847 -0.0025343923
-0.0052386126 -0.005245647 0.006813408 0.013988888 -0.0005248003 0.010585681 0.007959399 0.007345915
0.007069578 0.015125226 0.006809493 0.016335556 -0.0068513057 0.014281129 0.0046819225 0.0117156105
0.0049774656 0.013329676 0.0081159985 0.02054532 0.003844672 -0.019619025 -0.0062577445 0.006039242
0.006557251 0.009870933 -0.01312173 0.0054431264 -0.0012344181 -0.005246487 0.0018684895 0.011719224
-0.01143964 0.005179153 -0.01072391 -0.008908184 0.0011866175 0.0029298728 0.023378933 0.028265985
0.012150818 -0.007969112 -0.00419556 0.010243125 -0.0063274065 0.017270865 -0.01003391 0.0047725206
0.005049305 0.017044706 -0.010484962 5.048485e-05 -0.0038391345 0.01238073 0.006389002 -0.008502164
-0.0049116677 0.0045583663 0.0044867983 0.0045447913 0.008578675 0.012338437 0.0007911039 -0.00021640639
0.0068752593 0.018554034 0.008678538 0.01244033 0.008141862 0.0035352027 -0.0030600117 -0.0014880355
0.008506617 0.007103535 0.010478245 0.003385401 0.0006014429 -0.0018375712 -0.007577295 0.0016590188
00000000: 73c1 c93b bfd3 213c 399e 213c 8998 3abb
00000010: da96 9b3c 58f9 9a3c d6dd 03bc 3ea7 1c3c
00000020: b36a 813b 8dd8 efbb 9c73 173c eb43 87bc
00000030: 0d0e 203b b3ab 3b3c 222f 6fbc b872 34bb
00000040: 9edb 01bb 4c3f ba3b 4d13 a83c cd95 e939
00000050: 9c0f 223c 985d 8dbc 2c89 3f3c ea6b 283c
00000060: 8973 ff3b df33 1e3c cf33 7c3c c6cd a03b
00000070: 955e a13c b134 be3a df25 093d 39a7 04bc
00000080: aaad 0e3c 6cde 883c e7f5 c13b f939 0539
00000090: 6d2d 313a c768 3ebc 35f0 a83b f779 703c
000000a0: 2e46 5d3c 9d52 0e3c 0ff4 5e3a 94d7 083b
000000b0: f195 823c e2aa 943c 56cb 053a 0c18 26bb
000000c0: aba8 abbb ade3 abbb 0243 df3b a631 653c
000000d0: c192 09ba 906f 2d3c 2468 023c 00b6 f03b
000000e0: eba7 e73b cccf 773c 2b22 df3b 25d2 853c
000000f0: eb80 e0bb 66fb 693c d06a 993b d5f2 3f3c
00000100: 021a a33b b764 5a3c f7f8 043c a94e a83c
00000110: e5f6 7b3b 14b8 a0bc c40d cdbb d5e4 c53b
00000120: 35de d63b b2b9 213c 86fc 56bc 415c b23b
00000130: 33cc a1ba b9ea abbb 1be8 f43a fd01 403c
00000140: 546d 3bbc e2b5 a93b 57b3 2fbc a2f3 11bc
00000150: 4788 9b3a 1c03 403b 2d85 bf3c 118e e73c
00000160: 3914 473c e190 02bc e87a 89bb c8d2 273c
00000170: 2256 cfbb a17b 8d3c 4565 24bc ce62 9c3b
00000180: a474 a53b 57a1 8b3c 1ec9 2bbc b2bf 5338
00000190: fd99 7bbb 8cd8 4a3c d55a d13b a94c 0bbc
000001a0: 0ef2 a0bb 595e 953b fe05 933b 79ec 943b
000001b0: 928d 0c3c 2827 4a3c 1662 4f3a 26eb 62b9
000001c0: db49 e13b a1fe 973c 6d30 0e3c 87d2 4b3c
000001d0: 7265 053c dcae 673b 7a8a 48bb 300a c3ba
000001e0: 565f 0b3c c5c4 e83b f2ac 2b3c 9bdd 5d3b
000001f0: 26aa 1d3a a8da f0ba f54a f8bb 6f73 d93a

network_body._body_endoder.seq_layers.2.weight f4 [128, 128]
-0.010868739 -0.05081958 -0.21030855 0.14496988 0.073581465 0.008011965 -0.09959879 0.0070830607
-0.052971616 -0.053708877 0.107671246 0.061410364 0.03866079 -0.019290293 0.020885073 -0.050858244
0.08410889 -0.07014423 -0.038543344 0.015967859 0.05975315 0.04500105 -0.063476175 -0.008680911
0.03234988 0.027431415 0.081850424 -0.029870385 -0.06227818 -0.05750443 0.072284944 0.06671934
0.14966899 -0.022866793 0.06148086 0.08925545 0.22306593 -0.013814714 0.08616129 0.048086867
0.11843336 -0.17687476 0.06352307 0.065355115 -0.12051811 -0.0028753327 0.03839884 -0.042951748
-0.072114155 -0.045209162 0.0007597533 -0.04978851 0.12034896 0.11019355 0.035010397 0.0071326657
-0.014378475 0.0072166366 0.106299356 -0.1666353 -0.16854207 0.011056716 -0.17961924 0.010971878
0.043605987 -0.07191431 0.03430802 0.11271454 0.12377257 -0.071053065 -0.089611314 0.118660785
0.039235592 0.14145103 0.04608702 -0.05520612 0.054978143 -0.07689641 0.045326345 -0.09818269
-0.07234679 -0.020520996 0.048416827 0.013040129 0.032455944 0.007182945 -0.095750645 0.12566549
-0.13185272 0.10351946 0.03712874 0.028809445 -0.09011955 0.034282465 -0.15846887 -0.020037943
-0.023540692 0.021812858 -0.18829925 0.07883469 0.09213996 0.1755885 -0.0022816155 0.06390607
-0.0101812165 -0.09629983 -0.13012671 0.19207817 0.20225617 0.057902668 -0.09896909 -0.030132957
-0.08510654 -0.023032198 -0.17002065 -0.12496239 -0.0042552324 0.027715016 -0.012248985 0.013101069
-0.09950499 -0.08379907 0.13662764 0.02831406 -0.102567926 -0.16942917 -0.14169475 0.12990513
0.028733144 0.05088948 0.020833492 -0.020920254 0.053968553 -0.080536276 0.005630371 -0.0349793
-0.048014067 -0.085483186 0.11692502 -0.02440674 0.072950155 -0.20148447 0.042173922 0.033130698
0.009649916 0.002742441 0.044214472 0.033115853 0.035101265 0.0007118589 -0.049847078 0.1387982
-0.066704474 0.11837792 0.059182405 -0.082510605 0.009587395 -0.07890062 0.029414907 -0.08677518
-0.11182617 -0.07637681 -0.14929742 0.07679494 -0.007074862 0.09381147 -0.036959942 0.053897794
0.11606313 0.010017273 -0.014926785 -0.10016545 -0.042905785 -0.10205721 0.008656846 0.006114445
0.04067904 -0.040420353 0.09445152 -0.188746 -0.2517676 -0.00081549585 0.009200034 -0.16114481
0.0432198 0.07139366 -0.0180673 0.013377942 -0.09396134 -0.054336593 -0.033114526 -0.020453183
0.107830346 0.14365856 -0.121856995 0.12334571 0.018141028 -0.043656312 0.17084406 -0.026241144
0.09128386 -0.25269583 0.014466449 0.12503125 -0.011825224 -0.16456798 -0.016362036 -0.051024828
0.0076069487 0.09287447 0.06217781 -0.017074952 -0.112171516 -0.033563353 -0.046708245 -0.13239229
0.14188749 0.07206497 -0.059481245 0.07936311 0.14465597 -0.022386182 -0.030036021 -0.046860337
-0.038948275 0.044229943 0.073093 0.11798066 0.055403292 -0.09272243 -0.11241879 -0.01573626
0.06743685 0.027509872 0.14901789 0.021186735 -0.024086762 -0.06828751 0.10535126 -0.0751546
0.11134577 -0.061675366 -0.023499323 -0.08159175 -0.06424739 -0.049869783 -0.009206651 -0.060088646
-0.16409437 -0.08396001 -0.0066674943 -0.009080048 -0.06809382 0.10653192 -0.10608316 0.00448205
00000000: cc12 32bc 3128 50bd 205b 57be fc72 143e
00000010: e1b1 963d 9e44 033c 73fa cbbd 0519 e83b
00000020: c4f8 58bd d7fd 5bbd be82 dc3d 6f89 7b3d
00000030: c75a 1e3d ad06 9ebc 2c17 ab3c bc50 50bd
00000040: 4841 ac3d c7a7 8fbd a0df 1dbd 07cf 823c
00000050: b8bf 743d 0553 383d ccff 81bd 613a 0ebc
00000060: 4f81 043d d9b7 e03c 32a1 a73d bdb2 f4bc
00000070: 6817 7fbd c489 6bbd 210a 943d 26a4 883d
00000080: d442 193e 2453 bbbc 5bd3 7b3d 90cb b63d
00000090: 656b 643e 1c57 62bc 5575 b03d bcf6 443d
000000a0: 308d f23d a81e 35be 6218 823d e7d8 853d
000000b0: 33d2 f6bd 1470 3cbb 1a48 1d3d 2cee 2fbd
000000c0: 96b0 93bd 3e2d 39bd 2e2a 473a 09ef 4bbd
000000d0: 8479 f63d 28ad e13d 1067 0f3d 23b9 e93b
000000e0: b293 6bbc 8979 ec3b 7ab3 d93d 72a2 2abe
000000f0: 4b96 2cbe 3a27 353c 1bee 37be 64c3 333c
00000100: 319c 323d cf47 93bd 9186 0c3d e1d6 e63d
00000110: 797c fd3d 4584 91bd 2386 b7bd 6d04 f33d
00000120: 80b5 203d 8ad8 103e bec5 3c3d d01f 62bd
00000130: c330 613d dd7b 9dbd 1ea8 393d 0214 c9bd
00000140: 8e2a 94bd a61b a8bc b950 463d 44a6 553c
00000150: 86f0 043d e95e eb3b ea18 c4bd 74ae 003e
00000160: 6604 07be 0302 d43d 4e14 183d c901 ec3c
00000170: 9990 b8bd c56b 0c3d aa45 22be 9d26 a4bc
00000180: 69d8 c0bc e1b0 b23c 85d1 40be 1574 a13d
00000190: e0b3 bc3d 79cd 333e 2887 15bb 30e1 823d
000001a0: 1ecf 26bc d838 c5bd f03f 05be 24b0 443e
000001b0: 3e1c 4f3e 592b 6d3d 4eb0 cabd 64d9 f6bc
000001c0: 564c aebd 05ae bcbc e519 2ebe 48ec ffbd
000001d0: 7a6f 8bbb 9a0a e33c f7af 48bc dea5 563c
000001e0: 46c9 cbbd d99e abbd 1ee8 0b3e e3f2 e73c
000001f0: 220f d2bd d77e 2dbe 6e18 11be da05 053e
00000200: c561 eb3c 7d71 503d 00ab aa3c f460 abbc
00000210: 210e 5d3d 34f0 a4bd fa7e b83b 7446 0fbd
00000220: 66aa 44bd cf11 afbd 6376 ef3d a5f0 c7bc
00000230: e466 953d f251 4ebe 90be 2c3d 0eb4 073d
00000240: ae1a 1e3c 86ba 333b 3c1a 353d 7da4 073d
00000250: 58c6 0f3d 0b9c 3a3a 732c 4cbd 1e21 0e3e
00000260: 5b9c 88bd 1f70 f23d 4069 723d 52fb a8bd
00000270: 7314 1d3c a696 a1bd 88f7 f03c 30b7 b1bd
00000280: 1e05 e5bd 726b 9cbd 6ce1 18be aa46 9d3d
00000290: 3ed4 e7bb 3a20 c03d 4f63 17bd efc3 5c3d
000002a0: 82b2 ed3d 7d1f 243c 798f 74bc 8b23 cdbd
000002b0: fabd 2fbd 5f03 d1bd 72d5 0d3c af5b c83b
000002c0: 119f 263d d08f 25bd cc6f c13d a246 41be
000002d0: afe7 80be 00c7 55ba bdbb 163c 2503 25be
000002e0: 3f07 313d d736 923d e001 94bc 282f 5b3c
000002f0: ce6e c0bd 0c90 5ebd 19a3 07bd 6f8d a7bc
00000300: 28d6 dc3d 3b1b 133e 2990 f9bd ad9c fc3d
00000310: 7e9c 943c f6d0 32bd bff1 2e3e abf7 d6bc
00000320: 08f3 ba3d 5961 81be af04 6d3c 3108 003e
00000330: 96be 41bc 8284 28be ad09 86bc 69ff 50bd
00000340: b643 f93b f834 be3d 29ae 7e3d c5e0 8bbc
00000350: 2eba e5bd ba79 09bd 2551 3fbd d891 07be
00000360: f44a 113e cd96 933d 9ba2 73bd 2089 a23d
00000370: b220 143e 3a63 b7bc 1a0e f6bc a0f0 3fbd
00000380: 3a88 1fbd 752a 353d c8b1 953d d89f f13d
00000390: 90ee 623d 42e5 bdbd d33b e6bd 54e9 80bc
000003a0: 551c 8a3d 625c e13c 2598 183e ce8f ad3c
000003b0: 9a51 c5bc 52da 8bbd 67c2 d73d a8ea 99bd
000003c0: 4009 e43d 4f9f 7cbd a781 c0bc 9319 a7bd
000003d0: 2394 83bd 4244 4cbd 7ed7 16bc 831f 76bd
000003e0: 5b08 28be 3af3 abbd ff7a dabb 7bc4 14bc
000003f0: c674 8bbd 682d da3d 2142 d9bd 29de 923b

network_body._body_endoder.seq_layers.2.bias f4 [128]
0.0027925198 -0.002011903 0.011146429 0.011542296 0.0138034215 -0.0026963495 0.0177436 -0.0013297129
-0.0065534743 0.0018327852 -0.0046357466 0.022418106 0.007109881 0.019549329 0.004261534 0.0062536583
0.010121843 -0.00012894096 -0.004833396 0.00043211275 0.009693471 0.011951752 -0.0026951174 0.0007664037
-0.0018044416 0.018980457 -0.0038256703 0.0022447081 -0.00011905306 0.008724042 -0.000642105 -0.00090818555
0.00869941 0.01051622 0.0023824584 0.01103764 -0.00074097596 0.0026149126 -0.009197518 0.013445309
0.0029812166 0.004626126 0.0034845527 0.008879532 0.010869172 -0.0026196493 -0.002216612 0.008040856
-0.00043859764 -0.003680433 -0.009569425 0.0069373064 0.0040400885 0.017733648 0.00088181073 -0.0074706934
0.010695751 0.0055984254 -0.00016293542 -0.002870344 0.0006999483 0.002187709 -0.0073445598 0.008217733
0.0037859608 0.012726952 -0.0061182524 0.014128866 -0.00040331288 -0.0010886113 0.009825585 -0.00026570036
-0.002296662 0.0038274713 0.014813875 0.0015784656 -0.011228631 0.013474137 -0.0070771975 -0.003958855
0.01038253 -0.0051710377 0.0018493432 0.013376668 0.0004897383 -0.0047564562 0.0042604823 -0.00028900715
-0.0018402439 0.010260221 -0.0048110494 -0.0046919016 -0.0014202031 0.007832422 0.00010616644 0.00020395903
0.0021541717 0.007562575 -0.0002595958 -0.0044682687 0.01577114 -0.0042221774 0.0069612074 0.003536133
0.001656612 -0.0038261877 0.0011350975 0.0031332797 0.0033191906 0.01307647 -0.010693625 -0.0035190848
-0.0004813974 0.012090296 -0.009587781 0.009945979 0.0031281626 -0.0008963813 -0.009622726 -0.0079474095
0.005228517 0.00439417 0.0045975614 0.0025051937 0.0071997973 0.0032257268 0.003099939 0.005013171
00000000: b502 373b 22da 03bb 839f 363c e61b 3d3c
00000010: bf27 623c 3db5 30bb 075b 913c c349 aeba
00000020: 87be d6bb 113a f03a 76e7 97bb 2da6 b73c
00000030: 01fa e83b ea25 a03c 57a4 8b3b 7deb cc3b
00000040: 16d6 253c 5334 07b9 7761 9ebb 318d e239
00000050: 5dd1 1e3c 48d1 433c 91a0 30bb 7be8 483a
00000060: 0383 ecba e77c 9b3c 19b8 7abb f41b 133b
00000070: 20ac f9b8 49ef 0e3c f052 28ba 4d13 6eba
00000080: f887 0e3c 394c 2c3c 0523 1c3b 38d7 343c
00000090: 0e3e 42ba f45e 2b3b 30b1 16bc b749 5c3c
000000a0: 8460 433b c296 973b 185d 643b 757b 113c
000000b0: 9d14 323c 6cae 2bbb 9444 11bb cbbd 033c
000000c0: 94f3 e5b9 6b33 71bb 14c9 1cbc 5852 e33b
000000d0: b862 843b 2846 913c 5129 673a b8cc f4bb
000000e0: 3b3d 2f3c ff72 b73b a5d9 2ab9 621c 3cbb
000000f0: bc7c 373a ab5f 0f3b a2aa f0bb aca3 063c
00000100: e21d 783b b584 503c 9f7b c8bb c27c 673c
00000110: bd73 d3b9 bcaf 8eba 7efb 203c b34d 8bb9
00000120: 9883 16bb 50d6 7a3b e5b5 723c 84e4 ce3a
00000130: 4bf8 37bc a0c2 5c3c d6e7 e7bb 48b9 81bb
00000140: 7d1b 2a3c cf71 a9bb a965 f23a d029 5b3c
00000150: c861 003a 0cdc 9bbb 849b 8b3b e285 97b9
00000160: 5734 f1ba 7c1a 283c 02a6 9dbb 86be 99bb
00000170: 1c26 baba 8f53 003c aca5 de38 d6dd 5539
00000180: 012d 0d3b 7acf f73b 5c1a 88b9 8e6a 92bb
00000190: 7a32 813c 315a 8abb d71a e43b 78be 673b
000001a0: ad22 d93a c7c0 7abb 8dc7 943a b657 4d3b
000001b0: c786 593b b13e 563c 5034 2fbc 72a0 66bb
000001c0: 1164 fcb9 6016 463c 1116 1dbc 76f4 223c
000001d0: dc01 4d3b 21fb 6aba a3a8 1dbc da35 02bc
000001e0: fb53 ab3b f8fc 8f3b 24a7 963b 2d2e 243b
000001f0: 47ec eb3b b766 533b 5928 4b3b 8745 a43b

action_model._continuous_distribution.log_sigma f4 [1, 2]
-0.030187653 -0.04455841
00000000: 194c f7bc e182 36bd

action_model._continuous_distribution.mu.weight f4 [2, 128]
-0.030614203 0.023755133 -0.0077978713 -0.0032330344 0.01796786 -0.036330137 -0.014937631 0.034374874
-0.01404301 -0.0215307 0.006592338 0.019112762 0.024872577 -0.0018701993 -0.005174397 -0.005989456
0.014840152 0.0039009023 -0.0045883916 0.035116218 0.035577253 -0.004575884 -0.005648699 0.01947839
-0.019119818 0.0035503914 -0.02029617 -0.018574838 -0.00340636 -0.003967231 0.0041570696 0.036463913
-0.026648523 0.024731936 0.025099311 0.007087506 0.036616564 -0.0057026087 0.0026978976 -0.002852923
-0.03558393 -0.035892494 0.033813056 0.017909393 -0.015852496 -0.042515405 -0.034165405 0.046315167
-0.03382913 0.0004945136 -0.018386908 0.040474053 0.025715096 0.016047161 0.014103724 -0.011649534
0.040465593 0.02589316 -0.039907154 0.006099288 -0.029050184 0.017432814 0.008576891 0.03510323
-0.0066874065 0.016523808 0.016113287 0.010753832 -0.01009556 0.0010883199 0.03455344 -0.023993576
-0.023101265 0.0061190026 0.015633762 0.024681872 5.0319763e-05 -8.341889e-05 0.0158025 -0.019077908
-0.0006613581 0.0045198873 0.01160957 0.028840857 -0.013400318 -0.010778855 0.05119912 -0.005731481
-0.007802185 0.021467643 -0.013709855 0.012869843 -0.028557003 0.028789598 0.022414993 0.004652506
0.033491824 0.033605427 0.012307136 0.017153893 -0.0053087594 -0.006341988 0.008074709 0.0012333196
0.028259892 0.0026081682 0.01820959 -0.0065991785 0.050560914 0.035988435 0.010615541 -0.025006821
0.0014790603 0.013505173 0.0074976687 8.8697576e-05 -0.0034622 -0.022928057 0.009559349 0.010329293
0.02376854 0.0062183933 -0.02285826 0.015741937 -0.021566633 0.008021291 0.053897005 0.013890857
0.019341715 -0.0022228982 -0.044150442 -0.008993159 -0.015031051 0.04150181 0.0066402745 0.031605303
0.02872864 0.005943615 0.046660777 -0.047344267 -0.020850288 -0.064777225 0.009841323 0.029695168
-0.04911244 0.0031324995 -0.002757821 0.014552324 -0.0141823 -0.00762789 0.05062613 0.00813468
0.019291507 -0.024966454 0.006905085 0.03967193 0.006754776 -0.03583308 0.0032912616 0.030764922
0.022436941 -0.044864025 0.0023114765 -0.028411446 0.039564583 -0.011784975 0.00845805 -0.06885138
0.042623434 -0.0021623226 -0.004538661 -0.023810662 -0.011221874 0.018422963 0.046656497 -0.028414397
0.037658125 0.041379265 0.035231445 -0.016485207 -0.0153547935 -0.07108048 0.025662767 0.02130486
-0.046068057 -0.007921389 0.02020724 0.004750289 0.022088815 0.008271755 0.025957862 -0.015478323
0.0065556522 -0.027345546 0.00436802 -0.06337076 0.009768868 0.01186419 -0.026890786 -0.013638939
0.018300239 -0.011456933 -0.045832977 0.011452514 0.016050983 -0.043711744 0.05245203 0.034232877
-0.007823034 0.034344885 -0.012604421 -0.044512805 -0.004328993 0.03984282 0.062621236 0.02915073
-0.0024871035 -0.021112526 0.03269168 0.025043458 0.009282453 -0.021280386 0.022485115 0.05324559
0.023181092 -0.015355612 -0.0074226027 0.009614086 -0.009695716 0.018626997 -0.02534064 -0.01209809
0.0044322857 0.07022599 0.050281636 -0.017538942 -0.0059961625 -0.037517615 0.018573692 0.02106456
0.055969793 -0.029547065 0.0227684 -0.02204155 0.057110768 0.05176597 -0.0049141534 0.01224838
-0.0072444435 -0.013505606 0.019243388 0.012294303 -0.00017627967 -0.008763699 0.0007446039 -0.0034922569
00000000: a3ca fabc 209a c23c 4985 ffbb 51e1 53bb
00000010: 5531 933c e9ce 14bd f7bc 74bc abcc 0c3d
00000020: a714 66bc 2761 b0bc 8a04 d83b 5e92 9c3c
00000030: 93c1 cb3c 7a21 f5ba fd8d a9bb 3343 c4bb
00000040: 1c24 733c 48a6 7f3b 385a 96bb 06d6 0f3d
00000050: 74b9 113d 4cf1 95bb b918 b9bb 2591 9f3c
00000060: 2aa1 9cbc afad 683b 2744 a6bc 422a 98bc
00000070: 3d3d 5fbb 8cff 81bb 0738 883b 2f5b 153d
00000080: 014e dabc a19a ca3c 129d cd3c 4f3e e83b
00000090: 40fb 153d f3dc babb 36cf 303b 1bf8 3abb
000000a0: 74c0 11bd 0204 13bd 8f7f 0a3d b8b6 923c
000000b0: 18dd 81bc a224 2ebd 06f1 0bbd f9b4 3d3d
000000c0: 6a90 0abd 3fa2 013a 24a0 96bc 1fc8 253d
000000d0: 77a8 d23c 5675 833c 4e13 673c b0dd 3ebc
000000e0: 40bf 253d e41d d43c af75 23bd 89dc c73b
000000f0: a7fa edbc 43cf 8e3c 1786 0c3c 68c8 0f3d
00000100: 0822 dbbb f05c 873c 0300 843c d730 303c
00000110: d967 25bc f5a5 8e3a e887 0d3d 2d8e c4bc
00000120: dd3e bdbc ea81 c83b 6012 803c a331 ca3c
00000130: 6f0e 5338 2df1 aeb8 3f74 813c 4649 9cbc
00000140: fe5e 2dba 901b 943b 1136 3e3c a943 ec3c
00000150: 028d 5bbc cb99 30bc 2bb6 513d 26cf bbbb
00000160: 79a9 ffbb e9dc af3c 4d9f 60bc 09dc 523c
00000170: 60f0 e9bc 2ad8 eb3c a69f b73c 0d74 983b
00000180: b92e 093d d8a5 093d dfa3 493c 5286 8c3c
00000190: 1af5 adbb 74d0 cfbb c94b 043c 57a7 a13a
000001a0: 4a81 e73c cded 2a3b 472c 953c ec3d d8bb
000001b0: f618 4f3d 9c68 133d ceec 2d3c 1bdb ccbc
000001c0: 07dd c13a cd44 5d3c 01af f53b 2603 ba38
000001d0: 14e6 62bb 9fd3 bbbc d19e 1c3c 323c 293c
000001e0: 3eb6 c23c aac3 cb3b 3f41 bbbc 3cf5 803c
000001f0: 82ac b0bc bc6b 033c 1bc3 5c3d 7a96 633c
00000200: 8472 9e3c 0bae 11bb 18d7 34bd 0b58 13bc
00000210: cc44 76bc cdfd 293d a996 d93b 9074 013d
00000220: 5358 eb3c a8c2 c23b 5f1f 3f3d 10ec 41bd
00000230: 39ce aabc eca9 84bd 803d 213c 4843 f33c
00000240: 202a 49bd 9f4a 4d3b 8fbc 34bb df6c 6e3c
00000250: e15c 68bc 61f3 f9bb 585d 4f3d 5247 053c
00000260: 3909 9e3c 7386 ccbc 0d44 e23b 097f 223d
00000270: 2b57 dd3b b5c5 12bd 35b2 573b b806 fc3c
00000280: adcd b73c 57c3 37bd 247c 173b 1fbf e8bc
00000290: 790e 223d c515 41bc a293 0a3c f401 8dbd
000002a0: e995 2e3d c1b5 0dbb 0cb9 94bb 940e c3bc
000002b0: f3db 37bc c1eb 963c e21a 3f3d 4fc5 e8bc
000002c0: 683f 1a3d 4e7d 293d d94e 103d fc0b 87bc
000002d0: ac92 7bbc a592 91bd b93a d23c 8887 ae3c
000002e0: dcb1 3cbd b7c8 01bc a789 a53c 50a8 9b3b
000002f0: 9af3 b43c 4186 073c 95a5 d43c cb98 7dbc
00000300: ccd0 d63b c403 e0bc 9c21 8f3b 87c8 81bd
00000310: 9a0d 203c 0562 423c 114a dcbc db75 5fbc
00000320: 62ea 953c dcb5 3bbc 5cbb 3bbd 53a3 3b3c
00000330: 5a7d 833c 160b 33bd f1d7 563d c637 0c3d
00000340: 2f2c 00bc 39ad 0c3d c682 4ebc 0f53 36bd
00000350: 3ada 8dbb 3a32 233d 903f 803d 83cd ee3c
00000360: acfe 22bb 2df4 acbc b6e7 053d f027 cd3c
00000370: 6e15 183c 3454 aebc b432 b83c 0c18 5a3d
00000380: 46e6 bd3c 1b96 7bbc 4e39 f3bb 6684 1d3c
00000390: c8da 1ebc a597 983c 2d97 cfbc 1137 46bc
000003a0: b53c 913b a5d2 8f3d 1ef4 4d3d d4ad 8fbc
000003b0: 757b c4bb 12ac 19bd db27 983c 968f ac3c
000003c0: 9540 653d b00c f2bc cc84 ba3c 7b90 b4bc
000003d0: fbec 693d 8e08 543d e806 a1bb 6ead 483c
000003e0: cc62 edbb 9e46 5dbc 4fa4 9d3c 0b6e 493c
000003f0: b7d7 38b9 9e95 0fbc 8631 433a 59de 64bb

action_model._continuous_distribution.mu.bias f4 [2]
0.0016316922 -0.010002477
00000000: 81de d53a 6ee1 23bc

exp_avg f4 [128, 136]
-2.3405282e-05 1.6130671e-06 2.273382e-07 -3.39846e-06 -3.466902e-05 1.6663023e-05 -3.5588955e-06 -7.0895708e-06
-5.1707353e-05 3.0183204e-05 -4.072581e-08 -1.2807193e-06 -8.420494e-05 -4.6300058e-05 0.00010894013 9.676127e-05
-0.00015202226 0.00013046338 -5.943527e-09 -8.9275845e-06 -3.936129e-05 1.0068268e-05 1.2223331e-05 9.671988e-06
-3.531294e-05 1.3748095e-05 -6.144962e-15 3.3135566e-06 -2.9668437e-05 -2.1122972e-09 6.771333e-06 5.2592595e-06
1.4027514e-05 -3.5592362e-05 2.7844344e-23 -5.138446e-06 0.00019808127 -4.4568117e-07 9.4235766e-05 -1.6246483e-06
2.1082983e-06 0.00022143115 2.6190403e-08 9.246063e-05 -1.2531828e-07 1.4810997e-06 0.0002165541 -3.5354088e-07
8.292881e-05 -5.2519886e-06 5.74302e-06 0.00017448279 -8.3596416e-07 7.7159886e-05 2.8096078e-06 -1.6970087e-06
0.00015608151 -5.090237e-07 6.2602296e-05 -1.3127019e-05 -2.525428e-06 0.00020774988 6.9935396e-07 5.7550027e-05
1.3241873e-05 -1.7056101e-06 0.00016097722 -3.6627213e-08 3.9388768e-05 -8.472643e-06 -7.66222e-06 0.00015632821
-9.1970276e-07 4.3425607e-05 3.999131e-06 2.8097932e-06 0.00025869987 1.296072e-06 3.632052e-05 6.3077605e-06
5.4583265e-06 0.00029885708 2.110371e-06 3.1286778e-05 -2.1153302e-05 1.2709536e-05 0.0002762363 1.9292752e-06
1.6401396e-05 -2.078241e-05 6.504698e-06 0.00023782818 1.7416555e-06 6.939406e-06 -3.006697e-06 -2.579481e-06
0.00028815278 2.918788e-06 -1.0409801e-05 8.448474e-07 5.2298956e-06 0.00025434335 2.6875728e-06 -2.0398189e-05
2.9254002e-06 8.339556e-06 0.00023545699 2.6641512e-06 -3.2893357e-05 -1.890614e-05 7.808163e-06 4.971825e-05
-7.9507106e-07 -5.4197742e-05 9.744314e-06 -6.631318e-06 0.000111395646 6.289922e-07 -5.6636076e-05 -7.897843e-06
1.7186973e-06 0.00012234322 5.068747e-07 -6.2000094e-05 4.129099e-06 -5.749023e-06 9.351564e-05 6.815352e-07
-7.746885e-05 8.046873e-06 4.3045807e-06 3.3171415e-05 8.754127e-07 -7.8028286e-05 2.506633e-06 -8.584453e-06
-3.7977512e-05 -2.0459447e-05 8.61214e-08 -2.460606e-06 -1.9934549e-05 -3.491704e-05 -3.499244e-06 -5.298477e-06
-6.1931845e-05 3.5985086e-06 -1.7503508e-08 -3.1729303e-06 -7.902164e-05 -9.6599724e-05 0.00011727051 0.00010669042
-0.00013463803 7.628779e-05 -6.6674827e-10 -7.2332737e-06 -5.33796e-05 1.6563607e-05 -1.9212715e-05 -2.1463475e-05
-1.129985e-05 -4.705104e-05 -3.66053e-15 9.605758e-07 -1.8504854e-05 2.3473725e-09 -3.577906e-05 -3.6577236e-05
-1.2484576e-05 -4.5866287e-05 1.7761372e-23 -5.735591e-06 0.00014950657 1.7836213e-06 3.0704134e-06 -8.610631e-06
3.0627368e-06 0.00015986907 2.0697878e-06 4.9999044e-06 3.5396172e-06 1.3814166e-06 0.0001409856 1.7454795e-06
3.484443e-06 -1.580078e-06 4.101886e-06 9.2410024e-05 7.708537e-07 -5.4926086e-06 6.168645e-06 -1.2086554e-07
0.00010927398 1.3363168e-06 -1.29545415e-05 -8.730205e-06 1.1025484e-06 0.0001189411 1.6325406e-06 -1.503193e-05
1.3278725e-05 -4.2747315e-06 0.00012782741 2.065741e-06 -2.6863743e-05 4.715514e-08 -6.6593498e-06 0.0001327981
2.1430126e-06 -2.668789e-05 2.946341e-06 -9.108294e-07 0.00018941343 3.2032174e-06 -2.5783404e-05 4.389763e-06
4.8620764e-06 0.00020371392 3.810722e-06 -2.9166777e-05 -6.1618107e-06 5.1181714e-06 0.00017399852 3.5694163e-06
-3.9760143e-05 -1.3516052e-05 8.516272e-06 0.00014877388 3.3983986e-06 -4.7109374e-05 2.5636082e-06 1.1658736e-06
0.0001957852 4.643244e-06 -5.5418233e-05 -4.9115097e-06 3.1327015e-06 0.00017249098 4.081328e-06 -5.4094773e-05
-8.669286e-06 6.165467e-06 0.0001519939 3.83841e-06 -6.8365596e-05 -1.2335047e-05 2.2076927e-06 1.9985568e-05
1.2101077e-06 -7.1733026e-05 4.0583086e-06 -3.5959479e-06 6.1006995e-05 2.3328575e-06 -7.95559e-05 -1.223101e-05
00000000: 7656 c4b7 9080 d835 401a 7434 1911 64b6
00000010: 9469 11b8 92c7 8b37 5cd5 6eb6 f3e2 edb6
00000020: 59e0 58b8 f031 fd37 80ea 2eb3 2ee5 abb5
00000030: 2f97 b0b8 4f32 42b8 c976 e438 50ec ca38
00000040: 2a68 1fb9 ffcc 0839 d137 ccb1 afc7 15b7
00000050: dd17 25b8 e2ea 2837 cf12 4d37 df44 2237
00000060: fb1c 14b8 9ea7 6637 4565 dda7 785e 5e36
00000070: 7ce0 f8b7 ed27 11b1 4f35 e336 b278 b036
00000080: b757 6b37 0249 15b8 a1a5 061a ea6a acb6
00000090: 09b4 4f39 f445 efb4 71a0 c538 7e0e dab5
000000a0: 4a7c 0d36 f92f 6839 4ef9 e032 6ce7 c138
000000b0: 3a8f 06b4 33ca c635 cc12 6339 4ace bdb4
000000c0: 11ea ad38 3d3a b0b6 2bb4 c036 5ef5 3639
000000d0: 0567 60b5 e6d0 a138 b28c 3c36 c6c4 e3b5
000000e0: d0a9 2339 d8a3 08b5 5a49 8338 1e3c 5cb7
000000f0: 867a 29b6 6fd7 5939 3dbb 3b35 df61 7138
00000100: 6929 5e37 51ec e4b5 fecb 2839 0c50 1db3
00000110: 5e35 2538 b925 0eb7 fc8c 00b7 09ec 2339
00000120: 7ee1 76b5 e423 3638 4630 8636 e18f 3c36
00000130: 1ca2 8739 b2f4 ad35 dd56 1838 40a7 d336
00000140: ab26 b736 ebaf 9c39 e69f 0d36 ec39 0338
00000150: 5f72 b1b7 0b3b 5537 cfd3 9039 b278 0136
00000160: bb95 8937 e355 aeb7 ee42 da36 8461 7939
00000170: d4c2 e935 0bd9 e836 a9c6 49b6 251b 2db6
00000180: 3613 9739 65e0 4336 c1a5 2eb7 79c9 6235
00000190: 767c af36 6359 8539 265c 3436 c71c abb7
000001a0: fe51 4436 1fea 0b37 01e5 7639 c5c9 3236
000001b0: f9f6 09b8 a098 9eb7 ceff 0237 9088 5038
000001c0: de6c 55b5 6252 63b8 837b 2337 9682 deb6
000001d0: 159d e938 04d8 2835 868c 6db8 fa80 04b7
000001e0: fdad e635 4249 0039 2a10 0835 0c06 82b8
000001f0: b18c 8a36 bbe7 c0b6 d41d c438 bef2 3635
00000200: c676 a2b8 0e01 0737 1170 9036 8921 0b38
00000210: e7fd 6a35 1ea3 a3b8 a137 2836 f205 10b7
00000220: 0b4a 1fb8 54a0 abb7 bef1 b833 e420 25b6
00000230: 1e39 a7b7 e373 12b8 8ed4 6ab6 92c9 b1b6
00000240: 68e1 81b8 e87d 7136 9f5a 96b2 87ee 54b6
00000250: 6cb8 a5b8 9595 cab8 20ef f538 fcbe df38
00000260: 9f2d 0db9 b2fc 9f38 3d46 37b0 59b5 f2b6
00000270: e9e3 5fb8 13f2 8a37 fe2a a1b7 760c b4b7
00000280: 7c94 3db7 ab58 45b8 6ee2 83a7 22ed 8035
00000290: df3a 9bb7 6a4f 2131 7911 16b8 826a 19b8
000002a0: d874 51b7 8d60 40b8 07c7 ab19 5a74 c0b6
000002b0: ddc4 1c39 c364 ef35 4d0d 4e36 6176 10b7
000002c0: 6b89 4d36 87a2 2739 afe6 0a36 dac4 a736
000002d0: 298a 6d36 1d69 b935 89d5 1339 3846 ea35
000002e0: 46d6 6936 1113 d4b5 efa2 8936 41cc c138
000002f0: aaec 4e35 264d b8b6 42fc ce36 44c7 01b4
00000300: 052a e538 7f5b b335 5557 59b7 f277 12b7
00000310: 46fb 9335 0470 f938 ab1d db35 a631 7cb7
00000320: b1c7 5e37 aa6f 8fb6 6909 0639 29a1 0a36
00000330: 7359 e1b7 a087 4a33 6173 dfb6 b83f 0b39
00000340: add0 0f36 cfdf dfb7 c1b9 4536 b87f 74b5
00000350: 489d 4639 dbf6 5636 7049 d8b7 c74b 9336
00000360: eb24 a336 0a9c 5539 b5bb 7f36 2dab f4b7
00000370: 8dc1 ceb6 c2bc ab36 5f73 3639 1b8a 6f36
00000380: 21c4 26b8 00c3 62b7 1ce1 0e37 2f00 1c39
00000390: 0b10 6436 4e97 45b8 740a 2c36 1d7b 9c35
000003a0: b04b 4d39 2acd 9b36 e070 68b8 8ccd a4b6
000003b0: 673b 5236 b2de 3439 57f2 8836 d2e3 62b8
000003c0: 4d72 11b7 f5e0 ce36 8d60 1f39 b1cb 8036
000003d0: 805f 8fb8 a0f2 4eb7 df27 1436 aea6 a737
000003e0: fc6a a235 606f 96b8 9b2c 8836 ea51 71b6
000003f0: c3e1 7f38 308e 1c36 40d7 a6b8 ca33 4db7

exp_avg_sq f4 [128, 136]
8.8403205e-08 1.0433806e-07 5.192892e-09 5.6703824e-09 9.862658e-08 8.4701945e-08 8.724073e-09 9.323239e-09
6.593646e-08 1.3602762e-07 3.1538112e-09 3.7050085e-09 1.2235537e-07 4.084925e-08 3.26358e-08 3.299943e-08
1.0926678e-07 9.197557e-08 7.106105e-10 1.5339323e-09 1.2325918e-07 1.716647e-08 4.8019444e-08 4.8771735e-08
1.3398204e-07 5.8501495e-08 1.9087883e-10 1.2988661e-09 1.3109639e-07 8.5034095e-09 5.288969e-08 5.3486144e-08
1.533836e-07 3.9267327e-08 1.9294434e-11 1.0987107e-09 1.623724e-07 3.3840056e-10 2.8150455e-07 3.7198097e-10
1.0753023e-10 1.6979067e-07 3.4385753e-10 2.8676297e-07 2.9594152e-10 8.5816e-11 1.7485799e-07 3.4854214e-10
2.9059123e-07 4.9981486e-10 1.0380675e-10 1.7108422e-07 3.4924075e-10 2.9626716e-07 5.5395105e-10 1.8044087e-10
1.9939515e-07 3.6458367e-10 3.0170702e-07 2.913633e-10 1.0217049e-10 2.011806e-07 3.677347e-10 3.0586764e-07
3.949692e-10 1.0006179e-10 2.0499415e-07 3.7173412e-10 3.1305365e-07 2.4281455e-10 1.2303485e-10 2.0663873e-07
3.7112316e-10 3.172075e-07 3.6336026e-10 1.1477841e-10 2.0746813e-07 3.7629755e-10 3.250502e-07 3.212456e-10
6.0740614e-11 1.9885576e-07 3.757528e-10 3.3082608e-07 3.2401226e-10 1.4097702e-10 1.9217349e-07 3.7918443e-10
3.3980467e-07 3.1697142e-10 1.3057205e-10 1.8511756e-07 3.8300427e-10 3.473774e-07 2.846934e-10 1.019143e-10
1.8201723e-07 3.855302e-10 3.5644618e-07 2.417785e-10 1.5790148e-10 1.7998654e-07 3.9359271e-10 3.653164e-07
3.3543002e-10 1.5367753e-10 1.7355633e-07 3.935876e-10 3.7379004e-07 3.0617608e-10 1.1760388e-10 1.7330008e-07
3.93097e-10 3.8093668e-07 4.0105144e-10 1.2182999e-10 1.74359e-07 3.9870382e-10 3.90208e-07 4.0061288e-10
1.2742087e-10 1.7577113e-07 4.0595174e-10 3.9752462e-07 6.069349e-10 2.0816633e-10 1.7317927e-07 4.063228e-10
4.0307347e-07 6.0874705e-10 2.5046015e-10 1.6146421e-07 4.044446e-10 4.125866e-07 6.497875e-10 2.9704858e-10
3.6621227e-08 6.11852e-08 1.5030794e-09 1.6374032e-09 4.0522803e-08 5.4424913e-08 2.45677e-09 2.6205622e-09
2.8434068e-08 7.3424324e-08 1.0446412e-09 1.2648118e-09 5.5740777e-08 2.5171735e-08 1.4906806e-08 1.528406e-08
4.759274e-08 5.4160722e-08 3.5219666e-10 7.17515e-10 5.985635e-08 1.3488774e-08 2.3788564e-08 2.4192833e-08
6.1974504e-08 3.3908442e-08 8.974736e-11 6.0496014e-10 6.173192e-08 6.3775185e-09 2.6268115e-08 2.6631822e-08
7.9646384e-08 1.7580222e-08 1.1893585e-11 5.488068e-10 5.451025e-08 1.6846541e-10 1.5052368e-07 1.3928947e-10
3.6094943e-11 5.87583e-08 1.7123618e-10 1.5149263e-07 2.9453914e-10 3.0392428e-11 6.59471e-08 1.7806202e-10
1.5286186e-07 2.2788431e-10 2.636603e-11 6.267383e-08 1.7850038e-10 1.5423151e-07 1.511744e-10 1.9826479e-11
6.821235e-08 1.8170032e-10 1.5599646e-07 1.6961806e-10 1.233239e-10 7.129666e-08 1.83116e-10 1.5694704e-07
2.1147743e-10 4.480501e-11 7.701155e-08 1.869327e-10 1.5907749e-07 1.4343754e-10 4.5768576e-11 7.4720106e-08
1.856533e-10 1.6098637e-07 1.9633559e-10 5.3232148e-11 7.501022e-08 1.8639337e-10 1.6347396e-07 1.5710035e-10
5.761547e-11 7.411029e-08 1.8845765e-10 1.6577499e-07 1.4578524e-10 4.6754163e-11 7.1975386e-08 1.8958743e-10
1.6842279e-07 1.54317e-10 3.9676543e-11 6.995073e-08 1.9003314e-10 1.7154105e-07 1.4755044e-10 4.091136e-11
6.943964e-08 1.9253238e-10 1.7408084e-07 1.4783973e-10 7.229684e-11 7.114916e-08 1.9777258e-10 1.7770417e-07
1.2555446e-10 4.54052e-11 6.844888e-08 1.9729825e-10 1.8048894e-07 1.7253564e-10 4.0836702e-11 7.0596165e-08
1.9737922e-10 1.8249301e-07 2.1123756e-10 4.755551e-11 7.33043e-08 2.003382e-10 1.8571336e-07 2.7297015e-10
00000000: 2dd8 bd33 7510 e033 296d b231 36d5 c231
00000010: 89cc d333 63e5 b533 e1e0 1532 0a2c 2032
00000020: f498 8d33 fd0e 1234 6fba 5831 339b 7e31
00000030: ca60 0334 3a72 2f33 712b 0c33 42bb 0d33
00000040: 0ca6 ea33 1b84 c533 c554 4330 72d2 d230
00000050: 3a59 0434 7775 9332 f03d 4e33 1779 5133
00000060: b4dc 0f34 1343 7b33 9ddf 512f ca83 b230
00000070: 80c3 0c34 6416 1232 d428 6333 a3b8 6533
00000080: c3b1 2434 e2a6 2833 34b7 a92d 7201 9730
00000090: 9658 2e34 a509 ba2f b121 9734 ab7f cc2f
000000a0: 2376 ec2e b44f 3634 a509 bd2f 67f4 9934
000000b0: 11b2 a22f 1db6 bc2e 99c0 3b34 f29c bf2f
000000c0: 8e02 9c34 5863 0930 0146 e42e 46b3 3734
000000d0: 44ff bf2f a60e 9f34 d744 1830 9765 462f
000000e0: 5219 5634 976e c82f 4cfa a134 bd2d a02f
000000f0: dfac e02e 1a04 5834 0f2a ca2f 2136 a434
00000100: f922 d92f c809 dc2e 5d1c 5c34 ed5c cc2f
00000110: c411 a834 1c7d 852f 3b47 072f 6ce0 5d34
00000120: f106 cc2f ab4c aa34 69c2 c72f 8066 fc2e
00000130: 68c4 5e34 2cdf ce2f 8f82 ae34 4d9b b02f
00000140: ed91 852e 0e85 5534 8192 ce2f 649c b134
00000150: ac20 b22f 8101 1b2f 3f58 4e34 7775 d02f
00000160: 666e b634 c341 ae2f c490 0f2f bac4 4634
00000170: 0f8f d22f 307f ba34 0983 9c2f a71c e02e
00000180: 8470 4334 8df2 d32f 975d bf34 4deb 842f
00000190: 519d 2d2f 5342 4134 4061 d82f b420 c434
000001a0: 9467 b82f 61f8 282f cd5a 3a34 8860 d82f
000001b0: 50ad c834 7452 a82f 8d4e 012f 5d14 3a34
000001c0: 7c1b d82f 8a83 cc34 f97a dc2f 18f4 052f
000001d0: 7037 3b34 9330 db2f c77d d134 403d dc2f
000001e0: c919 0c2f 9abb 3c34 a12c df2f 5e6b d534
000001f0: 3fd5 2630 9de1 642f 28f3 3934 da60 df2f
00000200: ff65 d834 c454 2730 22b1 892f f25e 2d34
00000210: 8458 de2f 7881 dd34 bb9c 3230 df4d a32f
00000220: 7749 1d33 eb64 8333 e894 ce30 010b e130
00000230: 4b0b 2e33 d3c0 6933 f4d3 2831 6b15 3431
00000240: 2d3f f432 73ad 9d33 0b93 8f30 9cd5 ad30
00000250: a267 6f33 3b39 d832 6a0c 8032 014a 8332
00000260: c568 4c33 589e 6833 469f c12f a13a 4530
00000270: 608a 8033 41bc 6732 9b57 cc32 9ad0 cf32
00000280: d816 8533 baa2 1133 465b c52e 494a 2630
00000290: 7b91 8433 3f21 db31 32a4 e132 ffc3 e432
000002a0: 100a ab33 5103 9732 f23b 512d d8da 1630
000002b0: a71e 6a33 cc3a 392f a29f 2134 8026 192f
000002c0: 4bbf 1e2e 6f5d 7c33 b346 3c2f faa9 2234
000002d0: b3ec a12f d5aa 052e cd9e 8d33 01c8 432f
000002e0: 5922 2434 bb8f 7a2f 05eb e72d 4d97 8633
000002f0: 6443 442f d69a 2534 d037 262f 4365 ae2d
00000300: 237c 9233 18c8 472f fb7f 2734 3d7f 3a2f
00000310: 9898 072f c11b 9933 9256 492f 4685 2834
00000320: 9b85 682f f50d 452e 8c61 a533 e188 4d2f
00000330: e3ce 2a34 14b6 1d2f d64a 492e d075 a033
00000340: c220 4c2f 99db 2c34 8edf 572f 121e 6a2e
00000350: 4e15 a133 12f1 4c2f 6187 2f34 d1bb 2c2f
00000360: 4165 7d2e 9026 9f33 1d36 4f2f e2ff 3134
00000370: e64a 202f 82a0 4d2e e390 9a33 1e74 502f
00000380: b4d7 3434 60ac 292f d17f 2e2e d237 9633
00000390: 93f1 502f d830 3834 c23b 222f 19ee 332e
000003a0: d91e 9533 0cb1 532f faea 3a34 2f8d 222f
000003b0: 81fb 9e2e aaca 9833 0874 592f f3ce 3e34
000003c0: 700c 0a2f b6b1 472e 2bfe 9233 85ee 582f
000003d0: 6ccc 4134 77b4 3d2f 0a9a 332e a79a 9733
000003e0: 5005 592f 4cf3 4334 1642 682f bf26 512e
000003f0: 776b 9d33 3146 5c2f 8068 4734 2211 962f

exp_avg f4 [128]
-2.156482e-05 -5.835086e-05 0.00011256424 1.4952336e-05 -6.6385364e-05 8.126143e-05 -3.304759e-05 -1.548725e-05
-0.00015215589 3.0226189e-05 6.380182e-05 -1.06613215e-05 5.9753205e-05 -0.00018597534 3.929038e-05 0.0002078128
-4.589643e-05 0.00025546635 -0.00011882328 0.00012596676 -0.00016271943 1.5295298e-05 -8.0602455e-05 -0.00017944565
-0.00012595921 -6.289718e-05 1.3287643e-05 2.2022883e-05 0.00011907923 -1.5102646e-05 7.1156435e-05 6.5788245e-06
0.00015299348 -6.9022694e-06 -6.0687267e-05 0.00010531506 0.00017686721 9.463924e-05 -2.0223777e-05 -7.5301024e-05
-0.00012643872 8.482377e-05 5.739486e-05 -4.532922e-05 0.0001203764 -0.00018018647 7.291115e-05 -1.0135602e-05
5.8243193e-05 2.5086207e-05 -0.00012911683 -0.00020747876 0.00013085082 -3.8033468e-05 -0.00010356375 -0.00011615268
4.790559e-05 -0.00011187983 -9.6073745e-05 -0.000112609414 -2.7857584e-05 -0.000110738096 7.4736294e-05 -6.361748e-06
2.8913453e-05 -0.00012783876 6.151207e-05 0.00018868971 -2.108166e-05 -1.3861057e-06 0.000119128985 7.60341e-05
-2.4928155e-05 -1.0343938e-05 1.2188382e-05 -0.00014961882 -2.693849e-05 1.5766382e-07 7.498389e-05 -9.103076e-05
6.6471e-05 -3.5626067e-06 6.1588755e-05 3.0197398e-05 0.0001239356 -2.6179902e-07 -0.00020930471 0.00027460678
-3.677886e-05 7.254049e-05 3.220534e-05 -4.6859677e-05 2.5844052e-05 -6.9984395e-05 3.6836573e-06 -0.00016231262
-0.00013377129 -3.125856e-05 8.712843e-05 -3.4814588e-05 -1.8969662e-05 3.5304012e-05 0.00020715191 1.05368e-05
-1.8383842e-05 -4.667434e-05 8.707915e-05 -1.7493821e-05 1.6112366e-05 0.00028616158 -9.967157e-05 6.0852315e-05
-0.00014479378 -0.00034371036 0.00022184421 -0.00023227716 3.2092885e-05 -2.025855e-05 4.0151273e-05 -2.1579031e-05
0.00016289616 -4.198128e-05 0.0001718169 -4.3105367e-05 -7.126439e-08 0.0001263338 -1.0898458e-05 3.144149e-05
00000000: 19e6 b4b7 c2bd 74b8 7710 ec38 cbdb 7a37
00000010: 5f38 8bb8 e66a aa38 949c 0ab8 9eea 81b7
00000020: 098c 1fb9 3f8e fd37 57cd 8538 07de 32b7
00000030: 849f 7a38 6002 43b9 b9cb 2438 53e8 5939
00000040: eb80 40b8 1df0 8539 c330 f9b8 f215 0439
00000050: aa9f 2ab9 674e 8037 1d09 a9b8 9329 3cb9
00000060: eb13 04b9 abe7 83b8 feed 5e37 c8bd b837
00000070: 2dba f938 5f61 7db7 d239 9538 acbf dc36
00000080: e06c 2039 0b9a e7b6 758a 7eb8 98dc dc38
00000090: 6e75 3939 0e79 c638 3ba6 a9b7 eeea 9db8
000000a0: a394 04b9 6ae3 b138 43bb 7038 e11f 3eb8
000000b0: 9672 fc38 70f0 3cb9 e0e7 9838 140c 2ab7
000000c0: 274a 7438 3870 d237 8963 07b9 a88e 59b9
000000d0: 0035 0939 2086 1fb8 5d30 d9b8 ff96 f3b8
000000e0: 3cee 4838 07a1 eab8 337b c9b8 b828 ecb8
000000f0: b5af e9b7 103c e8b8 bebb 9c38 0077 d5b6
00000100: 2b8b f237 750c 06b9 0b00 8138 02db 4539
00000110: 85d8 b0b7 3b0a bab5 e3d4 f938 7f74 9f38
00000120: ce1c d1b7 e08a 2db7 b47c 4c37 ffe2 1cb9
00000130: f7f9 e1b7 4d4a 2934 ab40 9d38 c4e7 beb8
00000140: 5966 8b38 1e15 6fb6 3629 8138 6b50 fd37
00000150: b6f4 0139 628d 8cb4 ce78 5bb9 19f9 8f39
00000160: 0043 1ab8 e120 9838 3814 0738 328b 44b8
00000170: aecb d837 96c4 92b8 c034 7736 7632 2ab9
00000180: f544 0cb9 a01b 03b8 b8b8 b638 e105 12b8
00000190: 0a21 9fb7 6513 1438 eb36 5939 36c7 3037
000001a0: 0037 9ab7 31c4 43b8 439e b638 b2bf 92b7
000001b0: 0b29 8737 f507 9639 c406 d1b8 ad3b 7f38
000001c0: c9d3 17b9 0634 b4b9 da9e 6839 6d8f 73b9
000001d0: 799b 0638 e8f0 a9b7 1a68 2838 9e04 b5b7
000001e0: 1bcf 2a39 0e15 30b8 bf29 3439 09cc 34b8
000001f0: 030a 99b3 7978 0439 85d8 36b7 0be0 0338

exp_avg_sq f4 [128]
2.078538e-07 1.0379509e-07 7.9448135e-08 4.1834745e-09 5.678283e-08 5.702452e-08 1.2870914e-08 7.1320643e-09
1.0077188e-07 2.3070776e-08 2.3447576e-08 3.9276222e-09 3.5464183e-08 2.1903958e-07 5.29765e-09 2.6706132e-07
2.895612e-08 3.7117928e-07 3.0725278e-07 8.2425366e-08 3.5551224e-07 2.78408e-09 6.82392e-08 1.6294541e-07
1.8418658e-07 2.0493755e-07 8.720751e-09 8.621933e-09 1.2848565e-07 8.237203e-08 2.8523498e-08 1.0984045e-09
2.8243005e-07 1.0399799e-08 4.2368306e-08 3.8645716e-08 2.563839e-07 6.397315e-08 3.2073288e-08 1.6337698e-07
1.8670065e-07 5.5692695e-08 1.1166967e-08 3.860879e-08 8.498658e-08 2.4467116e-07 3.5642756e-08 1.0628795e-08
2.1704857e-08 1.9210404e-08 7.362844e-08 2.1151209e-07 1.0075987e-07 1.0859005e-07 6.288194e-08 5.230729e-08
2.7461754e-08 7.672833e-08 6.047051e-08 1.4430925e-07 2.7125036e-08 6.37099e-08 7.3625735e-08 9.289653e-08
2.0927281e-08 2.4086205e-07 5.1272412e-08 3.708501e-07 1.1555798e-08 9.2896413e-10 4.7461924e-08 6.935218e-08
5.7845767e-08 5.1098348e-09 2.2915689e-08 1.4886784e-07 9.5617265e-09 1.116116e-09 3.3079438e-08 3.9311e-08
3.931168e-08 5.0692655e-08 3.2813954e-08 1.1294596e-08 1.391684e-07 3.339907e-08 4.046303e-07 4.7784476e-07
5.936061e-08 3.301928e-08 2.0837774e-08 1.0650485e-08 1.1200287e-07 2.311941e-08 1.199195e-08 1.4937984e-07
1.0288668e-07 1.0741058e-08 8.477162e-08 1.2905425e-08 6.8190107e-09 1.0255104e-07 2.2754872e-07 5.060835e-08
1.801911e-09 1.8133685e-08 2.127683e-08 6.787622e-09 1.2246733e-08 6.985638e-07 7.492863e-08 1.5340442e-08
1.9897722e-07 9.019057e-07 2.5866802e-07 3.9829737e-07 5.553418e-08 7.8228055e-09 4.1004615e-08 7.8072595e-08
1.7248261e-07 2.1405656e-08 1.6690942e-07 2.4296062e-08 8.490807e-09 9.3207454e-08 1.4198909e-09 6.6693597e-09
00000000: 6b2e 5f34 f4e5 de33 139d aa33 3bbe 8f31
00000010: 62e1 7333 1feb 7433 e11e 5d32 4d0e f531
00000020: ed67 d833 2c2d c632 c469 c932 bbf3 8631
00000030: 4851 1833 2431 6b34 9f06 b631 a160 8f34
00000040: 2ebb f832 7e46 c734 80f4 a434 d301 b133
00000050: 3bdd be34 0e52 3f31 e68a 9233 18f6 2e34
00000060: d2c4 4534 ce0c 5c34 45d2 1532 aa1f 1432
00000070: def5 0934 81e4 b033 d603 f532 acf6 9630
00000080: e4a0 9734 cdaa 3232 72f8 3533 6afb 2533
00000090: 23a5 8934 9c61 8933 f4c0 0933 b96c 2f34
000000a0: e277 4834 c432 6f33 d7d8 3f32 d0d2 2533
000000b0: de81 b633 595b 8334 a015 1933 ef99 3632
000000c0: 7c71 ba32 2004 a532 aa1d 9e33 001c 6334
000000d0: 5361 d833 0332 e933 b609 8733 79a8 6033
000000e0: 09e5 eb32 d8c5 a433 04dc 8133 6df3 1a34
000000f0: 9600 e932 e3d0 8833 2d1c 9e33 687e c733
00000100: 94c3 b332 d44f 8134 9d36 5c33 4019 c734
00000110: f086 4632 0a5a 7f30 f0d8 4b33 c4ee 9433
00000120: 1872 7833 9592 af31 22d8 c432 7bd8 1f34
00000130: eb44 2432 d765 9930 3a13 0e33 e7d6 2833
00000140: a6d7 2833 2ab9 5933 53ef 0c33 290a 4232
00000150: 526e 1534 aa72 0f33 f73b d934 3e45 0035
00000160: aef3 7e33 15d1 0d33 c0fe b232 54f9 3632
00000170: 3b86 f033 1f98 c632 2705 4e32 3865 2034
00000180: 8df2 dc33 ac87 3832 b10b b633 a9b6 5d32
00000190: a74c ea31 083a dc33 1e54 7434 785c 5933
000001a0: 1ba7 f730 65c4 9b32 3ec4 b632 8e38 e931
000001b0: b465 5232 f084 3b35 73e8 a033 fdc5 8332
000001c0: 71a6 5534 7d1a 7235 10df 8a34 93d5 d534
000001d0: 7a84 6e33 1065 0632 0d1d 3033 dda8 a733
000001e0: a933 3934 89df b732 b637 3334 9bb3 d032
000001f0: f7de 1132 5729 c833 f825 c330 4f28 e531
