results/test/CarParking/CarParking-1058.pt (torch, 177626 bytes, 12 tensors)

network_body._body_endoder.seq_layers.0.weight f4 [128, 33]
00000000: b05e 90bd eff1 9c3d 6caf 1dbd 4d7c eebc
00000010: 9bcf 133f 320c ae3e 2567 7fbe 07b4 4e3e
00000020: da32 cc3d a609 a5be 586c adbe 3c2a 80bd
00000030: d74a 92bd 384d 673e 700f 803d 7a4d 6e3d
00000040: 1fb6 8abd e3f0 75be 13d4 7fbd d0bc a33d
00000050: 4882 143d b57d 3f3e 823c 86be 3aac b9be
00000060: 5c24 f23c 33d4 ebbc 0e8a fe3b 9ebc 393e
00000070: 22c0 883d dc1e 663e 09fd 4f3e 862c 2c3d
00000080: b3eb 5abe 0c84 e1bc ba76 2bbe 20e6 97be
00000090: e8ae 7dbe 1c30 f93d 93f7 293e 4dee 06bd
000000a0: 77a2 ac3e 83ab 1f3e ec88 923d 9fa5 1d3e
000000b0: 1299 c33d 2868 313c cccf 023f 1550 b23d
000000c0: d3e6 8fbe 4c76 0d3d f1f9 9f3d cc1b 9f3c
000000d0: 24ab f8b9 2f26 4d3d a488 90be 8d98 10be
000000e0: e4fe b0bd 2a3d 49be fcab b33d 35b5 ab3c
000000f0: df50 c2bd ed8e f7bd d976 dcbd 6e9f ec3d
00000100: 6c7b 163e 55cf dd3d 144c 09be 049b 52be
00000110: 4cd5 16be 2cd4 113d ab30 a2bd 6e0c 7c3e
00000120: f321 72bc bba1 c3bc a684 5d3e 12a1 bbbe
00000130: 3d69 933e 7c35 36be 133f 963e 918d 9abe
00000140: 287e 943d a277 743b 85c4 21be bf9b 423d
00000150: 5560 183d 8525 553d 01d0 2fbe 56d5 d9bd
00000160: 7624 823c b229 e43d f6e2 203e 123b bd3d
00000170: 07c8 0f3e c0e5 603c d29b a2bd c698 b03c
00000180: e3fa 9a3e 49a0 55be ac0e 1a3d c97f 573e
00000190: 6e83 2a3c bfce 9cbe 3d15 683d 747f 263c
000001a0: a9dc 913d 1eff a3bc 9fdc ed3d 3a49 c7bb
000001b0: 7d95 3b3e de47 843a ac35 023e 2d86 fa3d
000001c0: 72ff 513e 27b3 223e 4770 3d3e 9d17 8cbe
000001d0: 6c04 52bd d034 44be e33d 2f3e ef49 5abd
000001e0: c8c0 003d 4293 883e 76e7 f8bc bcec 833d
000001f0: 1d1a 6ebe ae7a 5ebe b01a 6bbe 9cc1 d13d
00000200: f6aa 333e 888e 953d 2f68 b9be 0898 0dbe
00000210: 6ecc 703d 8842 b6be 223a 1f3e b326 b03d
00000220: 6474 31be 3b5e a9be eeac 3d3e 8347 9dbd
00000230: 82ed 9ebc a496 34bd b28e 3abe 6110 173e
00000240: e497 1dbe aa9f c53d f949 7cbe da93 5ebe
00000250: bc21 f03c 8d80 873e 6cd4 443e bd64 e7bd
00000260: b47b 463d 6643 023d 7313 c1bd 30e4 023e
00000270: 3dac 0b3e 7bc1 b83e 7de8 013e cc26 bb3e
00000280: 3c92 143e a52b 683e 47ea 7abd 8cc5 193e
00000290: ce84 9a3e cf6c a73c cb93 1c3d 8b84 80be
000002a0: 6256 d43d ce90 3abd b0a6 a6bc 7ef3 d03d
000002b0: e3dc ab3e 844b 133c 7915 433e 3978 8d3c
000002c0: ab5a 7cbe 93ed 833e 0a51 78be b264 85be
000002d0: 9049 33bd ab5e ff3d 9c21 183e 3884 85be
000002e0: 3998 6abe 2579 2a3e 427b 08be 7786 543e
000002f0: 7d0a 683d f369 c9bd 9aa1 603e 7064 c73d
00000300: 77e3 e8bd 7e04 43be 2250 233e 916e 32be
00000310: f64c c63d 0e7f 39be c27f 853e a5f8 2bbd
00000320: 4ecb 28be ba85 5d3e 4a21 b7bd 75de ddbd
00000330: a466 d73d f519 d83e 079c 50be 6fc2 b8be
00000340: 816c dabd 48cf 19be ffab 50bd 33e2 ee3d
00000350: b3c1 b93e 6df5 93bd 92e3 1e3e 2990 993e
00000360: 0bac 5b3e d58b 903c fe09 e5bd 1894 8c3e
00000370: 2910 b93d ef31 43bc 03e4 a2bd 140d 27bd
00000380: 2574 253e d730 483e a837 b3bd 64ba 5abe
00000390: 9bc7 e4bd c5b8 b0bd 90e4 88be 7b4c ac3e
000003a0: 3751 3c3e 852a c0bb 71eb 903e e339 ca3c
000003b0: 28d4 82be a947 623d f3a9 6fbe 5f8b 023e
000003c0: e07f 6b3e 5a78 09be 3207 d63e e714 82be
000003d0: abea 6d3c b024 e4bd b950 babd 4466 473e
000003e0: da85 aebb 6324 88be 9e1e 4e3e 500b ffbe
000003f0: 52f9 cb3c c4e9 eebd 0a4c 12bd 5e98 3dbe
-0.0704931 0.07663333 -0.038497373 -0.029112006 0.57738656 0.3399368 -0.2494169 0.20185862
0.09970637 -0.32233924 -0.33871722 -0.062580556 -0.07143181 0.2258805 0.062529445 0.058179356
-0.06773018 -0.24017672 -0.06245811 0.079949975 0.03625706 0.18700297 -0.2621804 -0.3626421
0.029558353 -0.028787708 0.0077679222 0.18138358 0.066772714 0.2247271 0.20311369 0.04203465
-0.21378975 -0.027528785 -0.1674451 -0.2966776 -0.24773753 0.12167379 0.16598348 -0.032942105
0.337177 0.1559277 0.07155022 0.1539521 0.0955068 0.010828055 0.5109832 0.08706681
-0.28105792 0.034536645 0.078113444 0.019422434 -0.00047429756 0.050085243 -0.2822925 -0.14120694
-0.086423665 -0.19652238 0.08773038 0.02096043 -0.09488081 -0.12087808 -0.10764856 0.11553846
0.14695519 0.10830561 -0.13407928 -0.20566946 -0.14729804 0.035602733 -0.07919439 0.24614117
-0.014778602 -0.02388083 0.21632633 -0.36646324 0.28791228 -0.1779384 0.29344997 -0.30186132
0.07250625 0.0037302752 -0.15797623 0.047511812 0.037201244 0.052037735 -0.17169191 -0.10636394
0.015886527 0.11140765 0.15711579 0.092397824 0.14041148 0.013726652 -0.079398766 0.021557223
0.30269536 -0.20861925 0.03761165 0.2104484 0.010407312 -0.30626485 0.05666088 0.010162223
0.07122166 -0.02001911 0.11614346 -0.0060817273 0.18318744 0.0010092219 0.12715787 0.12232623
0.20507601 0.15888654 0.18499862 -0.27361766 -0.05127375 -0.19160771 0.17113452 -0.053293165
0.03143385 0.2667485 -0.030383807 0.06441638 -0.23252149 -0.21726486 -0.22959399 0.10242006
0.17545685 0.07302576 -0.36212298 -0.13827527 0.05878871 -0.35597634 0.1554952 0.08601131
-0.17329556 -0.33079705 0.18522999 -0.076796554 -0.019400362 -0.044088975 -0.18218496 0.14752342
-0.15389973 0.09649594 -0.24637593 -0.21736088 0.02931296 0.26465264 0.19221658 -0.11298511
0.048457816 0.031802557 -0.09427538 0.12782359 0.13639922 0.36085114 0.12686343 0.36553037
0.14508909 0.22672899 -0.06125858 0.15016764 0.30179447 0.020437626 0.038226884 -0.25101122
0.10368039 -0.045548253 -0.020343155 0.102026924 0.3356696 0.008990172 0.1905116 0.01726924
-0.24643962 0.25767192 -0.24249664 -0.26053387 -0.043771327 0.12469228 0.14856571 -0.26077437
-0.22909631 0.16647775 -0.13328269 0.2075442 0.056650627 -0.09834661 0.21936646 0.09735954
-0.113715105 -0.19044682 0.15948537 -0.1742499 0.09682648 -0.18114874 0.26074034 -0.041985173
-0.16483805 0.21633044 -0.08941896 -0.10833446 0.10517624 0.42207304 -0.2037202 -0.3608584
-0.10665227 -0.15020478 -0.05094528 0.11664238 0.36280593 -0.07224546 0.15516499 0.29992798
0.21452348 0.017644802 -0.111835465 0.27456737 0.090362854 -0.011913761 -0.07953646 -0.040783957
0.16157587 0.19549881 -0.0875085 -0.21360165 -0.11170884 -0.08628992 -0.2673688 0.336521
0.18390356 -0.0058644437 0.28304628 0.024685806 -0.25552487 0.05524412 -0.23404674 0.12748478
0.22997999 -0.13424817 0.41802365 -0.25406572 0.014521281 -0.1113981 -0.09097428 0.19472605
-0.005326015 -0.2659026 0.20128867 -0.49813318 0.024899159 -0.11665681 -0.035717048 -0.18515155

network_body._body_endoder.seq_layers.0.bias f4 [128]
00000000: 0000 0000 0000 0000 0000 0000 0000 0000
00000010: 0000 0000 0000 0000 0000 0000 0000 0000
00000020: 0000 0000 0000 0000 0000 0000 0000 0000
00000030: 0000 0000 0000 0000 0000 0000 0000 0000
00000040: 0000 0000 0000 0000 0000 0000 0000 0000
00000050: 0000 0000 0000 0000 0000 0000 0000 0000
00000060: 0000 0000 0000 0000 0000 0000 0000 0000
00000070: 0000 0000 0000 0000 0000 0000 0000 0000
00000080: 0000 0000 0000 0000 0000 0000 0000 0000
00000090: 0000 0000 0000 0000 0000 0000 0000 0000
000000a0: 0000 0000 0000 0000 0000 0000 0000 0000
000000b0: 0000 0000 0000 0000 0000 0000 0000 0000
000000c0: 0000 0000 0000 0000 0000 0000 0000 0000
000000d0: 0000 0000 0000 0000 0000 0000 0000 0000
000000e0: 0000 0000 0000 0000 0000 0000 0000 0000
000000f0: 0000 0000 0000 0000 0000 0000 0000 0000
00000100: 0000 0000 0000 0000 0000 0000 0000 0000
00000110: 0000 0000 0000 0000 0000 0000 0000 0000
00000120: 0000 0000 0000 0000 0000 0000 0000 0000
00000130: 0000 0000 0000 0000 0000 0000 0000 0000
00000140: 0000 0000 0000 0000 0000 0000 0000 0000
00000150: 0000 0000 0000 0000 0000 0000 0000 0000
00000160: 0000 0000 0000 0000 0000 0000 0000 0000
00000170: 0000 0000 0000 0000 0000 0000 0000 0000
00000180: 0000 0000 0000 0000 0000 0000 0000 0000
00000190: 0000 0000 0000 0000 0000 0000 0000 0000
000001a0: 0000 0000 0000 0000 0000 0000 0000 0000
000001b0: 0000 0000 0000 0000 0000 0000 0000 0000
000001c0: 0000 0000 0000 0000 0000 0000 0000 0000
000001d0: 0000 0000 0000 0000 0000 0000 0000 0000
000001e0: 0000 0000 0000 0000 0000 0000 0000 0000
000001f0: 0000 0000 0000 0000 0000 0000 0000 0000
0.0 0.0 0.0 0.0 0.0 0.0 0.0 0.0
0.0 0.0 0.0 0.0 0.0 0.0 0.0 0.0
0.0 0.0 0.0 0.0 0.0 0.0 0.0 0.0
0.0 0.0 0.0 0.0 0.0 0.0 0.0 0.0
0.0 0.0 0.0 0.0 0.0 0.0 0.0 0.0
0.0 0.0 0.0 0.0 0.0 0.0 0.0 0.0
0.0 0.0 0.0 0.0 0.0 0.0 0.0 0.0
0.0 0.0 0.0 0.0 0.0 0.0 0.0 0.0
0.0 0.0 0.0 0.0 0.0 0.0 0.0 0.0
0.0 0.0 0.0 0.0 0.0 0.0 0.0 0.0
0.0 0.0 0.0 0.0 0.0 0.0 0.0 0.0
0.0 0.0 0.0 0.0 0.0 0.0 0.0 0.0
0.0 0.0 0.0 0.0 0.0 0.0 0.0 0.0
0.0 0.0 0.0 0.0 0.0 0.0 0.0 0.0
0.0 0.0 0.0 0.0 0.0 0.0 0.0 0.0
0.0 0.0 0.0 0.0 0.0 0.0 0.0 0.0

network_body._body_endoder.seq_layers.2.weight f4 [128, 128]
00000000: 5a6a 3ebd 5ce1 bfbd c770 723e d8d8 a63c
00000010: a141 cfbd 51f6 233d 4944 2dbe 6a84 033e
00000020: d2d7 ed3d 4072 bd3c 1dee 503d 2b12 f2bd
00000030: 7da1 223d b541 eabc 72df 2a3d 279e 7c3d
00000040: e54d 833d 2c99 e73c ec37 cdbd a944 91bd
00000050: 7841 803e f698 42bd 5907 b1bc 05ab 59bd
00000060: 512d f43c 0963 623d 3ffd 113d b75c 15be
00000070: f6ac 853d 9ff0 2c3c 39ad 57bd 4091 66be
00000080: 3804 20bc 3a55 ab3d f27c 3cb9 d107 24bd
00000090: 486f b93b dd57 2abd 87ed 473d e0fa 6bbd
000000a0: 39c3 123e 743a 12be 444d 29be 1e1e 86bd
000000b0: 2f07 103e 9967 96bd 22cf 5c3d 909a c73b
000000c0: 7130 e1bd f898 e4bd 89de 04be a2dc 5fbd
000000d0: bedd 413d 7a54 2d3d 090d 563d 6dad 3f3d
000000e0: ac00 9b3d 6953 963d ca75 29bd 698d 4bbe
000000f0: 6cba 3abd 9966 60bd c74e 4abc 5167 b1bd
00000100: 86c9 403d c9dd c3bd 1865 a3bd 50bb 2e3d
00000110: 9981 d7bd 3488 4dbd 5b74 18bd 611a f4bc
00000120: e7c2 6f3c 8dd1 c4bd 3143 b6bd f16a 3d3e
00000130: bc46 84bd e0f8 373d 4fb0 863c f37b f43d
00000140: 723b 7fbc c944 2cbe c4f2 ac3d 7670 c23d
00000150: 231d 643e 6b16 003d 19ca 283d fac7 b4bd
00000160: 03f7 123d 1ca8 643d 3f56 00be e8d0 4a3d
00000170: 4b8f 02bd 0a06 3abc 5b5a 85bd 75f7 3b3d
00000180: 09d6 813d 2c04 003d 00c6 6fbd a4d4 a0bc
00000190: 37eb a6ba 463d 05be 42a2 af3c 56cb ac3d
000001a0: ccf0 013e cbdb 9a3d 7db8 333e aad0 e339
000001b0: 5f08 7a3d 7875 023c 61fa 2bbd 6b5f e83d
000001c0: f0f4 ee3d a658 8c3d 1cc1 b23c 9d57 ca3b
000001d0: 3384 5ebd 270a 853d c792 bbbd 5d30 20bd
000001e0: 01db e2bc 4a0c e7bc a621 4e3d cfa5 843e
000001f0: aa74 08be 6bcd 833d aae1 ebbd 8a7c e4bd
00000200: 6142 a3bd d7e1 6eba 9449 ccbd 82c5 b8bc
00000210: 464c 94bd 44a1 1f3d 3d06 ad3d cf8b 3cbe
00000220: 995a 93bd 70a1 193e c210 593d 93a3 babd
00000230: 1338 8f3c 235a ebbc 128b 863d 5cac 4c3d
00000240: 4f44 193d 1061 223e 48d1 65bc 2d77 c0bd
00000250: e062 a0bd 0991 833b a7a7 a9bc e195 9ab8
00000260: 6b5b d3bd e038 c03d 15e5 d2bd adc0 183e
00000270: 33aa 1abe 5f5d 053d 6929 dbba 0fde 733d
00000280: 4a9b e4bd 05da 2fbe 280b fabb 1212 a1bb
00000290: 6ae5 263e e45f 3dbe 9c6e 00bd 921f b1bd
000002a0: 8e27 363e ba59 e53d 7890 2e3e b34e 293d
000002b0: c1e0 073d 0304 60bd f374 02bd 7a21 5dbc
000002c0: 36c8 f23c ec12 2a3d eee8 2dbd b4e5 9dbd
000002d0: b829 a4bd 6525 963c 1b55 1abd 4855 bcbc
000002e0: aa91 47bd 3658 05be 7991 8c3d 3d34 013e
000002f0: 06b7 9d3d 5207 db3c 750e 0fbe 7740 853d
00000300: 923a c43c 45e2 173d ae4d 5d3d 99d3 cb3d
00000310: efce 71bd 70f5 433d 1818 22be ef13 d1bd
00000320: 8aad 46b9 c0de f43d 6854 78bd 4d3c eebc
00000330: 0e34 c33d 3058 cbbd 3648 a93c 432a 3c3d
00000340: e1dd 893c b567 edbb 4f0b 0dbe 8f4a eb3d
00000350: f3ec 1f3e 3c69 87bd 1339 a0bc be8c babd
00000360: 63b9 da3c 0309 ec3c ea88 02be ea30 1b3d
00000370: f1a9 67bd 063a 983d 137e 75bc d04e d33c
00000380: 7ab2 0bbc 0871 91bd cbc5 fa3d 0caf 85bd
00000390: 83e6 013d 0fb1 7bbe 83ee 8f3d ab44 963d
000003a0: 6d5d 87bd 2eb2 22bd 2317 7abd 5665 0dbc
000003b0: fe35 8ebd 98c4 53bd 94b0 813d f9a6 4f3d
000003c0: f45d 1a3d a7e7 a5bd 4d7e 2fbe 0d5f 4ebd
000003d0: c5a0 083d 7d05 d2bd 2221 f2bd 11c6 9b3d
000003e0: bafc 1e3e da66 003d 13d9 203d 1186 c5b9
000003f0: 16e3 73bc db17 f53d de99 603d 13d5 103e
-0.046488144 -0.09369156 0.23675834 0.020367071 -0.101199396 0.040029828 -0.1692058 0.1284348
0.1161343 0.023125768 0.051008333 -0.118198715 0.03970479 -0.028595785 0.041717 0.061674263
0.064113416 0.02827128 -0.10020432 -0.07093174 0.2504995 -0.047509156 -0.021609949 -0.053141613
0.029806765 0.05527023 0.035641905 -0.14586149 0.0652713 0.010555415 -0.052655432 -0.22516346
-0.009766631 0.08365865 -0.00017975623 -0.040046517 0.0056590177 -0.0415877 0.048810508 -0.0576123
0.14332284 -0.1428011 -0.16533381 -0.06548713 0.1406524 -0.073439784 0.053908475 0.0060914233
-0.109955676 -0.11161989 -0.12975515 -0.05465377 0.04733061 0.04231689 0.052258525 0.04679625
0.075684875 0.07340128 -0.041372098 -0.19878162 -0.045587942 -0.054785345 -0.012347884 -0.08662284
0.047067188 -0.095637865 -0.079782665 0.042659104 -0.10522766 -0.05017872 -0.03722034 -0.029797735
0.014633871 -0.09610281 -0.088995345 0.18497826 -0.06458804 0.04491508 0.016441492 0.11937704
-0.015578138 -0.16823114 0.08444741 0.094941065 0.2227674 0.03127138 0.04120836 -0.08827205
0.0358801 0.055824384 -0.125329 0.049515635 -0.031874936 -0.011353979 -0.065113746 0.04589029
0.06339652 0.03125398 -0.058538437 -0.019632645 -0.0012734894 -0.13011655 0.021439675 0.08437221
0.12689513 0.075614534 0.17550845 0.0004345228 0.06104314 0.007962577 -0.041986827 0.113463245
0.11667812 0.06852846 0.021820597 0.006174995 -0.054325294 0.06496077 -0.09158855 -0.039108623
-0.02769232 -0.028204102 0.05032506 0.25907752 -0.13325754 0.06435665 -0.115176514 -0.111565664
-0.07971645 -0.0009112632 -0.099749714 -0.022555117 -0.072411105 0.038972154 0.084484555 -0.18412708
-0.071950145 0.1500299 0.052994497 -0.091132306 0.017482793 -0.028729504 0.06569494 0.049969062
0.03741866 0.15857339 -0.014026947 -0.09397731 -0.07831359 0.0040150923 -0.020709826 -7.371209e-05
-0.10320171 0.09385848 -0.102976 0.1491725 -0.15103988 0.03255975 -0.0016720715 0.059537943
-0.111624315 -0.17173012 -0.0076307245 -0.004915484 0.16298452 -0.1849361 -0.031355485 -0.086486
0.17788526 0.111987546 0.17047298 0.04133482 0.033173326 -0.054691326 -0.031849813 -0.013496751
0.029636484 0.04152195 -0.042458467 -0.07709828 -0.0801577 0.018328378 -0.03767882 -0.022989884
-0.0487229 -0.13021931 0.06863684 0.12617584 0.077009246 0.026736889 -0.13970359 0.06506436
0.02395371 0.03708102 0.05402916 0.099524684 -0.059035238 0.04784149 -0.15829504 -0.1020888
-0.000189474 0.11956549 -0.06062737 -0.029081488 0.09531413 -0.0992893 0.020664316 0.04593874
0.016829433 -0.007245029 -0.13773845 0.1148883 0.15617733 -0.06611869 -0.019558465 -0.09108876
0.026699727 0.02881289 -0.12747541 0.037888445 -0.056558553 0.07432942 -0.014983672 0.025794417
-0.008526439 -0.07101637 0.12244757 -0.06527528 0.031713974 -0.24579261 0.070279144 0.07337316
-0.066096164 -0.039720707 -0.06105722 -0.008630117 -0.06943892 -0.05170116 0.06332508 0.050696347
0.037687257 -0.08100825 -0.17138024 -0.050383616 0.033356447 -0.10254953 -0.11822726 0.076061375
0.15526095 0.031348087 0.039269518 -0.00037674655 -0.0148856845 0.11967441 0.05483424 0.14143781

network_body._body_endoder.seq_layers.2.bias f4 [128]
00000000: 0000 0000 0000 0000 0000 0000 0000 0000
00000010: 0000 0000 0000 0000 0000 0000 0000 0000
00000020: 0000 0000 0000 0000 0000 0000 0000 0000
00000030: 0000 0000 0000 0000 0000 0000 0000 0000
00000040: 0000 0000 0000 0000 0000 0000 0000 0000
00000050: 0000 0000 0000 0000 0000 0000 0000 0000
00000060: 0000 0000 0000 0000 0000 0000 0000 0000
00000070: 0000 0000 0000 0000 0000 0000 0000 0000
00000080: 0000 0000 0000 0000 0000 0000 0000 0000
00000090: 0000 0000 0000 0000 0000 0000 0000 0000
000000a0: 0000 0000 0000 0000 0000 0000 0000 0000
000000b0: 0000 0000 0000 0000 0000 0000 0000 0000
000000c0: 0000 0000 0000 0000 0000 0000 0000 0000
000000d0: 0000 0000 0000 0000 0000 0000 0000 0000
000000e0: 0000 0000 0000 0000 0000 0000 0000 0000
000000f0: 0000 0000 0000 0000 0000 0000 0000 0000
00000100: 0000 0000 0000 0000 0000 0000 0000 0000
00000110: 0000 0000 0000 0000 0000 0000 0000 0000
00000120: 0000 0000 0000 0000 0000 0000 0000 0000
00000130: 0000 0000 0000 0000 0000 0000 0000 0000
00000140: 0000 0000 0000 0000 0000 0000 0000 0000
00000150: 0000 0000 0000 0000 0000 0000 0000 0000
00000160: 0000 0000 0000 0000 0000 0000 0000 0000
00000170: 0000 0000 0000 0000 0000 0000 0000 0000
00000180: 0000 0000 0000 0000 0000 0000 0000 0000
00000190: 0000 0000 0000 0000 0000 0000 0000 0000
000001a0: 0000 0000 0000 0000 0000 0000 0000 0000
000001b0: 0000 0000 0000 0000 0000 0000 0000 0000
000001c0: 0000 0000 0000 0000 0000 0000 0000 0000
000001d0: 0000 0000 0000 0000 0000 0000 0000 0000
000001e0: 0000 0000 0000 0000 0000 0000 0000 0000
000001f0: 0000 0000 0000 0000 0000 0000 0000 0000
0.0 0.0 0.0 0.0 0.0 0.0 0.0 0.0
0.0 0.0 0.0 0.0 0.0 0.0 0.0 0.0
0.0 0.0 0.0 0.0 0.0 0.0 0.0 0.0
0.0 0.0 0.0 0.0 0.0 0.0 0.0 0.0
0.0 0.0 0.0 0.0 0.0 0.0 0.0 0.0
0.0 0.0 0.0 0.0 0.0 0.0 0.0 0.0
0.0 0.0 0.0 0.0 0.0 0.0 0.0 0.0
0.0 0.0 0.0 0.0 0.0 0.0 0.0 0.0
0.0 0.0 0.0 0.0 0.0 0.0 0.0 0.0
0.0 0.0 0.0 0.0 0.0 0.0 0.0 0.0
0.0 0.0 0.0 0.0 0.0 0.0 0.0 0.0
0.0 0.0 0.0 0.0 0.0 0.0 0.0 0.0
0.0 0.0 0.0 0.0 0.0 0.0 0.0 0.0
0.0 0.0 0.0 0.0 0.0 0.0 0.0 0.0
0.0 0.0 0.0 0.0 0.0 0.0 0.0 0.0
0.0 0.0 0.0 0.0 0.0 0.0 0.0 0.0

action_model._continuous_distribution.log_sigma f4 [1, 2]
00000000: 0000 0000 0000 0000
0.0 0.0

action_model._continuous_distribution.mu.weight f4 [2, 128]
00000000: a16d 94bc ae3a 123d 45ec 54bb d5ac bd3c
00000010: 8fea 1b3c afff 523c 3f24 96bc 2d93 653c
00000020: 4e88 3a3c 5362 ebbb e02b b1bc 1a04 f7bb
00000030: cefb 183c 37a1 633b c0e2 c5bb a3dc ff3c
00000040: 97f4 163c 8216 643b ed61 9b3b f327 babc
00000050: 1b15 933b b305 dd3b e24c 593a 9d97 c8bb
00000060: c410 803c 2faf 213c 0cb9 0f3c b052 c53b
00000070: f974 07bd d8fb d83b 2740 90bc c6e1 213c
00000080: 3085 16bc 7fa5 1239 76d5 943b 121d 2c3c
00000090: dc8a 8ebb 54bc 4a3c a23b e1bc fd9d e93a
000000a0: 0fc2 88bb b9a4 c2bb 064b 8bbc 5842 013d
000000b0: 2bb9 89bc 55ea 9bbb d525 d93a c09a 8b3c
000000c0: a83a 643c aa9d f83c 4982 c43b 9124 373b
000000d0: 4d59 073c 973f 41bc a846 04bb 0dc8 47bc
000000e0: b780 2d3c 8e29 0a3d 92c2 8dbb 9b4c e13c
000000f0: 9fea c8bc 30c7 0eb8 5228 c839 f3dc e1bc
00000100: 8a49 743c 935e f1bb b3ed 64bc 63f0 423c
00000110: 2ff0 5e3c 7ca9 82bc 326f c13c 721e 00bd
00000120: cdf4 8b3b 5f73 053c 3019 a9bc 4266 2bba
00000130: 2a3b ebbc 72ec 04bd f5b3 5ebc 2b9b 103d
00000140: d7de 63bc d381 6fbc d8f7 de3b 0e8d 8d3b
00000150: 6f45 8d3c e9be 3c3a 932b 783c d721 dc3c
00000160: e6ae b53c 8607 953b 95f8 83bc 9f10 aebc
00000170: 8566 e33b 1ac0 1abd 0390 bdbc b05e 12ba
00000180: 476c 943b cc0c bcbb 52ec 81bc ba33 8cbb
00000190: e789 d53c 2899 9d3b ca59 20bc 72d7 943c
000001a0: 73da 8bb8 8a03 bcbc abeb 8f3a 66f7 b33c
000001b0: 3fca 9f3b f72f a43c e2b6 9a3c 956a 05bc
000001c0: d770 fbbb 3057 0f3c c5e7 d13c 7e62 14bc
000001d0: b32d 403c cea2 32bd fb34 84bb afdb 063d
000001e0: 374c 9b3b 0874 f23b 8bef ee3b a015 48ba
000001f0: 74e0 c1ba 716c 24bb 6a40 56bc 3384 463d
00000200: 35d4 8abc 7a5c 9c3b 9b5b fbbb f500 7abb
00000210: fa50 4cbc c0c5 febc 2383 013c 4259 843b
00000220: 9bdd 703c df75 a93b 0dae dbbc f375 4dbc
00000230: 7731 3d3c cfe5 94bb 7abd 63bc d87b 55bc
00000240: 6268 75bc 6bbf 7bbc e3bf 7ebc 91fc 3b3c
00000250: afb6 d9bc 5ddd 7dbc c0ae e43c 8b48 0dbd
00000260: 9861 2bbb ef4d e5bc ea9d 6bbc e3dd 5abc
00000270: 7746 70bb 3530 873d c38e cf3c 2a10 73bc
00000280: b04a 7f3c 7512 fc3b cab7 79bc dd80 e53c
00000290: b751 c1bc 63f2 a23b f598 cd3c e678 293b
000002a0: a44b c5bb fe1f 403b 4af8 333c e323 85bc
000002b0: 080d aabb 0d78 13bc c3e4 733b 3bd6 b0bb
000002c0: 8ff2 f5ba f6f5 193b 933c d0bb 18c7 c7bb
000002d0: fff6 98bc bb60 3c3c ef63 033d 47cc 5ebc
000002e0: fd6f 043c 6699 a1ba cbbe f23b 2f12 9c3c
000002f0: 6e2c 3a3d 9a91 fa3c cf44 133d 6eee a23c
00000300: 730a 653c 6182 06bd 5778 953b 924d c7ba
00000310: b871 4c3c d961 a3bc 1b57 4ebc 5eb2 8ebc
00000320: fbb1 04bd ae81 16bc e5a8 8d3c bb49 173c
00000330: f02e f8ba 6b59 ca3c d025 5fbc 81a3 01bc
00000340: 8fe0 163b dfa0 133c 0fd4 f63c 7b33 95bc
00000350: 6382 aa3b 6202 35bc 82b7 5d3c 37e7 54bb
00000360: 603d b2bc a2c4 e3bb 4f47 67bc a3be b53b
00000370: 7348 fabb 084a b4b7 59c8 a23b f157 acbc
00000380: ff6d c63c 5889 f5bc 9f3c 9b3c 538e 0f3b
00000390: 3387 9abc da7a f8bc 3096 983b 17a3 71bb
000003a0: 3ab3 01bb 6f32 90bb 40f8 433c 2bb8 643c
000003b0: d592 0dbb 5e01 333c 8f6a 4d3c b185 0b3c
000003c0: 7ace edba c8a8 993c c529 9abb 747e 94bb
000003d0: 2ff9 c3bc c2b4 b63b 5aba da3a 9f4e b9bb
000003e0: 6d7c 05bc 485a 3cbd ca08 763c 1026 413c
000003f0: e830 613c f27f dfbc ea05 b039 67ee c93c
-0.018118681 0.035700493 -0.003248946 0.023153702 0.009516372 0.0128783425 -0.01832783 0.01401214
0.011385037 -0.007183352 -0.021627367 -0.0075383307 0.009337379 0.0034733543 -0.0060389936 0.031233137
0.009213588 0.0034803455 0.0047418983 -0.022724127 0.0044886 0.006745064 0.00082893495 -0.0061215893
0.015632994 0.009868427 0.008772146 0.00602182 -0.03307054 0.006621819 -0.017608715 0.009880489
-0.009187028 0.00013985297 0.004542048 0.010504978 -0.0043500494 0.0123740025 -0.027494255 0.0017823573
-0.004173524 -0.0059400466 -0.017003547 0.03155741 -0.016811928 -0.004758159 0.0016567061 0.017041564
0.01393 0.030348618 0.0059969765 0.002794538 0.008261037 -0.011794946 -0.0020183716 -0.012193692
0.01058977 0.033731036 -0.004326173 0.027502349 -0.024525939 -3.4040946e-05 0.00038177014 -0.027571177
0.014910111 -0.0073660105 -0.013972688 0.011898133 0.013607069 -0.015949957 0.023612592 -0.031279035
0.004271126 0.008145182 -0.020641893 -0.000653837 -0.028714735 -0.032452054 -0.01359271 0.03530423
-0.01390811 -0.014618355 0.0068044476 0.0043197935 0.017245023 0.00072000787 0.015147108 0.026871605
0.022178125 0.004548016 -0.016109744 -0.02124816 0.0069397115 -0.03778086 -0.02313996 -0.00055835675
0.004529509 -0.00573883 -0.015859757 -0.004278627 0.026066734 0.0048095174 -0.009787032 0.018169139
-6.668726e-05 -0.022950906 0.0010980269 0.021968555 0.0048764045 0.020042403 0.018886033 -0.008143087
-0.0076733637 0.008748814 0.025623212 -0.0090566855 0.011729646 -0.043612294 -0.004034636 0.03292435
0.00473931 0.007399086 0.0072917393 -0.0007632617 -0.0014791624 -0.002508905 -0.013076881 0.04846592
-0.016946891 0.0047717663 -0.0076708323 -0.0038147543 -0.012470478 -0.031100154 0.007904801 0.0040389607
0.014701272 0.005171522 -0.026816392 -0.012540328 0.011547438 -0.004543997 -0.013900155 -0.013030015
-0.0149785 -0.015365462 -0.015548679 0.011473791 -0.026576368 -0.015494672 0.027915359 -0.03449301
-0.00261507 -0.027991263 -0.014380911 -0.013358566 -0.0036663094 0.06600992 0.025336629 -0.014835397
0.015581772 0.00769263 -0.015241573 0.028015548 -0.023598535 0.0049727424 0.02509735 0.0025859415
-0.00602098 0.0029315944 0.01098449 -0.016252464 -0.0051895417 -0.00900079 0.003721521 -0.005396632
-0.0018764305 0.0023492551 -0.0063548773 -0.006096732 -0.018672464 0.011497672 0.032077726 -0.013598508
0.008083341 -0.0012329041 0.007407998 0.01905164 0.045452528 0.030587006 0.035954293 0.019889083
0.013979542 -0.032839183 0.004561465 -0.0015205613 0.012478285 -0.019944118 -0.01259401 -0.017419036
-0.032396298 -0.0091861915 0.01729245 0.009233887 -0.0018934887 0.024700841 -0.013619855 -0.0079125175
0.002302203 0.009010523 0.030130414 -0.018213024 0.0052035316 -0.011047931 0.013532521 -0.0032486448
-0.021757782 -0.0069509307 -0.014116122 0.0055464073 -0.007638031 -2.1492146e-05 0.004967731 -0.021038027
0.024222372 -0.029972717 0.018949805 0.00219049 -0.018863296 -0.030332018 0.0046565756 -0.003687089
-0.0019790665 -0.0044005434 0.011961043 0.013959925 -0.0021602411 0.010925619 0.012537613 0.008515761
-0.00181432 0.018757239 -0.0047046863 -0.004531676 -0.023922531 0.005575747 0.0016687617 -0.0056551243
-0.008147341 -0.045984536 0.015016744 0.01178886 0.01374457 -0.027282689 0.00033573742 0.024649812

action_model._continuous_distribution.mu.bias f4 [2]
00000000: 0000 0000 0000 0000
0.0 0.0

network_body._body_endoder.seq_layers.0.weight f4 [128, 33]
00000000: 93b0 0c3d b7f4 03bd 8522 2bbe b5ae b3bd
00000010: b064 f3bd e7f8 b8bc 598d dfbe 5c08 f4bd
00000020: d116 833d 52fa cbbe 0cb7 8abb c6c5 c7bd
00000030: 7823 b1be 7dd5 39be 9e40 b73d 1e18 4b3e
00000040: 026e eabd db63 99be ab6a 96bd d125 53be
00000050: 85bc eb3d d24b 8d3d 4dec 063e 73f0 943d
00000060: e319 da3d b9e8 f73d 5d74 c9be fcdd 81bd
00000070: efb2 e0bd f966 043e 342c 39bd 9227 3f3e
00000080: e5ca 7cbe 5886 2ebd 498a ad3e 1342 4c3c
00000090: 27be d3be 2b3d f53d c124 75be 103c 8e3d
000000a0: 415f 873d 360c 113d 2053 c2be e219 ae3d
000000b0: 9880 60bd c34a a53e 1a44 483e 7890 153d
000000c0: b2fb 193d 2e5a 983d 3a66 7cbe 4209 69be
000000d0: 9e8f bf3d 43e1 1abe f010 853d 4960 4dbe
000000e0: a0b4 5a3d 3703 26bd 94a1 b83d 14ec 3cbe
000000f0: 255f d7bd 2fcd c03c 89bc 263e 1b5f a33d
00000100: 2b85 6e3d f645 4f3e e3ee ecbe fdcf bf3d
00000110: 1303 1abe f7b1 d63d ecb4 babd 2f4e 34be
00000120: f5ed 993d ade2 763e baca 7ebe 053a 793c
00000130: 2e14 b3bd f8ba 40be 0492 93be f031 9f3e
00000140: 6b9c 123e 06d2 763d 4627 b23d 5dfa bcbd
00000150: 6e5d dabd 12b5 afbd 12f6 bcba 7f29 593e
00000160: c558 efbd 7fbc 90be 63cc 7b3e 409a 453e
00000170: d5fb 213e fea3 663e 5fb4 5bbe 1a8b d3be
00000180: c5da 25be 2d2d 0a3e 8292 993e 57b5 413d
00000190: 12ea 07bc 190f 153e 05ed 06be 8b4c 3ebe
000001a0: b2dc c93d 2d8b 453e ffec 5bbd 1241 f2bc
000001b0: 6a69 2fbe 7cba c1bc 2896 debd 6e8b 8eba
000001c0: 068a 65be 27ac 083e a821 ac3d 8a11 faba
000001d0: f2c5 183e 157d 053d 6376 1abe c52d 6e3c
000001e0: 1ab8 76be c2ed 20be 84d0 693e c12a a23d
000001f0: 5e27 b43e 8d09 4e3c 0888 8fbd 808f f1bc
00000200: 9f72 7b3e 8408 443d 195d c33d 0744 9ebe
00000210: 4c75 d0bd 7555 83be 497d 353e 44d8 8a3c
00000220: 4da5 c43c fcd7 3ebe ffbb a03d 85a2 8b3e
00000230: fef2 b73c 4e3f 013e f1e7 013e d127 36be
00000240: d380 b4bd 0796 133f b968 883c ee28 9a3d
00000250: f399 363e e556 f3be 232a b6be 6249 8fbe
00000260: a774 563e 85ee 263e e22a 0d3c 2cb2 81be
00000270: a5ca 933c 859c c33d 2330 263a 0598 6b3e
00000280: e0dc ee3d 03da 4d3d 96ee 38be 75d5 8cbe
00000290: c28b 99bc 47b5 303d 801c 27be 777f 2f3d
000002a0: e7b7 1dbe 7b74 7cbe 0baa df3d 6a72 e33e
000002b0: bad5 9fbe 98da 9ebe 5711 74bd 3c29 b1bd
000002c0: 4cb6 4a3e 61bc aa3b 97cf 5abe c20f 84be
000002d0: 4ced a13e dc2f 663c 9928 8fbd 0fc9 c8bc
000002e0: 9001 573e fca7 c1bd 8055 35be 2b04 cabc
000002f0: 0417 2bbe 92ca 04be 1998 763c 71e7 f33d
00000300: 0874 0e3a 7c9b a6be 2cea 78be d250 183c
00000310: 8c0f f83d 01b0 9dbd 3d3b b5bb 27e0 8d3e
00000320: 21cf 25be 7345 8e3d 52e5 a63d 8e79 3d3e
00000330: b18e 1cbd a459 1ebd c59f db3e 013a 373e
00000340: 3822 0cbd 49ea b7be 70b7 e1bd 288c 033d
00000350: 632f a23e 5595 1a3d dd31 85bc f31a dd3d
00000360: 4f43 573e 2320 d5bd 74e0 1b3c 1532 5cbd
00000370: 85d9 b9bd 22dc 1cbe 9b77 1b3e f973 663d
00000380: a821 503c d815 dfbd cb72 a5bd a4ba 383e
00000390: 3cbf 443e 6425 babe 3946 afbd 8dc5 87be
000003a0: a6ec be3c 2fa1 93be d692 b9be b9f9 103d
000003b0: 21ac a23e 04f2 09bd 7463 c83d 4b60 5fbd
000003c0: 7029 33bd d329 933e 7d0f 4dbe 80e5 173e
000003d0: ac70 093d 3444 813e c57d 3dbd 0891 18be
000003e0: 8c50 883e eb1d d8bd 512c 67bd 401f 6b3d
000003f0: c5c7 a4bd e706 39bc 3f43 f6bd e7ce a33e
0.03434808 -0.0322158 -0.16712387 -0.08773557 -0.11884439 -0.022579623 -0.43662527 -0.11915657
0.06400836 -0.39839417 -0.0042332467 -0.09754519 -0.34597373 -0.18147846 0.089478716 0.19833419
-0.114467636 -0.29958996 -0.07344564 -0.20619895 0.115105666 0.06899227 0.13176079 0.072724245
0.10649469 0.12104935 -0.3934659 -0.06341168 -0.10971629 0.12929906 -0.04520817 0.18667439
-0.24686773 -0.04260859 0.33894566 0.012466925 -0.41356012 0.119745575 -0.23939802 0.0694505
0.06609965 0.035412036 -0.37954044 0.085010305 -0.054810137 0.322836 0.19557229 0.03651473
0.03759355 0.074390754 -0.24648371 -0.22757438 0.09353565 -0.15124993 0.06497371 -0.20056261
0.053394914 -0.04053041 0.090151936 -0.18449432 -0.10516194 0.02353534 0.16282858 0.07977124
0.058232468 0.20241532 -0.46276006 0.093658425 -0.15040235 0.10483163 -0.09116539 -0.1760795
0.0751609 0.24109907 -0.24882022 0.015211587 -0.08744083 -0.18821323 -0.2882234 0.31092787
0.14317481 0.060258888 0.08698897 -0.092274405 -0.106623515 -0.08579458 -0.0014416596 0.21207236
-0.11686853 -0.2826881 0.24589686 0.19297123 0.15818723 0.22523496 -0.21455525 -0.41317064
-0.16196735 0.13493796 0.2999459 0.04729208 -0.008295553 0.1455654 -0.13176353 -0.18583886
0.098565474 0.19291373 -0.053692814 -0.029572044 -0.17130056 -0.023648493 -0.10868484 -0.0010875294
-0.22415933 0.13346921 0.08404857 -0.0019078713 0.1491926 0.03258999 -0.15084223 0.0145372795
-0.24093667 -0.15715697 0.22833449 0.07918311 0.35186285 0.012575519 -0.07008368 -0.029487371
0.24555443 0.047859684 0.09539241 -0.30911276 -0.101786226 -0.25651136 0.17723574 0.016948827
0.024004603 -0.18637079 0.078483574 0.2727243 0.022454735 0.12621805 0.12686135 -0.17788626
-0.08813634 0.576508 0.016651498 0.07527338 0.17832164 -0.47527233 -0.35579023 -0.27985674
0.20942937 0.16301925 0.008616181 -0.25331247 0.018040964 0.09551338 0.00063395704 0.2300721
0.11663222 0.05025674 -0.18059763 -0.27506605 -0.0187434 0.04314163 -0.16319466 0.04284617
-0.15402184 -0.24653809 0.10921105 0.44423229 -0.31217748 -0.3102615 -0.05958685 -0.08650443
0.19796103 0.005210445 -0.21368252 -0.25793272 0.31626356 0.0140494965 -0.06990165 -0.024509935
0.2099669 -0.094558686 -0.17708397 -0.02466019 -0.16707999 -0.129679 0.015050911 0.11909378
0.000543416 -0.325405 -0.2430808 0.009296613 0.1211234 -0.07699586 -0.0055307434 0.27710077
-0.16192295 0.0694684 0.08149208 0.185034 -0.03822202 -0.038659707 0.42895332 0.1789322
-0.03421232 -0.35920933 -0.11021316 0.032116085 0.31676778 0.03774007 -0.016259128 0.10796156
0.2102177 -0.1040652 0.009513963 -0.0537587 -0.09074692 -0.15318349 0.15182345 0.056262944
0.012703337 -0.10892838 -0.08078536 0.18039948 0.19213575 -0.36356652 -0.08558316 -0.26517907
0.023306202 -0.2883391 -0.3624484 0.035394404 0.3177195 -0.03367807 0.09784594 -0.05453519
-0.04374069 0.28742847 -0.2002544 0.14833641 0.033554718 0.25247347 -0.04626252 -0.14899075
0.26623952 -0.105525814 -0.056438748 0.05740285 -0.080459155 -0.01129315 -0.12024545 0.3199379

network_body._body_endoder.seq_layers.0.bias f4 [128]
00000000: 0000 0000 0000 0000 0000 0000 0000 0000
00000010: 0000 0000 0000 0000 0000 0000 0000 0000
00000020: 0000 0000 0000 0000 0000 0000 0000 0000
00000030: 0000 0000 0000 0000 0000 0000 0000 0000
00000040: 0000 0000 0000 0000 0000 0000 0000 0000
00000050: 0000 0000 0000 0000 0000 0000 0000 0000
00000060: 0000 0000 0000 0000 0000 0000 0000 0000
00000070: 0000 0000 0000 0000 0000 0000 0000 0000
00000080: 0000 0000 0000 0000 0000 0000 0000 0000
00000090: 0000 0000 0000 0000 0000 0000 0000 0000
000000a0: 0000 0000 0000 0000 0000 0000 0000 0000
000000b0: 0000 0000 0000 0000 0000 0000 0000 0000
000000c0: 0000 0000 0000 0000 0000 0000 0000 0000
000000d0: 0000 0000 0000 0000 0000 0000 0000 0000
000000e0: 0000 0000 0000 0000 0000 0000 0000 0000
000000f0: 0000 0000 0000 0000 0000 0000 0000 0000
00000100: 0000 0000 0000 0000 0000 0000 0000 0000
00000110: 0000 0000 0000 0000 0000 0000 0000 0000
00000120: 0000 0000 0000 0000 0000 0000 0000 0000
00000130: 0000 0000 0000 0000 0000 0000 0000 0000
00000140: 0000 0000 0000 0000 0000 0000 0000 0000
00000150: 0000 0000 0000 0000 0000 0000 0000 0000
00000160: 0000 0000 0000 0000 0000 0000 0000 0000
00000170: 0000 0000 0000 0000 0000 0000 0000 0000
00000180: 0000 0000 0000 0000 0000 0000 0000 0000
00000190: 0000 0000 0000 0000 0000 0000 0000 0000
000001a0: 0000 0000 0000 0000 0000 0000 0000 0000
000001b0: 0000 0000 0000 0000 0000 0000 0000 0000
000001c0: 0000 0000 0000 0000 0000 0000 0000 0000
000001d0: 0000 0000 0000 0000 0000 0000 0000 0000
000001e0: 0000 0000 0000 0000 0000 0000 0000 0000
000001f0: 0000 0000 0000 0000 0000 0000 0000 0000
0.0 0.0 0.0 0.0 0.0 0.0 0.0 0.0
0.0 0.0 0.0 0.0 0.0 0.0 0.0 0.0
0.0 0.0 0.0 0.0 0.0 0.0 0.0 0.0
0.0 0.0 0.0 0.0 0.0 0.0 0.0 0.0
0.0 0.0 0.0 0.0 0.0 0.0 0.0 0.0
0.0 0.0 0.0 0.0 0.0 0.0 0.0 0.0
0.0 0.0 0.0 0.0 0.0 0.0 0.0 0.0
0.0 0.0 0.0 0.0 0.0 0.0 0.0 0.0
0.0 0.0 0.0 0.0 0.0 0.0 0.0 0.0
0.0 0.0 0.0 0.0 0.0 0.0 0.0 0.0
0.0 0.0 0.0 0.0 0.0 0.0 0.0 0.0
0.0 0.0 0.0 0.0 0.0 0.0 0.0 0.0
0.0 0.0 0.0 0.0 0.0 0.0 0.0 0.0
0.0 0.0 0.0 0.0 0.0 0.0 0.0 0.0
0.0 0.0 0.0 0.0 0.0 0.0 0.0 0.0
0.0 0.0 0.0 0.0 0.0 0.0 0.0 0.0

network_body._body_endoder.seq_layers.2.weight f4 [128, 128]
00000000: ab55 3c3c 24f8 56bd d911 05be 2a0f b13d
00000010: 2e35 5b3d 8a55 d33d 29ad b73d 46fd a53d
00000020: 0351 27be 2d25 153d 8089 4a3b 6570 a3bd
00000030: f419 003b c51b e03d a002 c8bc 8033 793d
00000040: 88f3 d83b 6c5b 85bd 3454 6ebd 087c e1bd
00000050: 0833 d63d bac7 9dbd 7ef6 afbd acdb d93d
00000060: a7c0 eb3d 4a57 f53c 5a5a 78bd 59fc edbd
00000070: d802 d6bc 7954 9b3d 1f3a b6bc 0b1c b23d
00000080: 2e06 b63b 7b1c 8fbd b3a6 9c3d 8ea3 213e
00000090: f2b9 60bd fd43 ad3d 6425 8fbd 45cc 0d3e
000000a0: 4daa 033e 782c 72bb 32c4 25bc 155d 2a3d
000000b0: e7ea e23d d381 1abe 3ff6 073b 18e6 6e3e
000000c0: d562 e7bd 2a00 b83d c311 85bd 7ec6 20bc
000000d0: 9820 ddbc 1a58 47bd 7202 68be 27c0 9c3d
000000e0: 7db9 25be 1e44 fcbc 1ef1 91bd c5cd fd3c
000000f0: 7851 a73c 80b0 cd3d 08b4 b53d 928a 503d
00000100: 0cbe 4d3d 092a 143e f3db bbbb 157d 793d
00000110: dabf 223c 687f 453d f15d f6bc 0452 0f3d
00000120: 0b03 84bd 0239 23be 5a5c 663d 5cc2 cd3c
00000130: c269 0c3c b5c9 a63d 11db 2d3a b8a1 d43d
00000140: 3227 383d 2932 a73c 8ac5 313c cb0e d9bd
00000150: 2d8e c9bd 44bb 213e 7d70 0c3d bbbe 61bd
00000160: 1fbc b23b fd09 cbbd ddf7 e2bc 1bb1 b13d
00000170: 9e4b 78bd 020e 44be db4e 2f3d 3447 0dbd
00000180: 2424 063c 0952 3abe 9439 313d 8438 6ebe
00000190: 4a76 b5bd 1898 5d3d 82ce 14bd 6a50 963d
000001a0: 78c4 c0bd cb26 36be a4d0 1ebc 81e6 10bd
000001b0: 64ec 50be ba33 813d 0b63 213d 029f 21be
000001c0: 6763 6b3d a218 e3bc 972a 96bd d425 bf3c
000001d0: 007c 8fbc 189e ca3d 8a1e 753d 11e7 3a3d
000001e0: 96e3 b03d 7743 2c3e 4f9d 31bc 7299 953d
000001f0: 3a2e 87bd a0b2 8fbb b48b e4bd 7776 02bc
00000200: 3747 06be 8335 2abd d5c3 91bd 572b fcb9
00000210: 910e 853d 5785 a6bc a858 c6bc 0697 83bd
00000220: 4569 ffbd f960 0ebd 4538 88bd 1280 90bc
00000230: 0ac2 4b3b b0a2 09bd 42bc 113d b6c1 d83c
00000240: 0419 aebc bdff b53c 5aab 4abd 09cc 11bd
00000250: d4fd 98bc bc08 b93d a5e9 e73d bdf0 553d
00000260: 4402 70bd adea d63c d4c2 343d 08d4 a6bd
00000270: 582c 143e 45d8 483e a548 923c 129e 033d
00000280: eb3c d73d d90f 6cbe 0880 4f3e 8487 273e
00000290: 32b1 84bc 2383 12bd 6387 a83b e953 2c3e
000002a0: aea1 213e b058 683d 52e4 553d f4b9 47be
000002b0: a4c3 5bbd ee8e 1abd 655a 13be 0e65 6f3d
000002c0: 1453 333d fc6c 97bb bd78 c53c fb92 ce3d
000002d0: 4cbf edbc 42db 5c3c bd6b 4bbe 4b65 aebd
000002e0: 3e45 3b3d e1a7 043d acfe a93d 156a d83d
000002f0: 09b3 193e 3d13 bf3d 9e7a bd3d a05b ebbb
00000300: 9776 603d e1d2 b6bd 23b0 313d 6368 4c3d
00000310: 950d 0bbd 3c33 873d 2f73 b3bd 681f bf3d
00000320: 8e9f fb3c 6845 3abb 16fe bfbd b3a7 5abd
00000330: e396 283e e596 213e a551 233d b190 f13d
00000340: 07b7 bbbc f2e0 66bd f95d 4dbe beff 913c
00000350: 9099 8abc d6e5 1d3e a23e 7f3d 4f5d cb3d
00000360: 5a65 593c 966a 3c3c 9af8 d9bb ee35 e6bc
00000370: 88c8 733d 2959 56bd 9b40 413d bc28 f23d
00000380: 6340 7c3d 4f76 8fbd a8b7 f6bc b88e 083d
00000390: 1077 43bd 26e9 2e3d bd60 153d 177f 483d
000003a0: c04f 87bd 24c1 3abd fc30 cbbd f480 cebb
000003b0: 9dc5 1f3c 8f2a ed3d 0f34 22bd 27e5 2a3d
000003c0: 89cb b6bc f6c1 91bc 887e 5b3d 3cac 59bd
000003d0: da52 fdbc a3e8 e83d a21f 95bc e4e1 a9bd
000003e0: b53b 60bd 6709 92bd 6d3a 13bd c61e b0bd
000003f0: 7963 dbbd 598f 823d 53a6 63bd 7f18 9a3b
0.011495034 -0.05248274 -0.1299509 0.086454704 0.053517513 0.1031905 0.089685746 0.08104949
-0.16339497 0.036412407 0.003090471 -0.07980422 0.001954672 0.109427966 -0.024415314 0.06084013
0.006620828 -0.06511578 -0.05818577 -0.11009985 0.10458952 -0.077041104 -0.085919365 0.10637602
0.11511355 0.02994885 -0.06063304 -0.11620397 -0.026124403 0.07584471 -0.022244511 0.08696755
0.005554936 -0.06987854 0.07648983 0.15785047 -0.05486483 0.08460233 -0.069895536 0.13847454
0.12857933 -0.0036952775 -0.010117577 0.041592676 0.1107996 -0.15088587 0.002074614 0.23329961
-0.112981476 0.08984406 -0.064975284 -0.009812949 -0.026993081 -0.048668005 -0.22657183 0.07653838
-0.1618404 -0.0307942 -0.071260676 0.030981908 0.02042459 0.1004343 0.08872229 0.0509134
0.05023007 0.1446916 -0.005733007 0.060910303 0.009933436 0.048217207 -0.030074092 0.034990326
-0.06445893 -0.15939716 0.056240417 0.025117092 0.0085701365 0.08143941 0.00066320697 0.10382408
0.044959255 0.02040966 0.01085032 -0.10598525 -0.09841571 0.15794092 0.034286965 -0.055113535
0.0054545547 -0.099140145 -0.027706081 0.08676358 -0.06061899 -0.19145969 0.04279981 -0.034491733
0.0081873275 -0.18195356 0.0432678 -0.23263747 -0.088604525 0.054100126 -0.036329754 0.073395565
-0.094124734 -0.17788236 -0.0096932985 -0.035376076 -0.20402676 0.06308694 0.039401095 -0.15783313
0.057467844 -0.027721707 -0.07332342 0.023333468 -0.017515182 0.09893435 0.059843577 0.04563052
0.086371586 0.16822611 -0.010840728 0.07304658 -0.06600614 -0.0043853074 -0.11159459 -0.0079628145
-0.13113104 -0.04155494 -0.0711743 -0.00048097476 0.06496919 -0.020327253 -0.024212196 -0.0642529
-0.124712504 -0.03476045 -0.066513576 -0.017639194 0.0031090998 -0.033602417 0.035579927 0.026459556
-0.021252163 0.022216672 -0.04947982 -0.035594974 -0.018675722 0.09034869 0.11323861 0.05223154
-0.05859591 0.026234949 0.044131115 -0.081459105 0.14470041 0.1961375 0.017856905 0.03213317
0.10509666 -0.2305292 0.20263684 0.16360289 -0.016197775 -0.035769593 0.0051430925 0.16828884
0.15784332 0.056725204 0.052219696 -0.19504529 -0.053653374 -0.037733965 -0.14389952 0.058445983
0.0437804 -0.0046211462 0.024105424 0.10086628 -0.029021882 0.0134800095 -0.19865318 -0.08515414
0.04572033 0.032386664 0.08300528 0.105671085 0.15009703 0.09329841 0.09251903 -0.0071825534
0.054800596 -0.08926941 0.043380868 0.04990424 -0.0339485 0.06601569 -0.08762204 0.09332162
0.03071573 -0.0028422717 -0.09374635 -0.053382587 0.16463809 0.15780218 0.039872784 0.11795176
-0.022914423 -0.05636687 -0.20055379 0.017822143 -0.016918927 0.15419707 0.06231559 0.099299066
0.013268793 0.011500021 -0.00665195 -0.028101888 0.059517413 -0.052331124 0.047180753 0.11824176
0.06158484 -0.070049874 -0.030116871 0.033339232 -0.04772097 0.042702816 0.03646921 0.048949327
-0.06607008 -0.04559435 -0.099214524 -0.0063019935 0.0097517045 0.11580383 -0.03960043 0.041722443
-0.02231385 -0.017792683 0.053587466 -0.05314277 -0.030923296 0.11372497 -0.01820356 -0.08295038
-0.05474444 -0.071306996 -0.03594439 -0.085996196 -0.10712332 0.06374998 -0.05557854 0.004702627

network_body._body_endoder.seq_layers.2.bias f4 [128]
00000000: 0000 0000 0000 0000 0000 0000 0000 0000
00000010: 0000 0000 0000 0000 0000 0000 0000 0000
00000020: 0000 0000 0000 0000 0000 0000 0000 0000
00000030: 0000 0000 0000 0000 0000 0000 0000 0000
00000040: 0000 0000 0000 0000 0000 0000 0000 0000
00000050: 0000 0000 0000 0000 0000 0000 0000 0000
00000060: 0000 0000 0000 0000 0000 0000 0000 0000
00000070: 0000 0000 0000 0000 0000 0000 0000 0000
00000080: 0000 0000 0000 0000 0000 0000 0000 0000
00000090: 0000 0000 0000 0000 0000 0000 0000 0000
000000a0: 0000 0000 0000 0000 0000 0000 0000 0000
000000b0: 0000 0000 0000 0000 0000 0000 0000 0000
000000c0: 0000 0000 0000 0000 0000 0000 0000 0000
000000d0: 0000 0000 0000 0000 0000 0000 0000 0000
000000e0: 0000 0000 0000 0000 0000 0000 0000 0000
000000f0: 0000 0000 0000 0000 0000 0000 0000 0000
00000100: 0000 0000 0000 0000 0000 0000 0000 0000
00000110: 0000 0000 0000 0000 0000 0000 0000 0000
00000120: 0000 0000 0000 0000 0000 0000 0000 0000
00000130: 0000 0000 0000 0000 0000 0000 0000 0000
00000140: 0000 0000 0000 0000 0000 0000 0000 0000
00000150: 0000 0000 0000 0000 0000 0000 0000 0000
00000160: 0000 0000 0000 0000 0000 0000 0000 0000
00000170: 0000 0000 0000 0000 0000 0000 0000 0000
00000180: 0000 0000 0000 0000 0000 0000 0000 0000
00000190: 0000 0000 0000 0000 0000 0000 0000 0000
000001a0: 0000 0000 0000 0000 0000 0000 0000 0000
000001b0: 0000 0000 0000 0000 0000 0000 0000 0000
000001c0: 0000 0000 0000 0000 0000 0000 0000 0000
000001d0: 0000 0000 0000 0000 0000 0000 0000 0000
000001e0: 0000 0000 0000 0000 0000 0000 0000 0000
000001f0: 0000 0000 0000 0000 0000 0000 0000 0000
0.0 0.0 0.0 0.0 0.0 0.0 0.0 0.0
0.0 0.0 0.0 0.0 0.0 0.0 0.0 0.0
0.0 0.0 0.0 0.0 0.0 0.0 0.0 0.0
0.0 0.0 0.0 0.0 0.0 0.0 0.0 0.0
0.0 0.0 0.0 0.0 0.0 0.0 0.0 0.0
0.0 0.0 0.0 0.0 0.0 0.0 0.0 0.0
0.0 0.0 0.0 0.0 0.0 0.0 0.0 0.0
0.0 0.0 0.0 0.0 0.0 0.0 0.0 0.0
0.0 0.0 0.0 0.0 0.0 0.0 0.0 0.0
0.0 0.0 0.0 0.0 0.0 0.0 0.0 0.0
0.0 0.0 0.0 0.0 0.0 0.0 0.0 0.0
0.0 0.0 0.0 0.0 0.0 0.0 0.0 0.0
0.0 0.0 0.0 0.0 0.0 0.0 0.0 0.0
0.0 0.0 0.0 0.0 0.0 0.0 0.0 0.0
0.0 0.0 0.0 0.0 0.0 0.0 0.0 0.0
0.0 0.0 0.0 0.0 0.0 0.0 0.0 0.0

value_heads.value_heads.extrinsic.weight f4 [1, 128]
00000000: c974 b73c 1612 153e 7906 623d 5ed6 2abe
00000010: cbae 33be 272b 133e 00e6 1bbe d7d6 71bd
00000020: 1d28 eebb 9132 593d 66e1 b7bd f6b4 38be
00000030: 028c 463e 9705 4b3e 179f d5bd 9746 2e3e
00000040: 7a19 b9bd b4b3 fabd a4eb 123d df5c f8bd
00000050: 4480 123e 9358 5b3e 9501 09be 150a aa3d
00000060: fb28 55be 5183 4b3e a534 03be d6f7 5a3e
00000070: 31bb febd f0ab 41be 41a2 153e 6926 aebc
00000080: f502 0ebe 4d8b 3ebd cb54 183e 7afb 7c3d
00000090: fc48 41be 7096 243e 78aa 1a3b 958b 8fbd
000000a0: 925d 48bc 799c 173e 70ad 7bbb d36d cbbd
000000b0: 2c6c 89bc a824 033c 10ae 9abd b34d 31bd
000000c0: f6ad f8bd e9a4 263d 17ab 553d 4e12 b1bd
000000d0: f6ed 5dbc eea6 fa3d e78a 47be 8c90 023d
000000e0: 8561 313e 60af f2bd 6934 a0bd da73 7b3d
000000f0: 70c5 113e 20bc 2fbe d40c c3bc 3bc7 a83d
00000100: 69e0 4ebd 1489 2e3d a385 a63d 7fc6 2fbd
00000110: 555c 0dbe c38a 1f3e 3ff1 96bd 4f7e 2ebe
00000120: 7402 e83d da7a 4fbe 4903 4e3c cfa2 1cbe
00000130: 80a6 023e 66a8 56be c269 16be 1d12 23be
00000140: 1444 e13d 4b84 3f3e 0e8e 213e 694d 1b3e
00000150: ca22 03be 3677 0c3d f83c 9c3d 1ae3 3c3e
00000160: d980 e53d c746 d3bd caee 47be a18e 363e
00000170: 7752 b23d 9290 803d 2c0b 35be 972a 1cbe
00000180: 2655 143d c60c 593e 78a6 dcbd 1e66 e03d
00000190: c8ae 34be 585a a5bd f308 393e b843 58be
000001a0: 4ed4 06be 0398 b33b 4ab0 b83d 945d 31bd
000001b0: de9d 05be 50ac a8bd fdae 46be 8399 343e
000001c0: fef6 50bd 3629 ff3c f576 103e ac1b 1b3e
000001d0: 4799 ffbd ffa4 cbbc 3a71 e5bd c41c b23c
000001e0: d6d8 213e df82 1fbd 47d3 1bbe ee31 6dbc
000001f0: 9123 31be 5b46 233e 6f68 01be c826 5a3e
0.022394555 0.1455768 0.055181954 -0.16683337 -0.17547147 0.1437193 -0.15224457 -0.059042778
-0.0072679655 0.05302674 -0.08978538 -0.18037781 0.19389346 0.19826351 -0.104307346 0.17019115
-0.090380624 -0.12241307 0.035869256 -0.12127089 0.14306742 0.21420507 -0.1337951 0.08302704
-0.20816414 0.19874312 -0.12813051 0.21383604 -0.12438048 -0.18913245 0.14612676 -0.02125855
-0.13868316 -0.046519566 0.14876096 0.061763264 -0.18875498 0.16073012 0.0023600142 -0.07009045
-0.01222934 0.14805783 -0.0038402937 -0.09933057 -0.016775213 0.008004345 -0.07552731 -0.04328699
-0.121425554 0.040684614 0.052165117 -0.086460695 -0.013545504 0.122388706 -0.19486581 0.031876132
0.17322357 -0.118498564 -0.078224964 0.06138978 0.14235473 -0.17161608 -0.023809828 0.08241125
-0.050506983 0.042611197 0.08130958 -0.04291391 -0.13804753 0.15580277 -0.07370233 -0.1704037
0.11328593 -0.20261708 0.012574025 -0.15296482 0.12758827 -0.20962676 -0.14688781 -0.15924878
0.10999313 0.1870281 0.15776846 0.15166248 -0.1280624 0.034293376 0.07628816 0.18446007
0.11206216 -0.10316234 -0.19524685 0.17827846 0.08707135 0.062775746 -0.17680043 -0.15250622
0.036214016 0.21196279 -0.10773939 0.10956977 -0.17644799 -0.08073872 0.1806982 -0.21119583
-0.13166925 0.0054807677 0.090179995 -0.043302134 -0.13048503 -0.08235991 -0.1940269 0.17636685
-0.0510168 0.03114758 0.14107879 0.15147275 -0.12480407 -0.02485895 -0.11203237 0.021742232
0.15805373 -0.038943168 -0.15217315 -0.014477236 -0.17298724 0.15944807 -0.12637495 0.21303856
