results/test/CarParking/CarParking-4943.pt (torch, 177626 bytes, 12 tensors)

network_body._body_endoder.seq_layers.0.weight f4 [128, 33]
0.09202526 -0.16672947 0.060107075 -0.11564835 -0.10120053 0.13158305 -0.050889257 0.1609954
0.024547284 -0.01151917 -0.039013475 0.02393735 0.25501978 -0.06119293 -0.090582445 0.06585487
0.2066686 0.12093086 -0.020513203 0.18459296 0.033978827 -0.051442336 0.22745171 -0.13310511
-0.10478356 -0.22579525 -0.08434546 0.15096729 0.014342811 -0.28641453 -0.4703826 0.15147638
-0.03534285 -0.05824264 0.00046595852 0.2674093 -0.19980891 0.02030404 0.114221945 0.19135208
-0.00012758365 -0.25411403 0.03210688 0.29187623 -0.2105584 -0.1184886 0.015467973 0.07839466
-0.015116594 -0.027415073 0.0151689835 -0.17005153 0.14031704 -0.15750535 0.16177253 0.1968937
-0.07400306 0.20651698 0.20627195 0.06794762 -0.15802453 0.14073478 -0.17259398 -0.41077918
0.10852135 0.15172784 -0.17598984 0.117774375 0.07840311 -0.06358067 0.23737742 0.34382463
0.010883926 0.29186502 -0.07514545 0.053255707 -0.0005525287 -0.0027117315 -0.051683296 0.0977982
0.10466528 -0.15828538 -0.016167708 -0.3512159 0.118858844 0.225432 0.13841194 -0.19176166
-0.041861158 -0.19179438 0.31889874 -0.31514946 0.075633615 -0.013561572 0.02315055 -0.2579059
-0.049105227 -0.064029604 -0.19336918 0.04594399 -0.096498646 0.20326902 -0.17212427 0.2017787
-0.034868512 -0.063668184 -0.06723243 0.14773832 0.05534346 -0.03078301 -0.0292036 -0.26805648
-0.02831906 0.2367589 -0.41815972 0.03756098 0.109316766 0.022037132 -0.05645727 0.25255844
-0.06685568 -0.067640506 0.15715799 0.030458659 0.26305264 -0.045010656 -0.22452572 -0.21379127
0.2535017 -0.46279854 0.21506771 -0.19603029 -0.035021644 0.1308008 0.112005 0.0476648
-0.1388869 0.18800174 -0.20041838 -0.045982115 0.21048716 -0.007314098 -0.28130987 -0.38579074
-0.20326787 -0.04149007 0.40732303 -0.107476324 0.1377707 0.08728851 -0.16699257 0.044158354
0.27708235 -0.023799852 0.04868754 -0.15921636 -0.0623215 -0.28925106 -0.10818444 0.031097261
0.21132882 -0.12781252 0.14057852 -0.2061592 0.029015517 -0.035969377 -0.029078288 0.0873846
0.33892405 0.07585025 -0.010258455 0.01798563 0.07592327 0.37177882 -0.35333517 0.25537995
-0.02830152 0.04049867 0.093937516 -0.023766896 -0.08950379 -0.058643997 -0.2859918 0.25479013
0.32853016 0.029929848 0.0314594 0.17992057 -0.14958553 -0.13235065 -0.14926676 -0.19879486
0.03826583 0.14851035 0.08226563 0.033522572 -0.20995058 0.16765411 -0.16506732 0.20516497
-0.11699303 -0.053280525 -0.028421558 -0.14473358 0.14664097 0.18860525 0.053063422 -0.23990887
-0.009853486 0.01389455 0.123543166 -0.0077263014 -0.1920233 0.10770106 0.2139544 -0.054898378
0.19448672 0.16508165 0.22826032 0.19317976 0.15972419 -0.08035934 -0.12535529 -0.18227868
-0.18009236 -0.09054343 0.16757293 -0.35967824 0.25222874 -0.12296585 -0.118574955 -0.16683629
0.19490248 -0.10797971 0.24235813 -0.1528777 0.05846269 0.2636046 0.16891591 -0.054462172
-0.043354254 0.09614914 0.36540648 0.15713735 -0.051263586 0.044273965 -0.067774504 -0.09936736
0.07787054 -0.014030663 0.27185848 0.01990949 0.20064117 -0.027577223 0.03512428 -0.21296944
00000000: bd77 bc3d 21bb 2abe d632 763d 0bd9 ecbd
00000010: 3942 cfbd b5bd 063e 4171 50bd fadb 243e
00000020: 6317 c93c e7ba 3cbc 98cc 1fbd 4318 c43c
00000030: f491 823e 70a5 7abd 4a83 b9bd ebde 863d
00000040: efa0 533e 99aa f73d 4e0b a8bc f005 3d3e
00000050: 622d 0b3d 33b5 52bd 1ae9 683e b54c 08be
00000060: c398 d6bd df36 67be 50bd acbd 2b97 1a3e
00000070: 1cfe 6a3c eda4 92be fdd5 f0be a01c 1b3e
00000080: aac3 10bd d68f 6ebd e54b f439 dfe9 883e
00000090: b59a 4cbe a854 a63c 32ed e93d cdf1 433e
000000a0: fac7 05b9 3c1b 82be 8182 033d cd70 953e
000000b0: 9f9c 57be 27aa f2bd 626d 7d3c 618d a03d
000000c0: 97ab 77bc 9395 e0bc 5487 783c fd21 2ebe
000000d0: 45af 0f3e 1549 21be b3a7 253e 819e 493e
000000e0: eb8e 97bd 3079 533e f438 533e 1f28 8b3d
000000f0: 2fd1 21be c71c 103e 7abc 30be a651 d2be
00000100: 7140 de3d 8b5e 1b3e ae36 34be b133 f13d
00000110: cf91 a03d 9536 82bd 1113 733e c809 b03e
00000120: 7f52 323c 556f 953e dce5 99bd a822 5a3d
00000130: 93d7 10ba 4eb7 31bb ddb1 53bd 6c4a c83d
00000140: c05a d63d 9015 22be 2472 84bc 92d2 b3be
00000150: 446c f33d a5d7 663e dcbb 0d3e 2b5d 44be
00000160: 9b76 2bbd bf65 44be b246 a33e 455b a1be
00000170: cce5 9a3d 5b31 5ebc 39a6 bd3c 3e0c 84be
00000180: 9022 49bd f421 83bd 9202 46be c42f 3c3d
00000190: 15a1 c5bd c125 503e 5841 30be 139f 4e3e
000001a0: 49d2 0ebd 7764 82bd 28b1 89bd b748 173e
000001b0: d3af 623d a72c fcbc 633c efbc b33e 89be
000001c0: 60fd e7bc ed70 723e 0819 d6be 8bd9 193d
000001d0: 78e1 df3d 3787 b43c bd3f 67bd 574f 813e
000001e0: a1eb 88bd 1b87 8abd 06ee 203e 7084 f93c
000001f0: d6ae 863e 185d 38bd 12ea 65be 19ec 5abe
00000200: faca 813e eef3 ecbe b63a 5c3e 2abc 48be
00000210: db72 0fbd a5f0 053e e162 e53d 2a3c 433d
00000220: 5e38 0ebe 8783 403e 7a3a 4dbe be57 3cbd
00000230: f289 573e 1aab efbb d907 90be 5d86 c5be
00000240: 7425 50be 7ef1 29bd a58c d03e 8c1c dcbd
00000250: c313 0d3e 51c4 b23d 1a00 2bbe 64df 343d
00000260: bddd 8d3e e8f7 c2bc 966c 473d 9d09 23be
00000270: d444 7fbd b718 94be ce8f ddbd afbf fe3c
00000280: 9566 583e 49e1 02be d1f3 0f3e 661b 53be
00000290: f3b1 ed3c a054 13bd 9735 eebc b2f6 b23d
000002a0: 7487 ad3e 6057 9b3d 1413 28bc 9a56 933c
000002b0: a97d 9b3d cb59 be3e 59e8 b4be 29c1 823e
000002c0: 97d8 e7bc efe1 253d 5062 c03d cbb2 c2bc
000002d0: c34d b7bd b034 70bd 846d 92be da73 823e
000002e0: 1b35 a83e 712f f53c 92db 003d 193d 383e
000002f0: f32c 19be ee86 07be 63d9 18be e190 4bbe
00000300: a2bc 1c3d 1913 183e e27a a83d f74e 093d
00000310: 49fd 56be 85ad 2b3e 6807 29be c416 523e
00000320: 0b9a efbd ae3c 5abd 54d4 e8bc 0a35 14be
00000330: 0d29 163e bc21 413e 0859 593d acaa 75be
00000340: 8470 21bc f7a5 633c 3304 fd3d ea2c fdbb
00000350: c2a1 44be 6092 dc3d dd16 5b3e 1fdd 60bd
00000360: 8727 473e 2a0b 293e 13bd 693e ead0 453e
00000370: bd8e 233e 7093 a4bd 235d 00be 43a7 3abe
00000380: 226a 38be d56e b9bd 3d98 2b3e bf27 b8be
00000390: 2024 813e 85d5 fbbd 6dd7 f2bd 22d7 2abe
000003a0: 8494 473e 7724 ddbd bb2c 783e f98b 1cbe
000003b0: 9376 6f3d 2ff7 863e 4bf8 2c3e ba13 5fbd
000003c0: 3b94 31bd d7e9 c43d 8f16 bb3e 9de8 203e
000003d0: c4f9 51bd 9e58 353d 5ccd 8abd 1d81 cbbd
000003e0: 977a 9f3d dee0 65bc 0931 8b3e 3a19 a33c
000003f0: e174 4d3e a1e9 e1bc 7ade 0f3d a914 5abe

network_body._body_endoder.seq_layers.0.bias f4 [128]
0.0 0.0 0.0 0.0 0.0 0.0 0.0 0.0
0.0 0.0 0.0 0.0 0.0 0.0 0.0 0.0
0.0 0.0 0.0 0.0 0.0 0.0 0.0 0.0
0.0 0.0 0.0 0.0 0.0 0.0 0.0 0.0
0.0 0.0 0.0 0.0 0.0 0.0 0.0 0.0
0.0 0.0 0.0 0.0 0.0 0.0 0.0 0.0
0.0 0.0 0.0 0.0 0.0 0.0 0.0 0.0
0.0 0.0 0.0 0.0 0.0 0.0 0.0 0.0
0.0 0.0 0.0 0.0 0.0 0.0 0.0 0.0
0.0 0.0 0.0 0.0 0.0 0.0 0.0 0.0
0.0 0.0 0.0 0.0 0.0 0.0 0.0 0.0
0.0 0.0 0.0 0.0 0.0 0.0 0.0 0.0
0.0 0.0 0.0 0.0 0.0 0.0 0.0 0.0
0.0 0.0 0.0 0.0 0.0 0.0 0.0 0.0
0.0 0.0 0.0 0.0 0.0 0.0 0.0 0.0
0.0 0.0 0.0 0.0 0.0 0.0 0.0 0.0
00000000: 0000 0000 0000 0000 0000 0000 0000 0000
00000010: 0000 0000 0000 0000 0000 0000 0000 0000
00000020: 0000 0000 0000 0000 0000 0000 0000 0000
00000030: 0000 0000 0000 0000 0000 0000 0000 0000
00000040: 0000 0000 0000 0000 0000 0000 0000 0000
00000050: 0000 0000 0000 0000 0000 0000 0000 0000
00000060: 0000 0000 0000 0000 0000 0000 0000 0000
00000070: 0000 0000 0000 0000 0000 0000 0000 0000
00000080: 0000 0000 0000 0000 0000 0000 0000 0000
00000090: 0000 0000 0000 0000 0000 0000 0000 0000
000000a0: 0000 0000 0000 0000 0000 0000 0000 0000
000000b0: 0000 0000 0000 0000 0000 0000 0000 0000
000000c0: 0000 0000 0000 0000 0000 0000 0000 0000
000000d0: 0000 0000 0000 0000 0000 0000 0000 0000
000000e0: 0000 0000 0000 0000 0000 0000 0000 0000
000000f0: 0000 0000 0000 0000 0000 0000 0000 0000
00000100: 0000 0000 0000 0000 0000 0000 0000 0000
00000110: 0000 0000 0000 0000 0000 0000 0000 0000
00000120: 0000 0000 0000 0000 0000 0000 0000 0000
00000130: 0000 0000 0000 0000 0000 0000 0000 0000
00000140: 0000 0000 0000 0000 0000 0000 0000 0000
00000150: 0000 0000 0000 0000 0000 0000 0000 0000
00000160: 0000 0000 0000 0000 0000 0000 0000 0000
00000170: 0000 0000 0000 0000 0000 0000 0000 0000
00000180: 0000 0000 0000 0000 0000 0000 0000 0000
00000190: 0000 0000 0000 0000 0000 0000 0000 0000
000001a0: 0000 0000 0000 0000 0000 0000 0000 0000
000001b0: 0000 0000 0000 0000 0000 0000 0000 0000
000001c0: 0000 0000 0000 0000 0000 0000 0000 0000
000001d0: 0000 0000 0000 0000 0000 0000 0000 0000
000001e0: 0000 0000 0000 0000 0000 0000 0000 0000
000001f0: 0000 0000 0000 0000 0000 0000 0000 0000

network_body._body_endoder.seq_layers.2.weight f4 [128, 128]
-0.1506313 -0.055037834 -0.1383354 -0.036100857 -0.03240382 -0.04827353 0.015073378 0.050968714
-0.06897678 -0.100016005 0.19697452 0.091616265 0.0889982 -0.029661998 -0.037574757 0.03401158
-0.11279044 -0.05664871 0.0047471146 -0.067710586 -0.047789827 -0.013426273 -0.029777799 -0.17037065
-0.13238946 0.080284454 0.065936655 0.011763011 -0.22090572 -0.10629038 -0.09388058 -0.10940717
-0.02495857 0.06361234 0.12130384 -0.187731 -0.08949532 -0.024227338 0.25431168 0.011738857
0.086649336 -0.020373447 -0.077507265 0.112398215 -0.10492634 -0.019955816 0.033800937 -0.023311453
0.08125959 -0.07876907 -0.09021614 -0.03143496 -0.0030467506 -0.0063387346 -0.036239237 -0.07026075
-0.00029147207 0.12936898 0.07596462 -0.04009392 -0.16397835 0.11686094 -0.12227263 -0.021851607
-0.092533566 -0.108317465 -0.15402676 0.05565247 0.083791636 -0.16710833 0.013909493 0.11459299
-0.11561537 -0.07791877 0.067162216 0.0630294 0.1769205 0.10762162 0.14117311 -0.014917708
-0.021308115 -0.09622575 0.08381043 0.051995672 -0.11710498 0.054615323 0.07049913 0.014476477
-0.036349997 -0.13343936 0.08530275 0.05096984 -0.110199876 0.11211577 -0.005938351 0.019581188
0.0062455684 0.007844643 -0.06914352 0.17598121 -0.10257617 0.030578889 0.008957216 -0.059014168
-0.11025454 0.023751756 0.104342476 0.097031526 -0.056959417 -0.21662161 -0.07530807 0.010490534
-0.016492022 0.08505681 0.07213406 -0.07269855 -0.015927853 -0.04580698 0.07922271 -0.030414287
0.028458698 0.043301288 -0.078042224 -0.043981347 -0.031731535 -0.045603238 0.03944763 0.067811996
-0.032516964 0.1685147 -0.0014375623 0.07022296 -0.118059285 0.055510405 0.09624549 0.10637323
0.09369573 -0.06224476 0.1371263 -0.13939771 -0.06990157 0.056185737 0.032158248 0.124665074
-0.05849473 0.05744307 -0.076828234 -0.0397376 -0.07444336 0.093684055 -0.041474063 0.19187942
0.049630348 -0.10699462 -0.01287111 0.017236846 0.08536791 -0.07107519 -0.01021311 0.019222064
0.05864921 0.078850836 0.19390829 -0.14148647 -0.08028462 -0.1619801 -0.086791754 0.053807404
0.024618948 -0.13432936 0.03231675 -0.03143653 -0.072904445 -0.056466892 -0.040934466 0.16987872
-0.0045380606 -0.041544586 -0.019641863 0.002497936 0.0051523196 0.10765955 0.03580623 -0.04547227
-0.032447495 -0.09220468 0.032466583 0.10822616 -0.10428396 -0.06512357 0.10435303 0.045205712
-0.12908848 -0.085821696 -0.06380689 -0.120891616 -0.055887558 -0.11780043 0.113199025 -0.08926903
0.026967695 -0.0587178 0.12297777 0.10427651 -0.036272377 -0.17517254 0.14639452 -0.0398692
-0.15334971 0.14004704 0.010245836 0.019692283 -0.057695616 0.041848417 0.116933 -0.11318053
0.059329543 0.051619746 0.02447865 0.001107366 0.034952063 0.046349715 0.041907333 0.05606516
0.084824726 0.021757009 0.04673095 0.03685538 -0.041938175 -0.087663576 0.06544549 -0.069110885
0.0409204 0.104552545 -0.194633 -0.11865524 -0.1621673 0.051955067 0.04564824 0.06847702
-0.087445736 -0.0083014 0.06797521 -0.11992281 0.034993798 0.107916184 0.09842259 -0.21974838
-0.10822356 0.06575662 -0.19871981 -0.01914568 -0.03650694 0.053285796 0.088623896 -0.10116396
00000000: 173f 1abe 5a6f 61bd cca7 0dbe 7ede 13bd
00000010: deb9 04bd 77ba 45bd 54f6 763c 92c4 503d
00000020: b343 8dbd 31d5 ccbd b0b3 493e 4fa1 bb3d
00000030: b044 b63d b8fd f2bc fde7 19bd ba4f 0b3d
00000040: adfe e6bd 7a08 68bd af8d 9b3b d9ab 8abd
00000050: 44bf 43bd dff9 5bbc 92f0 f3bc a575 2ebe
00000060: 1a91 07be 2d6c a43d cc09 873d a5b9 403c
00000070: 1c35 62be c5ae d9bd 7644 c0bd de10 e0bd
00000080: ea75 ccbc 3047 823d 266e f83d 8e3c 40be
00000090: 5349 b7bd 6978 c6bc 2435 823e 5654 403c
000000a0: 3575 b13d 37e6 a6bc 21bc 9ebd 0931 e63d
000000b0: 9fe3 d6bd 617a a3bc da72 0a3d a9f7 bebc
000000c0: 6e6b a63d ae51 a1bd 3dc3 b8bd f2c1 00bd
000000d0: feab 47bb 29b5 cfbb 986f 14bd dee4 8fbd
000000e0: b8d0 98b9 4d79 043e 5793 9b3d 8639 24bd
000000f0: f1e9 27be ca54 ef3d 136a fabd 2402 b3bc
00000100: 3d82 bdbd 8cd5 ddbd 31b9 1dbe d8f3 633d
00000110: f39a ab3d 721e 2bbe a4e4 633c bbaf ea3d
00000120: c0c7 ecbd e093 9fbd 588c 893d 8f15 813d
00000130: a62a 353e b968 dc3d af8f 103e 6769 74bc
00000140: 5b8e aebc 0212 c5bd cda4 ab3d 6af9 543d
00000150: bcd4 efbd 51b4 5f3d d961 903d bf2e 6d3c
00000160: bce3 14bd 54a4 08be 35b3 ae3d c0c5 503d
00000170: 79b0 e1bd f49c e53d 8096 c2bb ba68 a03c
00000180: a0a7 cc3b d186 003c 1e9b 8dbd 6b34 343e
00000190: 7413 d2bd 9480 fa3c 49c1 123c d7b8 71bd
000001a0: 22cd e1bd 0b93 c23c 82b1 d53d 77b8 c63d
000001b0: 474e 69bd 0ed2 5dbe 1e3b 9abd 7de0 2b3c
000001c0: 471a 87bc 4432 ae3d 06bb 933d fae2 94bd
000001d0: 217b 82bc 1aa0 3bbd 843f a23d 6227 f9bc
000001e0: 3722 e93c b15c 313d 9ad4 9fbd c925 34bd
000001f0: edf8 01bd 76ca 3abd d793 213d 04e1 8a3d
00000200: 8230 05bd 1e8f 2c3e 966c bcba 0ed1 8f3d
00000210: 11c9 f1bd e15e 633d 5b1c c53d 35da d93d
00000220: 8ce3 bf3d 5df4 7ebd d66a 0c3e 46be 0ebe
00000230: 8e28 8fbd 0423 663d 5eb8 033d 6750 ff3d
00000240: 2c98 6fbd 6d49 6b3d 1f58 9dbd e5c3 22bd
00000250: c375 98bd 6ddd bf3d b5e0 29bd 0a7c 443e
00000260: 3149 4b3d ff1f dbbd 59e1 52bc 4934 8d3c
00000270: 5fd5 ae3d df8f 91bd e354 27bc 9777 9d3c
00000280: 273a 703d 8c7c a13d e58f 463e d4e1 10be
00000290: 436c a4bd 1dde 25be e0bf b1bd 2765 5c3d
000002a0: adad c93c a38d 09be 925e 043d 97c3 00bd
000002b0: ed4e 95bd d449 67bd e6aa 27bd b0f4 2d3e
000002c0: 03b4 94bb a82a 2abd f9e7 a0bc 69b4 233b
000002d0: cad4 a83b 9c7c dc3d 8ea9 123d 2241 3abd
000002e0: aae7 04bd cfd5 bcbd aefb 043d ada5 dd3d
000002f0: d492 d5bd 825f 85bd 0bb7 d53d a029 393d
00000300: c52f 04be 49c3 afbd 30ad 82bd 0696 f7bd
00000310: 5aea 64bd 5a41 f1bd e4d4 e73d aed2 b6bd
00000320: 5beb dc3c 1382 70bd c5db fb3d ec8e d53d
00000330: 5892 14bd 6e60 33be 72e8 153e e34d 23bd
00000340: b507 1dbe 7e68 0f3e 27de 273c b651 a13c
00000350: 3d52 6cbd 3f69 2b3d 927a ef3d 32cb e7bd
00000360: 8903 733d 3a6f 533d 7387 c83c 0a25 913a
00000370: e529 0f3d 33d9 3d3d 06a7 2b3d 95a4 653d
00000380: 96b8 ad3d c13b b23c f468 3f3d abf5 163d
00000390: 5dc7 2bbd f688 b3bd 4908 863d 028a 8dbd
000003a0: 269c 273d a51f d63d e04d 47be 8501 f3bd
000003b0: 2f0f 26be d6ce 543d a6f9 3a3d ae3d 8c3d
000003c0: c016 b3bd 9802 08bc 9636 8b3d 179a f5bd
000003d0: a855 0f3d 2903 dd3d c891 c93d b805 61be
000003e0: 50a4 ddbd 68ab 863d 357d 4bbe 67d7 9cbc
000003f0: 4d88 15bd 3542 5a3d 7280 b53d 0d2f cfbd

network_body._body_endoder.seq_layers.2.bias f4 [128]
0.0 0.0 0.0 0.0 0.0 0.0 0.0 0.0
0.0 0.0 0.0 0.0 0.0 0.0 0.0 0.0
0.0 0.0 0.0 0.0 0.0 0.0 0.0 0.0
0.0 0.0 0.0 0.0 0.0 0.0 0.0 0.0
0.0 0.0 0.0 0.0 0.0 0.0 0.0 0.0
0.0 0.0 0.0 0.0 0.0 0.0 0.0 0.0
0.0 0.0 0.0 0.0 0.0 0.0 0.0 0.0
0.0 0.0 0.0 0.0 0.0 0.0 0.0 0.0
0.0 0.0 0.0 0.0 0.0 0.0 0.0 0.0
0.0 0.0 0.0 0.0 0.0 0.0 0.0 0.0
0.0 0.0 0.0 0.0 0.0 0.0 0.0 0.0
0.0 0.0 0.0 0.0 0.0 0.0 0.0 0.0
0.0 0.0 0.0 0.0 0.0 0.0 0.0 0.0
0.0 0.0 0.0 0.0 0.0 0.0 0.0 0.0
0.0 0.0 0.0 0.0 0.0 0.0 0.0 0.0
0.0 0.0 0.0 0.0 0.0 0.0 0.0 0.0
00000000: 0000 0000 0000 0000 0000 0000 0000 0000
00000010: 0000 0000 0000 0000 0000 0000 0000 0000
00000020: 0000 0000 0000 0000 0000 0000 0000 0000
00000030: 0000 0000 0000 0000 0000 0000 0000 0000
00000040: 0000 0000 0000 0000 0000 0000 0000 0000
00000050: 0000 0000 0000 0000 0000 0000 0000 0000
00000060: 0000 0000 0000 0000 0000 0000 0000 0000
00000070: 0000 0000 0000 0000 0000 0000 0000 0000
00000080: 0000 0000 0000 0000 0000 0000 0000 0000
00000090: 0000 0000 0000 0000 0000 0000 0000 0000
000000a0: 0000 0000 0000 0000 0000 0000 0000 0000
000000b0: 0000 0000 0000 0000 0000 0000 0000 0000
000000c0: 0000 0000 0000 0000 0000 0000 0000 0000
000000d0: 0000 0000 0000 0000 0000 0000 0000 0000
000000e0: 0000 0000 0000 0000 0000 0000 0000 0000
000000f0: 0000 0000 0000 0000 0000 0000 0000 0000
00000100: 0000 0000 0000 0000 0000 0000 0000 0000
00000110: 0000 0000 0000 0000 0000 0000 0000 0000
00000120: 0000 0000 0000 0000 0000 0000 0000 0000
00000130: 0000 0000 0000 0000 0000 0000 0000 0000
00000140: 0000 0000 0000 0000 0000 0000 0000 0000
00000150: 0000 0000 0000 0000 0000 0000 0000 0000
00000160: 0000 0000 0000 0000 0000 0000 0000 0000
00000170: 0000 0000 0000 0000 0000 0000 0000 0000
00000180: 0000 0000 0000 0000 0000 0000 0000 0000
00000190: 0000 0000 0000 0000 0000 0000 0000 0000
000001a0: 0000 0000 0000 0000 0000 0000 0000 0000
000001b0: 0000 0000 0000 0000 0000 0000 0000 0000
000001c0: 0000 0000 0000 0000 0000 0000 0000 0000
000001d0: 0000 0000 0000 0000 0000 0000 0000 0000
000001e0: 0000 0000 0000 0000 0000 0000 0000 0000
000001f0: 0000 0000 0000 0000 0000 0000 0000 0000

action_model._continuous_distribution.log_sigma f4 [1, 2]
0.0 0.0
00000000: 0000 0000 0000 0000

action_model._continuous_distribution.mu.weight f4 [2, 128]
0.022867521 -0.008989561 0.0054190587 0.009525985 0.02039914 -0.05529776 0.011407697 0.007654959
-0.00026318032 0.012845374 0.020919567 -0.004150591 -0.020226141 0.018447815 -0.018959219 -0.0031699121
-0.009130539 0.010266928 0.003700491 0.041667014 -0.007917456 -0.010844286 0.017002977 0.007738389
-0.015550832 0.0095001785 -0.012396658 -0.009490176 -0.013819684 0.018234013 0.027544651 -0.028618196
-0.009776829 -0.0067703496 0.011668709 -0.029592702 0.020244636 -0.023159629 0.019937256 0.017788053
0.0070098527 -0.018665204 -0.008773601 0.0004305668 0.0050253547 0.014219639 0.0023802093 0.01891583
0.0018978466 0.025494639 -0.011607401 -0.00016661799 0.009874364 0.005137554 -0.013464461 -0.019678786
0.026646737 0.03416512 -0.025947941 0.0034202877 -0.01939572 -0.004793067 0.00082010863 -0.015529215
0.0050058314 7.3714815e-05 -0.0045198337 -0.010553656 -0.015959878 -0.02067148 -0.010525684 -0.012530962
-0.02584217 -0.0018945131 0.00091691624 -0.0152529655 0.017641386 0.034122135 0.006266806 -0.0002524437
0.0068440386 0.005882881 -0.017862042 0.01157467 -0.010197567 -0.012640494 0.0157478 -0.020603146
0.05206619 -0.036517985 0.007125733 -0.007390931 -0.024589017 0.029669097 0.009633293 0.0147789065
0.024572698 0.0075305365 -0.011928384 -0.016403561 4.552577e-05 0.014152326 -0.0192107 0.010123246
0.018230984 -0.013745322 -0.0050315177 -0.008105376 -0.019196177 -0.0038946879 -0.033643734 0.0042009577
-0.009841262 -0.011135736 -0.009714274 -0.022057889 -0.040254965 -0.0102041755 -0.0057352916 0.0129790455
-0.008552253 0.05173825 -0.011176985 -5.9564685e-05 -0.020629166 0.013212003 0.0034138225 0.012143439
-0.018412417 -0.023368923 -0.0032622926 0.01802866 0.0014986059 -0.00038149595 0.018132804 0.0056948657
0.012314422 0.0077897846 -0.006800435 0.032024704 -0.02781256 -0.015187718 -0.0017972207 0.00457868
0.002776575 -0.02193676 -0.016179906 0.009099297 -0.012389517 -0.00235558 0.0388874 0.031076258
-0.004500803 -0.01845943 -0.028603641 0.024420233 0.022022815 0.034623448 -0.0013036352 -0.02713584
0.022694273 -0.022572905 -0.009912006 0.018851573 -0.019785307 0.0009529775 -0.01201625 -0.028766697
-0.036446605 0.010471738 -0.0029144501 -0.016644942 -0.03379799 0.0034535162 -0.0037485175 -0.014887522
-0.017364634 -0.00256034 -0.0002970022 0.033286925 0.0050701844 -0.013662415 0.0123205995 -0.018703524
-0.023608174 -0.0035631743 -0.009272072 0.016222788 0.045070346 -0.017038183 -0.014767194 -0.013105395
0.036633875 0.02056502 -0.010578829 -0.010453414 -0.0030420793 0.0010799364 -0.009166395 0.011767499
-0.02003122 -0.008151271 -0.012495213 -0.03879857 -0.031794995 -0.029229602 -0.024351485 -0.010932267
-0.008385229 0.010248022 -0.0047034207 -0.002032933 -0.0018488929 0.007932613 0.027329624 0.022531064
0.0101702465 0.020968216 -0.011571023 0.022434613 -0.034640174 0.015129849 0.020462153 0.009518079
0.008029553 -0.0461574 0.021236097 0.0164357 0.019517612 -0.006198898 0.009929051 -0.02494522
0.03318034 0.018362286 -0.03091656 -0.032202348 0.012570135 -0.0017105526 0.03230452 0.006115484
0.0010147125 0.006528217 0.021973876 -0.04709622 0.004591852 0.009794022 -0.0038688988 -0.029202124
-0.015052184 0.007595196 0.0009357433 -0.0006087665 0.01929189 -0.025295278 -0.0014761625 -0.001995099
00000000: ab54 bb3c f448 13bc 5c92 b13b e112 1c3c
00000010: 191c a73c e77f 62bd 59e7 3a3c 73d6 fa3b
00000020: 77fb 89b9 6775 523c 835f ab3c ae01 88bb
00000030: 4bb1 a5bc df1f 973c 5d50 9bbc 4dbe 4fbb
00000040: 4298 15bc 9e36 283c f083 723b 08ab 2a3d
00000050: 38b8 01bc 3bac 31bc d449 8b3c 5092 fd3b
00000060: ebc8 7ebc a3a6 1b3c 5a1b 4bbc af7c 1bbc
00000070: f56b 62bc 7f5f 953c 52a5 e13c b570 eabc
00000080: fe2e 20bc cfd9 ddbb 1d2e 3f3c 656c f2bc
00000090: 14d8 a53c 43b9 bdbc 7553 a33c 40b8 913c
000000a0: e8b2 e53b c5e7 98bc 26bf 0fbc b3bd e139
000000b0: bbab a43b 7df9 683c 49fd 1b3b 5ff5 9a3c
000000c0: 2ac1 f83a 22da d03c f82c 3ebc 2db6 2eb9
000000d0: 16c8 213c ed58 a83b 0b9a 5cbc 6835 a1bc
000000e0: 424a da3c baf0 0b3d c790 d4bc e826 603b
000000f0: c6e3 9ebc 290f 9dbb 8ffc 563a 406e 7ebc
00000100: f507 a43b 5797 9a38 1d1b 94bb 3ee9 2cbc
00000110: 4abe 82bc 3c57 a9bc eb73 2cbc aa4e 4dbc
00000120: f5b2 d3bc 5051 f8ba 355d 703a 93e7 79bc
00000130: ab84 903c a7c3 0b3d c759 cd3b 6b5a 84b9
00000140: f543 e03b 2fc5 c03b 6b53 92bc afa3 3d3c
00000150: b213 27bc 131a 4fbc 8801 813c eec7 a8bc
00000160: 5b43 553d e293 15bd fb7e e93b 9f2f f2bb
00000170: e86e c9bc 9b0c f33c f6d4 1d3c 3a23 723c
00000180: af4c c93c b8c2 f63b 456f 43bc c360 86bc
00000190: ecf2 3e38 28df 673c c25f 9dbc f9db 253c
000001a0: 2559 953c 0f34 61bc 6edf a4bb 69cc 04bc
000001b0: 4d41 9dbc 053e 7fbb 03ce 09bd 30a8 893b
000001c0: 3f3d 21bc a972 36bc 9e28 1fbc bfb2 b4bc
000001d0: 64e2 24bd 6a2f 27bc 1def bbbb 10a6 543c
000001e0: c01e 0cbc 7deb 533d ac1f 37bc 18d5 79b8
000001f0: 7ffe a8bc 2877 583c 70ba 5f3b 46f5 463c
00000200: a3d5 96bc 2f70 bfbc 30cc 55bb d7b0 933c
00000210: df6c c43a 8503 c8b9 3f8b 943c ff9b ba3b
00000220: 6ec2 493c 7341 ff3b 2fd6 debb 562c 033d
00000230: 2ad7 e3bc e8d5 78bc b890 ebba c008 963b
00000240: 33f7 353b b8b4 b3bc b98b 84bc 3815 153c
00000250: 67fd 4abc 1360 1abb 6548 1f3d a393 fe3c
00000260: 797b 93bb 3b38 97bc 2f52 eabc f10c c83c
00000270: 3169 b43c 51d1 0d3d bdde aaba fb4b debc
00000280: 57e9 b93c d0ea b8bc f765 22bc 9d6e 9a3c
00000290: cc14 a2bc 3dd1 793a cedf 44bc 23a8 ebbc
000002a0: 0949 15bd a791 2b3c 5c00 3fbb f95a 88bc
000002b0: c36f 0abd 6354 623b b0a9 75bb cbea 73bc
000002c0: 4740 8ebc 61cb 27bb f6b6 9bb9 df57 083d
000002d0: ca23 a63b 52d8 5fbc 57dc 493c 2238 99bc
000002e0: ee65 c1bc 2584 69bb e4e9 17bc a7e5 843c
000002f0: af9b 383d a993 8bbc 1af2 71bc 03b8 56bc
00000300: 670d 163d f977 a83c d352 2dbc cc44 2bbc
00000310: 9f5d 47bb a78c 8d3a a62e 16bc 78cc 403c
00000320: 8318 a4bc e98c 05bc b9b8 4cbc 40eb 1ebd
00000330: 783b 02bd eb72 efbc c47c c7bc 401d 33bc
00000340: 3362 09bc 52e7 273c 271f 9abb f53a 05bb
00000350: 8d56 f2ba caf7 013c 60e2 df3c 1193 b83c
00000360: 1ba1 263c 89c5 ab3c 6394 3dbc cbc8 b73c
00000370: dbe2 0dbd 30e3 773c 3fa0 a73c b8f1 1b3c
00000380: 638e 033c 8b0f 3dbd 53f7 ad3c 29a4 863c
00000390: 66e3 9f3c 2020 cbbb 75ad 223c eb59 ccbc
000003a0: 1ce8 073d 816c 963c ba44 fdbc 9ce6 03bd
000003b0: f8f2 4d3c 9f34 e0ba bf51 043d 6664 c83b
000003c0: 1a00 853a a7ea d53b 8f02 b43c f7e7 40bd
000003d0: 3f77 963b 1b77 203c 5a8d 7dbb 4b39 efbc
000003e0: 709d 76bc 1fe1 f83b ab4c 753a a195 1fba
000003f0: 070a 9e3c 0b38 cfbc cb7b c1ba 35c0 02bb

action_model._continuous_distribution.mu.bias f4 [2]
0.0 0.0
00000000: 0000 0000 0000 0000

network_body._body_endoder.seq_layers.0.weight f4 [128, 33]
-0.119876444 0.26040825 0.108670615 0.1421858 0.0393867 -0.18650728 -0.029920531 -0.065489374
0.030690793 0.22832564 0.23000552 -0.09754972 -0.11468282 -0.12331254 0.14024374 0.09200648
-0.05451341 0.2949329 0.04512518 -0.15529314 -0.106597535 0.097488895 0.013651213 0.29540828
-0.046273172 0.039007396 -0.24036223 -0.032792255 0.18984862 -0.13833913 0.16565102 -0.0406212
-0.1503479 0.13740732 0.1836712 -0.05306812 -0.3657416 0.5793698 0.18727359 0.60366833
0.09019312 0.09951879 0.10447804 0.028740715 0.16283728 -0.025346875 -0.088494465 0.1878094
-0.075222395 0.053378817 -0.33908725 -0.16622531 0.13602494 0.036807697 -0.2512331 -0.003248305
0.016008105 -0.15792705 0.17789802 -0.04186531 -0.15619372 0.08794683 0.119302265 0.47048327
0.16565979 -0.008998225 0.21154477 -0.2214971 0.05870265 0.24959026 -0.28661856 -0.34196538
0.0006718748 -0.22621082 -0.009254174 -0.106594324 -0.12209159 0.19534802 0.036569722 0.055697136
-0.1350893 0.24486926 -0.078727715 0.25498047 0.03393708 0.030645149 0.050587006 -0.17347927
0.38112584 -0.14311658 0.20804591 -0.13778935 -0.22907355 -0.06534067 -0.025201002 -0.18327649
0.101883985 0.091523305 -0.048155017 -0.15998042 0.32720068 0.08961015 0.00035792313 -0.0141263325
-0.24547045 -0.029758468 -0.065217115 -0.4509015 0.1973106 0.020932013 0.22671856 0.017191142
-0.09542726 0.25755394 -0.018693302 -0.11432638 -0.28138036 0.3557345 -0.13172582 0.13005327
0.19636539 -0.102378294 -0.16867606 -0.072663 -0.16798247 -0.08616642 0.05208322 -0.063859664
-0.06748817 0.05605189 0.355221 0.06712944 -0.2106582 -0.13310476 0.09693419 0.0467436
-0.2868025 -0.30370873 -0.29089487 0.1400662 -0.063770324 0.19427252 -0.16298953 0.14850265
-0.095009685 -0.121475816 -0.0123022655 0.3321426 -0.027794309 0.022811737 0.27457744 0.13615234
0.24214718 -0.11131008 -0.14022018 0.16624762 -0.07076085 -0.07720046 0.08253272 -0.027609263
-0.07568785 0.106869645 -0.013626312 -0.15697865 -0.050014682 -0.009897486 0.10846353 -0.23217617
-0.09106814 -0.2613023 0.07035159 -0.0584918 -0.028721463 0.18918966 0.11562725 -0.16399461
0.07873943 -0.042399075 -0.1830829 0.022805115 0.16000295 -0.03146913 0.22113146 0.04571697
0.08886211 0.018459873 0.0012115588 -0.114556275 -0.38744032 0.123547375 -0.25629747 -0.08848251
0.099383764 -0.0037088832 -0.036351733 -0.24580956 0.059399825 -0.1659706 0.097541064 0.12139549
-0.07933605 -0.1504429 -0.45486018 -0.06221974 -0.106720634 0.373268 -0.13181843 0.118760884
-0.41348058 0.14941415 -0.13463792 0.031136539 0.017324744 0.10572153 0.18960124 -0.21993966
0.06826099 0.11626011 0.09926388 -0.055334944 -0.07675113 0.21719383 0.1522861 0.009416252
0.153079 0.05102048 -0.12822814 0.32105425 -0.15208617 -0.010537074 -0.038272496 -0.15758614
0.007159281 -0.13841312 -0.39848632 -0.13257451 0.09245706 -0.061710313 0.028426662 -0.008311041
0.17932206 0.24242698 0.46484295 0.017934797 -0.05883517 0.2995894 0.24907811 0.18150294
-0.016623925 -0.06985569 -0.09180812 -0.07155379 -0.23457178 0.10692231 -0.009120957 -0.13097201
00000000: c881 f5bd 3b54 853e b38e de3d 2899 113e
00000010: f353 213d c4fb 3ebe e71b f5bc 4b1f 86bd
00000020: 426b fb3c 32ce 693e 9186 6b3e 26c8 c7bd
00000030: d4de eabd 498b fcbd 0e9c 0f3e e56d bc3d
00000040: 7449 5fbd 7201 973e 2ed5 383d 2a05 1fbe
00000050: cf4f dabd 42a8 c73d 56a9 5f3c c13f 973e
00000060: f088 3dbd 38c6 1f3d 8421 76be 2c51 06bd
00000070: ad67 423e c6a8 0dbe 6ca0 293e 6a62 26bd
00000080: cdf4 19be 81b4 0c3e 4e14 3c3e f55d 59bd
00000090: 7c42 bbbe 9451 143f a6c4 3f3e 028a 1a3f
000000a0: 2cb7 b83d 82d0 cb3d 95f8 d53d a671 eb3c
000000b0: d1be 263e 40a4 cfbc 963c b5bd 1b51 403e
000000c0: 330e 9abd bfa3 5a3d d89c adbe f836 2abe
000000d0: 1f4a 0b3e abc3 163d a0a1 80be 84e1 54bb
000000e0: 6e23 833c a1b7 21be e62a 363e f67a 2bbd
000000f0: 3ff1 1fbe 781d b43d bf54 f43d 2fe3 f03e
00000100: b8a2 293e 4b6d 13bc 319f 583e 23d0 62be
00000110: 3172 703d 9794 7f3e abbf 92be 1616 afbe
00000120: c120 303a cfa3 67be d29e 17bc 204e dabd
00000130: 280b fabd 5009 483e 22ca 153d ae22 643d
00000140: d954 0abe 02bf 7a3e ff3b a1bd cd8c 823e
00000150: 9c01 0b3d 890b fb3c 5234 4f3d 8da4 31be
00000160: ed22 c33e 278d 12be fd09 553e a718 0dbe
00000170: 4292 6abe 54d1 85bd 5572 cebc d5ac 3bbe
00000180: 8da8 d03d 9270 bb3d 323e 45bd e8d1 23be
00000190: d986 a73e 8785 b73d a1a7 bb39 2272 67bc
000001a0: 9b5c 7bbe 08c8 f3bc 8d90 85bd 90dc e6be
000001b0: ca0b 4a3e 9d79 ab3c e928 683e 70d4 8c3c
000001c0: 5e6f c3bd 1cde 833e b222 99bc f323 eabd
000001d0: 1611 90be d522 b63e 22e3 06be af2c 053e
000001e0: 0214 493e b6ab d1bd 6bb9 2cbe 57d0 94bd
000001f0: 9903 2cbe 0578 b0bd 3755 553d dbc8 82bd
00000200: 3d37 8abd ab96 653d 87df b53e 297b 893d
00000210: c8b6 57be 9d4c 08be 6f85 c63d 3876 3f3d
00000220: c7d7 92be b67f 9bbe 2cf0 94be 846d 0f3e
00000230: 049a 82bd 60ef 463e bae6 26be 1411 183e
00000240: 7094 c2bd 50c8 f8bd 718f 49bc 980e aa3e
00000250: e4b0 e3bc aedf ba3c 6a95 8c3e 856b 0b3e
00000260: 6ef5 773e 8af6 e3bd e195 0fbe d13c 2a3e
00000270: 11eb 90bd 461b 9ebd ea06 a93d d22c e2bc
00000280: 3b02 9bbd 79de da3d e540 5fbc 03bf 20be
00000290: 32dc 4cbd 1129 22bc 2122 de3d 97bf 6dbe
000002a0: ef81 babd 6ac9 85be 7f14 903d 1995 6fbd
000002b0: 4649 ebbc efba 413e fbcd ec3d 34ee 27be
000002c0: 2342 a13d a7aa 2dbd 157a 3bbe cbd1 ba3c
000002d0: d0d7 233e c6e5 00bd 4970 623e b841 3b3d
000002e0: 57fd b53d 2939 973c 2bcd 9e3a 7b9c eabd
000002f0: 945e c6be 6806 fd3d 6c39 83be 5136 b5bd
00000300: b789 cb3d bc10 73bb 8ee5 14bd 80b5 7bbe
00000310: 3b4d 733d 32f4 29be 9cc3 c73d 339e f83d
00000320: f07a a2bd b40d 1abe 6fe3 e8be 20da 7ebd
00000330: 5990 dabd fc1c bf3e 69fb 06be e838 f33d
00000340: bab3 d3be 0600 193e 86de 09be 0e12 ff3c
00000350: 9fec 8d3c 8884 d83d d426 423e dd37 61be
00000360: 6bcc 8b3d c819 ee3d dc4a cb3d e5a6 62bd
00000370: b22f 9dbd 0f68 5e3e e3f0 1b3e a046 1a3c
00000380: bec0 1c3e dafa 503d 3d4e 03be 3961 a43e
00000390: 7abc 1bbe b1a3 2cbc 9fc3 1cbd 435e 21be
000003a0: 6798 ea3b 2bbc 0dbe 6606 ccbe 9dc1 07be
000003b0: 215a bd3d f4c3 7cbd 08df e83c 082b 08bc
000003c0: 34a0 373e c73e 783e e5ff ed3e ffeb 923c
000003d0: 26fd 70bd c863 993e 550e 7f3e e8db 393e
000003e0: e62e 88bc 8010 8fbd e505 bcbd cb8a 92bd
000003f0: 9633 70be 16fa da3d 1170 15bc 871d 06be

network_body._body_endoder.seq_layers.0.bias f4 [128]
0.0 0.0 0.0 0.0 0.0 0.0 0.0 0.0
0.0 0.0 0.0 0.0 0.0 0.0 0.0 0.0
0.0 0.0 0.0 0.0 0.0 0.0 0.0 0.0
0.0 0.0 0.0 0.0 0.0 0.0 0.0 0.0
0.0 0.0 0.0 0.0 0.0 0.0 0.0 0.0
0.0 0.0 0.0 0.0 0.0 0.0 0.0 0.0
0.0 0.0 0.0 0.0 0.0 0.0 0.0 0.0
0.0 0.0 0.0 0.0 0.0 0.0 0.0 0.0
0.0 0.0 0.0 0.0 0.0 0.0 0.0 0.0
0.0 0.0 0.0 0.0 0.0 0.0 0.0 0.0
0.0 0.0 0.0 0.0 0.0 0.0 0.0 0.0
0.0 0.0 0.0 0.0 0.0 0.0 0.0 0.0
0.0 0.0 0.0 0.0 0.0 0.0 0.0 0.0
0.0 0.0 0.0 0.0 0.0 0.0 0.0 0.0
0.0 0.0 0.0 0.0 0.0 0.0 0.0 0.0
0.0 0.0 0.0 0.0 0.0 0.0 0.0 0.0
00000000: 0000 0000 0000 0000 0000 0000 0000 0000
00000010: 0000 0000 0000 0000 0000 0000 0000 0000
00000020: 0000 0000 0000 0000 0000 0000 0000 0000
00000030: 0000 0000 0000 0000 0000 0000 0000 0000
00000040: 0000 0000 0000 0000 0000 0000 0000 0000
00000050: 0000 0000 0000 0000 0000 0000 0000 0000
00000060: 0000 0000 0000 0000 0000 0000 0000 0000
00000070: 0000 0000 0000 0000 0000 0000 0000 0000
00000080: 0000 0000 0000 0000 0000 0000 0000 0000
00000090: 0000 0000 0000 0000 0000 0000 0000 0000
000000a0: 0000 0000 0000 0000 0000 0000 0000 0000
000000b0: 0000 0000 0000 0000 0000 0000 0000 0000
000000c0: 0000 0000 0000 0000 0000 0000 0000 0000
000000d0: 0000 0000 0000 0000 0000 0000 0000 0000
000000e0: 0000 0000 0000 0000 0000 0000 0000 0000
000000f0: 0000 0000 0000 0000 0000 0000 0000 0000
00000100: 0000 0000 0000 0000 0000 0000 0000 0000
00000110: 0000 0000 0000 0000 0000 0000 0000 0000
00000120: 0000 0000 0000 0000 0000 0000 0000 0000
00000130: 0000 0000 0000 0000 0000 0000 0000 0000
00000140: 0000 0000 0000 0000 0000 0000 0000 0000
00000150: 0000 0000 0000 0000 0000 0000 0000 0000
00000160: 0000 0000 0000 0000 0000 0000 0000 0000
00000170: 0000 0000 0000 0000 0000 0000 0000 0000
00000180: 0000 0000 0000 0000 0000 0000 0000 0000
00000190: 0000 0000 0000 0000 0000 0000 0000 0000
000001a0: 0000 0000 0000 0000 0000 0000 0000 0000
000001b0: 0000 0000 0000 0000 0000 0000 0000 0000
000001c0: 0000 0000 0000 0000 0000 0000 0000 0000
000001d0: 0000 0000 0000 0000 0000 0000 0000 0000
000001e0: 0000 0000 0000 0000 0000 0000 0000 0000
000001f0: 0000 0000 0000 0000 0000 0000 0000 0000

network_body._body_endoder.seq_layers.2.weight f4 [128, 128]
-0.08798801 -0.03144726 -0.0027043587 0.120872036 -0.036059093 -0.059763707 0.10437277 -0.040497817
0.012342411 -0.0019329756 0.13703163 0.1183434 0.100985125 0.038826264 0.022290785 -0.035116863
0.008137863 -0.028698878 0.1675285 0.1450011 -0.07552652 -0.1408855 -0.27585876 -0.026369074
-0.019617958 0.09006371 -0.105950445 0.12940763 0.0885281 -0.07678989 -0.047395203 -0.056453727
-0.0717994 -0.10221205 0.015358781 -0.14626308 -0.12087019 -0.008824489 0.11704164 0.05521714
0.010200075 -0.07313757 0.082399525 0.04935842 -0.06332251 0.06507101 0.035376173 -0.008625465
0.030249862 -0.027424335 -0.006766861 0.14261822 0.0034332776 0.20020044 -0.06200932 -0.08393361
0.13743393 0.14013332 0.008647975 0.033859324 -0.06004483 -0.07766085 0.00027174628 -0.15854897
0.05075042 -0.057226006 0.088813014 -0.07260546 0.0035631752 -0.00076734344 0.06631365 -0.00767357
0.034465335 0.0032955476 0.06474749 -0.01646526 -0.07645535 -0.12189687 0.15113047 0.08678842
-0.049479168 0.041579466 -0.17421995 -0.13186044 0.0013390871 -0.087010406 0.03384474 -0.122684225
-0.041508842 -0.07940081 -0.05947992 -0.0523464 0.018848967 0.08553041 -0.07076169 0.12322358
0.045152076 -0.05773838 0.05399214 -0.045819346 -0.050319027 0.027770313 -0.005249059 0.09703051
0.1078867 -0.015687713 0.13084707 0.07711241 0.07685258 -0.06743926 -0.06957922 0.045239113
0.00034599792 0.15612562 -0.08049784 0.058646496 0.12902722 -0.055926006 0.11080646 0.03484013
0.023013348 0.04843645 0.007900967 -0.08960466 0.15089321 0.16494802 0.03455494 -0.032646894
-0.021172253 0.09145659 0.037308324 -0.049689617 -0.048323486 0.010407127 -0.13718405 -0.048960876
-0.09290588 -0.09796911 -0.060786575 -0.19941188 0.0712042 0.114406504 0.18941599 0.058565658
-0.07983242 -0.01864549 0.1783375 -0.08737407 0.003599581 -0.020301845 0.1640281 -0.24156716
-0.10546742 -0.0123732835 -0.14205895 -0.006729057 0.10273208 -0.025045317 -0.12500414 0.00905265
-0.12400592 -0.0051368484 0.14840715 -0.09621008 -0.061248384 -0.09367067 -0.041356407 0.07580522
-0.074767694 -0.04796712 -0.06926386 -0.18437004 -0.0403487 0.04884742 0.050250094 0.019226333
-0.06995556 0.0079711145 -0.039146755 0.01224942 0.036858186 0.102606006 0.011743599 0.097682446
0.08188489 0.094781116 0.06753661 0.02837191 0.007100498 -0.2594569 -0.047340713 0.040123995
0.06541354 0.11033405 0.056690607 0.08408438 -0.11481456 -0.000493305 -0.11245171 0.14187792
0.033538844 -0.07758429 -0.07071955 0.09158945 0.09221789 0.017241325 0.027525946 0.10799247
0.062280577 -0.030419938 -0.06718882 0.103114784 -0.1039751 0.041756753 -0.09930239 0.19755486
-0.006518996 0.124698415 0.009589235 0.023447316 0.028492736 0.0027483986 -0.2006185 0.1259954
0.0071474407 0.13329956 0.13402368 -0.1043964 0.07373627 0.086510174 0.06958244 -0.11028316
-0.03204869 -0.0953812 -0.01186195 -0.10773925 -0.08172674 0.11674473 -0.025140695 0.06275423
0.022270719 0.10775349 0.07586875 -0.0783917 0.0016492937 -0.12794162 -0.07524332 -0.061133113
0.08848664 -0.046607416 0.13908167 0.1028535 -0.083138146 0.060649797 -0.09444464 0.030653013
00000000: 0f33 b4bd d8ce 00bd 9c3b 31bb c28b f73d
00000010: b3b2 13bd caca 74bd 64c1 d53d 0ae1 25bd
00000020: d337 4a3c e65b fdba 0552 0c3e 065e f23d
00000030: 4ad1 ce3d 4a08 1f3d 2a9b b63c b3d6 0fbd
00000040: ac54 053c e919 ebbc 978c 2b3e 2b7b 143e
00000050: a6ad 9abd 4a44 10be 5c3d 8dbe f503 d8bc
00000060: d7b5 a0bc 5373 b83d 8cfc d8bd 6f83 043e
00000070: 384e b53d 0544 9dbd 7921 42bd 063c 67bd
00000080: 900b 93bd 8d54 d1bd 66a3 7b3c fdc5 15be
00000090: ca8a f7bd 9794 10bc 87b3 ef3d 5e2b 623d
000000a0: 371e 273c 26c9 95bd 15c1 a83d 0e2c 4a3d
000000b0: 3baf 81bd f343 853d 9be6 103d d351 0dbc
000000c0: 8fce f73c 00a9 e0bc 8bbc ddbb 830a 123e
000000d0: d700 613b 5801 4d3e 7cfd 7dbd 62e5 abbd
000000e0: 7bbb 0c3e 1c7f 0f3e 3cb0 0d3c 13b0 0a3d
000000f0: 91f1 75bd a70c 9fbd 2b79 8e39 a95a 22be
00000100: acdf 4f3d d165 6abd 99e3 b53d 2cb2 94bd
00000110: 2984 693b 8c27 49ba 73cf 873d 9272 fbbb
00000120: 862b 0d3d 1dfa 573b 559a 843d 27e2 86bc
00000130: 9f94 9cbd 11a5 f9bd f2c1 1a3e 21be b13d
00000140: abaa 4abd 3b4f 2a3d b766 32be 6c06 07be
00000150: 4f84 af3a 8332 b2bd c8a0 0a3d de41 fbbd
00000160: 2d05 2abd e49c a2bd 37a1 73bd 2e69 56bd
00000170: 2669 9a3c 912a af3d 81eb 90bd a55c fc3d
00000180: 62f1 383d 147f 6cbd dd26 5d3d 11ad 3bbd
00000190: 531b 4ebd 917e e33c 4c00 acbb efb7 c63d
000001a0: b4f3 dc3d 8583 80bc c6fc 053e 1ced 9d3d
000001b0: e364 9d3d 981d 8abd 8d7f 8ebd a64c 393d
000001c0: 0e67 b539 65df 1f3e 0ddc a4bd 4f37 703d
000001d0: b61f 043e ab12 65bd 7fee e23d 86b4 0e3d
000001e0: 7d86 bc3c 4d65 463d 0f73 013c a682 b7bd
000001f0: c083 1a3e 22e8 283e 7b89 0d3d c0b8 05bd
00000200: 6f71 adbc 984d bb3d 9dd0 183d 5787 4bbd
00000210: d9ee 45bd a882 2a3c fa79 0cbe 338b 48bd
00000220: 7045 bebd 07a4 c8bd 58fb 78bd a132 4cbe
00000230: 82d3 913d f54d ea3d 44f6 413e 8be2 6f3d
00000240: 2e7f a3bd 6dbe 98bc 1b9e 363e 2df1 b2bd
00000250: f3e6 6b3b 0e50 a6bc fbf6 273e 625d 77be
00000260: 4dff d7bd 50b9 4abc e777 11be 6c7f dcbb
00000270: 3265 d23d d62b cdbc 1601 00be 9151 143c
00000280: d1f6 fdbd 0253 a8bb 0bf8 173e ca09 c5bd
00000290: 96df 7abd 69d6 bfbd 5665 29bd c43f 9b3d
000002a0: ce1f 99bd 2c79 44bd 36da 8dbd 80cb 3cbe
000002b0: ae44 25bd 3b14 483d 0bd3 4d3d 8b80 9d3c
000002c0: dc44 8fbd 4799 023c 5958 20bd cbb1 483c
000002d0: 9cf8 163d 1923 d23d 3968 403c bc0d c83d
000002e0: 44b3 a73d 9a1c c23d a250 8a3d 356c e83c
000002f0: 4bab e83b 89d7 84be 56e8 41bd 0f59 243d
00000300: 89f7 853d d2f6 e13d 6934 683d 6e34 ac3d
00000310: e523 ebbd 2351 01ba 154d e6bd 7248 113e
00000320: 0760 093d 83e4 9ebd 69d5 90bd 4093 bb3d
00000330: bcdc bc3d ae3d 8d3c 187e e13c 282b dd3d
00000340: eb19 7f3d 3c33 f9bc 4b9a 89bd d82d d33d
00000350: e6f0 d4bd 2109 2b3d 0d5f cbbd d24b 4a3e
00000360: 4d9d d5bb e261 ff3d 2b1c 1d3c 9614 c03c
00000370: 9969 e93c 7a1e 343b f06e 4dbe f004 013e
00000380: 1435 ea3b ae7f 083e 813d 093e c8cd d5bd
00000390: 0b03 973d 3f2c b13d 3d81 8e3d 23dc e1bd
000003a0: 7d45 03bd 3857 c3bd a058 42bc 65a6 dcbd
000003b0: 5960 a7bd dc17 ef3d dcf3 cdbc 4a85 803d
000003c0: 1571 b63c ddad dc3d 1361 9b3d d48b a0bd
000003d0: 1d2d d83a 2103 03be 2b19 9abd b766 7abd
000003e0: 7c38 b53d 6be7 3ebd 6d6b 0e3e dba4 d23d
000003f0: 5544 aabd ec6b 783d 316c c1bd 071c fb3c

network_body._body_endoder.seq_layers.2.bias f4 [128]
0.0 0.0 0.0 0.0 0.0 0.0 0.0 0.0
0.0 0.0 0.0 0.0 0.0 0.0 0.0 0.0
0.0 0.0 0.0 0.0 0.0 0.0 0.0 0.0
0.0 0.0 0.0 0.0 0.0 0.0 0.0 0.0
0.0 0.0 0.0 0.0 0.0 0.0 0.0 0.0
0.0 0.0 0.0 0.0 0.0 0.0 0.0 0.0
0.0 0.0 0.0 0.0 0.0 0.0 0.0 0.0
0.0 0.0 0.0 0.0 0.0 0.0 0.0 0.0
0.0 0.0 0.0 0.0 0.0 0.0 0.0 0.0
0.0 0.0 0.0 0.0 0.0 0.0 0.0 0.0
0.0 0.0 0.0 0.0 0.0 0.0 0.0 0.0
0.0 0.0 0.0 0.0 0.0 0.0 0.0 0.0
0.0 0.0 0.0 0.0 0.0 0.0 0.0 0.0
0.0 0.0 0.0 0.0 0.0 0.0 0.0 0.0
0.0 0.0 0.0 0.0 0.0 0.0 0.0 0.0
0.0 0.0 0.0 0.0 0.0 0.0 0.0 0.0
00000000: 0000 0000 0000 0000 0000 0000 0000 0000
00000010: 0000 0000 0000 0000 0000 0000 0000 0000
00000020: 0000 0000 0000 0000 0000 0000 0000 0000
00000030: 0000 0000 0000 0000 0000 0000 0000 0000
00000040: 0000 0000 0000 0000 0000 0000 0000 0000
00000050: 0000 0000 0000 0000 0000 0000 0000 0000
00000060: 0000 0000 0000 0000 0000 0000 0000 0000
00000070: 0000 0000 0000 0000 0000 0000 0000 0000
00000080: 0000 0000 0000 0000 0000 0000 0000 0000
00000090: 0000 0000 0000 0000 0000 0000 0000 0000
000000a0: 0000 0000 0000 0000 0000 0000 0000 0000
000000b0: 0000 0000 0000 0000 0000 0000 0000 0000
000000c0: 0000 0000 0000 0000 0000 0000 0000 0000
000000d0: 0000 0000 0000 0000 0000 0000 0000 0000
000000e0: 0000 0000 0000 0000 0000 0000 0000 0000
000000f0: 0000 0000 0000 0000 0000 0000 0000 0000
00000100: 0000 0000 0000 0000 0000 0000 0000 0000
00000110: 0000 0000 0000 0000 0000 0000 0000 0000
00000120: 0000 0000 0000 0000 0000 0000 0000 0000
00000130: 0000 0000 0000 0000 0000 0000 0000 0000
00000140: 0000 0000 0000 0000 0000 0000 0000 0000
00000150: 0000 0000 0000 0000 0000 0000 0000 0000
00000160: 0000 0000 0000 0000 0000 0000 0000 0000
00000170: 0000 0000 0000 0000 0000 0000 0000 0000
00000180: 0000 0000 0000 0000 0000 0000 0000 0000
00000190: 0000 0000 0000 0000 0000 0000 0000 0000
000001a0: 0000 0000 0000 0000 0000 0000 0000 0000
000001b0: 0000 0000 0000 0000 0000 0000 0000 0000
000001c0: 0000 0000 0000 0000 0000 0000 0000 0000
000001d0: 0000 0000 0000 0000 0000 0000 0000 0000
000001e0: 0000 0000 0000 0000 0000 0000 0000 0000
000001f0: 0000 0000 0000 0000 0000 0000 0000 0000

value_heads.value_heads.extrinsic.weight f4 [1, 128]
-0.0037079034 0.19940732 -0.002748868 0.19077732 -0.14171624 0.11060059 -0.095397025 -0.16664065
-0.2035194 0.14026503 0.15242498 -0.09707141 0.064384304 -0.052825104 -0.09551954 -0.041454636
0.16546533 -0.12582564 0.15853217 0.12164969 -0.06815746 0.096750766 -0.0407652 -0.03658994
-0.11265345 0.079131305 0.13300535 -0.11468639 0.016574012 -0.099222705 -0.14447848 -0.032361384
0.02049263 -0.090423025 -0.0017962086 -0.025975468 -0.075244725 -0.18528818 0.0020092104 -0.07098835
0.1365693 0.10577916 0.16553122 0.20373884 0.09843401 0.08735865 -0.0072424742 -0.21022062
-0.0051703276 0.10481234 0.03662884 0.16239233 0.07621247 -0.033643804 -0.19057927 0.041274514
-0.18145771 -0.12098734 -0.057135608 -0.13282034 0.06398457 -0.015650418 -0.18143237 -0.16084623
0.14672455 0.20011386 0.20416589 0.07742837 -0.08293207 0.16408686 0.0780483 0.15164308
0.14854857 0.16393647 -0.06343047 0.1825393 -0.15182462 -0.038187545 0.104825474 0.088302806
-0.18159147 0.058998764 0.17735566 -0.05592524 0.02180833 -0.057192463 0.08202952 0.19502936
-0.13274838 0.20075041 0.20353904 0.089854516 0.19053185 0.07979679 0.20699272 -0.18703856
-0.16757739 -0.2022564 0.08731569 -0.11292341 0.18425786 0.010617031 -0.18367645 0.049806852
-0.074775554 0.14534609 0.040515576 0.00592991 0.11112598 0.03397404 -0.16825855 0.047878496
-0.056335274 -0.014667717 0.09563956 -0.08243447 0.09562935 -0.13317628 -0.18654013 -0.07573617
0.21045952 -0.196027 0.0023493192 0.20899585 -0.0015271218 0.124424346 -0.048818998 0.03602706
00000000: 4c00 73bb 6f31 4c3e 5a26 34bb 215b 433e
00000010: 101e 11be 9082 e23d 845f c3bd d9a3 2abe
00000020: 6467 50be a3a1 0f3e 4b15 1c3e 60cd c6bd
00000030: ebdb 833d 235f 58bd c09f c3bd 56cc 29bd
00000040: be6f 293e 70d8 00be 4256 223e 7923 f93d
00000050: 2396 8bbd 4425 c63d 69f9 26bd 55df 15bd
00000060: dab6 e6bd 980f a23d 8e32 083e b3e0 eabd
00000070: 39c6 873c 4635 cbbd 2bf2 13be 5f8d 04bd
00000080: 29e0 a73c b52f b9bd c26e ebba 81ca d4bc
00000090: e819 9abd 2fbc 3dbe f5ac 033b 5762 91bd
000000a0: d3d8 0b3e bfa2 d83d 0481 293e eaa0 503e
000000b0: c597 c93d 18e9 b23d 4752 edbb 1344 57be
000000c0: da6b a9bb daa7 d63d 1f08 163d 2d4a 263e
000000d0: 4915 9c3d 16ce 09bd 3627 43be 770f 293d
000000e0: 0dd0 39be 36c8 f7bd 0707 6abd 0e02 08be
000000f0: 580a 833d 4e35 80bc 68c9 39be e0b4 24be
00000100: f63e 163e a6ea 4c3e dd10 513e c492 9e3d
00000110: 4ad8 a9bd 6306 283e cad7 9f3d 5348 1b3e
00000120: 1e1d 183e f6de 273e d6e7 81bd 95eb 3a3e
00000130: ea77 1bbe 8b6a 1cbd bdae d63d 1ad8 b43d
00000140: 1df3 39be b0a8 713d b99c 353e dd11 65bd
00000150: 62a7 b23c a542 6abd 18ff a73d c7b5 473e
00000160: 31ef 07be 8491 4d3e 8a6c 503e a505 b83d
00000170: c81a 433e 806c a33d e6f5 533e 0987 3fbe
00000180: 6899 2bbe 4d1c 4fbe 92d2 b23d 6444 e7bd
00000190: 18ae 3c3e 0ef3 2d3c ae15 3cbe 4502 4c3d
000001a0: ed23 99bd 9bd5 143e a9f3 253d b14f c23b
000001b0: 0596 e33d 5d28 0b3d f84b 2cbe 3e1c 443d
000001c0: d1bf 66bd dd50 70bc acde c33d 67d3 a8bd
000001d0: 52d9 c33d 5d5f 08be 6004 3fbe 911b 9bbd
000001e0: b382 573e 4dbb 48be 09f7 193b 0203 563e
000001f0: b429 c8ba 31d2 fe3d 6ef6 47bd 1c91 133d
