results/test/CarParking/CarParking-220730.onnx (onnx, 141699 bytes, 7 tensors)

network_body._body_endoder.seq_layers.0.weight f4 [128, 136]
000000 2d 32 fe bc c9 64 c6 bd 16 b0 89 bd e0 4a 1c bc
       -0.031029785 -0.09687192 -0.06723039 -0.009539336
000010 a0 81 18 3e f9 07 0d 3a a3 ff 9f bd f0 04 64 3c
       0.14893198 0.0005379911 -0.07812431 0.013917193
000020 5e d1 c7 3c 0b 41 bc bd 8f 77 e2 bd 29 3f 98 3d
       0.024391826 -0.091920935 -0.1105796 0.07433922
000030 4a c0 69 3d 65 d9 bc 3d 12 4b 77 3d 5a f6 25 be
       0.057068147 0.09221152 0.060374327 -0.16207257
000040 c4 32 1c 3e a8 ed bf bd 9f e9 25 3d 5c f7 fa 3c
       0.1525374 -0.09371501 0.040506 0.030635528
000050 21 83 6b bd 5a ff 11 bd c9 a1 4c bd 9e 09 f2 3d
       -0.0574981 -0.035643913 -0.049958978 0.118182406
000060 ed 63 e2 3d 16 f8 8d bd 56 35 e2 3d ff cb 03 3e
       0.110542156 -0.06932084 0.11045329 0.12870787
000070 ce 34 d6 bc 12 96 8e 3c 14 ce 60 3d 24 fa 13 3d
       -0.026148226 0.017405543 0.05488403 0.036127225
000080 da 83 78 3d 26 1c 0e bc 6f fa c3 3c b8 88 de bd
       0.06067262 -0.008673703 0.023923127 -0.10865921
000090 98 2f a7 bd 31 c7 41 3e 83 76 39 bd a7 8e 7e bd
       -0.08163375 0.18923642 -0.045279037 -0.062147763
0000a0 39 b2 51 bc 12 be c1 bd 37 9a a0 3d 28 9a 26 bd
       -0.012798839 -0.09460081 0.07841914 -0.04067436
0000b0 49 a5 eb bb 68 62 93 bc c1 3a ef bd e4 c3 11 be
       -0.0071913344 -0.01799126 -0.11681128 -0.14234883
0000c0 11 c8 c6 3d 38 4e ed 3c 3e 08 aa 3d f3 40 63 bb
       0.097061284 0.028967962 0.08302353 -0.0034676164
0000d0 b7 c6 04 3d 32 02 41 3d 31 e1 b8 bd d5 a3 17 be
       0.03241607 0.047121234 -0.09027327 -0.1480859
0000e0 9e ce 10 3e 2f c5 45 3d f3 df 14 3c 85 fa 54 bc
       0.14141318 0.048283752 0.009086597 -0.012999182
0000f0 5b cc e2 bd 27 6e 9f 3c de 97 26 3d 28 70 67 bd
       -0.11074134 0.019461704 0.040672176 -0.056503445
000100 87 f9 67 3d f8 4d 11 be f6 1b 3c 3d 36 9a 6c 3d
       0.056634452 -0.14189899 0.045925103 0.057764255
000110 bc 7d 80 be b7 0a ed bd 6a a3 c4 3c 2f 5e b5 bd
       -0.25095928 -0.11574309 0.024003703 -0.08855855
000120 71 82 77 bd 5c 10 fb 3d 65 98 d4 bd 36 11 1e 3d
       -0.060427133 0.1225898 -0.103806295 0.038590632
000130 3e fb ec 3c c1 2e 97 3d 01 f5 57 3c 55 08 f1 bc
       0.028928395 0.073819645 0.013180972 -0.029422918
000140 31 62 d4 bb 5d 04 04 3d 7d c8 9b 3d 7d 3f 9b 3c
       -0.006481432 0.032230724 0.076065995 0.018951172
000150 52 d9 aa 3d 27 5a 19 3e b7 85 04 be 9d c4 31 3d
       0.08342232 0.14975797 -0.12941633 0.043400396
000160 e4 64 a5 bc cb 65 1b be 91 79 3a be fe 0d 15 be
       -0.02018971 -0.1517555 -0.18210436 -0.14556119
000170 ac 7a 29 3d 65 c9 0b 3e 17 f5 01 3d da 3c dc bd
       0.041376755 0.13651045 0.031727877 -0.10753794
000180 9f ed 82 3c 5a 8c 13 be 0b 42 50 3d 1a 18 81 3d
       0.015982447 -0.14409009 0.050844233 0.06303425
000190 54 f2 a4 ba ac 2d 68 bb 29 fe 56 3c 70 bd ed 36
       -0.0012584426 -0.0035427613 0.01312212 7.085204e-06
0001a0 1d 7f 91 3c 7d b6 05 3e 9e 6f da bc 1f e6 0a 3d
       0.017760808 0.13057895 -0.026664551 0.033910867
0001b0 85 9c 00 3e 53 fa 61 ba 89 8f 1a 3e de ee 01 3e
       0.12559707 -0.000862037 0.15093817 0.12688777
0001c0 22 76 07 be 7f e2 b2 3b ab 7d 55 bd 26 31 a8 bd
       -0.13228658 0.0054591293 -0.0521218 -0.08212499
0001d0 2e 5e af bd 03 6b 11 3d 79 c0 dc 3c b5 8b 2f 3d
       -0.08562885 0.035502445 0.026947247 0.042857844
0001e0 53 97 32 3d 7f 75 ba bd 00 84 c8 bd 2a 4e 0d 3d
       0.043601345 -0.09104442 -0.09790802 0.03449837
0001f0 37 9b 1f bd 73 73 a6 bd 8e ce 43 be 49 26 ad bd
       -0.038966384 -0.08127489 -0.19121763 -0.08454568
000200 b7 83 13 3e 5f e5 2d bd 56 b4 1a 3e fe a0 a7 3d
       0.14405714 -0.042455073 0.15107855 0.08185004
000210 0d 5f 81 bd d4 44 2d 3e 6b 6d 0f 3e 2c 13 c7 3d
       -0.063169576 0.16920787 0.14006583 0.097204536
000220 2a d3 05 3e 48 3c b4 bd 00 af 18 3a e3 36 dd bd
       0.13068834 -0.0880056 0.0005824417 -0.108014844
000230 d2 88 d7 3d ad 86 10 bd 25 b9 5f bd cf 65 bb 3d
       0.10524143 -0.035284687 -0.054619927 0.09150278
000240 82 cd 23 3e bb 24 b6 3d 3c 6d 1a 3d ce ac 24 3e
       0.15996364 0.088937245 0.03770183 0.16081545
000250 85 a6 6a bd 93 7f 80 bd cd 67 93 3c 19 c2 8f 3d
       -0.05728771 -0.06274333 0.017993832 0.07019443
000260 24 35 77 3b 28 f9 ab bb b5 28 af bd 5d 60 d9 3d
       0.0037720883 -0.0052482076 -0.08552686 0.10614083
000270 9d ee b7 3c 61 9f 94 3b 76 57 71 bc 66 e0 e8 bb
       0.022452647 0.004535601 -0.014730325 -0.0071068285
000280 66 b8 e6 bd 3d 37 78 bc 9d c8 cb bd 26 d1 79 bd
       -0.1126564 -0.015149889 -0.09950373 -0.060990475
000290 73 87 c5 3d bb 8a 56 bd e1 b6 b8 3d 3e 4d de 3d
       0.096449755 -0.052378397 0.090192564 0.108545765
0002a0 4e 02 35 3d 2f 82 00 be f8 3d ab bc ee 10 77 3d
       0.04419165 -0.12549661 -0.020903572 0.06031888
0002b0 9a 5a 54 bd 0f 43 db 3d 83 30 d5 bd e2 20 a1 bd
       -0.051844217 0.1070615 -0.104096435 -0.078676
0002c0 4c 93 78 3d 03 0e 4b 3d 36 cc 44 bd 1f 26 da 3c
       0.06068735 0.04957391 -0.048046313 0.026629506
0002d0 2d e2 37 3e 61 96 97 3c 91 7a 10 3d 04 5b f5 bd
       0.17957373 0.018504323 0.03527314 -0.119802505
0002e0 78 6b 03 bd b6 3a 77 3c f3 20 c6 3d 05 b0 9e 3d
       -0.032084912 0.015089681 0.09674253 0.07748417
0002f0 48 18 0f be 7a c6 3c 3e d9 5a 54 3d 91 08 bc 3d
       -0.13974106 0.18435088 0.05184445 0.091813214
000300 d3 8f 49 bd 59 1b c6 bd 59 58 41 3e 5e a1 21 3d
       -0.049209427 -0.09673185 0.18881358 0.039460532
000310 a0 87 eb 3d 87 2c 77 bd f9 4b cc bd 5b 57 48 be
       0.11500478 -0.0603452 -0.09975428 -0.19564573
000320 67 20 a6 3c 6d 4f e2 bd e5 33 80 3d 06 77 9a 3c
       0.020279123 -0.110503055 0.06259898 0.018855583
000330 6d 87 a2 3d 5c 1e 09 3c 8c 24 8f 3d 0e 30 e6 3c
       0.07935987 0.008369055 0.06989393 0.028099086
000340 52 6e 64 bc ae e5 1b bd 86 5c ef bc 29 5a c4 3d
       -0.013942318 -0.038060836 -0.029218923 0.09587509
000350 e0 af 10 3d 20 f4 b6 3d e6 71 61 3d 33 e7 ef 3d
       0.035323977 0.08933282 0.055040263 0.117140196
000360 f9 91 16 bd db 95 45 bc 64 d2 02 3e e5 fa 9a bd
       -0.036760304 -0.012059654 0.1277557 -0.075673856
000370 05 6e 75 bd 94 0f 85 be 2e 09 ef bd ea a7 b4 bb
       -0.059919376 -0.25988448 -0.11671673 -0.005513181
000380 ae 2e a5 3d 39 74 e6 3c 6b cf 72 be a2 97 d2 3d
       0.08065544 0.028131591 -0.23711936 0.10282828
000390 e2 77 fa 3d ff c9 7e bc af 6f 2a 3d f2 de 10 3e
       0.12229897 -0.015551089 0.041610416 0.14147547
0003a0 d2 10 33 bd 84 a4 7b 3d b6 fe 38 bd c8 f6 89 bc
       -0.043717213 0.06143619 -0.045164786 -0.016841307
0003b0 ac 69 a0 bc f2 03 5d bd f3 0f e4 3c 7f 3a c6 bd
       -0.019581638 -0.05395884 0.027839636 -0.09679126
0003c0 20 73 c3 bd ee 81 0a bd 66 40 8f 3c 8f 63 14 be
       -0.09543443 -0.033815317 0.017486762 -0.14491104
0003d0 91 ef 8a bd fa f8 02 bd 07 77 f0 bc 57 9a cb bd
       -0.06783975 -0.031975724 -0.029353632 -0.09941547
0003e0 5c cb 06 3c d6 82 af 3d 09 b1 da 3d ac f6 5d ba
       0.008227196 0.08569877 0.10678298 -0.0008467238
0003f0 fe 42 0a bd 32 37 bd 3d e6 87 16 be 79 a2 bb 3d
       -0.033755295 0.09239043 -0.14700279 0.091618486

network_body._body_endoder.seq_layers.0.bias f4 [128]
000000 73 c1 c9 3b bf d3 21 3c 39 9e 21 3c 89 98 3a bb
       0.006157094 0.009877144 0.009864383 -0.0028472266
000010 da 96 9b 3c 58 f9 9a 3c d6 dd 03 bc 3e a7 1c 3c
       0.01899283 0.018917724 -0.008048495 0.009561358
000020 b3 6a 81 3b 8d d8 ef bb 9c 73 17 3c eb 43 87 bc
       0.003949487 -0.007319516 0.009243872 -0.016511878
000030 0d 0e 20 3b b3 ab 3b 3c 22 2f 6f bc b8 72 34 bb
       0.0024422437 0.0114545105 -0.01459864 -0.0027534198
000040 9e db 01 bb 4c 3f ba 3b 4d 13 a8 3c cd 95 e9 39
       -0.001981474 0.005683815 0.020517016 0.00044552833
000050 9c 0f 22 3c 98 5d 8d bc 2c 89 3f 3c ea 6b 28 3c
       0.009891417 -0.017256543 0.011690419 0.010279635
000060 89 73 ff 3b df 33 1e 3c cf 33 7c 3c c6 cd a0 3b
       0.0077957553 0.009655922 0.0153932115 0.0049073426
000070 95 5e a1 3c b1 34 be 3a df 25 09 3d 39 a7 04 bc
       0.01969842 0.0014511553 0.033483382 -0.00809651
000080 aa ad 0e 3c 6c de 88 3c e7 f5 c1 3b f9 39 05 39
       0.008708397 0.016707622 0.0059192064 0.00012705465
000090 6d 2d 31 3a c7 68 3e bc 35 f0 a8 3b f7 79 70 3c
       0.0006758783 -0.011621661 0.005155588 0.014677516
0000a0 2e 46 5d 3c 9d 52 0e 3c 0f f4 5e 3a 94 d7 08 3b
       0.013505502 0.008686689 0.00085049955 0.0020880448
0000b0 f1 95 82 3c e2 aa 94 3c 56 cb 05 3a 0c 18 26 bb
       0.015940638 0.01814789 0.0005103847 -0.0025343923
0000c0 ab a8 ab bb ad e3 ab bb 02 43 df 3b a6 31 65 3c
       -0.0052386126 -0.005245647 0.006813408 0.013988888
0000d0 c1 92 09 ba 90 6f 2d 3c 24 68 02 3c 00 b6 f0 3b
       -0.0005248003 0.010585681 0.007959399 0.007345915
0000e0 eb a7 e7 3b cc cf 77 3c 2b 22 df 3b 25 d2 85 3c
       0.007069578 0.015125226 0.006809493 0.016335556
0000f0 eb 80 e0 bb 66 fb 69 3c d0 6a 99 3b d5 f2 3f 3c
       -0.0068513057 0.014281129 0.0046819225 0.0117156105
000100 02 1a a3 3b b7 64 5a 3c f7 f8 04 3c a9 4e a8 3c
       0.0049774656 0.013329676 0.0081159985 0.02054532
000110 e5 f6 7b 3b 14 b8 a0 bc c4 0d cd bb d5 e4 c5 3b
       0.003844672 -0.019619025 -0.0062577445 0.006039242
000120 35 de d6 3b b2 b9 21 3c 86 fc 56 bc 41 5c b2 3b
       0.006557251 0.009870933 -0.01312173 0.0054431264
000130 33 cc a1 ba b9 ea ab bb 1b e8 f4 3a fd 01 40 3c
       -0.0012344181 -0.005246487 0.0018684895 0.011719224
000140 54 6d 3b bc e2 b5 a9 3b 57 b3 2f bc a2 f3 11 bc
       -0.01143964 0.005179153 -0.01072391 -0.008908184
000150 47 88 9b 3a 1c 03 40 3b 2d 85 bf 3c 11 8e e7 3c
       0.0011866175 0.0029298728 0.023378933 0.028265985
000160 39 14 47 3c e1 90 02 bc e8 7a 89 bb c8 d2 27 3c
       0.012150818 -0.007969112 -0.00419556 0.010243125
000170 22 56 cf bb a1 7b 8d 3c 45 65 24 bc ce 62 9c 3b
       -0.0063274065 0.017270865 -0.01003391 0.0047725206
000180 a4 74 a5 3b 57 a1 8b 3c 1e c9 2b bc b2 bf 53 38
       0.005049305 0.017044706 -0.010484962 5.048485e-05
000190 fd 99 7b bb 8c d8 4a 3c d5 5a d1 3b a9 4c 0b bc
       -0.0038391345 0.01238073 0.006389002 -0.008502164
0001a0 0e f2 a0 bb 59 5e 95 3b fe 05 93 3b 79 ec 94 3b
       -0.0049116677 0.0045583663 0.0044867983 0.0045447913
0001b0 92 8d 0c 3c 28 27 4a 3c 16 62 4f 3a 26 eb 62 b9
       0.008578675 0.012338437 0.0007911039 -0.00021640639
0001c0 db 49 e1 3b a1 fe 97 3c 6d 30 0e 3c 87 d2 4b 3c
       0.0068752593 0.018554034 0.008678538 0.01244033
0001d0 72 65 05 3c dc ae 67 3b 7a 8a 48 bb 30 0a c3 ba
       0.008141862 0.0035352027 -0.0030600117 -0.0014880355
0001e0 56 5f 0b 3c c5 c4 e8 3b f2 ac 2b 3c 9b dd 5d 3b
       0.008506617 0.007103535 0.010478245 0.003385401
0001f0 26 aa 1d 3a a8 da f0 ba f5 4a f8 bb 6f 73 d9 3a
       0.0006014429 -0.0018375712 -0.007577295 0.0016590188

network_body._body_endoder.seq_layers.2.weight f4 [128, 128]
000000 cc 12 32 bc 31 28 50 bd 20 5b 57 be fc 72 14 3e
       -0.010868739 -0.05081958 -0.21030855 0.14496988
000010 e1 b1 96 3d 9e 44 03 3c 73 fa cb bd 05 19 e8 3b
       0.073581465 0.008011965 -0.09959879 0.0070830607
000020 c4 f8 58 bd d7 fd 5b bd be 82 dc 3d 6f 89 7b 3d
       -0.052971616 -0.053708877 0.107671246 0.061410364
000030 c7 5a 1e 3d ad 06 9e bc 2c 17 ab 3c bc 50 50 bd
       0.03866079 -0.019290293 0.020885073 -0.050858244
000040 48 41 ac 3d c7 a7 8f bd a0 df 1d bd 07 cf 82 3c
       0.08410889 -0.07014423 -0.038543344 0.015967859
000050 b8 bf 74 3d 05 53 38 3d cc ff 81 bd 61 3a 0e bc
       0.05975315 0.04500105 -0.063476175 -0.008680911
000060 4f 81 04 3d d9 b7 e0 3c 32 a1 a7 3d bd b2 f4 bc
       0.03234988 0.027431415 0.081850424 -0.029870385
000070 68 17 7f bd c4 89 6b bd 21 0a 94 3d 26 a4 88 3d
       -0.06227818 -0.05750443 0.072284944 0.06671934
000080 d4 42 19 3e 24 53 bb bc 5b d3 7b 3d 90 cb b6 3d
       0.14966899 -0.022866793 0.06148086 0.08925545
000090 65 6b 64 3e 1c 57 62 bc 55 75 b0 3d bc f6 44 3d
       0.22306593 -0.013814714 0.08616129 0.048086867
0000a0 30 8d f2 3d a8 1e 35 be 62 18 82 3d e7 d8 85 3d
       0.11843336 -0.17687476 0.06352307 0.065355115
0000b0 33 d2 f6 bd 14 70 3c bb 1a 48 1d 3d 2c ee 2f bd
       -0.12051811 -0.0028753327 0.03839884 -0.042951748
0000c0 96 b0 93 bd 3e 2d 39 bd 2e 2a 47 3a 09 ef 4b bd
       -0.072114155 -0.045209162 0.0007597533 -0.04978851
0000d0 84 79 f6 3d 28 ad e1 3d 10 67 0f 3d 23 b9 e9 3b
       0.12034896 0.11019355 0.035010397 0.0071326657
0000e0 b2 93 6b bc 89 79 ec 3b 7a b3 d9 3d 72 a2 2a be
       -0.014378475 0.0072166366 0.106299356 -0.1666353
0000f0 4b 96 2c be 3a 27 35 3c 1b ee 37 be 64 c3 33 3c
       -0.16854207 0.011056716 -0.17961924 0.010971878
000100 31 9c 32 3d cf 47 93 bd 91 86 0c 3d e1 d6 e6 3d
       0.043605987 -0.07191431 0.03430802 0.11271454
000110 79 7c fd 3d 45 84 91 bd 23 86 b7 bd 6d 04 f3 3d
       0.12377257 -0.071053065 -0.089611314 0.118660785
000120 80 b5 20 3d 8a d8 10 3e be c5 3c 3d d0 1f 62 bd
       0.039235592 0.14145103 0.04608702 -0.05520612
000130 c3 30 61 3d dd 7b 9d bd 1e a8 39 3d 02 14 c9 bd
       0.054978143 -0.07689641 0.045326345 -0.09818269
000140 8e 2a 94 bd a6 1b a8 bc b9 50 46 3d 44 a6 55 3c
       -0.07234679 -0.020520996 0.048416827 0.013040129
000150 86 f0 04 3d e9 5e eb 3b ea 18 c4 bd 74 ae 00 3e
       0.032455944 0.007182945 -0.095750645 0.12566549
000160 66 04 07 be 03 02 d4 3d 4e 14 18 3d c9 01 ec 3c
       -0.13185272 0.10351946 0.03712874 0.028809445
000170 99 90 b8 bd c5 6b 0c 3d aa 45 22 be 9d 26 a4 bc
       -0.09011955 0.034282465 -0.15846887 -0.020037943
000180 69 d8 c0 bc e1 b0 b2 3c 85 d1 40 be 15 74 a1 3d
       -0.023540692 0.021812858 -0.18829925 0.07883469
000190 e0 b3 bc 3d 79 cd 33 3e 28 87 15 bb 30 e1 82 3d
       0.09213996 0.1755885 -0.0022816155 0.06390607
0001a0 1e cf 26 bc d8 38 c5 bd f0 3f 05 be 24 b0 44 3e
       -0.0101812165 -0.09629983 -0.13012671 0.19207817
0001b0 3e 1c 4f 3e 59 2b 6d 3d 4e b0 ca bd 64 d9 f6 bc
       0.20225617 0.057902668 -0.09896909 -0.030132957
0001c0 56 4c ae bd 05 ae bc bc e5 19 2e be 48 ec ff bd
       -0.08510654 -0.023032198 -0.17002065 -0.12496239
0001d0 7a 6f 8b bb 9a 0a e3 3c f7 af 48 bc de a5 56 3c
       -0.0042552324 0.027715016 -0.012248985 0.013101069
0001e0 46 c9 cb bd d9 9e ab bd 1e e8 0b 3e e3 f2 e7 3c
       -0.09950499 -0.08379907 0.13662764 0.02831406
0001f0 22 0f d2 bd d7 7e 2d be 6e 18 11 be da 05 05 3e
       -0.102567926 -0.16942917 -0.14169475 0.12990513
000200 c5 61 eb 3c 7d 71 50 3d 00 ab aa 3c f4 60 ab bc
       0.028733144 0.05088948 0.020833492 -0.020920254
000210 21 0e 5d 3d 34 f0 a4 bd fa 7e b8 3b 74 46 0f bd
       0.053968553 -0.080536276 0.005630371 -0.0349793
000220 66 aa 44 bd cf 11 af bd 63 76 ef 3d a5 f0 c7 bc
       -0.048014067 -0.085483186 0.11692502 -0.02440674
000230 e4 66 95 3d f2 51 4e be 90 be 2c 3d 0e b4 07 3d
       0.072950155 -0.20148447 0.042173922 0.033130698
000240 ae 1a 1e 3c 86 ba 33 3b 3c 1a 35 3d 7d a4 07 3d
       0.009649916 0.002742441 0.044214472 0.033115853
000250 58 c6 0f 3d 0b 9c 3a 3a 73 2c 4c bd 1e 21 0e 3e
       0.035101265 0.0007118589 -0.049847078 0.1387982
000260 5b 9c 88 bd 1f 70 f2 3d 40 69 72 3d 52 fb a8 bd
       -0.066704474 0.11837792 0.059182405 -0.082510605
000270 73 14 1d 3c a6 96 a1 bd 88 f7 f0 3c 30 b7 b1 bd
       0.009587395 -0.07890062 0.029414907 -0.08677518
000280 1e 05 e5 bd 72 6b 9c bd 6c e1 18 be aa 46 9d 3d
       -0.11182617 -0.07637681 -0.14929742 0.07679494
000290 3e d4 e7 bb 3a 20 c0 3d 4f 63 17 bd ef c3 5c 3d
       -0.007074862 0.09381147 -0.036959942 0.053897794
0002a0 82 b2 ed 3d 7d 1f 24 3c 79 8f 74 bc 8b 23 cd bd
       0.11606313 0.010017273 -0.014926785 -0.10016545
0002b0 fa bd 2f bd 5f 03 d1 bd 72 d5 0d 3c af 5b c8 3b
       -0.042905785 -0.10205721 0.008656846 0.006114445
0002c0 11 9f 26 3d d0 8f 25 bd cc 6f c1 3d a2 46 41 be
       0.04067904 -0.040420353 0.09445152 -0.188746
0002d0 af e7 80 be 00 c7 55 ba bd bb 16 3c 25 03 25 be
       -0.2517676 -0.00081549585 0.009200034 -0.16114481
0002e0 3f 07 31 3d d7 36 92 3d e0 01 94 bc 28 2f 5b 3c
       0.0432198 0.07139366 -0.0180673 0.013377942
0002f0 ce 6e c0 bd 0c 90 5e bd 19 a3 07 bd 6f 8d a7 bc
       -0.09396134 -0.054336593 -0.033114526 -0.020453183
000300 28 d6 dc 3d 3b 1b 13 3e 29 90 f9 bd ad 9c fc 3d
       0.107830346 0.14365856 -0.121856995 0.12334571
000310 7e 9c 94 3c f6 d0 32 bd bf f1 2e 3e ab f7 d6 bc
       0.018141028 -0.043656312 0.17084406 -0.026241144
000320 08 f3 ba 3d 59 61 81 be af 04 6d 3c 31 08 00 3e
       0.09128386 -0.25269583 0.014466449 0.12503125
000330 96 be 41 bc 82 84 28 be ad 09 86 bc 69 ff 50 bd
       -0.011825224 -0.16456798 -0.016362036 -0.051024828
000340 b6 43 f9 3b f8 34 be 3d 29 ae 7e 3d c5 e0 8b bc
       0.0076069487 0.09287447 0.06217781 -0.017074952
000350 2e ba e5 bd ba 79 09 bd 25 51 3f bd d8 91 07 be
       -0.112171516 -0.033563353 -0.046708245 -0.13239229
000360 f4 4a 11 3e cd 96 93 3d 9b a2 73 bd 20 89 a2 3d
       0.14188749 0.07206497 -0.059481245 0.07936311
000370 b2 20 14 3e 3a 63 b7 bc 1a 0e f6 bc a0 f0 3f bd
       0.14465597 -0.022386182 -0.030036021 -0.046860337
000380 3a 88 1f bd 75 2a 35 3d c8 b1 95 3d d8 9f f1 3d
       -0.038948275 0.044229943 0.073093 0.11798066
000390 90 ee 62 3d 42 e5 bd bd d3 3b e6 bd 54 e9 80 bc
       0.055403292 -0.09272243 -0.11241879 -0.01573626
0003a0 55 1c 8a 3d 62 5c e1 3c 25 98 18 3e ce 8f ad 3c
       0.06743685 0.027509872 0.14901789 0.021186735
0003b0 9a 51 c5 bc 52 da 8b bd 67 c2 d7 3d a8 ea 99 bd
       -0.024086762 -0.06828751 0.10535126 -0.0751546
0003c0 40 09 e4 3d 4f 9f 7c bd a7 81 c0 bc 93 19 a7 bd
       0.11134577 -0.061675366 -0.023499323 -0.08159175
0003d0 23 94 83 bd 42 44 4c bd 7e d7 16 bc 83 1f 76 bd
       -0.06424739 -0.049869783 -0.009206651 -0.060088646
0003e0 5b 08 28 be 3a f3 ab bd ff 7a da bb 7b c4 14 bc
       -0.16409437 -0.08396001 -0.0066674943 -0.009080048
0003f0 c6 74 8b bd 68 2d da 3d 21 42 d9 bd 29 de 92 3b
       -0.06809382 0.10653192 -0.10608316 0.00448205

network_body._body_endoder.seq_layers.2.bias f4 [128]
000000 b5 02 37 3b 22 da 03 bb 83 9f 36 3c e6 1b 3d 3c
       0.0027925198 -0.002011903 0.011146429 0.011542296
000010 bf 27 62 3c 3d b5 30 bb 07 5b 91 3c c3 49 ae ba
       0.0138034215 -0.0026963495 0.0177436 -0.0013297129
000020 87 be d6 bb 11 3a f0 3a 76 e7 97 bb 2d a6 b7 3c
       -0.0065534743 0.0018327852 -0.0046357466 0.022418106
000030 01 fa e8 3b ea 25 a0 3c 57 a4 8b 3b 7d eb cc 3b
       0.007109881 0.019549329 0.004261534 0.0062536583
000040 16 d6 25 3c 53 34 07 b9 77 61 9e bb 31 8d e2 39
       0.010121843 -0.00012894096 -0.004833396 0.00043211275
000050 5d d1 1e 3c 48 d1 43 3c 91 a0 30 bb 7b e8 48 3a
       0.009693471 0.011951752 -0.0026951174 0.0007664037
000060 03 83 ec ba e7 7c 9b 3c 19 b8 7a bb f4 1b 13 3b
       -0.0018044416 0.018980457 -0.0038256703 0.0022447081
000070 20 ac f9 b8 49 ef 0e 3c f0 52 28 ba 4d 13 6e ba
       -0.00011905306 0.008724042 -0.000642105 -0.00090818555
000080 f8 87 0e 3c 39 4c 2c 3c 05 23 1c 3b 38 d7 34 3c
       0.00869941 0.01051622 0.0023824584 0.01103764
000090 0e 3e 42 ba f4 5e 2b 3b 30 b1 16 bc b7 49 5c 3c
       -0.00074097596 0.0026149126 -0.009197518 0.013445309
0000a0 84 60 43 3b c2 96 97 3b 18 5d 64 3b 75 7b 11 3c
       0.0029812166 0.004626126 0.0034845527 0.008879532
0000b0 9d 14 32 3c 6c ae 2b bb 94 44 11 bb cb bd 03 3c
       0.010869172 -0.0026196493 -0.002216612 0.008040856
0000c0 94 f3 e5 b9 6b 33 71 bb 14 c9 1c bc 58 52 e3 3b
       -0.00043859764 -0.003680433 -0.009569425 0.0069373064
0000d0 b8 62 84 3b 28 46 91 3c 51 29 67 3a b8 cc f4 bb
       0.0040400885 0.017733648 0.00088181073 -0.0074706934
0000e0 3b 3d 2f 3c ff 72 b7 3b a5 d9 2a b9 62 1c 3c bb
       0.010695751 0.0055984254 -0.00016293542 -0.002870344
0000f0 bc 7c 37 3a ab 5f 0f 3b a2 aa f0 bb ac a3 06 3c
       0.0006999483 0.002187709 -0.0073445598 0.008217733
000100 e2 1d 78 3b b5 84 50 3c 9f 7b c8 bb c2 7c 67 3c
       0.0037859608 0.012726952 -0.0061182524 0.014128866
000110 bd 73 d3 b9 bc af 8e ba 7e fb 20 3c b3 4d 8b b9
       -0.00040331288 -0.0010886113 0.009825585 -0.00026570036
000120 98 83 16 bb 50 d6 7a 3b e5 b5 72 3c 84 e4 ce 3a
       -0.002296662 0.0038274713 0.014813875 0.0015784656
000130 4b f8 37 bc a0 c2 5c 3c d6 e7 e7 bb 48 b9 81 bb
       -0.011228631 0.013474137 -0.0070771975 -0.003958855
000140 7d 1b 2a 3c cf 71 a9 bb a9 65 f2 3a d0 29 5b 3c
       0.01038253 -0.0051710377 0.0018493432 0.013376668
000150 c8 61 00 3a 0c dc 9b bb 84 9b 8b 3b e2 85 97 b9
       0.0004897383 -0.0047564562 0.0042604823 -0.00028900715
000160 57 34 f1 ba 7c 1a 28 3c 02 a6 9d bb 86 be 99 bb
       -0.0018402439 0.010260221 -0.0048110494 -0.0046919016
000170 1c 26 ba ba 8f 53 00 3c ac a5 de 38 d6 dd 55 39
       -0.0014202031 0.007832422 0.00010616644 0.00020395903
000180 01 2d 0d 3b 7a cf f7 3b 5c 1a 88 b9 8e 6a 92 bb
       0.0021541717 0.007562575 -0.0002595958 -0.0044682687
000190 7a 32 81 3c 31 5a 8a bb d7 1a e4 3b 78 be 67 3b
       0.01577114 -0.0042221774 0.0069612074 0.003536133
0001a0 ad 22 d9 3a c7 c0 7a bb 8d c7 94 3a b6 57 4d 3b
       0.001656612 -0.0038261877 0.0011350975 0.0031332797
0001b0 c7 86 59 3b b1 3e 56 3c 50 34 2f bc 72 a0 66 bb
       0.0033191906 0.01307647 -0.010693625 -0.0035190848
0001c0 11 64 fc b9 60 16 46 3c 11 16 1d bc 76 f4 22 3c
       -0.0004813974 0.012090296 -0.009587781 0.009945979
0001d0 dc 01 4d 3b 21 fb 6a ba a3 a8 1d bc da 35 02 bc
       0.0031281626 -0.0008963813 -0.009622726 -0.0079474095
0001e0 fb 53 ab 3b f8 fc 8f 3b 24 a7 96 3b 2d 2e 24 3b
       0.005228517 0.00439417 0.0045975614 0.0025051937
0001f0 47 ec eb 3b b7 66 53 3b 59 28 4b 3b 87 45 a4 3b
       0.0071997973 0.0032257268 0.003099939 0.005013171

action_model._continuous_distribution.log_sigma f4 [1, 2]
000000 19 4c f7 bc e1 82 36 bd
       -0.030187653 -0.04455841

action_model._continuous_distribution.mu.weight f4 [2, 128]
000000 a3 ca fa bc 20 9a c2 3c 49 85 ff bb 51 e1 53 bb
       -0.030614203 0.023755133 -0.0077978713 -0.0032330344
000010 55 31 93 3c e9 ce 14 bd f7 bc 74 bc ab cc 0c 3d
       0.01796786 -0.036330137 -0.014937631 0.034374874
000020 a7 14 66 bc 27 61 b0 bc 8a 04 d8 3b 5e 92 9c 3c
       -0.01404301 -0.0215307 0.006592338 0.019112762
000030 93 c1 cb 3c 7a 21 f5 ba fd 8d a9 bb 33 43 c4 bb
       0.024872577 -0.0018701993 -0.005174397 -0.005989456
000040 1c 24 73 3c 48 a6 7f 3b 38 5a 96 bb 06 d6 0f 3d
       0.014840152 0.0039009023 -0.0045883916 0.035116218
000050 74 b9 11 3d 4c f1 95 bb b9 18 b9 bb 25 91 9f 3c
       0.035577253 -0.004575884 -0.005648699 0.01947839
000060 2a a1 9c bc af ad 68 3b 27 44 a6 bc 42 2a 98 bc
       -0.019119818 0.0035503914 -0.02029617 -0.018574838
000070 3d 3d 5f bb 8c ff 81 bb 07 38 88 3b 2f 5b 15 3d
       -0.00340636 -0.003967231 0.0041570696 0.036463913
000080 01 4e da bc a1 9a ca 3c 12 9d cd 3c 4f 3e e8 3b
       -0.026648523 0.024731936 0.025099311 0.007087506
000090 40 fb 15 3d f3 dc ba bb 36 cf 30 3b 1b f8 3a bb
       0.036616564 -0.0057026087 0.0026978976 -0.002852923
0000a0 74 c0 11 bd 02 04 13 bd 8f 7f 0a 3d b8 b6 92 3c
       -0.03558393 -0.035892494 0.033813056 0.017909393
0000b0 18 dd 81 bc a2 24 2e bd 06 f1 0b bd f9 b4 3d 3d
       -0.015852496 -0.042515405 -0.034165405 0.046315167
0000c0 6a 90 0a bd 3f a2 01 3a 24 a0 96 bc 1f c8 25 3d
       -0.03382913 0.0004945136 -0.018386908 0.040474053
0000d0 77 a8 d2 3c 56 75 83 3c 4e 13 67 3c b0 dd 3e bc
       0.025715096 0.016047161 0.014103724 -0.011649534
0000e0 40 bf 25 3d e4 1d d4 3c af 75 23 bd 89 dc c7 3b
       0.040465593 0.02589316 -0.039907154 0.006099288
0000f0 a7 fa ed bc 43 cf 8e 3c 17 86 0c 3c 68 c8 0f 3d
       -0.029050184 0.017432814 0.008576891 0.03510323
000100 08 22 db bb f0 5c 87 3c 03 00 84 3c d7 30 30 3c
       -0.0066874065 0.016523808 0.016113287 0.010753832
000110 d9 67 25 bc f5 a5 8e 3a e8 87 0d 3d 2d 8e c4 bc
       -0.01009556 0.0010883199 0.03455344 -0.023993576
000120 dd 3e bd bc ea 81 c8 3b 60 12 80 3c a3 31 ca 3c
       -0.023101265 0.0061190026 0.015633762 0.024681872
000130 6f 0e 53 38 2d f1 ae b8 3f 74 81 3c 46 49 9c bc
       5.0319763e-05 -8.341889e-05 0.0158025 -0.019077908
000140 fe 5e 2d ba 90 1b 94 3b 11 36 3e 3c a9 43 ec 3c
       -0.0006613581 0.0045198873 0.01160957 0.028840857
000150 02 8d 5b bc cb 99 30 bc 2b b6 51 3d 26 cf bb bb
       -0.013400318 -0.010778855 0.05119912 -0.005731481
000160 79 a9 ff bb e9 dc af 3c 4d 9f 60 bc 09 dc 52 3c
       -0.007802185 0.021467643 -0.013709855 0.012869843
000170 60 f0 e9 bc 2a d8 eb 3c a6 9f b7 3c 0d 74 98 3b
       -0.028557003 0.028789598 0.022414993 0.004652506
000180 b9 2e 09 3d d8 a5 09 3d df a3 49 3c 52 86 8c 3c
       0.033491824 0.033605427 0.012307136 0.017153893
000190 1a f5 ad bb 74 d0 cf bb c9 4b 04 3c 57 a7 a1 3a
       -0.0053087594 -0.006341988 0.008074709 0.0012333196
0001a0 4a 81 e7 3c cd ed 2a 3b 47 2c 95 3c ec 3d d8 bb
       0.028259892 0.0026081682 0.01820959 -0.0065991785
0001b0 f6 18 4f 3d 9c 68 13 3d ce ec 2d 3c 1b db cc bc
       0.050560914 0.035988435 0.010615541 -0.025006821
0001c0 07 dd c1 3a cd 44 5d 3c 01 af f5 3b 26 03 ba 38
       0.0014790603 0.013505173 0.0074976687 8.8697576e-05
0001d0 14 e6 62 bb 9f d3 bb bc d1 9e 1c 3c 32 3c 29 3c
       -0.0034622 -0.022928057 0.009559349 0.010329293
0001e0 3e b6 c2 3c aa c3 cb 3b 3f 41 bb bc 3c f5 80 3c
       0.02376854 0.0062183933 -0.02285826 0.015741937
0001f0 82 ac b0 bc bc 6b 03 3c 1b c3 5c 3d 7a 96 63 3c
       -0.021566633 0.008021291 0.053897005 0.013890857
000200 84 72 9e 3c 0b ae 11 bb 18 d7 34 bd 0b 58 13 bc
       0.019341715 -0.0022228982 -0.044150442 -0.008993159
000210 cc 44 76 bc cd fd 29 3d a9 96 d9 3b 90 74 01 3d
       -0.015031051 0.04150181 0.0066402745 0.031605303
000220 53 58 eb 3c a8 c2 c2 3b 5f 1f 3f 3d 10 ec 41 bd
       0.02872864 0.005943615 0.046660777 -0.047344267
000230 39 ce aa bc ec a9 84 bd 80 3d 21 3c 48 43 f3 3c
       -0.020850288 -0.064777225 0.009841323 0.029695168
000240 20 2a 49 bd 9f 4a 4d 3b 8f bc 34 bb df 6c 6e 3c
       -0.04911244 0.0031324995 -0.002757821 0.014552324
000250 e1 5c 68 bc 61 f3 f9 bb 58 5d 4f 3d 52 47 05 3c
       -0.0141823 -0.00762789 0.05062613 0.00813468
000260 39 09 9e 3c 73 86 cc bc 0d 44 e2 3b 09 7f 22 3d
       0.019291507 -0.024966454 0.006905085 0.03967193
000270 2b 57 dd 3b b5 c5 12 bd 35 b2 57 3b b8 06 fc 3c
       0.006754776 -0.03583308 0.0032912616 0.030764922
000280 ad cd b7 3c 57 c3 37 bd 24 7c 17 3b 1f bf e8 bc
       0.022436941 -0.044864025 0.0023114765 -0.028411446
000290 79 0e 22 3d c5 15 41 bc a2 93 0a 3c f4 01 8d bd
       0.039564583 -0.011784975 0.00845805 -0.06885138
0002a0 e9 95 2e 3d c1 b5 0d bb 0c b9 94 bb 94 0e c3 bc
       0.042623434 -0.0021623226 -0.004538661 -0.023810662
0002b0 f3 db 37 bc c1 eb 96 3c e2 1a 3f 3d 4f c5 e8 bc
       -0.011221874 0.018422963 0.046656497 -0.028414397
0002c0 68 3f 1a 3d 4e 7d 29 3d d9 4e 10 3d fc 0b 87 bc
       0.037658125 0.041379265 0.035231445 -0.016485207
0002d0 ac 92 7b bc a5 92 91 bd b9 3a d2 3c 88 87 ae 3c
       -0.0153547935 -0.07108048 0.025662767 0.02130486
0002e0 dc b1 3c bd b7 c8 01 bc a7 89 a5 3c 50 a8 9b 3b
       -0.046068057 -0.007921389 0.02020724 0.004750289
0002f0 9a f3 b4 3c 41 86 07 3c 95 a5 d4 3c cb 98 7d bc
       0.022088815 0.008271755 0.025957862 -0.015478323
000300 cc d0 d6 3b c4 03 e0 bc 9c 21 8f 3b 87 c8 81 bd
       0.0065556522 -0.027345546 0.00436802 -0.06337076
000310 9a 0d 20 3c 05 62 42 3c 11 4a dc bc db 75 5f bc
       0.009768868 0.01186419 -0.026890786 -0.013638939
000320 62 ea 95 3c dc b5 3b bc 5c bb 3b bd 53 a3 3b 3c
       0.018300239 -0.011456933 -0.045832977 0.011452514
000330 5a 7d 83 3c 16 0b 33 bd f1 d7 56 3d c6 37 0c 3d
       0.016050983 -0.043711744 0.05245203 0.034232877
000340 2f 2c 00 bc 39 ad 0c 3d c6 82 4e bc 0f 53 36 bd
       -0.007823034 0.034344885 -0.012604421 -0.044512805
000350 3a da 8d bb 3a 32 23 3d 90 3f 80 3d 83 cd ee 3c
       -0.004328993 0.03984282 0.062621236 0.02915073
000360 ac fe 22 bb 2d f4 ac bc b6 e7 05 3d f0 27 cd 3c
       -0.0024871035 -0.021112526 0.03269168 0.025043458
000370 6e 15 18 3c 34 54 ae bc b4 32 b8 3c 0c 18 5a 3d
       0.009282453 -0.021280386 0.022485115 0.05324559
000380 46 e6 bd 3c 1b 96 7b bc 4e 39 f3 bb 66 84 1d 3c
       0.023181092 -0.015355612 -0.0074226027 0.009614086
000390 c8 da 1e bc a5 97 98 3c 2d 97 cf bc 11 37 46 bc
       -0.009695716 0.018626997 -0.02534064 -0.01209809
0003a0 b5 3c 91 3b a5 d2 8f 3d 1e f4 4d 3d d4 ad 8f bc
       0.0044322857 0.07022599 0.050281636 -0.017538942
0003b0 75 7b c4 bb 12 ac 19 bd db 27 98 3c 96 8f ac 3c
       -0.0059961625 -0.037517615 0.018573692 0.02106456
0003c0 95 40 65 3d b0 0c f2 bc cc 84 ba 3c 7b 90 b4 bc
       0.055969793 -0.029547065 0.0227684 -0.02204155
0003d0 fb ec 69 3d 8e 08 54 3d e8 06 a1 bb 6e ad 48 3c
       0.057110768 0.05176597 -0.0049141534 0.01224838
0003e0 cc 62 ed bb 9e 46 5d bc 4f a4 9d 3c 0b 6e 49 3c
       -0.0072444435 -0.013505606 0.019243388 0.012294303
0003f0 b7 d7 38 b9 9e 95 0f bc 86 31 43 3a 59 de 64 bb
       -0.00017627967 -0.008763699 0.0007446039 -0.0034922569

action_model._continuous_distribution.mu.bias f4 [2]
000000 81 de d5 3a 6e e1 23 bc
       0.0016316922 -0.010002477
