results/test/CarParking/CarParking-41053.pt (torch, 525724 bytes, 36 tensors)

network_body._body_endoder.seq_layers.0.weight f4 [128, 33]
000000 05 b6 8d 3e ee c8 8d 3c 87 f9 c9 bc 4d d3 b9 be
       0.27677932 0.017307725 -0.024655117 -0.36294022
000010 34 4a 03 be 69 78 87 bd b3 b4 ac be e2 33 d9 bd
       -0.12821275 -0.06614763 -0.33731613 -0.10605599
000020 70 e7 f6 3d c6 b3 32 3d 01 96 80 3d bc a3 a8 3d
       0.12055862 0.043628477 0.06278611 0.08234355
000030 1d b6 30 3e 1f 1e 6f 3d b6 e8 97 3e 79 da c5 bc
       0.1725697 0.058378335 0.29669732 -0.024152027
000040 1d 85 87 be 5e 39 54 3d 86 3f d0 ba f7 69 40 be
       -0.26468745 0.051812522 -0.0015888072 -0.18790422
000050 cd 0f 58 3e 90 3a 41 be 39 78 36 bd d0 7a 90 bd
       0.21099778 -0.18869996 -0.044548247 -0.070546746
000060 0b 08 e2 bd 2e 39 bd 3d c7 63 e0 3d 87 53 a5 3d
       -0.1103669 0.09239422 0.10956531 0.08072572
000070 dd b5 2d be 8b ab e8 3d 42 7b 94 be 2f 21 46 3e
       -0.16963907 0.11360844 -0.29000288 0.19348596
000080 30 d4 ab b9 03 76 cc bd b3 62 49 be a6 4a 0c be
       -0.00032773754 -0.099834464 -0.19666557 -0.13700351
000090 2a 52 22 3e 48 70 b4 bd 75 71 52 3e b1 bd a7 3c
       0.15851656 -0.088104784 0.20551093 0.020476194
0000a0 ef f4 08 be b9 00 7e 3e 6a fc 89 3d 82 54 49 be
       -0.13374685 0.24804963 0.06737597 -0.19661143
0000b0 c4 2f 26 be b1 4b 6d be 5c d4 06 3e 38 49 f1 3c
       -0.16229159 -0.23173405 0.13166946 0.029453859
0000c0 9e 2a 0b 3e 18 78 5b be 33 8f 93 3d ea b5 74 bd
       0.13590476 -0.21432531 0.072050475 -0.0597438
0000d0 d2 b5 f9 bc f4 d3 38 be d1 ce 4f 3e 3c 86 03 3e
       -0.030482206 -0.18049604 0.20293738 0.12844175
0000e0 bf c2 8e bd e9 64 1e 3d 33 f5 ba ba 59 1b 1f 3e
       -0.069707386 0.038670454 -0.0014263749 0.15537776
0000f0 39 c0 8a bd 06 ef 31 3d 8e ac 98 3e cf 04 8b ba
       -0.06774945 0.04344084 0.2981915 -0.0010606291
000100 e4 75 1b be 2e ab 9b bd 32 60 53 be 30 e9 03 be
       -0.1518169 -0.07601009 -0.20642164 -0.12881923
000110 81 03 df be 87 89 e0 3d bf d0 ac 3e 95 72 f1 3d
       -0.4355736 0.10963731 0.3375301 0.11789433
000120 ba 2b 3e bc 8f 1d 81 be 99 4f 6a be ad 86 fe 3d
       -0.011607105 -0.25217864 -0.22881927 0.12428031
000130 cf 30 bf 3e 9e 7b b0 bd a5 44 98 bd 58 b0 07 3d
       0.37341926 -0.08617328 -0.07434968 0.03312716
000140 a0 1f 25 3d 1a d3 ef be b6 93 a9 bb 5b 62 bc 3d
       0.040313363 -0.46840745 -0.005175079 0.09198447
000150 0e 1b 0e 3e ea 80 4f 3c c8 bd dd 3c 50 f7 97 3e
       0.13877508 0.012665013 0.027068034 0.29680872
000160 d7 3c d1 bc 6a c4 06 3e 31 39 d9 bd 87 2b 98 3e
       -0.025541706 0.13160864 -0.106066115 0.2972071
000170 f7 3e 7e 3d de 1c 8e be af eb dc bd d6 e2 3c be
       0.062071767 -0.277564 -0.107871406 -0.18445906
000180 7b c0 35 be 8a df cb 3d 72 b8 42 be f1 5f 83 bd
       -0.17749207 0.09954746 -0.19015673 -0.06414784
000190 c1 78 28 3f c2 a2 56 3e 74 f3 cd bd a4 45 84 b9
       0.65809256 0.20960525 -0.100562006 -0.00025228888
0001a0 c1 b3 a6 3d e3 f2 79 3e 74 23 86 3b 80 3f a8 3e
       0.08139754 0.2440906 0.004093582 0.32860947
0001b0 dd d4 00 3e e6 2e bf 3d 0e 8d f9 3e c8 69 94 be
       0.12581201 0.09335117 0.4874043 -0.28986955
0001c0 48 8e 84 bd 50 e7 10 bf c9 34 78 3e 77 fd 7e bd
       -0.064724505 -0.56602955 0.24238886 -0.06225344
0001d0 00 67 5e 3c 0a a4 37 3d 5f 62 af 3e 58 7b 1b 3e
       0.013574362 0.044834174 0.3425474 0.1518377
0001e0 fb 90 17 be 47 81 f6 3c 98 33 31 be ce 15 86 3e
       -0.148014 0.030090941 -0.17304838 0.2618851
0001f0 7c b5 06 3c dc c2 28 be 2f ae 12 3e 01 1e 2b be
       0.00822198 -0.16480583 0.14324258 -0.16710664
000200 68 7b 19 3e 47 f3 86 3e 4c 64 97 3e db bb 55 be
       0.14988482 0.2635748 0.29568708 -0.20872442
000210 91 97 f6 bb 0f 14 ab bd bf a3 87 3e 69 b5 3b bd
       -0.0075253923 -0.08353435 0.26492116 -0.045827303
000220 11 bb ea bd 40 d8 6e bc 37 4b 5a 3d cd f7 12 bb
       -0.11461461 -0.014577925 0.053294387 -0.0022425533
000230 28 f4 8e be 73 ae 21 be bc 30 8f 3d 9d c7 1a 3d
       -0.2792065 -0.15789203 0.06991717 0.037788022
000240 10 d0 cf be 90 39 2c 3e 03 3d 24 3e 7f bb 1b be
       -0.40588427 0.16818833 0.16038899 -0.15208243
000250 21 db 5c bc c7 2f bd 3e b7 f7 09 3d e5 1e bb 3d
       -0.013479979 0.36950514 0.033683505 0.09136752
000260 a5 ae 8a be d0 b3 0c be 31 eb 4d 3e 8e 6a a1 bd
       -0.27086368 -0.13740468 0.2010925 -0.07881652
000270 cd 89 ee 3d 3c c1 99 be 43 bb ac 3c 39 9d 80 3d
       0.11647377 -0.3003024 0.021085387 0.06279988
000280 3f 47 2a 3d b1 f9 07 bd 91 95 4c be cb d6 b3 3b
       0.04157185 -0.03319711 -0.1997893 0.005488252
000290 06 01 16 bd 87 b8 ca bd 51 83 96 be d9 d6 3c 3e
       -0.03662207 -0.09898477 -0.2939706 0.18441333
0002a0 30 a1 f6 3d 12 77 43 bd 3a af c7 3c ca 21 3c be
       0.12042463 -0.047720976 0.024375547 -0.18372265
0002b0 49 f8 50 bd 13 d8 2c be 36 72 ad bd cc d7 95 3d
       -0.051018033 -0.16879301 -0.0846905 0.073165506
0002c0 6e 6f 8f 3d 68 32 bc be 33 9b 80 be b5 54 31 3e
       0.070036754 -0.36757207 -0.25118408 0.1731747
0002d0 fa 57 f9 bc 46 f2 a3 3d bd 7d 5e 3e 30 3e db bb
       -0.030437458 0.08005194 0.21727653 -0.006690763
0002e0 81 83 a4 bd 15 0a 71 be c1 0e bf bd ae 22 89 be
       -0.08032895 -0.23539002 -0.09328986 -0.2678427
0002f0 52 9e 71 be 31 0d b7 3e 82 5a 1a be 08 9c 1a 3d
       -0.2359555 0.35752252 -0.15073588 0.03774646
000300 78 26 de 3d 9e 59 e8 bd 9d 1e 67 3e e7 e2 87 3d
       0.10847181 -0.11345218 0.22570272 0.06635075
000310 33 09 c3 3d 11 1f 46 bb d1 c2 ab bd 5c 90 29 bd
       0.09523239 -0.003023092 -0.08386768 -0.041397437
000320 90 59 83 3e 82 93 8d bd 93 1b ee bc e3 70 9a 3e
       0.25654268 -0.069129005 -0.029065883 0.3016425
000330 7c ff bf 3d 0e 8c 88 3e 10 4c 82 be 52 d9 32 bd
       0.09374902 0.26669353 -0.25448656 -0.043664284
000340 1c 29 65 bd 73 e3 e9 bd 07 f9 14 be 75 f0 2d 3e
       -0.055947408 -0.114203356 -0.14548121 0.16986258
000350 b7 00 18 be 69 08 7c be 9b f8 bc bd 02 a9 ef be
       -0.14844023 -0.24612583 -0.09227105 -0.4680863
000360 3b 4b 07 3e 9f 7b c0 3e 42 24 8c 3e ef b3 76 bd
       0.13212292 0.37594315 0.27371413 -0.06023019
000370 2f a6 71 bc db 2c 3c 3e 21 4a 67 3d 54 d9 bb 3e
       -0.014749094 0.18376486 0.05646718 0.36689246
000380 d8 bb 1e 3e 88 33 21 3d 23 00 85 3d ce 78 5c 3e
       0.15501344 0.039355785 0.06494167 0.21530458
000390 6d 67 28 3d 6f e2 86 ba 2e 02 40 be b4 b6 88 be
       0.04111426 -0.0010290871 -0.18750831 -0.2670189
0003a0 e6 ca bf bd 71 86 8b 3d 94 fa f8 3d a3 d2 12 bd
       -0.09364872 0.06812752 0.12157169 -0.03584541
0003b0 6b b9 7b 3d 2c 54 65 bc 60 17 f5 3d 47 4d 1f 3e
       0.061456125 -0.013997119 0.11967349 0.15556823
0003c0 0b 0c 8f 3d d1 87 08 be 31 36 2e be b5 38 a4 3d
       0.06984719 -0.1333306 -0.1701286 0.080186285
0003d0 c1 f3 c7 3d 68 9c 24 be 20 86 01 3e 17 92 9b be
       0.09763289 -0.16075289 0.12648821 -0.30384895
0003e0 da 04 8b be 6a 14 2d be 09 bd 5d be df 3f 9f 3e
       -0.2715214 -0.16902319 -0.21654142 0.31103417
0003f0 12 46 7a be d0 8a fa bd ef 17 45 3e 84 25 ae be
       -0.24440792 -0.12233508 0.19247411 -0.34012997

network_body._body_endoder.seq_layers.0.bias f4 [128]
000000 6e 8b 0f 3b b6 77 a1 3b 1b a2 da bc 81 85 1b 3c
       0.0021903175 0.0049276007 -0.026688626 0.009492279
000010 ad 0f f6 3b e0 29 23 3b 4a 43 5c bc b7 18 2b bc
       0.007509193 0.0024896786 -0.013443777 -0.010442904
000020 59 cf 94 bb 09 88 0d bc 57 25 d5 3b 48 45 2f bc
       -0.0045413193 -0.00863839 0.0065046954 -0.01069767
000030 b4 6d a6 3c 90 27 52 3c f5 f7 ca 3a 84 bc 2b 3b
       0.020315982 0.012826815 0.0015485274 0.0026204893
000040 8f 9b 63 3c 21 29 7d 3b 97 20 87 3a 0b f5 83 3c
       0.0138920685 0.003862925 0.0010309395 0.016108057
000050 30 96 98 3b 49 78 0d ba c2 83 0c bc a6 7d a4 3a
       0.0046565756 -0.0005396647 -0.008576335 0.0012549653
000060 03 1b a6 3c 91 08 49 3c 4f e8 36 bb a5 3b 50 bb
       0.020276552 0.012270109 -0.0027909463 -0.0031773832
000070 40 22 7f 3b 2c 28 8c 3c eb 9f 51 bc 9d a1 01 3c
       0.0038930327 0.017109 -0.012794475 0.007912067
000080 c6 ac e9 bb bc ba dd bb e1 13 a4 bb 9e 8f ef 3b
       -0.007131192 -0.0067666452 -0.0050072526 0.0073108217
000090 a9 14 88 bb 0a 6c e9 bb bd f3 aa 39 23 6a e5 3b
       -0.0041528535 -0.007123475 0.00032606526 0.007001178
0000a0 6a d6 7e 3c 30 2e d0 3b 45 87 b3 bb f6 ae d5 3b
       0.01555405 0.006353162 -0.005478772 0.006521101
0000b0 da 8e af bb a3 0b 3d 3b a2 e5 b1 3b 17 18 d6 3c
       -0.0053576054 0.0028846047 0.0054289857 0.026134534
0000c0 0c 51 36 bc 70 4d 7b bc fc 8c 8d bb 2b 5b 76 3c
       -0.0111277215 -0.015338287 -0.004319785 0.015036385
0000d0 4e 2b 2e bc 26 19 87 3c 5c d6 ae 3c af 56 cb 3a
       -0.010630442 0.016491484 0.021342449 0.0015513505
0000e0 85 73 39 3c f0 d0 15 3c c0 9f 06 bb 52 c1 bb 3b
       0.011319046 0.009144053 -0.0020541996 0.0057298327
0000f0 ed a3 5b 3b 46 9b eb 3a 7c 60 84 3c 34 0d 5e 3c
       0.0033514455 0.0017975352 0.016159289 0.013552953
000100 9c 29 73 3c 1e 2f 96 3c ac f8 a0 ba c3 f3 de 3a
       0.014841463 0.018333014 -0.0012281141 0.0017009903
000110 84 30 26 bc 27 56 83 3c 11 d3 bb 3c b7 d2 23 3b
       -0.010143403 0.016032292 0.022927793 0.0024997422
000120 23 10 66 3b c7 d0 88 3c 11 e6 80 3c 30 4a d9 3b
       0.0035104833 0.016701115 0.015734704 0.0066311583
000130 91 48 23 3c 7a d5 d9 3b af 11 be 3b 9b d0 22 3b
       0.009966032 0.006647763 0.005800448 0.0024843577
000140 4f 0c 61 bb ea 8d a0 3b 63 8c 53 3c 4a b9 96 3c
       -0.0034339612 0.00489973 0.012911889 0.0183989
000150 71 69 74 bb 94 71 c1 bb 56 fe 17 bc d4 6b 7d bc
       -0.0037294293 -0.005903432 -0.009276947 -0.015467603
000160 1e b7 dc bb 12 cc 6d 3c 76 7f 7f 3a 38 2b b2 3b
       -0.0067356965 0.014513986 0.0009746471 0.005437281
000170 8c 26 1a bb 8e 60 83 3b 0a 43 cf 3a c0 fb a8 bc
       -0.002352151 0.004009313 0.0015812826 -0.020627856
000180 74 e8 b3 39 6e 34 ac 3b 0b 7d c4 3b c4 cb fa 3b
       0.00034314732 0.0052552735 0.0059963516 0.0076536853
000190 a7 a7 3e 3c 3c 58 7b bb 49 65 46 bb 0f 37 9d 3c
       0.011636651 -0.0038352152 -0.0030272773 0.019191293
0001a0 71 6d e3 3c af 25 02 3c a4 a4 9d 3b d3 41 df 3b
       0.027762147 0.007943555 0.0048108865 0.006813267
0001b0 3c c3 96 3b de e1 4a 3c d4 5e 27 3c 12 b1 90 3a
       0.0046009105 0.0123829525 0.01021548 0.0011039099
0001c0 ca d9 af 3b 21 f7 29 bc 24 60 80 bc 39 90 d4 3c
       0.0053665387 -0.0103738615 -0.015670843 0.025947677
0001d0 ea 8d 66 3c d4 3f 17 3c f3 85 2e 3c 90 41 0e 3c
       0.014071921 0.009231526 0.010652053 0.0086826235
0001e0 5f cb b1 3b 24 8c c3 bb db 84 19 3c 58 6e 03 3c
       0.005425855 -0.005967634 0.009370054 0.0080219135
0001f0 c8 1c 54 3b b0 44 59 3b 7b 65 84 b9 02 58 b6 3c
       0.0032365788 0.0033152513 -0.0002525261 0.022258762

network_body._body_endoder.seq_layers.2.weight f4 [128, 128]
000000 77 eb 2a 3d 50 f8 c3 bd 88 ab 24 3e 42 37 d0 3d
       0.041728463 -0.09568846 0.16081059 0.101667896
000010 03 da 91 bd 15 5e b8 bd 4f 56 58 3e bc bc d9 3c
       -0.071216606 -0.0900232 0.21126674 0.026579253
000020 1a 2c dc bd f7 2c 54 3e 85 3b a3 bd 4c 35 13 3e
       -0.10750599 0.20720278 -0.07970337 0.143758
000030 e5 b2 52 bd 9f 3b 6c bd 0c 18 65 3d 6c 57 5b bd
       -0.05144014 -0.057674047 0.055931136 -0.05355017
000040 27 ad 59 3d 03 09 37 3d 0b 83 d2 bd 90 44 9e bc
       0.053143647 0.04468633 -0.10278901 -0.019319803
000050 54 95 48 3e 8c 2c b4 3d 70 c5 2b 3d 4a 00 ad 3c
       0.19588214 0.08797559 0.041936338 0.021118302
000060 b3 bd 97 3d a2 25 28 bd f9 6b 01 3e 15 a1 4f 3d
       0.07409229 -0.041051514 0.12638845 0.05069073
000070 12 ce c3 bc 40 3a 92 3b ae 1f f1 bd e9 2d 21 bc
       -0.023901973 0.0044625103 -0.117736205 -0.009837606
000080 1d ef 9d 3d ed 5c b4 3c 5d a0 ec bd 70 b1 3c 3e
       0.07711623 0.022016967 -0.11554024 0.18427062
000090 7d 86 3e 3d 10 3d 3a 3d 81 aa 5c bd 21 71 b3 3b
       0.046514977 0.04546839 -0.053873543 0.0054761325
0000a0 96 e8 b9 bd 78 17 da 3d 0e f0 e2 3d 3f 6b 61 3b
       -0.09077565 0.106490076 0.11080943 0.00343962
0000b0 e3 d1 19 3d 8d 5c 1b be d9 b5 f7 3b a0 f4 df 3d
       0.03755368 -0.15172024 0.0075595197 0.109353304
0000c0 69 61 c4 bd 91 c1 c2 3d bd be 32 3c 5c 1a b1 3b
       -0.09588892 0.09509576 0.010909733 0.0054047536
0000d0 78 87 49 bd bb c0 4f 3d f9 e9 91 3a ce e9 60 bd
       -0.04920146 0.05072091 0.0011132351 -0.054910474
0000e0 07 04 03 be b9 db bf 3d 46 c0 b9 bd 7e 61 1f 3d
       -0.12794505 0.09368081 -0.090698764 0.038911335
0000f0 07 d6 55 bd 7e 52 23 be c8 9a 74 3b 61 14 97 bd
       -0.052206066 -0.15949437 0.0037323702 -0.07376934
000100 f8 e8 13 be cb 7f ec 3b fa 6e 28 3e a8 52 3d 3d
       -0.1444434 0.0072173825 0.16448584 0.046221405
000110 85 71 d2 bd 33 e1 2a 3d a1 8a c9 bd 00 34 1c 3d
       -0.102755584 0.041718673 -0.098408945 0.03813553
000120 31 ce d4 bd 81 87 00 3e 67 45 5a 3d e0 78 18 be
       -0.103908904 0.1255169 0.053288843 -0.1488986
000130 fc 1f 9f 3d ec 3a 2a be ea 32 a2 bd 00 ea 08 3e
       0.077697724 -0.1662404 -0.07919867 0.13370514
000140 dc 4b de 3c 6d 2b 0e 3d c4 4b 10 bc 5c 30 31 3d
       0.027135782 0.034709383 -0.008807126 0.04325901
000150 6c 4a fe bc fd 2f 80 bd 3b f1 e2 bc 3b 98 b2 bc
       -0.031041346 -0.06259153 -0.027702918 -0.021801105
000160 1e 4b 9d bb 9f d7 90 bd 91 6a 66 3d c4 7f 88 bd
       -0.0048002144 -0.070723765 0.056253973 -0.06664994
000170 98 9a 10 be 04 7a d4 bc e7 59 37 bd 61 3e 38 bd
       -0.14121473 -0.025937088 -0.044763472 -0.044981364
000180 62 d3 f3 3d 16 5e 3c be 31 16 d3 bc c7 e3 7f bd
       0.119055524 -0.18395266 -0.025767418 -0.062473085
000190 03 44 9a 3b de c4 11 3e bb a8 75 bd 2c 1a 68 3e
       0.0047078147 0.14235255 -0.059975367 0.22666234
0001a0 92 76 a8 3d ff 42 bf 3d 87 d1 c8 3d d3 4f ad 3d
       0.082257405 0.0933895 0.09805589 0.08462491
0001b0 18 59 41 3e 1f ac cb bd 6a 6a f3 3c e2 cf 40 3c
       0.18881643 -0.09944939 0.029713828 0.011768313
0001c0 80 2f ce bd 0d 0d 43 bd 9b 0a 4b bd b3 cc dc bd
       -0.10067654 -0.047619868 -0.04957066 -0.10781231
0001d0 c2 e1 de 3c 6e bc ae bd cd 71 1e bd b8 f4 84 bc
       0.02720726 -0.08532034 -0.038682748 -0.016229972
0001e0 e4 37 0f 3d b6 ee df bb 40 7e 69 bc 57 4a d5 3b
       0.03496541 -0.0068338765 -0.014251292 0.006509106
0001f0 d6 6c 60 3d 1b ab 3f 3e c6 8f a1 3d a1 9e 2f be
       0.054791294 0.18717615 0.07888751 -0.17150356
000200 f6 bd 06 3e 59 07 19 bd a7 5a c5 bb fe ab 39 3d
       0.13158402 -0.037360523 -0.0060227695 0.04533004
000210 c9 e1 df 3d 9b c4 2b be 1b c8 fb bd e9 55 09 3d
       0.10931737 -0.16774218 -0.122940265 0.033529196
000220 a7 8c 9e 3d 93 d9 5b 3d 66 97 2d bc f8 c8 ad bd
       0.07741671 0.05367429 -0.010595178 -0.08485597
000230 b0 c8 05 be 8b d2 f8 3c b1 fb 8a bc 49 80 c5 bd
       -0.13064837 0.030373832 -0.016965719 -0.09643609
000240 0e b7 2c 3d c5 01 c1 3d 99 9c 09 bc 30 30 53 bd
       0.042166762 0.09424166 -0.008399152 -0.051559627
000250 a2 71 b6 bd 4a 2c 02 be 92 69 01 be 85 86 17 bd
       -0.089083925 -0.12712207 -0.12637928 -0.036993522
000260 b5 61 6d 3d 4f bc d1 3d 16 19 ac bb 15 f4 86 bd
       0.05795451 0.10240995 -0.005252014 -0.06589524
000270 37 a8 97 3c 2f da 51 be 24 48 3e 3e ee 74 0d 3e
       0.018512828 -0.20493387 0.18582207 0.13814136
000280 6f f2 28 bd 18 34 d6 bd 0a 13 65 bd fc 66 e0 bd
       -0.041246828 -0.10459155 -0.05592636 -0.10957143
000290 21 63 63 3d f5 2c ad 3b 03 7a 85 3d 9d f7 14 be
       0.05551446 0.0052849003 0.065174125 -0.14547582
0002a0 69 e6 53 3d 01 f9 37 3e 71 8a 4f bd 84 b1 89 3d
       0.051733408 0.17966081 -0.050669137 0.067233115
0002b0 2c 0b 2e bd be 24 3a 3c 6d 15 e2 bd 9b d7 23 be
       -0.042491123 0.011361299 -0.11039243 -0.16000216
0002c0 b6 75 b9 3d 0e 8f d1 3c 4a fb ae bd 16 64 10 3e
       0.09055655 0.02558091 -0.08544023 0.1410068
0002d0 23 6d 58 bd 93 0d c6 3d d0 c4 e3 3c f2 25 e7 bd
       -0.052838456 0.09670558 0.027803808 -0.11286534
0002e0 24 4f 5a bd fc 53 9d 3c 08 91 5a bc 6f e6 2c bd
       -0.05329813 0.019205086 -0.013340242 -0.042211946
0002f0 71 c7 6d bd bb d2 bc bc ba 68 84 ba 12 f5 e5 3d
       -0.05805153 -0.023049703 -0.0010102012 0.11228384
000300 cc 56 cd 3c a3 df d0 bc 6b ab 08 3d be d0 a0 3d
       0.025065802 -0.025497263 0.033366602 0.078523144
000310 df d7 d9 3d ce 3e cb 3c 0f 29 14 3e a1 e9 d9 bc
       0.10636877 0.024810221 0.14468788 -0.02660066
000320 1d 11 17 be 19 5c 19 3e 0b b0 86 bc 75 88 66 3d
       -0.14752622 0.14976539 -0.016441366 0.05628248
000330 47 7b 2b bd ba 40 1c bd d8 c5 11 3e 51 fa 95 bc
       -0.041865613 -0.038147666 0.14235628 -0.018307837
000340 37 21 0a 3e 43 6f fa bd 36 e2 49 3d d4 1b ed bc
       0.13489233 -0.12228253 0.049287997 -0.028943934
000350 e7 a0 ff bd 88 9e 63 3c 51 64 bd 3d 8d 90 4e 3e
       -0.124818616 0.013892777 0.092476495 0.20172329
000360 35 1b 58 be 52 61 17 bd 43 96 44 bd ed 97 9e bd
       -0.21104129 -0.036958046 -0.047994863 -0.07743821
000370 1f b3 f1 bd cf 82 2b 3d b6 9b 95 bd 08 6e c3 bc
       -0.11801743 0.041872796 -0.0730509 -0.023856178
000380 68 af dc bd 81 28 dd bd c9 88 e3 bd 4e 23 3a bd
       -0.107756436 -0.10798741 -0.11110074 -0.045443825
000390 16 cd 01 bd 95 ff 83 3d be ab 4a 3d 38 0a b8 bc
       -0.031689726 0.06445233 0.049480192 -0.02246581
0003a0 b4 17 96 3d 14 4e 1f 3d c0 17 06 bd 25 d6 8f bc
       0.0732874 0.03889282 -0.032737494 -0.017558167
0003b0 c5 60 18 be e5 74 b1 3c d9 9d 61 3d ad ca 39 bb
       -0.14880665 0.021662185 0.055082176 -0.0028349564
0003c0 89 55 4c 3d 9f be c3 bd f1 ff 2b bd 9b 05 f2 3b
       0.04988626 -0.095578425 -0.04199213 0.007385922
0003d0 ac 28 ac bd ae a4 50 bd 88 c8 95 bd 76 fc cc 3d
       -0.08406195 -0.0509383 -0.07313639 0.100090906
0003e0 82 0a 85 bc 4c 2d b5 3d e5 65 2a bd 31 01 89 3c
       -0.016240362 0.0884653 -0.04160108 0.0167242
0003f0 d3 6e 50 bd e8 32 46 3c 6b 3b ac 3d f4 64 3a 3e
       -0.05088694 0.012097098 0.084097706 0.18202573

network_body._body_endoder.seq_layers.2.bias f4 [128]
000000 91 60 0b 3c 52 f5 f5 b8 db 3e 68 3b bd 35 25 bc
       0.00850691 -0.00011728205 0.0035437855 -0.010083613
000010 80 30 29 bb 36 e5 75 3c 4e 01 8a 3c 7f c8 f7 3b
       -0.0025816262 0.015008261 0.016846325 0.007561743
000020 0f 45 ab 3b 19 dc 6b bb 05 96 fa 3b 0c 6e 22 3c
       0.0052267383 -0.0035989343 0.0076472783 0.0099139325
000030 2c 67 05 3c 88 38 68 ba 77 58 e7 bb c1 7f 34 3c
       0.008142274 -0.00088585215 -0.0070601064 0.011016787
000040 53 11 37 3b ed dc 47 3b 8b 2d 1c 3b 5f 2d eb 3b
       0.002793391 0.0030496672 0.0023830857 0.0071770395
000050 f7 94 78 bb af 29 ba bb 76 30 5e 3c 6a b2 3a 3c
       -0.0037930587 -0.0056812386 0.013561359 0.011395076
000060 4f 9d 18 3c f8 ac 49 3b a6 a9 1b ba c9 de f8 39
       0.009314849 0.0030773263 -0.00059380603 0.00047468234
000070 83 16 1b 3c 24 c2 51 3c fd b1 89 3b aa 96 5c 3b
       0.009465816 0.012802634 0.004202126 0.0033659139
000080 76 7b 72 3c d9 9c 4f 3c 3c a8 f6 3a a9 58 5c 3b
       0.014799943 0.012671673 0.0018818448 0.0033622182
000090 b4 0f e1 bb 50 20 af 3b eb df 10 bc 5f 56 73 3b
       -0.006868327 0.005344428 -0.008842449 0.0037130339
0000a0 4b bb 26 bb 52 55 c7 bb a6 9d 2b 3c 53 69 56 3c
       -0.0025441225 -0.006083169 0.010474598 0.013086635
0000b0 81 cf 5f 3b 70 6c e9 3a 0c c9 0c 3c 51 7d 59 3b
       0.0034150782 0.0017808806 0.008592855 0.0033186267
0000c0 63 0f 38 bc 73 35 41 bc 18 74 83 3c a1 9b 26 3c
       -0.011234137 -0.011792528 0.016046569 0.010168941
0000d0 c2 db 39 3c d1 29 2e 3c 00 38 73 bb f2 aa 47 bc
       0.011343898 0.010630087 -0.0037112236 -0.012186753
0000e0 1c fd 35 3c 31 ef 10 3c f8 6e 05 bc 56 88 ba bb
       0.011107709 0.00884609 -0.008144133 -0.005692522
0000f0 b0 bd 65 3c f7 ac 3f 3c 50 33 20 bc a2 a5 37 bc
       0.014022276 0.011698953 -0.009777859 -0.0112089235
000100 d4 5a d3 3b 18 66 7b 3c 7f 98 a0 3b 43 3c 1f 3b
       0.0064500365 0.015344165 0.0049009915 0.0024297393
000110 30 72 b8 bb a9 22 32 3c d1 ce e7 ba 99 fe 0d 3c
       -0.0056288466 0.010872521 -0.0017685537 0.008666658
000120 61 19 54 3b e0 32 4c 3c d4 e8 3a bc 8b 65 0f 3c
       0.003236376 0.012463301 -0.01140805 0.008752237
000130 fa 88 58 3c 38 36 61 3b 54 41 06 3c db 60 c2 3b
       0.0132162515 0.0034364592 0.008194286 0.005931956
000140 e2 dc 29 3c 4b 5d 1b 3c aa 4b 7d 3c 26 32 0c 3c
       0.010367604 0.009482692 0.015459934 0.008556878
000150 4f 97 fe 3b d3 40 45 3a 33 e8 ea 3b 88 7b 37 3c
       0.0077695022 0.0007524613 0.0071687936 0.011198886
000160 a0 7f ec 3a bd 23 89 bb 74 6a 44 3c 4a 68 1b 3c
       0.0018043406 -0.0041851685 0.011988271 0.009485314
000170 1d f9 35 3b e6 b7 02 3b 07 fd 2e 3c b7 26 2a 3b
       0.0027766891 0.0019946038 0.010680444 0.0025963017
000180 e8 ec 23 3c 96 2d a0 3a b1 41 22 3c c5 bd c4 3b
       0.010005213 0.0012220617 0.009903357 0.0060040676
000190 9c bd cd ba 84 53 c3 3b 9f ba 58 3c a6 12 e5 3b
       -0.0015696767 0.0059608836 0.013228088 0.0069907485
0001a0 b0 15 e6 3b 02 04 10 3b ea 30 16 3c 32 a6 89 bb
       0.0070216283 0.0021975045 0.009166935 -0.00420072
0001b0 13 2f 22 3c 9f 64 cf bb 63 e4 82 bb 4f 60 8a bb
       0.009898919 -0.0063291336 -0.003994511 -0.0042229067
0001c0 33 27 20 3c 2e 01 52 3c 64 c0 66 bb c5 89 d9 3b
       0.009774971 0.012817664 -0.0035209889 0.006638738
0001d0 3b 93 05 3c 5b 07 b8 3a 3b 40 2c 3c 2c 5b c8 bb
       0.008152778 0.0014040278 0.010513361 -0.006114384
0001e0 ef 78 18 3c 66 84 27 3c 02 a5 c8 ba d9 75 21 3c
       0.009306177 0.010224437 -0.0015307965 0.009854757
0001f0 c2 ee 60 3c b3 ac d9 3b ea e5 b1 3a da 29 07 3c
       0.013728799 0.006642902 0.0013572548 0.008249724

action_model._continuous_distribution.log_sigma f4 [1, 2]
000000 74 08 ac bc fd 28 33 bc
       -0.021000125 -0.010935065

action_model._continuous_distribution.mu.weight f4 [2, 128]
000000 ca 5a 88 3b 66 74 6f 3b ea 2d 7a 3c 49 1a 8d bc
       0.0041612135 0.0036537885 0.015269736 -0.017224448
000010 33 39 cc bc ce 44 39 3d 45 3e 30 bd d2 e8 37 3c
       -0.024929618 0.045231633 -0.043028135 0.011224942
000020 01 96 27 bd 1f 20 c0 bc f7 94 79 3c 72 59 a6 3c
       -0.04091454 -0.023452817 0.01523327 0.020306323
000030 51 38 ca 3c 74 bc da bc ce 1d 7c bc 13 af 8f bc
       0.024685057 -0.02670119 -0.015387965 -0.017539537
000040 75 9e 92 b9 a0 fd b5 3c c1 6f 20 bc b5 83 5e 3d
       -0.0002796535 0.022215664 -0.009792269 0.054324824
000050 46 dc 6d 3c e8 bb ec bc 89 b9 f1 3c a9 be d4 bb
       0.014517849 -0.028898194 0.029507415 -0.006492455
000060 57 d2 32 bd 6e 00 5f 3d f5 01 ce bb db bf af 3c
       -0.043657627 0.05444377 -0.0062868544 0.021453789
000070 6e 39 31 bc 27 73 b6 3b b9 6c c5 3c 14 de 54 3d
       -0.010816915 0.0055679264 0.024099695 0.051969603
000080 bf fc d1 bc 2c 94 db 3c eb 94 fd 3b 25 4c 4e 3d
       -0.025633214 0.026804052 0.0077386997 0.050365586
000090 02 02 a7 3c 8f 8e c2 bc 00 fd 07 bc 01 b9 10 bd
       0.0203867 -0.023749618 -0.008300066 -0.035332683
0000a0 9a e1 c5 3c a9 8d c4 bb e4 fc f3 bb 7b 40 f1 bc
       0.024155427 -0.0059983325 -0.0074459184 -0.029449692
0000b0 17 ca d9 bc 58 bf 9f 3c 90 2b 86 3c e8 8b f5 bc
       -0.026585622 0.01950042 0.016378194 -0.029973939
0000c0 f3 71 a8 3b 3f d5 ec 3b 7a 29 ed bc 83 6c 0b 3d
       0.005140537 0.0072275694 -0.028950442 0.03403903
0000d0 a7 e3 98 bc 46 38 7a 3c ff 22 47 bc 72 ca ec bb
       -0.01866324 0.015272206 -0.01215434 -0.007226282
0000e0 ac 27 c6 3b d4 a2 0d bd c7 3b 1e 3c 10 a6 80 bc
       0.0060472097 -0.034579113 0.009657807 -0.015704185
0000f0 71 10 82 3d 90 21 e0 3c 29 a1 4f 3c a7 80 4b bb
       0.06350792 0.027359754 0.012672701 -0.0031052025
000100 38 33 d3 3c b4 55 45 bc c9 83 6b bc 0d 31 ec bc
       0.025781259 -0.012044359 -0.014374682 -0.028831983
000110 0e 95 27 3c 40 8a e7 3c fa 63 09 bd f2 0d 8d bc
       0.0102284085 0.028264165 -0.03354261 -0.017218564
000120 4a 8c 56 bc 02 36 39 bd 67 c1 e9 bb 4a a1 88 3d
       -0.013094971 -0.04521752 -0.007133651 0.066713884
000130 7e de 2e bd e6 7f dd 3b a2 95 1a bd 13 90 96 bc
       -0.042692654 0.0067596314 -0.037740357 -0.018379247
000140 3d 86 05 3d b8 f5 39 3d 6d 28 97 bc bb 33 b4 3c
       0.032598723 0.04540035 -0.018451894 0.021997323
000150 fd dd 63 bb 49 2a 28 bc 7b 97 4d bd 25 ea 0d bc
       -0.0034769766 -0.010263988 -0.05019329 -0.008661781
000160 4b 79 a1 bc 4b 35 a7 bc cf a0 26 3d 3e ad 0b bd
       -0.019711157 -0.020411154 0.040680703 -0.034100763
000170 12 58 f1 3b 21 95 33 3d 3e 80 a6 3c fa a7 b0 3b
       0.007365235 0.043843392 0.020324823 0.005391118
000180 79 b5 55 3a d8 5a 6e ba 21 62 79 3c 19 37 0d 3d
       0.00081523467 -0.0009092516 0.01522115 0.034476373
000190 ac f8 b2 bc 83 f0 df 3c 95 19 61 3d cd 8a dd 3c
       -0.021847092 0.027336365 0.054956038 0.027043724
0001a0 17 b4 a8 3c 1a c0 87 3b 4c 02 99 bb 8f ee b4 bc
       0.020593686 0.0041427733 -0.0046694633 -0.02208641
0001b0 ff 68 ad 3c 10 43 c1 bc b0 00 a6 3c 88 1d b8 3b
       0.02116823 -0.023591548 0.020264 0.005618755
0001c0 59 0b d6 bc 59 47 04 3d de 4f ca bc 80 c0 a3 bc
       -0.026128458 0.032294605 -0.024696287 -0.019989252
0001d0 53 3a 92 bc 2a ec 51 bb 50 59 d7 bc 66 d2 b3 bc
       -0.017850077 -0.0032031634 -0.026287705 -0.021950912
0001e0 c4 9a 09 3d 45 b0 a3 3c 7a 0d d6 bc 46 bc 5d 3c
       0.03359486 0.019981513 -0.026129473 0.013533657
0001f0 ab ab a6 bc 9f 6d 48 3c 7e d2 10 3d 7f 47 8a 3c
       -0.02034553 0.012233167 0.03535699 0.016879795
000200 a7 38 dd bc d1 e7 7c 3b 19 80 01 bc ba 91 93 3c
       -0.027004553 0.0038590322 -0.007904076 0.018013824
000210 5d a6 b8 bc bd e5 19 ba 01 37 76 3c eb a7 c7 bb
       -0.022540266 -0.00058707205 0.015027762 -0.0060930154
000220 b9 3d 78 3c 8c 0e 65 3b 21 e5 06 bb d1 0b 0e bd
       0.015151435 0.0034951298 -0.0020583349 -0.034679238
000230 c2 b7 82 bb fb 08 82 bb 99 0b 43 3c fa d6 f5 bc
       -0.003989191 -0.0039683557 0.011904621 -0.030009735
000240 c3 14 0f bc dc 11 8d 3c a1 6a cb bc 42 52 d5 ba
       -0.008732977 0.01722043 -0.024831118 -0.0016275125
000250 0f 31 bd 3a d1 e0 1a 3c 20 e8 e7 bb 36 a9 ce bc
       0.0014434176 0.0094530145 -0.007077232 -0.02522717
000260 e9 c7 c9 bc fa 81 ec 3b 50 15 6e bb f2 f4 b5 3c
       -0.024631457 0.007217643 -0.0036328621 0.022211526
000270 51 97 0b bd c2 26 4d bb 7e 5d b0 3c fe 44 9c 3c
       -0.034079853 -0.003130362 0.021528956 0.019075867
000280 70 c6 01 bd 60 89 0a bd 72 f2 b7 bc 78 26 15 b9
       -0.031683385 -0.033822417 -0.022454474 -0.00014224078
000290 10 b6 2e 3d f8 39 0b bb 01 ff fd 3b 37 d1 ae 3c
       0.042654097 -0.002124427 0.007751346 0.021339996
0002a0 38 53 5c 3d ea a5 51 3c fe 28 01 bc b9 a4 f3 bb
       0.0537903 0.012795905 -0.007883308 -0.007435408
0002b0 63 a0 f9 3b 22 dc 80 3c a0 ba 53 bc 72 4c 42 bc
       0.0076179965 0.015729968 -0.012922913 -0.011859046
0002c0 9b c6 64 3c 9a 71 ed 3c 86 71 55 bb 46 25 71 bc
       0.013963367 0.028984834 -0.0032568886 -0.014718359
0002d0 99 c4 97 bc ab ad 01 ba 15 5d 45 3c 52 7e 0b 3d
       -0.018526362 -0.0004946838 0.012046118 0.034056015
0002e0 bc 7c 77 bc 28 1b 7d 3b 46 b7 f5 3c 7c d8 12 3c
       -0.015105423 0.0038620923 0.029994618 0.008962747
0002f0 5c 71 ef bb 9e 63 fb bb e7 7e de 3c b5 0f bc 3c
       -0.0073072147 -0.0076717874 0.027160121 0.022956708
000300 68 db 5b bc 91 49 ad bb a9 74 31 3b 72 03 09 bc
       -0.01341901 -0.005288311 0.0027077592 -0.008362638
000310 ee 1c fc 3b e9 5e 01 bd 81 81 71 3c 9a 05 f2 bc
       0.0076938784 -0.031584654 0.014740349 -0.029543687
000320 2b c7 09 bd d1 70 e9 bb bd e5 bb 3c 3b 0b 9b 3c
       -0.033637207 -0.0071240445 0.022936696 0.018926254
000330 61 e7 8b bb e8 ec df bb 3b 43 9c bb ac c5 06 bc
       -0.004269526 -0.0068336613 -0.0047687567 -0.00822584
000340 96 34 ac ba aa f6 cd ba 75 fa 2c bc 1a 7e a7 bc
       -0.001313823 -0.001571377 -0.0105577605 -0.020445872
000350 c6 db 5b bb 2f fe 9a bb 0f 0f 18 bd bc b0 89 bc
       -0.0033547743 -0.004730008 -0.037123736 -0.016807906
000360 6f 8b 77 bb ee b1 38 bc b5 0f 8c bc bf 5c f7 ba
       -0.0037772318 -0.0112728905 -0.017097333 -0.0018872245
000370 e9 d7 12 bb f7 99 51 3c 11 37 9a bc e4 ff 04 bc
       -0.0022406525 0.012793056 -0.018825086 -0.00811765
000380 e6 f5 28 bc 70 e7 3f bc 1a a9 d0 bb f8 13 b9 3c
       -0.010312533 -0.011712894 -0.0063678147 0.02259253
000390 29 a4 1d bb e8 21 9a 3a 0b 18 e0 3c 36 ba ff bb
       -0.0024054146 0.0011759372 0.027355215 -0.0078041805
0003a0 b1 32 91 bc 90 11 a0 bb 12 02 15 bd 67 f8 20 bb
       -0.017724367 -0.004884906 -0.036378928 -0.0024562122
0003b0 28 5c be 39 8b 99 4c 3c 2d 94 60 3c d1 eb 38 3c
       0.00036308286 0.012487779 0.013707203 0.011286692
0003c0 d9 12 43 bc d4 9d 37 3b d3 49 a6 3c 5e fa 9c bc
       -0.011906349 0.0028017657 0.020298874 -0.019162353
0003d0 c2 1d f6 bb 02 31 e0 bb fc 64 28 bc 7f c6 6c 3c
       -0.0075108716 -0.0068417797 -0.010277983 0.014451622
0003e0 50 f2 55 bc f2 76 86 bb da 88 5a 3c d2 9c e8 bc
       -0.01305826 -0.004103535 0.013338292 -0.02839509
0003f0 8f c1 e1 bc 3f 6d 69 bb 23 60 b1 3c ff 86 51 bc
       -0.027558116 -0.0035618094 0.021652287 -0.012788533

action_model._continuous_distribution.mu.bias f4 [2]
000000 7b 65 1e 3b 99 05 2d bc
       0.0024169374 -0.010560417

exp_avg f4 [128, 33]
000000 e6 0e c2 31 00 00 00 00 f3 ba a1 38 bc 07 06 b8
       5.647837e-09 0.0 7.7119e-05 -3.1955293e-05
000010 d6 9a 9d 31 00 00 00 00 b0 3e 9a 36 ef bd 7e b8
       4.586904e-09 0.0 4.5968554e-06 -6.073521e-05
000020 ab 51 71 34 00 00 00 00 c7 16 ae b7 b1 a7 97 b8
       2.2474585e-07 0.0 -2.0753023e-05 -7.231476e-05
000030 d3 4d 05 33 00 00 00 00 ed bf 65 b7 68 5b 54 b8
       3.1037256e-08 0.0 -1.369415e-05 -5.0629867e-05
000040 b4 6e 90 34 00 00 00 00 68 43 04 37 88 11 99 b8
       2.6902637e-07 0.0 7.883507e-06 -7.298874e-05
000050 ff 6b e0 32 00 00 00 00 d8 c1 f4 b6 1a 78 80 b8
       2.6126143e-08 0.0 -7.294333e-06 -6.125886e-05
000060 2c fd a4 34 00 00 00 00 64 5b 42 38 e4 14 a5 b7
       3.0731587e-07 0.0 4.633832e-05 -1.967926e-05
000070 40 20 8f b8 fe b1 73 b8 59 09 1a b5 41 42 1b b9
       -6.8247784e-05 -5.8101483e-05 -5.7383073e-07 -0.00014806633
000080 dc 5c 83 b8 c6 31 5c b2 00 00 00 00 cb 54 80 b8
       -6.263863e-05 -1.2817003e-08 0.0 -6.1193095e-05
000090 2e 76 a2 37 46 d8 43 33 00 00 00 00 3a 4d e7 b6
       1.9366937e-05 4.5598675e-08 0.0 -6.893327e-06
0000a0 5c 22 32 38 d7 90 e2 b3 00 00 00 00 02 c9 2f 37
       4.2470507e-05 -1.0550291e-07 0.0 1.0477614e-05
0000b0 3f 9d 4c 38 fc 1f 65 b3 00 00 00 00 6b c2 ca 36
       4.8783837e-05 -5.3347307e-08 0.0 6.0427024e-06
0000c0 f4 3e 2d 38 3a a1 8d b4 00 00 00 00 5a 22 5c 37
       4.1305044e-05 -2.6380604e-07 0.0 1.312102e-05
0000d0 4f a9 82 38 e7 c3 fa b3 00 00 00 00 d0 de dd 34
       6.230419e-05 -1.16771666e-07 0.0 4.1326575e-07
0000e0 1f 6f 2a 38 c1 fd 11 b5 00 00 00 00 9c 37 5c b7
       4.0634648e-05 -5.438597e-07 0.0 -1.3125969e-05
0000f0 7a 7a dd 37 28 60 d1 38 52 2c 3f 38 4d cb 5f b8
       2.6402286e-05 9.983807e-05 4.5579225e-05 -5.335668e-05
000100 8f 48 3a 38 57 f1 a0 38 fe 5d e5 2f 00 00 00 00
       4.441343e-05 7.6743476e-05 4.1721643e-10 0.0
000110 7a 1d da 36 6d f6 8b 37 1e 08 37 b2 00 00 00 00
       6.500338e-06 1.6684842e-05 -1.0653848e-08 0.0
000120 ad 0e 01 37 24 fa 83 37 4c bd 7c b4 00 00 00 00
       7.692416e-06 1.5732898e-05 -2.3538195e-07 0.0
000130 e3 48 03 37 3d b4 8a 37 70 f9 35 31 00 00 00 00
       7.825179e-06 1.6534812e-05 2.6480755e-09 0.0
000140 c5 b9 41 36 5d 31 1d 37 0f db 71 b4 00 00 00 00
       2.8867373e-06 9.3694225e-06 -2.2524567e-07 0.0
000150 d8 4c a2 36 e4 35 84 37 d8 90 72 b0 00 00 00 00
       4.836922e-06 1.5760721e-05 -8.824492e-10 0.0
000160 c9 73 55 36 49 78 5c 37 5d eb 43 b4 00 00 00 00
       3.180687e-06 1.3141028e-05 -1.8246415e-07 0.0
000170 bf 74 65 34 c9 b1 2b 37 9a df 7b 37 67 35 43 37
       2.1369759e-07 1.0233788e-05 1.5012827e-05 1.1635339e-05
000180 42 77 1c b8 60 cd bc 37 bc f7 10 b7 0d 20 40 b2
       -3.7304366e-05 2.2506982e-05 -8.640749e-06 -1.1183158e-08
000190 00 00 00 00 76 cb 2a 37 d8 92 93 38 cd 73 f5 32
       0.0 1.0180162e-05 7.036858e-05 2.8574414e-08
0001a0 00 00 00 00 f3 a7 7f 38 57 b8 c1 38 f7 81 19 b5
       0.0 6.0953153e-05 9.237293e-05 -5.7186065e-07
0001b0 00 00 00 00 38 62 23 38 86 66 99 38 ad aa 2e b3
       0.0 3.89537e-05 7.314705e-05 -4.066776e-08
0001c0 00 00 00 00 d1 c6 00 38 08 1a 85 38 e2 7e 14 b5
       0.0 3.070274e-05 6.346783e-05 -5.5318935e-07
0001d0 00 00 00 00 4b 56 24 38 32 12 a8 38 6d 44 2e b3
       0.0 3.9181014e-05 8.0142534e-05 -4.0574765e-08
0001e0 00 00 00 00 30 f0 0b 37 16 45 45 38 01 18 3b b5
       0.0 8.340969e-06 4.70328e-05 -6.969786e-07
0001f0 00 00 00 00 e3 89 01 b7 f8 03 01 38 7b c0 15 b8
       0.0 -7.721103e-06 3.0759693e-05 -3.570363e-05
000200 26 93 6c 38 c4 80 05 b9 8f 14 20 39 aa b7 20 b8
       5.6403827e-05 -0.00012731837 0.00015266448 -3.8318023e-05
000210 73 98 d3 31 00 00 00 00 10 93 3e 39 64 9b a9 37
       6.1582397e-09 0.0 0.00018174597 2.021873e-05
000220 6e c3 99 32 00 00 00 00 42 3c 74 38 b2 cd 04 b8
       1.7900415e-08 0.0 5.8230253e-05 -3.166282e-05
000230 b8 1f 1c 36 00 00 00 00 aa 58 5a 37 21 e5 65 b8
       2.3264274e-06 0.0 1.3014456e-05 -5.4811248e-05
000240 b7 cf 38 33 00 00 00 00 4a 28 d3 37 c9 95 ff b7
       4.3029754e-08 0.0 2.5171921e-05 -3.0468118e-05
000250 21 ce 36 36 00 00 00 00 6f 4a c0 37 07 67 95 b8
       2.7240096e-06 0.0 2.2922844e-05 -7.124064e-05
000260 20 ef dd 33 00 00 00 00 76 fe 09 38 e0 70 34 b8
       1.0334611e-07 0.0 3.290033e-05 -4.3020467e-05
000270 28 9c 43 36 00 00 00 00 69 75 04 39 43 85 11 38
       2.914816e-06 0.0 0.0001263224 3.4694804e-05
000280 98 ee 87 b7 3f b8 66 b8 b9 32 da b8 eb 01 41 b8
       -1.6204358e-05 -5.5007866e-05 -0.00010404498 -4.6016572e-05
000290 8d 57 8c b9 42 7d 78 2f 00 00 00 00 c8 27 6e b6
       -0.0002676811 2.2599969e-10 0.0 -3.548792e-06
0002a0 15 bb 2f 36 b6 62 28 b3 00 00 00 00 50 ab 00 b7
       2.6185928e-06 -3.9205325e-08 0.0 -7.669281e-06
0002b0 6b 7a 32 35 7c 72 b3 b5 00 00 00 00 02 02 84 b6
       6.648831e-07 -1.3369859e-06 0.0 -3.9341403e-06
0002c0 fc 5b ca 35 68 d8 54 b1 00 00 00 00 7f ed 1f b7
       1.5076944e-06 -3.0973073e-09 0.0 -9.532435e-06
0002d0 a5 6d a7 b6 79 a7 d9 b5 00 00 00 00 1d 99 80 b3
       -4.989752e-06 -1.6216501e-06 0.0 -5.9883156e-08
0002e0 06 e1 93 36 a8 6d f6 32 00 00 00 00 da f2 51 b6
       4.4071376e-06 2.8688035e-08 0.0 -3.1284785e-06
0002f0 32 72 e3 35 c2 84 d4 b5 00 00 00 00 7c de 9e 34
       1.6946053e-06 -1.5833868e-06 0.0 2.9591672e-07
000300 87 cd b5 35 74 c2 8c b5 93 0b 3c 36 57 65 06 b8
       1.3545367e-06 -1.0487406e-06 2.802092e-06 -3.204247e-05
000310 7b dc ac 35 c5 b2 64 b7 2e 2c 61 b1 00 00 00 00
       1.2879167e-06 -1.3631482e-05 -3.2766923e-09 0.0
000320 8d 9a 98 b6 36 ec 68 38 f1 3e f9 33 00 00 00 00
       -4.547945e-06 5.55331e-05 1.1606415e-07 0.0
000330 54 2f 62 38 d8 35 ab 38 68 dc d9 35 00 00 00 00
       5.3926677e-05 8.1639446e-05 1.6231907e-06 0.0
000340 72 7a 06 38 73 ec 86 38 fc ba 2b b3 00 00 00 00
       3.2062126e-05 6.43366e-05 -3.99841e-08 0.0
000350 ee 05 33 38 fb e0 92 38 a8 a5 ef 35 00 00 00 00
       4.2682448e-05 7.0037284e-05 1.78551e-06 0.0
000360 e4 57 31 38 03 f4 9e 38 c0 6f a4 b3 00 00 00 00
       4.2281943e-05 7.579478e-05 -7.657172e-08 0.0
000370 74 b3 ae 37 fd 8a 58 38 2f b3 d9 35 00 00 00 00
       2.082598e-05 5.1627856e-05 1.6219909e-06 0.0
000380 82 35 e8 b6 5f 67 05 38 5f 39 9e 38 03 74 59 38
       -6.920368e-06 3.1805943e-05 7.544713e-05 5.1844876e-05
000390 2c 95 80 b8 d2 20 c6 38 62 09 22 38 82 80 4c 31
       -6.131301e-05 9.447489e-05 3.863255e-05 2.9758955e-09
0003a0 00 00 00 00 c0 a8 03 b8 11 b1 da b7 1e 39 1f b3
       0.0 -3.1389995e-05 -2.6070078e-05 -3.707202e-08
0003b0 00 00 00 00 76 17 38 b8 ba 9f 13 b8 84 e9 e0 b5
       0.0 -4.389087e-05 -3.5196288e-05 -1.6757263e-06
0003c0 00 00 00 00 88 29 e7 b7 98 3b b4 b7 22 76 a4 31
       0.0 -2.7556685e-05 -2.1485423e-05 4.7864583e-09
0003d0 00 00 00 00 a6 90 04 b8 84 db 0f b8 f3 4d 12 b6
       0.0 -3.1605967e-05 -3.4298297e-05 -2.1801068e-06
0003e0 00 00 00 00 16 47 03 b8 63 67 b4 b7 c9 bb 74 34
       0.0 -3.1299038e-05 -2.1505815e-05 2.2792587e-07
0003f0 00 00 00 00 2d 21 8c b7 13 61 82 b7 37 3d 08 b6
       0.0 -1.670475e-05 -1.5542411e-05 -2.030121e-06

exp_avg_sq f4 [128, 33]
000000 42 16 79 28 00 00 00 00 69 6c d5 30 12 5b 1b 31
       1.3827103e-14 0.0 1.5528602e-09 2.2607236e-09
000010 35 35 81 28 00 00 00 00 96 db 98 30 39 16 08 31
       1.4344952e-14 0.0 1.1121866e-09 1.9803237e-09
000020 92 4d ce 2b 00 00 00 00 f2 a3 d1 30 a0 d1 28 31
       1.465871e-12 0.0 1.5253347e-09 2.4566376e-09
000030 29 79 7b 28 00 00 00 00 1c da 9b 30 19 79 f0 30
       1.3959571e-14 0.0 1.1339725e-09 1.7496716e-09
000040 75 ba cb 2b 00 00 00 00 6f 27 c4 30 00 56 24 31
       1.447577e-12 0.0 1.4272085e-09 2.3914026e-09
000050 28 04 96 28 00 00 00 00 e2 a3 a0 30 19 02 06 31
       1.6655148e-14 0.0 1.168811e-09 1.9500759e-09
000060 40 5e cf 2b 00 00 00 00 b0 41 ce 30 98 d0 10 31
       1.4734394e-12 0.0 1.5007142e-09 2.107333e-09
000070 ae 46 4a 32 0c 6f ab 30 7a a1 12 33 01 9c 05 31
       1.1774018e-08 1.2473449e-09 3.4140136e-08 1.9442725e-09
000080 fc 12 d3 30 53 d0 b2 29 00 00 00 00 fb 30 52 30
       1.5357666e-09 7.9409264e-14 0.0 7.646716e-10
000090 58 88 a6 30 9b 81 1e 2a 00 00 00 00 9a 8e 2e 30
       1.2116841e-09 1.4078185e-13 0.0 6.350348e-10
0000a0 a1 be 9a 30 8e a7 ec 2e 00 00 00 00 f1 0b 64 30
       1.1259155e-09 1.0761801e-10 0.0 8.2962887e-10
0000b0 1e 35 c8 30 ca 3d 94 2a 00 00 00 00 3a 72 6d 30
       1.4567012e-09 2.6332956e-13 0.0 8.6382423e-10
0000c0 a7 8e ae 30 27 e9 eb 2e 00 00 00 00 d5 cd 57 30
       1.270071e-09 1.0727979e-10 0.0 7.850905e-10
0000d0 0d da c0 30 61 b0 9d 28 00 00 00 00 9e 6e 96 30
       1.4031812e-09 1.7506994e-14 0.0 1.0945376e-09
0000e0 20 91 cc 30 cc 93 ed 2e 00 00 00 00 91 8a 64 30
       1.48842e-09 1.0803766e-10 0.0 8.314283e-10
0000f0 18 5c ab 30 05 16 a5 32 70 ef 48 30 f3 4a 7d 32
       1.2468062e-09 1.9218541e-08 7.309984e-10 1.474358e-08
000100 9f 67 0d 30 2b eb 5d 31 9a 71 26 25 00 00 00 00
       5.1442756e-10 3.229341e-09 1.4436695e-16 0.0
000110 b2 78 d2 2e c4 41 60 2f 39 69 c6 25 00 00 00 00
       9.571134e-11 2.0396046e-10 3.4418826e-16 0.0
000120 c3 39 98 2e 4a 54 30 2f 3f 4d 3b 2b 00 00 00 00
       6.92242e-11 1.6037052e-10 6.6542946e-13 0.0
000130 c0 57 15 2f a8 59 86 2f ab 67 63 25 00 00 00 00
       1.3582646e-10 2.4438163e-10 1.9724236e-16 0.0
000140 8c 70 2d 2e d8 42 fb 2e 13 63 45 2b 00 00 00 00
       3.9435608e-11 1.1426032e-10 7.012595e-13 0.0
000150 57 6b 02 2f a9 90 7c 2f 87 93 04 23 00 00 00 00
       1.1861566e-10 2.297066e-10 7.1869745e-18 0.0
000160 f5 ed 6f 2e 30 15 2a 2f 84 f2 47 2b 00 00 00 00
       5.4553657e-11 1.5468937e-10 7.103556e-13 0.0
000170 c3 5e e6 2e db 1e 57 2f f8 43 97 30 ef 84 ed 2e
       1.0476022e-10 1.9565098e-10 1.1006014e-09 1.0801126e-10
000180 ac 5e 28 31 3a ed 0f 2f 0d 9a 09 2f ba 45 9f 28
       2.4501032e-09 1.3090054e-10 1.2514807e-10 1.7682785e-14
000190 00 00 00 00 a6 82 b0 30 6c 0d f0 30 fc d5 30 29
       0.0 1.2842818e-09 1.7466113e-09 3.9265452e-14
0001a0 00 00 00 00 6b 11 c2 30 ee c9 00 31 e6 dd b5 2e
       0.0 1.4120308e-09 1.8741235e-09 8.270344e-11
0001b0 00 00 00 00 7e df cf 30 ff 1b 05 31 1c 34 05 2a
       0.0 1.5124753e-09 1.9369961e-09 1.1830852e-13
0001c0 00 00 00 00 ba 16 9e 30 d9 ca d2 30 0c 75 b7 2e
       0.0 1.1502472e-09 1.5337164e-09 8.342668e-11
0001d0 00 00 00 00 de 50 bf 30 36 e8 02 31 90 8e 1c 27
       0.0 1.3920063e-09 1.9049486e-09 2.1726632e-15
0001e0 00 00 00 00 09 7b b3 30 51 15 da 30 4d 10 b8 2e
       0.0 1.3058933e-09 1.5867646e-09 8.370247e-11
0001f0 00 00 00 00 5b 33 a5 30 f7 c7 b7 30 c9 30 db 32
       0.0 1.2019926e-09 1.3371836e-09 2.551714e-08
000200 50 e1 61 30 b3 11 08 32 64 35 8a 31 88 c3 1d 31
       8.217471e-10 7.920266e-09 4.0223984e-09 2.2957654e-09
000210 82 2b 2b 28 00 00 00 00 c9 bc 1b 32 82 22 2e 32
       9.501841e-15 0.0 9.065112e-09 1.0135979e-08
000220 cb c2 b7 28 00 00 00 00 84 05 dd 31 dd 39 14 32
       2.040156e-14 0.0 6.4325736e-09 8.62789e-09
000230 8a d2 ac 2e 00 00 00 00 e7 ea 0a 32 5e 10 34 32
       7.859054e-11 0.0 8.086068e-09 1.04811e-08
000240 27 28 9c 28 00 00 00 00 07 41 d4 31 e2 f4 07 32
       1.7336892e-14 0.0 6.177405e-09 7.913714e-09
000250 ad de ba 2e 00 00 00 00 72 d4 f7 31 9c c0 27 32
       8.497856e-11 0.0 7.2127984e-09 9.764474e-09
000260 76 24 99 28 00 00 00 00 34 87 ec 31 aa d0 17 32
       1.7002225e-14 0.0 6.883875e-09 8.8368015e-09
000270 07 6d be 2e 00 00 00 00 e6 c3 f4 31 74 45 12 32
       8.659567e-11 0.0 7.1236057e-09 8.51411e-09
000280 d5 11 9e 33 24 10 a1 31 ea 15 0f 34 4b 16 b0 31
       7.360692e-08 4.6875517e-09 1.3325885e-07 5.1248086e-09
000290 53 81 93 32 b8 50 b0 24 00 00 00 00 32 50 61 2f
       1.7171862e-08 7.6464576e-17 0.0 2.0492122e-10
0002a0 1c 84 ac 2f 3d be 1a 27 00 00 00 00 24 34 3b 2f
       3.1380487e-10 2.1474922e-15 0.0 1.7026075e-10
0002b0 e7 9f 96 2f 7a 3a aa 2d 00 00 00 00 5d d7 73 2f
       2.7398459e-10 1.9352731e-11 0.0 2.2177234e-10
0002c0 7e 3f b8 2f 2e 97 72 27 00 00 00 00 b4 5c ed 2e
       3.351452e-10 3.3666201e-15 0.0 1.07939796e-10
0002d0 64 76 63 2f 2a d3 b2 2d 00 00 00 00 47 21 62 2f
       2.068759e-10 2.0330033e-11 0.0 2.0566403e-10
0002e0 51 2e b0 2f 31 c1 e4 26 00 00 00 00 ab 88 df 2e
       3.2047123e-10 1.5873043e-15 0.0 1.0165143e-10
0002f0 c1 2c 61 2f f5 8e b1 2d 00 00 00 00 9c 9f 50 2f
       2.047953e-10 2.0186056e-11 0.0 1.8974194e-10
000300 c8 4f 95 2f f5 ab 2f 31 e3 b8 18 2f 8f a9 24 31
       2.715963e-10 2.5563598e-09 1.3890004e-10 2.3961524e-09
000310 09 e7 4d 2f 62 51 47 2f 0c 6e e1 27 00 00 00 00
       1.8726722e-10 1.8127858e-10 6.256936e-15 0.0
000320 b6 3f 55 30 71 25 5d 30 7e 60 b9 28 00 00 00 00
       7.757949e-10 8.045254e-10 2.0580973e-14 0.0
000330 be 63 2e 30 62 38 5e 30 d2 05 e1 2c 00 00 00 00
       6.3442573e-10 8.0843254e-10 6.395531e-12 0.0
000340 ba 0c 85 30 ce 0b 83 30 a5 d1 4e 29 00 00 00 00
       9.680641e-10 9.53486e-10 4.5923026e-14 0.0
000350 36 ed 05 30 c9 55 37 30 64 85 da 2c 00 00 00 00
       4.8722215e-10 6.669692e-10 6.210742e-12 0.0
000360 13 77 7f 30 5a d3 81 30 53 34 d8 27 00 00 00 00
       9.2937674e-10 9.446055e-10 6.0008773e-15 0.0
000370 1f 34 12 30 96 44 34 30 34 bc da 2c 00 00 00 00
       5.318856e-10 6.5581085e-10 6.2168274e-12 0.0
000380 b2 f0 6e 30 08 34 53 30 d3 c6 dd 31 7f 9c cf 2f
       8.6925944e-10 7.6835294e-10 6.4545502e-09 3.7764278e-10
000390 7f 3d eb 31 a8 96 85 30 81 2a 9a 30 ff 2b fe 28
       6.8463915e-09 9.719843e-10 1.1217055e-09 2.8218745e-14
0003a0 00 00 00 00 87 88 ed 30 65 83 40 31 86 48 cd 29
       0.0 1.7282823e-09 2.8014366e-09 9.1164096e-14
0003b0 00 00 00 00 a3 0f c5 30 5a d3 1e 31 00 f4 cf 2d
       0.0 1.4338081e-09 2.3112166e-09 2.3641533e-11
0003c0 00 00 00 00 55 ce b5 30 44 78 3d 31 3d c5 b3 2a
       0.0 1.3228126e-09 2.7571483e-09 3.193365e-13
0003d0 00 00 00 00 a5 72 8f 30 cb 2d 06 31 fd 68 be 2d
       0.0 1.0437203e-09 1.9525597e-09 2.1647123e-11
0003e0 00 00 00 00 f8 11 b6 30 3c 77 33 31 6c 02 f8 29
       0.0 1.324735e-09 2.6115705e-09 1.10138325e-13
0003f0 00 00 00 00 6e fe d3 30 fc 8a 2c 31 e0 60 bd 2d
       0.0 1.5424584e-09 2.5108298e-09 2.1529833e-11

exp_avg f4 [128]
000000 96 77 d0 b8 5c f1 9d 38 0c 19 a9 37 a1 54 c7 38
       -9.9404875e-05 7.5313e-05 2.0158033e-05 9.504823e-05
000010 63 23 bc b8 82 4f 57 36 9f 12 bd 38 61 a3 de b7
       -8.97113e-05 3.2083776e-06 9.015691e-05 -2.6540542e-05
000020 a0 45 aa b5 ed 38 61 b8 58 7b 13 b9 e0 b6 c9 34
       -1.268625e-06 -5.3697197e-05 -0.00014064962 3.7572227e-07
000030 89 87 a3 b8 02 a0 2e 39 36 e8 68 38 84 59 c4 38
       -7.797691e-05 0.0001665354 5.5529374e-05 9.362682e-05
000040 5d c6 b8 38 d1 75 77 b9 36 94 39 b9 c8 e1 19 b9
       8.810752e-05 -0.00023599646 -0.00017698188 -0.00014675327
000050 90 02 2a b9 66 78 f0 38 77 b8 31 38 a5 6d fd 38
       -0.00016213418 0.00011466518 4.2371885e-05 0.00012084403
000060 be bd e1 b9 c6 55 84 b8 c0 59 8d 38 d3 43 b2 b8
       -0.00043056713 -6.310227e-05 6.740121e-05 -8.500335e-05
000070 ec 3a 3f b9 1d de 0e b9 33 0c 9d 37 9e 7e 3a 38
       -0.0001823713 -0.00013624919 1.872154e-05 4.4463777e-05
000080 eb 24 b9 b8 7c 2a 32 b8 32 46 d1 b8 75 3d 69 38
       -8.828364e-05 -4.2478074e-05 -9.9789715e-05 5.5608765e-05
000090 4a 2a 33 b8 8e de 3f b8 91 83 ab 36 e5 93 86 b9
       -4.271631e-05 -4.574522e-05 5.1115135e-06 -0.00025668662
0000a0 bf 24 1b b8 f2 db bc 38 a4 16 73 b8 9f ff 3d 38
       -3.6989102e-05 9.0055066e-05 -5.79568e-05 4.5299177e-05
0000b0 35 a1 e2 b8 ec fc 4a b8 7d 22 9f b9 1e 58 fa b8
       -0.00010806547 -4.8396105e-05 -0.0003035254 -0.00011937342
0000c0 c2 ef d2 b7 d1 34 1a b8 ce 54 80 38 81 25 5f b7
       -2.5145597e-05 -3.676565e-05 6.119312e-05 -1.3300568e-05
0000d0 f9 61 e5 b7 c2 07 96 38 fc e0 fe b8 d9 d0 c6 b8
       -2.734455e-05 7.1540024e-05 -0.000121535704 -9.480277e-05
0000e0 ca 48 01 39 ac 35 d5 b8 e1 73 d9 b8 33 d3 65 b9
       0.00012329515 -0.000101666286 -0.000103689505 -0.0002191782
0000f0 ff 62 35 39 d9 69 af 36 94 40 09 b9 01 ae 0b 39
       0.00017298384 5.2277287e-06 -0.00013089395 0.00013320895
000100 ed a7 4d b9 c8 94 1b 39 5b c5 a0 b8 9a 03 11 39
       -0.0001961288 0.00014837377 -7.666155e-05 0.0001382962
000110 20 be da 38 73 ae 39 b8 fd 28 42 b8 8f 26 ed 38
       0.000104304636 -4.4269906e-05 -4.6291378e-05 0.00011308223
000120 8b ed 86 39 1b db 11 39 0d 85 b6 b9 5b 2a 74 38
       0.00025735455 0.00013909901 -0.00034812876 5.821358e-05
000130 86 41 80 39 8d 7a 55 b8 a1 62 a2 37 cc 20 dc 38
       0.0002446288 -5.089729e-05 1.9357833e-05 0.000104965264
000140 d8 54 26 38 56 0b 00 39 4b c1 a0 b8 45 5f ee 38
       3.96565e-05 0.00012211254 -7.665398e-05 0.0001136647
000150 66 17 3b b7 86 af ac 37 46 5f 19 38 b7 b6 98 35
       -1.1151516e-05 2.0585732e-05 3.6566773e-05 1.137806e-06
000160 ae f2 11 39 15 6e d5 38 53 67 60 37 88 ff b3 38
       0.00013918683 0.00010177136 1.33754975e-05 8.5829815e-05
000170 48 42 10 37 80 ef ff 38 50 d2 bf b8 a3 e9 1b 37
       8.598501e-06 0.00012203958 -9.1467635e-05 9.293118e-06
000180 70 fe 2f 38 7b 53 f5 b7 2d 80 0b 39 8e 8b d6 b9
       4.1960215e-05 -2.924515e-05 0.00013303822 -0.00040921237
000190 fb de a2 39 d2 d0 bb b8 81 98 dd 38 b0 ca 94 37
       0.0003106518 -8.955751e-05 0.00010566507 1.7737359e-05
0001a0 af 72 ae b8 e0 ef e2 38 b0 23 08 39 f0 d7 30 39
       -8.318328e-05 0.000108212 0.00012983265 0.00016865111
0001b0 63 61 45 38 c6 28 6e b9 ef c0 91 37 97 19 ef 38
       4.705916e-05 -0.00022712638 1.7375189e-05 0.000114011746
0001c0 ed 0d 38 b8 7b 12 7d b8 cd 04 2e b8 b8 06 1d b9
       -4.3881988e-05 -6.033711e-05 -4.1489304e-05 -0.0001497519
0001d0 da 7f ab b8 28 c9 81 b8 e1 a7 82 38 a3 b9 a3 b9
       -8.1777296e-05 -6.1886676e-05 6.230153e-05 -0.00031228093
0001e0 e1 e4 1c 39 db a0 7e b8 08 63 50 38 ba 15 47 39
       0.00014962583 -6.0708127e-05 4.9683294e-05 0.00018986213
0001f0 c9 2f 45 38 f4 f6 ce b6 2d 53 8b 37 1c a1 10 b9
       4.7012963e-05 -6.1680275e-06 1.6608823e-05 -0.00013792928
