results/test/CarParking/CarParking-4943.onnx (onnx, 88509 bytes, 6 tensors)

network_body._body_endoder.seq_layers.0.weight f4 [128, 33]
000000 bd 77 bc 3d 21 bb 2a be d6 32 76 3d 0b d9 ec bd
       0.09202526 -0.16672947 0.060107075 -0.11564835
000010 39 42 cf bd b5 bd 06 3e 41 71 50 bd fa db 24 3e
       -0.10120053 0.13158305 -0.050889257 0.1609954
000020 63 17 c9 3c e7 ba 3c bc 98 cc 1f bd 43 18 c4 3c
       0.024547284 -0.01151917 -0.039013475 0.02393735
000030 f4 91 82 3e 70 a5 7a bd 4a 83 b9 bd eb de 86 3d
       0.25501978 -0.06119293 -0.090582445 0.06585487
000040 ef a0 53 3e 99 aa f7 3d 4e 0b a8 bc f0 05 3d 3e
       0.2066686 0.12093086 -0.020513203 0.18459296
000050 62 2d 0b 3d 33 b5 52 bd 1a e9 68 3e b5 4c 08 be
       0.033978827 -0.051442336 0.22745171 -0.13310511
000060 c3 98 d6 bd df 36 67 be 50 bd ac bd 2b 97 1a 3e
       -0.10478356 -0.22579525 -0.08434546 0.15096729
000070 1c fe 6a 3c ed a4 92 be fd d5 f0 be a0 1c 1b 3e
       0.014342811 -0.28641453 -0.4703826 0.15147638
000080 aa c3 10 bd d6 8f 6e bd e5 4b f4 39 df e9 88 3e
       -0.03534285 -0.05824264 0.00046595852 0.2674093
000090 b5 9a 4c be a8 54 a6 3c 32 ed e9 3d cd f1 43 3e
       -0.19980891 0.02030404 0.114221945 0.19135208
0000a0 fa c7 05 b9 3c 1b 82 be 81 82 03 3d cd 70 95 3e
       -0.00012758365 -0.25411403 0.03210688 0.29187623
0000b0 9f 9c 57 be 27 aa f2 bd 62 6d 7d 3c 61 8d a0 3d
       -0.2105584 -0.1184886 0.015467973 0.07839466
0000c0 97 ab 77 bc 93 95 e0 bc 54 87 78 3c fd 21 2e be
       -0.015116594 -0.027415073 0.0151689835 -0.17005153
0000d0 45 af 0f 3e 15 49 21 be b3 a7 25 3e 81 9e 49 3e
       0.14031704 -0.15750535 0.16177253 0.1968937
0000e0 eb 8e 97 bd 30 79 53 3e f4 38 53 3e 1f 28 8b 3d
       -0.07400306 0.20651698 0.20627195 0.06794762
0000f0 2f d1 21 be c7 1c 10 3e 7a bc 30 be a6 51 d2 be
       -0.15802453 0.14073478 -0.17259398 -0.41077918
000100 71 40 de 3d 8b 5e 1b 3e ae 36 34 be b1 33 f1 3d
       0.10852135 0.15172784 -0.17598984 0.117774375
000110 cf 91 a0 3d 95 36 82 bd 11 13 73 3e c8 09 b0 3e
       0.07840311 -0.06358067 0.23737742 0.34382463
000120 7f 52 32 3c 55 6f 95 3e dc e5 99 bd a8 22 5a 3d
       0.010883926 0.29186502 -0.07514545 0.053255707
000130 93 d7 10 ba 4e b7 31 bb dd b1 53 bd 6c 4a c8 3d
       -0.0005525287 -0.0027117315 -0.051683296 0.0977982
000140 c0 5a d6 3d 90 15 22 be 24 72 84 bc 92 d2 b3 be
       0.10466528 -0.15828538 -0.016167708 -0.3512159
000150 44 6c f3 3d a5 d7 66 3e dc bb 0d 3e 2b 5d 44 be
       0.118858844 0.225432 0.13841194 -0.19176166
000160 9b 76 2b bd bf 65 44 be b2 46 a3 3e 45 5b a1 be
       -0.041861158 -0.19179438 0.31889874 -0.31514946
000170 cc e5 9a 3d 5b 31 5e bc 39 a6 bd 3c 3e 0c 84 be
       0.075633615 -0.013561572 0.02315055 -0.2579059
000180 90 22 49 bd f4 21 83 bd 92 02 46 be c4 2f 3c 3d
       -0.049105227 -0.064029604 -0.19336918 0.04594399
000190 15 a1 c5 bd c1 25 50 3e 58 41 30 be 13 9f 4e 3e
       -0.096498646 0.20326902 -0.17212427 0.2017787
0001a0 49 d2 0e bd 77 64 82 bd 28 b1 89 bd b7 48 17 3e
       -0.034868512 -0.063668184 -0.06723243 0.14773832
0001b0 d3 af 62 3d a7 2c fc bc 63 3c ef bc b3 3e 89 be
       0.05534346 -0.03078301 -0.0292036 -0.26805648
0001c0 60 fd e7 bc ed 70 72 3e 08 19 d6 be 8b d9 19 3d
       -0.02831906 0.2367589 -0.41815972 0.03756098
0001d0 78 e1 df 3d 37 87 b4 3c bd 3f 67 bd 57 4f 81 3e
       0.109316766 0.022037132 -0.05645727 0.25255844
0001e0 a1 eb 88 bd 1b 87 8a bd 06 ee 20 3e 70 84 f9 3c
       -0.06685568 -0.067640506 0.15715799 0.030458659
0001f0 d6 ae 86 3e 18 5d 38 bd 12 ea 65 be 19 ec 5a be
       0.26305264 -0.045010656 -0.22452572 -0.21379127
000200 fa ca 81 3e ee f3 ec be b6 3a 5c 3e 2a bc 48 be
       0.2535017 -0.46279854 0.21506771 -0.19603029
000210 db 72 0f bd a5 f0 05 3e e1 62 e5 3d 2a 3c 43 3d
       -0.035021644 0.1308008 0.112005 0.0476648
000220 5e 38 0e be 87 83 40 3e 7a 3a 4d be be 57 3c bd
       -0.1388869 0.18800174 -0.20041838 -0.045982115
000230 f2 89 57 3e 1a ab ef bb d9 07 90 be 5d 86 c5 be
       0.21048716 -0.007314098 -0.28130987 -0.38579074
000240 74 25 50 be 7e f1 29 bd a5 8c d0 3e 8c 1c dc bd
       -0.20326787 -0.04149007 0.40732303 -0.107476324
000250 c3 13 0d 3e 51 c4 b2 3d 1a 00 2b be 64 df 34 3d
       0.1377707 0.08728851 -0.16699257 0.044158354
000260 bd dd 8d 3e e8 f7 c2 bc 96 6c 47 3d 9d 09 23 be
       0.27708235 -0.023799852 0.04868754 -0.15921636
000270 d4 44 7f bd b7 18 94 be ce 8f dd bd af bf fe 3c
       -0.0623215 -0.28925106 -0.10818444 0.031097261
000280 95 66 58 3e 49 e1 02 be d1 f3 0f 3e 66 1b 53 be
       0.21132882 -0.12781252 0.14057852 -0.2061592
000290 f3 b1 ed 3c a0 54 13 bd 97 35 ee bc b2 f6 b2 3d
       0.029015517 -0.035969377 -0.029078288 0.0873846
0002a0 74 87 ad 3e 60 57 9b 3d 14 13 28 bc 9a 56 93 3c
       0.33892405 0.07585025 -0.010258455 0.01798563
0002b0 a9 7d 9b 3d cb 59 be 3e 59 e8 b4 be 29 c1 82 3e
       0.07592327 0.37177882 -0.35333517 0.25537995
0002c0 97 d8 e7 bc ef e1 25 3d 50 62 c0 3d cb b2 c2 bc
       -0.02830152 0.04049867 0.093937516 -0.023766896
0002d0 c3 4d b7 bd b0 34 70 bd 84 6d 92 be da 73 82 3e
       -0.08950379 -0.058643997 -0.2859918 0.25479013
0002e0 1b 35 a8 3e 71 2f f5 3c 92 db 00 3d 19 3d 38 3e
       0.32853016 0.029929848 0.0314594 0.17992057
0002f0 f3 2c 19 be ee 86 07 be 63 d9 18 be e1 90 4b be
       -0.14958553 -0.13235065 -0.14926676 -0.19879486
000300 a2 bc 1c 3d 19 13 18 3e e2 7a a8 3d f7 4e 09 3d
       0.03826583 0.14851035 0.08226563 0.033522572
000310 49 fd 56 be 85 ad 2b 3e 68 07 29 be c4 16 52 3e
       -0.20995058 0.16765411 -0.16506732 0.20516497
000320 0b 9a ef bd ae 3c 5a bd 54 d4 e8 bc 0a 35 14 be
       -0.11699303 -0.053280525 -0.028421558 -0.14473358
000330 0d 29 16 3e bc 21 41 3e 08 59 59 3d ac aa 75 be
       0.14664097 0.18860525 0.053063422 -0.23990887
000340 84 70 21 bc f7 a5 63 3c 33 04 fd 3d ea 2c fd bb
       -0.009853486 0.01389455 0.123543166 -0.0077263014
000350 c2 a1 44 be 60 92 dc 3d dd 16 5b 3e 1f dd 60 bd
       -0.1920233 0.10770106 0.2139544 -0.054898378
000360 87 27 47 3e 2a 0b 29 3e 13 bd 69 3e ea d0 45 3e
       0.19448672 0.16508165 0.22826032 0.19317976
000370 bd 8e 23 3e 70 93 a4 bd 23 5d 00 be 43 a7 3a be
       0.15972419 -0.08035934 -0.12535529 -0.18227868
000380 22 6a 38 be d5 6e b9 bd 3d 98 2b 3e bf 27 b8 be
       -0.18009236 -0.09054343 0.16757293 -0.35967824
000390 20 24 81 3e 85 d5 fb bd 6d d7 f2 bd 22 d7 2a be
       0.25222874 -0.12296585 -0.118574955 -0.16683629
0003a0 84 94 47 3e 77 24 dd bd bb 2c 78 3e f9 8b 1c be
       0.19490248 -0.10797971 0.24235813 -0.1528777
0003b0 93 76 6f 3d 2f f7 86 3e 4b f8 2c 3e ba 13 5f bd
       0.05846269 0.2636046 0.16891591 -0.054462172
0003c0 3b 94 31 bd d7 e9 c4 3d 8f 16 bb 3e 9d e8 20 3e
       -0.043354254 0.09614914 0.36540648 0.15713735
0003d0 c4 f9 51 bd 9e 58 35 3d 5c cd 8a bd 1d 81 cb bd
       -0.051263586 0.044273965 -0.067774504 -0.09936736
0003e0 97 7a 9f 3d de e0 65 bc 09 31 8b 3e 3a 19 a3 3c
       0.07787054 -0.014030663 0.27185848 0.01990949
0003f0 e1 74 4d 3e a1 e9 e1 bc 7a de 0f 3d a9 14 5a be
       0.20064117 -0.027577223 0.03512428 -0.21296944

network_body._body_endoder.seq_layers.0.bias f4 [128]
000000 00 00 00 00 00 00 00 00 00 00 00 00 00 00 00 00
       0.0 0.0 0.0 0.0
000010 00 00 00 00 00 00 00 00 00 00 00 00 00 00 00 00
       0.0 0.0 0.0 0.0
000020 00 00 00 00 00 00 00 00 00 00 00 00 00 00 00 00
       0.0 0.0 0.0 0.0
000030 00 00 00 00 00 00 00 00 00 00 00 00 00 00 00 00
       0.0 0.0 0.0 0.0
000040 00 00 00 00 00 00 00 00 00 00 00 00 00 00 00 00
       0.0 0.0 0.0 0.0
000050 00 00 00 00 00 00 00 00 00 00 00 00 00 00 00 00
       0.0 0.0 0.0 0.0
000060 00 00 00 00 00 00 00 00 00 00 00 00 00 00 00 00
       0.0 0.0 0.0 0.0
000070 00 00 00 00 00 00 00 00 00 00 00 00 00 00 00 00
       0.0 0.0 0.0 0.0
000080 00 00 00 00 00 00 00 00 00 00 00 00 00 00 00 00
       0.0 0.0 0.0 0.0
000090 00 00 00 00 00 00 00 00 00 00 00 00 00 00 00 00
       0.0 0.0 0.0 0.0
0000a0 00 00 00 00 00 00 00 00 00 00 00 00 00 00 00 00
       0.0 0.0 0.0 0.0
0000b0 00 00 00 00 00 00 00 00 00 00 00 00 00 00 00 00
       0.0 0.0 0.0 0.0
0000c0 00 00 00 00 00 00 00 00 00 00 00 00 00 00 00 00
       0.0 0.0 0.0 0.0
0000d0 00 00 00 00 00 00 00 00 00 00 00 00 00 00 00 00
       0.0 0.0 0.0 0.0
0000e0 00 00 00 00 00 00 00 00 00 00 00 00 00 00 00 00
       0.0 0.0 0.0 0.0
0000f0 00 00 00 00 00 00 00 00 00 00 00 00 00 00 00 00
       0.0 0.0 0.0 0.0
000100 00 00 00 00 00 00 00 00 00 00 00 00 00 00 00 00
       0.0 0.0 0.0 0.0
000110 00 00 00 00 00 00 00 00 00 00 00 00 00 00 00 00
       0.0 0.0 0.0 0.0
000120 00 00 00 00 00 00 00 00 00 00 00 00 00 00 00 00
       0.0 0.0 0.0 0.0
000130 00 00 00 00 00 00 00 00 00 00 00 00 00 00 00 00
       0.0 0.0 0.0 0.0
000140 00 00 00 00 00 00 00 00 00 00 00 00 00 00 00 00
       0.0 0.0 0.0 0.0
000150 00 00 00 00 00 00 00 00 00 00 00 00 00 00 00 00
       0.0 0.0 0.0 0.0
000160 00 00 00 00 00 00 00 00 00 00 00 00 00 00 00 00
       0.0 0.0 0.0 0.0
000170 00 00 00 00 00 00 00 00 00 00 00 00 00 00 00 00
       0.0 0.0 0.0 0.0
000180 00 00 00 00 00 00 00 00 00 00 00 00 00 00 00 00
       0.0 0.0 0.0 0.0
000190 00 00 00 00 00 00 00 00 00 00 00 00 00 00 00 00
       0.0 0.0 0.0 0.0
0001a0 00 00 00 00 00 00 00 00 00 00 00 00 00 00 00 00
       0.0 0.0 0.0 0.0
0001b0 00 00 00 00 00 00 00 00 00 00 00 00 00 00 00 00
       0.0 0.0 0.0 0.0
0001c0 00 00 00 00 00 00 00 00 00 00 00 00 00 00 00 00
       0.0 0.0 0.0 0.0
0001d0 00 00 00 00 00 00 00 00 00 00 00 00 00 00 00 00
       0.0 0.0 0.0 0.0
0001e0 00 00 00 00 00 00 00 00 00 00 00 00 00 00 00 00
       0.0 0.0 0.0 0.0
0001f0 00 00 00 00 00 00 00 00 00 00 00 00 00 00 00 00
       0.0 0.0 0.0 0.0

network_body._body_endoder.seq_layers.2.weight f4 [128, 128]
000000 17 3f 1a be 5a 6f 61 bd cc a7 0d be 7e de 13 bd
       -0.1506313 -0.055037834 -0.1383354 -0.036100857
000010 de b9 04 bd 77 ba 45 bd 54 f6 76 3c 92 c4 50 3d
       -0.03240382 -0.04827353 0.015073378 0.050968714
000020 b3 43 8d bd 31 d5 cc bd b0 b3 49 3e 4f a1 bb 3d
       -0.06897678 -0.100016005 0.19697452 0.091616265
000030 b0 44 b6 3d b8 fd f2 bc fd e7 19 bd ba 4f 0b 3d
       0.0889982 -0.029661998 -0.037574757 0.03401158
000040 ad fe e6 bd 7a 08 68 bd af 8d 9b 3b d9 ab 8a bd
       -0.11279044 -0.05664871 0.0047471146 -0.067710586
000050 44 bf 43 bd df f9 5b bc 92 f0 f3 bc a5 75 2e be
       -0.047789827 -0.013426273 -0.029777799 -0.17037065
000060 1a 91 07 be 2d 6c a4 3d cc 09 87 3d a5 b9 40 3c
       -0.13238946 0.080284454 0.065936655 0.011763011
000070 1c 35 62 be c5 ae d9 bd 76 44 c0 bd de 10 e0 bd
       -0.22090572 -0.10629038 -0.09388058 -0.10940717
000080 ea 75 cc bc 30 47 82 3d 26 6e f8 3d 8e 3c 40 be
       -0.02495857 0.06361234 0.12130384 -0.187731
000090 53 49 b7 bd 69 78 c6 bc 24 35 82 3e 56 54 40 3c
       -0.08949532 -0.024227338 0.25431168 0.011738857
0000a0 35 75 b1 3d 37 e6 a6 bc 21 bc 9e bd 09 31 e6 3d
       0.086649336 -0.020373447 -0.077507265 0.112398215
0000b0 9f e3 d6 bd 61 7a a3 bc da 72 0a 3d a9 f7 be bc
       -0.10492634 -0.019955816 0.033800937 -0.023311453
0000c0 6e 6b a6 3d ae 51 a1 bd 3d c3 b8 bd f2 c1 00 bd
       0.08125959 -0.07876907 -0.09021614 -0.03143496
0000d0 fe ab 47 bb 29 b5 cf bb 98 6f 14 bd de e4 8f bd
       -0.0030467506 -0.0063387346 -0.036239237 -0.07026075
0000e0 b8 d0 98 b9 4d 79 04 3e 57 93 9b 3d 86 39 24 bd
       -0.00029147207 0.12936898 0.07596462 -0.04009392
0000f0 f1 e9 27 be ca 54 ef 3d 13 6a fa bd 24 02 b3 bc
       -0.16397835 0.11686094 -0.12227263 -0.021851607
000100 3d 82 bd bd 8c d5 dd bd 31 b9 1d be d8 f3 63 3d
       -0.092533566 -0.108317465 -0.15402676 0.05565247
000110 f3 9a ab 3d 72 1e 2b be a4 e4 63 3c bb af ea 3d
       0.083791636 -0.16710833 0.013909493 0.11459299
000120 c0 c7 ec bd e0 93 9f bd 58 8c 89 3d 8f 15 81 3d
       -0.11561537 -0.07791877 0.067162216 0.0630294
000130 a6 2a 35 3e b9 68 dc 3d af 8f 10 3e 67 69 74 bc
       0.1769205 0.10762162 0.14117311 -0.014917708
000140 5b 8e ae bc 02 12 c5 bd cd a4 ab 3d 6a f9 54 3d
       -0.021308115 -0.09622575 0.08381043 0.051995672
000150 bc d4 ef bd 51 b4 5f 3d d9 61 90 3d bf 2e 6d 3c
       -0.11710498 0.054615323 0.07049913 0.014476477
000160 bc e3 14 bd 54 a4 08 be 35 b3 ae 3d c0 c5 50 3d
       -0.036349997 -0.13343936 0.08530275 0.05096984
000170 79 b0 e1 bd f4 9c e5 3d 80 96 c2 bb ba 68 a0 3c
       -0.110199876 0.11211577 -0.005938351 0.019581188
000180 a0 a7 cc 3b d1 86 00 3c 1e 9b 8d bd 6b 34 34 3e
       0.0062455684 0.007844643 -0.06914352 0.17598121
000190 74 13 d2 bd 94 80 fa 3c 49 c1 12 3c d7 b8 71 bd
       -0.10257617 0.030578889 0.008957216 -0.059014168
0001a0 22 cd e1 bd 0b 93 c2 3c 82 b1 d5 3d 77 b8 c6 3d
       -0.11025454 0.023751756 0.104342476 0.097031526
0001b0 47 4e 69 bd 0e d2 5d be 1e 3b 9a bd 7d e0 2b 3c
       -0.056959417 -0.21662161 -0.07530807 0.010490534
0001c0 47 1a 87 bc 44 32 ae 3d 06 bb 93 3d fa e2 94 bd
       -0.016492022 0.08505681 0.07213406 -0.07269855
0001d0 21 7b 82 bc 1a a0 3b bd 84 3f a2 3d 62 27 f9 bc
       -0.015927853 -0.04580698 0.07922271 -0.030414287
0001e0 37 22 e9 3c b1 5c 31 3d 9a d4 9f bd c9 25 34 bd
       0.028458698 0.043301288 -0.078042224 -0.043981347
0001f0 ed f8 01 bd 76 ca 3a bd d7 93 21 3d 04 e1 8a 3d
       -0.031731535 -0.045603238 0.03944763 0.067811996
000200 82 30 05 bd 1e 8f 2c 3e 96 6c bc ba 0e d1 8f 3d
       -0.032516964 0.1685147 -0.0014375623 0.07022296
000210 11 c9 f1 bd e1 5e 63 3d 5b 1c c5 3d 35 da d9 3d
       -0.118059285 0.055510405 0.09624549 0.10637323
000220 8c e3 bf 3d 5d f4 7e bd d6 6a 0c 3e 46 be 0e be
       0.09369573 -0.06224476 0.1371263 -0.13939771
000230 8e 28 8f bd 04 23 66 3d 5e b8 03 3d 67 50 ff 3d
       -0.06990157 0.056185737 0.032158248 0.124665074
000240 2c 98 6f bd 6d 49 6b 3d 1f 58 9d bd e5 c3 22 bd
       -0.05849473 0.05744307 -0.076828234 -0.0397376
000250 c3 75 98 bd 6d dd bf 3d b5 e0 29 bd 0a 7c 44 3e
       -0.07444336 0.093684055 -0.041474063 0.19187942
000260 31 49 4b 3d ff 1f db bd 59 e1 52 bc 49 34 8d 3c
       0.049630348 -0.10699462 -0.01287111 0.017236846
000270 5f d5 ae 3d df 8f 91 bd e3 54 27 bc 97 77 9d 3c
       0.08536791 -0.07107519 -0.01021311 0.019222064
000280 27 3a 70 3d 8c 7c a1 3d e5 8f 46 3e d4 e1 10 be
       0.05864921 0.078850836 0.19390829 -0.14148647
000290 43 6c a4 bd 1d de 25 be e0 bf b1 bd 27 65 5c 3d
       -0.08028462 -0.1619801 -0.086791754 0.053807404
0002a0 ad ad c9 3c a3 8d 09 be 92 5e 04 3d 97 c3 00 bd
       0.024618948 -0.13432936 0.03231675 -0.03143653
0002b0 ed 4e 95 bd d4 49 67 bd e6 aa 27 bd b0 f4 2d 3e
       -0.072904445 -0.056466892 -0.040934466 0.16987872
0002c0 03 b4 94 bb a8 2a 2a bd f9 e7 a0 bc 69 b4 23 3b
       -0.0045380606 -0.041544586 -0.019641863 0.002497936
0002d0 ca d4 a8 3b 9c 7c dc 3d 8e a9 12 3d 22 41 3a bd
       0.0051523196 0.10765955 0.03580623 -0.04547227
0002e0 aa e7 04 bd cf d5 bc bd ae fb 04 3d ad a5 dd 3d
       -0.032447495 -0.09220468 0.032466583 0.10822616
0002f0 d4 92 d5 bd 82 5f 85 bd 0b b7 d5 3d a0 29 39 3d
       -0.10428396 -0.06512357 0.10435303 0.045205712
000300 c5 2f 04 be 49 c3 af bd 30 ad 82 bd 06 96 f7 bd
       -0.12908848 -0.085821696 -0.06380689 -0.120891616
000310 5a ea 64 bd 5a 41 f1 bd e4 d4 e7 3d ae d2 b6 bd
       -0.055887558 -0.11780043 0.113199025 -0.08926903
000320 5b eb dc 3c 13 82 70 bd c5 db fb 3d ec 8e d5 3d
       0.026967695 -0.0587178 0.12297777 0.10427651
000330 58 92 14 bd 6e 60 33 be 72 e8 15 3e e3 4d 23 bd
       -0.036272377 -0.17517254 0.14639452 -0.0398692
000340 b5 07 1d be 7e 68 0f 3e 27 de 27 3c b6 51 a1 3c
       -0.15334971 0.14004704 0.010245836 0.019692283
000350 3d 52 6c bd 3f 69 2b 3d 92 7a ef 3d 32 cb e7 bd
       -0.057695616 0.041848417 0.116933 -0.11318053
000360 89 03 73 3d 3a 6f 53 3d 73 87 c8 3c 0a 25 91 3a
       0.059329543 0.051619746 0.02447865 0.001107366
000370 e5 29 0f 3d 33 d9 3d 3d 06 a7 2b 3d 95 a4 65 3d
       0.034952063 0.046349715 0.041907333 0.05606516
000380 96 b8 ad 3d c1 3b b2 3c f4 68 3f 3d ab f5 16 3d
       0.084824726 0.021757009 0.04673095 0.03685538
000390 5d c7 2b bd f6 88 b3 bd 49 08 86 3d 02 8a 8d bd
       -0.041938175 -0.087663576 0.06544549 -0.069110885
0003a0 26 9c 27 3d a5 1f d6 3d e0 4d 47 be 85 01 f3 bd
       0.0409204 0.104552545 -0.194633 -0.11865524
0003b0 2f 0f 26 be d6 ce 54 3d a6 f9 3a 3d ae 3d 8c 3d
       -0.1621673 0.051955067 0.04564824 0.06847702
0003c0 c0 16 b3 bd 98 02 08 bc 96 36 8b 3d 17 9a f5 bd
       -0.087445736 -0.0083014 0.06797521 -0.11992281
0003d0 a8 55 0f 3d 29 03 dd 3d c8 91 c9 3d b8 05 61 be
       0.034993798 0.107916184 0.09842259 -0.21974838
0003e0 50 a4 dd bd 68 ab 86 3d 35 7d 4b be 67 d7 9c bc
       -0.10822356 0.06575662 -0.19871981 -0.01914568
0003f0 4d 88 15 bd 35 42 5a 3d 72 80 b5 3d 0d 2f cf bd
       -0.03650694 0.053285796 0.088623896 -0.10116396

action_model._continuous_distribution.log_sigma f4 [1, 2]
000000 00 00 00 00 00 00 00 00
       0.0 0.0

action_model._continuous_distribution.mu.weight f4 [2, 128]
000000 ab 54 bb 3c f4 48 13 bc 5c 92 b1 3b e1 12 1c 3c
       0.022867521 -0.008989561 0.0054190587 0.009525985
000010 19 1c a7 3c e7 7f 62 bd 59 e7 3a 3c 73 d6 fa 3b
       0.02039914 -0.05529776 0.011407697 0.007654959
000020 77 fb 89 b9 67 75 52 3c 83 5f ab 3c ae 01 88 bb
       -0.00026318032 0.012845374 0.020919567 -0.004150591
000030 4b b1 a5 bc df 1f 97 3c 5d 50 9b bc 4d be 4f bb
       -0.020226141 0.018447815 -0.018959219 -0.0031699121
000040 42 98 15 bc 9e 36 28 3c f0 83 72 3b 08 ab 2a 3d
       -0.009130539 0.010266928 0.003700491 0.041667014
000050 38 b8 01 bc 3b ac 31 bc d4 49 8b 3c 50 92 fd 3b
       -0.007917456 -0.010844286 0.017002977 0.007738389
000060 eb c8 7e bc a3 a6 1b 3c 5a 1b 4b bc af 7c 1b bc
       -0.015550832 0.0095001785 -0.012396658 -0.009490176
000070 f5 6b 62 bc 7f 5f 95 3c 52 a5 e1 3c b5 70 ea bc
       -0.013819684 0.018234013 0.027544651 -0.028618196
000080 fe 2e 20 bc cf d9 dd bb 1d 2e 3f 3c 65 6c f2 bc
       -0.009776829 -0.0067703496 0.011668709 -0.029592702
000090 14 d8 a5 3c 43 b9 bd bc 75 53 a3 3c 40 b8 91 3c
       0.020244636 -0.023159629 0.019937256 0.017788053
0000a0 e8 b2 e5 3b c5 e7 98 bc 26 bf 0f bc b3 bd e1 39
       0.0070098527 -0.018665204 -0.008773601 0.0004305668
0000b0 bb ab a4 3b 7d f9 68 3c 49 fd 1b 3b 5f f5 9a 3c
       0.0050253547 0.014219639 0.0023802093 0.01891583
0000c0 2a c1 f8 3a 22 da d0 3c f8 2c 3e bc 2d b6 2e b9
       0.0018978466 0.025494639 -0.011607401 -0.00016661799
0000d0 16 c8 21 3c ed 58 a8 3b 0b 9a 5c bc 68 35 a1 bc
       0.009874364 0.005137554 -0.013464461 -0.019678786
0000e0 42 4a da 3c ba f0 0b 3d c7 90 d4 bc e8 26 60 3b
       0.026646737 0.03416512 -0.025947941 0.0034202877
0000f0 c6 e3 9e bc 29 0f 9d bb 8f fc 56 3a 40 6e 7e bc
       -0.01939572 -0.004793067 0.00082010863 -0.015529215
000100 f5 07 a4 3b 57 97 9a 38 1d 1b 94 bb 3e e9 2c bc
       0.0050058314 7.3714815e-05 -0.0045198337 -0.010553656
000110 4a be 82 bc 3c 57 a9 bc eb 73 2c bc aa 4e 4d bc
       -0.015959878 -0.02067148 -0.010525684 -0.012530962
000120 f5 b2 d3 bc 50 51 f8 ba 35 5d 70 3a 93 e7 79 bc
       -0.02584217 -0.0018945131 0.00091691624 -0.0152529655
000130 ab 84 90 3c a7 c3 0b 3d c7 59 cd 3b 6b 5a 84 b9
       0.017641386 0.034122135 0.006266806 -0.0002524437
000140 f5 43 e0 3b 2f c5 c0 3b 6b 53 92 bc af a3 3d 3c
       0.0068440386 0.005882881 -0.017862042 0.01157467
000150 b2 13 27 bc 13 1a 4f bc 88 01 81 3c ee c7 a8 bc
       -0.010197567 -0.012640494 0.0157478 -0.020603146
000160 5b 43 55 3d e2 93 15 bd fb 7e e9 3b 9f 2f f2 bb
       0.05206619 -0.036517985 0.007125733 -0.007390931
000170 e8 6e c9 bc 9b 0c f3 3c f6 d4 1d 3c 3a 23 72 3c
       -0.024589017 0.029669097 0.009633293 0.0147789065
000180 af 4c c9 3c b8 c2 f6 3b 45 6f 43 bc c3 60 86 bc
       0.024572698 0.0075305365 -0.011928384 -0.016403561
000190 ec f2 3e 38 28 df 67 3c c2 5f 9d bc f9 db 25 3c
       4.552577e-05 0.014152326 -0.0192107 0.010123246
0001a0 25 59 95 3c 0f 34 61 bc 6e df a4 bb 69 cc 04 bc
       0.018230984 -0.013745322 -0.0050315177 -0.008105376
0001b0 4d 41 9d bc 05 3e 7f bb 03 ce 09 bd 30 a8 89 3b
       -0.019196177 -0.0038946879 -0.033643734 0.0042009577
0001c0 3f 3d 21 bc a9 72 36 bc 9e 28 1f bc bf b2 b4 bc
       -0.009841262 -0.011135736 -0.009714274 -0.022057889
0001d0 64 e2 24 bd 6a 2f 27 bc 1d ef bb bb 10 a6 54 3c
       -0.040254965 -0.0102041755 -0.0057352916 0.0129790455
0001e0 c0 1e 0c bc 7d eb 53 3d ac 1f 37 bc 18 d5 79 b8
       -0.008552253 0.05173825 -0.011176985 -5.9564685e-05
0001f0 7f fe a8 bc 28 77 58 3c 70 ba 5f 3b 46 f5 46 3c
       -0.020629166 0.013212003 0.0034138225 0.012143439
000200 a3 d5 96 bc 2f 70 bf bc 30 cc 55 bb d7 b0 93 3c
       -0.018412417 -0.023368923 -0.0032622926 0.01802866
000210 df 6c c4 3a 85 03 c8 b9 3f 8b 94 3c ff 9b ba 3b
       0.0014986059 -0.00038149595 0.018132804 0.0056948657
000220 6e c2 49 3c 73 41 ff 3b 2f d6 de bb 56 2c 03 3d
       0.012314422 0.0077897846 -0.006800435 0.032024704
000230 2a d7 e3 bc e8 d5 78 bc b8 90 eb ba c0 08 96 3b
       -0.02781256 -0.015187718 -0.0017972207 0.00457868
000240 33 f7 35 3b b8 b4 b3 bc b9 8b 84 bc 38 15 15 3c
       0.002776575 -0.02193676 -0.016179906 0.009099297
000250 67 fd 4a bc 13 60 1a bb 65 48 1f 3d a3 93 fe 3c
       -0.012389517 -0.00235558 0.0388874 0.031076258
000260 79 7b 93 bb 3b 38 97 bc 2f 52 ea bc f1 0c c8 3c
       -0.004500803 -0.01845943 -0.028603641 0.024420233
000270 31 69 b4 3c 51 d1 0d 3d bd de aa ba fb 4b de bc
       0.022022815 0.034623448 -0.0013036352 -0.02713584
000280 57 e9 b9 3c d0 ea b8 bc f7 65 22 bc 9d 6e 9a 3c
       0.022694273 -0.022572905 -0.009912006 0.018851573
000290 cc 14 a2 bc 3d d1 79 3a ce df 44 bc 23 a8 eb bc
       -0.019785307 0.0009529775 -0.01201625 -0.028766697
0002a0 09 49 15 bd a7 91 2b 3c 5c 00 3f bb f9 5a 88 bc
       -0.036446605 0.010471738 -0.0029144501 -0.016644942
0002b0 c3 6f 0a bd 63 54 62 3b b0 a9 75 bb cb ea 73 bc
       -0.03379799 0.0034535162 -0.0037485175 -0.014887522
0002c0 47 40 8e bc 61 cb 27 bb f6 b6 9b b9 df 57 08 3d
       -0.017364634 -0.00256034 -0.0002970022 0.033286925
0002d0 ca 23 a6 3b 52 d8 5f bc 57 dc 49 3c 22 38 99 bc
       0.0050701844 -0.013662415 0.0123205995 -0.018703524
0002e0 ee 65 c1 bc 25 84 69 bb e4 e9 17 bc a7 e5 84 3c
       -0.023608174 -0.0035631743 -0.009272072 0.016222788
0002f0 af 9b 38 3d a9 93 8b bc 1a f2 71 bc 03 b8 56 bc
       0.045070346 -0.017038183 -0.014767194 -0.013105395
000300 67 0d 16 3d f9 77 a8 3c d3 52 2d bc cc 44 2b bc
       0.036633875 0.02056502 -0.010578829 -0.010453414
000310 9f 5d 47 bb a7 8c 8d 3a a6 2e 16 bc 78 cc 40 3c
       -0.0030420793 0.0010799364 -0.009166395 0.011767499
000320 83 18 a4 bc e9 8c 05 bc b9 b8 4c bc 40 eb 1e bd
       -0.02003122 -0.008151271 -0.012495213 -0.03879857
000330 78 3b 02 bd eb 72 ef bc c4 7c c7 bc 40 1d 33 bc
       -0.031794995 -0.029229602 -0.024351485 -0.010932267
000340 33 62 09 bc 52 e7 27 3c 27 1f 9a bb f5 3a 05 bb
       -0.008385229 0.010248022 -0.0047034207 -0.002032933
000350 8d 56 f2 ba ca f7 01 3c 60 e2 df 3c 11 93 b8 3c
       -0.0018488929 0.007932613 0.027329624 0.022531064
000360 1b a1 26 3c 89 c5 ab 3c 63 94 3d bc cb c8 b7 3c
       0.0101702465 0.020968216 -0.011571023 0.022434613
000370 db e2 0d bd 30 e3 77 3c 3f a0 a7 3c b8 f1 1b 3c
       -0.034640174 0.015129849 0.020462153 0.009518079
000380 63 8e 03 3c 8b 0f 3d bd 53 f7 ad 3c 29 a4 86 3c
       0.008029553 -0.0461574 0.021236097 0.0164357
000390 66 e3 9f 3c 20 20 cb bb 75 ad 22 3c eb 59 cc bc
       0.019517612 -0.006198898 0.009929051 -0.02494522
0003a0 1c e8 07 3d 81 6c 96 3c ba 44 fd bc 9c e6 03 bd
       0.03318034 0.018362286 -0.03091656 -0.032202348
0003b0 f8 f2 4d 3c 9f 34 e0 ba bf 51 04 3d 66 64 c8 3b
       0.012570135 -0.0017105526 0.03230452 0.006115484
0003c0 1a 00 85 3a a7 ea d5 3b 8f 02 b4 3c f7 e7 40 bd
       0.0010147125 0.006528217 0.021973876 -0.04709622
0003d0 3f 77 96 3b 1b 77 20 3c 5a 8d 7d bb 4b 39 ef bc
       0.004591852 0.009794022 -0.0038688988 -0.029202124
0003e0 70 9d 76 bc 1f e1 f8 3b ab 4c 75 3a a1 95 1f ba
       -0.015052184 0.007595196 0.0009357433 -0.0006087665
0003f0 07 0a 9e 3c 0b 38 cf bc cb 7b c1 ba 35 c0 02 bb
       0.01929189 -0.025295278 -0.0014761625 -0.001995099

action_model._continuous_distribution.mu.bias f4 [2]
000000 00 00 00 00 00 00 00 00
       0.0 0.0
