results/test/CarParking/CarParking-52916.pt (torch, 525724 bytes, 36 tensors)

network_body._body_endoder.seq_layers.0.weight f4 [128, 33]
000000 d7 b3 d9 3c dd c2 48 bd 4c cb ca 3c 82 b1 fb bd
       0.026575012 -0.04901396 0.024755143 -0.12289716
000010 ae 9c c1 3d b0 d6 9f 3d 24 4e dd 3c ec 48 8d bd
       0.094537124 0.0780462 0.0270148 -0.06898674
000020 cb c1 03 be 5c 7a 8a 3d 6a ca c5 3d 55 9c b7 bb
       -0.12866895 0.067616194 0.09657748 -0.005603353
000030 7b 70 5a be e8 b0 90 3e 8e 2a 1d bd f4 ca fb 3d
       -0.2133197 0.2825997 -0.03837066 0.122945696
000040 df 91 34 3d c9 87 02 3e 56 7c 0f bd e3 07 44 be
       0.044084426 0.1274711 -0.035030685 -0.19143634
000050 a2 2b dc 3e e0 ad 27 bd 34 b6 91 3e ca 16 9b bd
       0.4300204 -0.040937304 0.28459322 -0.07572706
000060 67 51 66 3d 5f 6f c8 be 25 bd 86 bd 2e d2 9b be
       0.056229975 -0.3914747 -0.06579045 -0.30433792
000070 25 21 18 3e e3 b5 65 3e 13 48 f7 bd 56 46 94 3e
       0.14856394 0.22432666 -0.12074294 0.28959912
000080 03 61 b2 3d 13 a6 11 3d 05 46 2b bc 00 c2 11 3c
       0.0870991 0.03555877 -0.010453706 0.008896351
000090 a3 81 8d bd 04 ac 72 be 90 62 05 3e db d4 9a 3e
       -0.06909492 -0.23698431 0.1302588 0.3024052
0000a0 78 96 a7 be 80 33 a5 3d fe f9 a1 3e 6b 86 8e 3d
       -0.32731986 0.080664635 0.3163604 0.06959232
0000b0 fc d3 51 bd 89 17 8a bd 02 ba 81 bd c9 d1 5a bc
       -0.051227555 -0.0674277 -0.06334306 -0.013355681
0000c0 10 bb 20 3e e5 48 ab be ec 0b a0 be 01 43 8b bd
       0.15696359 -0.33454052 -0.31259096 -0.06799889
0000d0 f9 c9 83 3d 22 f2 72 bd 42 eb 87 be 9e fa 55 be
       0.064350076 -0.059312947 -0.26546675 -0.20896384
0000e0 0d 0e 65 3e 69 62 84 be f2 d5 89 bd 45 cb dc bc
       0.22368641 -0.2585633 -0.0673026 -0.026952395
0000f0 b8 74 06 3e c3 c7 63 bc d1 32 b9 bd 6a 77 dd bd
       0.13130462 -0.013902607 -0.090428956 -0.10813792
000100 bf 76 57 3e d6 25 3c 3c c1 4f e9 3d 67 5b bf bb
       0.21041392 0.01148363 0.11392165 -0.0058397534
000110 53 ca 09 be 26 53 99 bd 81 ba eb bd 51 53 40 3e
       -0.13456087 -0.074865624 -0.11510182 0.18781783
000120 ea a6 bd 3b 74 a4 6f 3d a6 f9 cf 3d 42 91 91 3d
       0.00578772 0.058506444 0.101550385 0.07107784
000130 b6 94 c0 bd 27 3d f9 3d d9 a5 e0 3d e9 53 82 ba
       -0.09403364 0.12169867 0.10969133 -0.000994322
000140 ff 20 ac bc 7f b7 1e 3c 31 6a c7 3d ef e8 1d 3e
       -0.021011828 0.009687304 0.09737051 0.15420888
000150 90 4b 6c be 06 37 7f 3d 7e d1 a0 3e 67 4a a2 3d
       -0.230757 0.062308334 0.3140983 0.07924347
000160 69 18 5f be 87 16 b4 3e 96 62 11 bb 10 0a db 3d
       -0.21786655 0.35173437 -0.0022184006 0.10695279
000170 40 94 85 3d 22 94 9c 3e e9 b2 78 3e d8 47 32 3e
       0.06522417 0.30581766 0.24286999 0.17410219
000180 66 25 77 be 20 ff be 3d 2f 34 1b 3e ca 38 d0 3e
       -0.2413536 0.09326005 0.15156625 0.40668327
000190 a9 ce a4 3e 32 fc 97 3d 69 46 51 be 15 53 97 bc
       0.3218892 0.07421149 -0.20437016 -0.018472234
0001a0 0e 85 e0 be 5c 7b ab be e6 12 35 bd 71 6c b0 bc
       -0.43851513 -0.33492553 -0.044207476 -0.021536084
0001b0 8a 6d 6f bd 44 bd 2b 3d 41 2f 1b bd fe c5 38 3e
       -0.058454074 0.041928545 -0.03788686 0.18044278
0001c0 9f 32 3e be e6 80 9a bd b6 82 a0 3d fd 6d 18 be
       -0.18573998 -0.07544117 0.07837431 -0.14885707
0001d0 ca c3 f6 bd 9b 05 97 bd 39 4c c2 3d d1 75 25 be
       -0.120490626 -0.07374116 0.094871946 -0.16158225
0001e0 fc 50 b2 bb ee 29 a1 be 9a a7 9d be 16 7b 14 3e
       -0.005441783 -0.31477302 -0.30791932 0.14500079
0001f0 ed 32 9a 3d db 27 0c 3f e9 83 9b bd d2 18 23 3d
       0.075292446 0.54748315 -0.07593519 0.039818592
000200 e1 18 53 3e 99 88 76 be e7 21 4a be 1a 0b c0 bd
       0.2061496 -0.24075545 -0.19739495 -0.093771175
000210 97 9b 66 bd be c7 ce bd 35 c3 8c bd 4d cd 30 3d
       -0.056300726 -0.100966915 -0.0687317 0.04316454
000220 e0 22 54 bc 99 8f 74 3d d1 04 a1 3c 0d 36 38 bd
       -0.012947768 0.059707258 0.019655617 -0.04497342
000230 ab 31 0b be 15 6b a3 be f0 41 8e 3c 3a 3f 2b be
       -0.13593166 -0.31917635 0.017365426 -0.16723338
000240 f9 b1 80 3e 89 ef 2d be 05 d1 1e 3e 0d e8 28 be
       0.25135782 -0.16985907 0.15509422 -0.1649477
000250 0c 12 a8 3d 0d 8f 80 3e 52 23 23 3d 24 36 04 3e
       0.08206567 0.2510914 0.039828606 0.12911278
000260 ca 7a d2 bd e2 04 3f 3e 68 1a 8b bd 6a 07 5c bd
       -0.102773264 0.18654206 -0.06792146 -0.053718008
000270 ea a7 af 3e e2 72 75 bd 20 7a 89 3d 5b 69 71 be
       0.34307796 -0.059924014 0.067127466 -0.23575346
000280 81 56 09 bd b9 9b 7c 3e 4a 60 0e 3e a5 f2 d2 3d
       -0.033529762 0.24668778 0.13903919 0.10300187
000290 2f bc f6 3d 07 af 94 be 4a 3c 11 be ed c2 ca 3e
       0.12047612 -0.29039785 -0.14183155 0.39601842
0002a0 dd b0 63 ba 56 a1 b8 bd cc 5c 8a bd 7c 28 32 3e
       -0.00086857175 -0.090151474 -0.06755981 0.17398256
0002b0 2d c9 4f 3a dd 1f db 3c 04 54 94 3e 49 e3 32 3e
       0.0007926401 0.026748592 0.2897035 0.17469515
0002c0 cf 80 ba bd 7c d2 d7 bb 08 13 25 be c1 5b 49 be
       -0.091065995 -0.006586371 -0.16120541 -0.19663908
0002d0 b2 30 88 bd 30 51 0c 3e 7d 7d 81 3e ee 0e db bd
       -0.06649913 0.13702846 0.25291052 -0.10696207
0002e0 f6 bd 0e be b0 ae ba bd ee 39 3a bc c3 54 90 bb
       -0.13939652 -0.0911535 -0.011366351 -0.0044046356
0002f0 1a d6 f0 3e 8a d7 2b be 12 31 de bc 5d b0 68 3e
       0.47038347 -0.1678144 -0.027123008 0.22723527
000300 15 1c 43 3d 5f d9 0f 3e 1c a1 34 be 14 64 95 3d
       0.047634203 0.14047764 -0.17639583 0.07294479
000310 60 fa 25 be cc 4d db bd 52 d1 70 3c a9 9b 30 3e
       -0.16208792 -0.10708198 0.014698343 0.1724688
000320 9c b2 a9 be 9f d8 8b bd 50 66 c0 3d 6b 0e 79 3e
       -0.3314408 -0.068284266 0.093945146 0.24321906
000330 27 47 a7 3d 24 46 9e be 7b a7 12 be 8e f1 ca 38
       0.08167868 -0.30912888 -0.14321701 9.677104e-05
000340 02 4e 2b be 70 ad 32 bc 39 28 5a be 0c 6c 8d bb
       -0.16728976 -0.010905609 -0.21304406 -0.0043158587
000350 97 2e 42 bc cf c7 31 3d c7 cf 65 bd 2a bd 28 be
       -0.011851928 0.043403443 -0.056106355 -0.1647841
000360 e1 c7 4c 3a a5 db ea bd 7b 2c 14 bd cc 70 2b 3c
       0.00078117667 -0.11467675 -0.036175232 0.010463905
000370 91 43 ab be a8 2a da be 39 2f 5a be 4b ba 67 3e
       -0.33449987 -0.4261067 -0.21307077 0.22629659
000380 0d f9 54 3e 55 02 90 3e 00 50 0b be 5e c4 3b 3e
       0.2079813 0.2812678 -0.13604736 0.18336627
000390 f1 c0 3c be 46 fa b3 be 58 d1 58 3c 0b 6c 27 bd
       -0.18432976 -0.3515188 0.013233505 -0.040874522
0003a0 ea 1d c9 3d b6 38 c0 3d d1 bd b3 bd 2a 75 f9 3d
       0.09820159 0.09385817 -0.08776439 0.121805504
0003b0 8b 18 74 be 62 28 d5 bc 18 4b 71 bd 66 50 b1 bd
       -0.23837487 -0.026020233 -0.058909506 -0.08657913
0003c0 ad a5 48 be ac 40 53 3d 3e e4 f9 3d f7 6a a3 3d
       -0.1959445 0.051575348 0.12201737 0.07979386
0003d0 03 97 81 be f5 ac 46 bd d1 6b 84 3d b2 7f 11 be
       -0.25310525 -0.04850479 0.06465877 -0.14208868
0003e0 97 39 82 3e e6 a7 1c 3e 9d cd bb bd a8 72 81 bc
       0.25434563 0.15298423 -0.09170077 -0.015801743
0003f0 8e e5 90 bd ea bf 97 3c 89 00 18 3e de 29 6c 3e
       -0.07075034 0.018524129 0.14843954 0.23062846

network_body._body_endoder.seq_layers.0.bias f4 [128]
000000 b4 a6 19 3c 04 0d c6 3a b8 fa 87 bb ce 07 10 3c
       0.009378124 0.001511008 -0.004149761 0.008790923
000010 7b bf a7 3a 2d e3 6b 3b 0d ea 7e bc f2 e5 28 3c
       0.0012798154 0.0035993562 -0.015558732 0.0103087295
000020 8d dd 04 3c 54 85 50 3c 78 f1 b4 3c 10 5d 46 3b
       0.008109462 0.0127271 0.022087798 0.0030267872
000030 9f b1 4f bc 8b c7 c3 ba f0 7e 49 3b 03 f2 09 bc
       -0.0126766255 -0.0014936788 0.0030745827 -0.0084195165
000040 bb 39 e7 ba 4d dc d3 3a 4f c4 bb ba 05 94 77 ba
       -0.0017641106 0.0016163677 -0.0014325472 -0.0009444359
000050 27 1d c1 b9 bd 58 99 3a 42 d6 e0 3b 5d 80 f1 bb
       -0.0003683355 0.001169942 0.006861479 -0.0073700384
000060 66 71 d8 bb e0 20 72 3b 5e d9 58 3b 3c c3 ef bb
       -0.006605315 0.0036945865 0.0033088545 -0.007316975
000070 f6 31 28 bc a2 14 b0 bb 9f ab 4e 3b 57 a4 0b bc
       -0.010265818 -0.0053735534 0.00315354 -0.008523068
000080 47 e8 92 bc 41 36 0e 3c cf c6 f1 b9 73 7e 5c bb
       -0.017933024 0.008679927 -0.00046115226 -0.0033644706
000090 08 87 55 bb 5a 9e 34 3c 11 c5 bd 3b 8d 88 71 bc
       -0.0032581706 0.011024082 0.0057913144 -0.014742029
0000a0 27 d8 ec 3b cb c4 04 bb 64 c7 82 3c 3e 6c 79 3b
       0.007227916 -0.00202589 0.015964217 0.0038058902
0000b0 11 fb 72 bb 21 53 97 bc 48 b4 99 b9 04 9a 9d 3b
       -0.0037075917 -0.018472256 -0.00029316754 0.00480962
0000c0 66 fc 3a 3c f7 21 c0 bb 1d 39 90 3c 8e d2 c0 bb
       0.011412716 -0.005863424 0.017605359 -0.005884475
0000d0 42 64 97 bb 20 13 57 3c 28 1d d8 3b bb 25 38 3c
       -0.004620106 0.013127118 0.0065952726 0.011239464
0000e0 ee bf b5 bb 18 51 28 3c d2 62 3b bc 66 40 3e 3b
       -0.0055465614 0.0102732405 -0.011437135 0.0029030084
0000f0 f5 79 20 3a 22 39 96 bc 48 82 98 3b 97 31 c1 3b
       0.00061216886 -0.01833779 0.0046542026 0.005895804
000100 90 e6 12 3b 34 df 68 bb 91 23 f6 3b cc 21 ed bb
       0.0022415258 -0.003553343 0.007511564 -0.007236695
000110 dc 4a a4 3c 48 74 54 3c 72 99 06 3c 6f cd 05 3b
       0.020055227 0.012967177 0.008215295 0.0020416637
000120 10 41 72 bc 57 69 cb bb 35 cc d7 bb e9 66 18 b9
       -0.01478602 -0.006207626 -0.0065856227 -0.00014534187
000130 e3 d0 1c bc ef b9 e8 bb 36 cd 35 bc 2d da 3c 3b
       -0.009571287 -0.007102243 -0.011096289 0.0028816566
000140 50 68 60 bc 5b b9 fb 3b 32 c4 ef 3b 39 72 66 3c
       -0.013696745 0.007682008 0.0073170895 0.014065319
000150 98 81 23 bc c8 f6 3d ba 30 39 a3 3b bc e2 dc 3b
       -0.009979628 -0.0007246551 0.0049811825 0.006740896
000160 fa a9 0e 3c a6 ab 08 bb 6f 2d 2e 3c 8c 47 9c bb
       0.008707518 -0.0020854264 0.010630949 -0.0047692712
000170 26 17 ad 3b 5d df ac 3c 1b d4 76 ba 9b 61 47 bb
       0.0052823005 0.021102602 -0.00094157615 -0.0030423168
000180 96 66 cf bb 69 5f 82 3c 90 a2 50 bb 14 96 5b bb
       -0.006329368 0.015914636 -0.0031835176 -0.0033506202
000190 71 a0 76 bc 56 94 fc bb be f1 3a 3c bf f6 5c 3c
       -0.015052901 -0.0077081127 0.011410175 0.013486563
0001a0 61 67 47 3c 69 bb 30 bb 18 da 27 bc ea ce d5 bb
       0.012170644 -0.0026967174 -0.010244869 -0.00652491
0001b0 90 f6 20 bc 1c a4 11 3c fd 56 07 3c 9b 8f d7 bb
       -0.00982441 0.008889224 0.008260486 -0.0065783984
0001c0 a5 52 b4 3b 43 6e 19 3c 7c 11 72 3c 32 5b 8b bb
       0.005503016 0.009364667 0.014774676 -0.0042528147
0001d0 87 94 28 3c 9e 46 ca 3c c7 7b 1d 3b f0 c1 6a bc
       0.010289318 0.024691876 0.0024030076 -0.014328465
0001e0 34 d9 ec ba 45 84 e2 3c 39 92 02 bc f3 a9 26 bc
       -0.0018070103 0.027650962 -0.0079694325 -0.010172355
0001f0 d8 a1 d7 bb ea 06 53 bb 72 18 a5 bb ac fa e2 3c
       -0.0065805726 -0.0032200166 -0.0050383145 0.02770742

network_body._body_endoder.seq_layers.2.weight f4 [128, 128]
000000 59 3c 03 bd f0 e3 67 3d bd 29 22 3d eb 31 ae 3b
       -0.032039974 0.056613863 0.039590586 0.0053160093
000010 a1 88 2a bc 93 a8 86 3d a7 1c b4 3d 57 0e 1a 3c
       -0.010408551 0.06575122 0.087945275 0.009402833
000020 da e0 05 3c 75 19 f7 bd bb d3 a7 bd 96 b4 90 bc
       0.008171285 -0.120654024 -0.08194681 -0.017664235
000030 ed 4f dc 3d 5b 58 c0 bc b1 dd 8b 3d 76 38 52 3c
       0.10757432 -0.023479631 0.06829394 0.012830844
000040 2d 10 84 bc 94 3c 72 bc 23 02 68 bd 93 ab 9d 3c
       -0.016120994 -0.014784951 -0.056642663 0.019246852
000050 d3 73 26 bd 4a 1e 16 3d ec e8 6c 3e 43 ab e2 3c
       -0.040637802 0.03664998 0.23135728 0.027669555
000060 c3 ec cb 3c 30 90 0d 3d 7e e6 bf bd ce 60 9c 3d
       0.02489317 0.034561336 -0.09370135 0.076356515
000070 aa 13 14 bd c6 0e 3c 3d bb 0d 91 bd 27 dd 15 3e
       -0.036151566 0.045912527 -0.07082697 0.14635144
000080 84 70 33 3d d1 37 04 bd 6f 7c eb 3d 93 41 a6 3d
       0.043808475 -0.032279793 0.11498343 0.08117976
000090 e9 c9 cf bd 1c 7c 4b b8 21 a8 43 3d 18 2a ab 3d
       -0.10145933 -4.8514557e-05 0.047767762 0.08357638
0000a0 c9 31 94 bc 29 81 11 3d 87 f0 15 3c ff 02 93 bd
       -0.018090146 0.035523567 0.0091515845 -0.07178306
0000b0 69 6d 02 bd 8f 07 35 bd 4a e5 3b 3e cf ff 35 be
       -0.031842623 -0.04419666 0.18349186 -0.17773364
0000c0 02 8a a2 bd cc 70 0e 3d 68 bc e3 3c a8 1c 3a bd
       -0.07936479 0.03477554 0.0277998 -0.045437485
0000d0 24 6c 3d 3d 86 7e 53 3c 06 0a fa 3c d2 e1 2b 3c
       0.04624571 0.0129085835 0.030522358 0.0104908515
0000e0 1d a2 e7 3d 84 4f 21 3d da b4 14 3d 81 65 10 3d
       0.113102175 0.039382473 0.036305286 0.03525305
0000f0 77 8b 90 bb 5a 8f 05 3e 51 59 15 3d 53 5a 05 3e
       -0.0044111568 0.13042966 0.036462132 0.13022737
000100 59 61 e1 3c 73 44 16 ba 57 11 86 3d 9c 56 17 3e
       0.02751224 -0.00057322456 0.06546276 0.14779133
000110 f0 bb d7 bb 53 51 4d 3d 62 44 8e 3d fb 86 ba 3d
       -0.006583683 0.050126385 0.06946637 0.09107777
000120 66 1a 00 3d 24 8d ed bd 47 af 62 bd 9c ea 6a 3e
       0.031275176 -0.11599186 -0.05534294 0.22941059
000130 02 5c c5 3c 7c 70 01 be 90 30 82 bc 43 84 88 bb
       0.024091724 -0.12640566 -0.015892297 -0.0041661575
000140 54 15 10 be 52 a1 1d be a7 67 c6 bc a4 f9 07 3d
       -0.14070636 -0.1539357 -0.024219347 0.03319706
000150 96 88 11 bc 59 86 fb 3d d0 5e 22 be d5 a2 10 bd
       -0.008882662 0.12281484 -0.1585648 -0.03531154
000160 f2 c8 56 bd 16 48 89 be a5 67 48 3e 30 87 38 bd
       -0.05243773 -0.2681281 0.19570787 -0.0450508
000170 75 5c 2f bd 41 b4 50 3b ab d6 f2 3b e2 35 2a 3d
       -0.042812783 0.003184572 0.0074108443 0.041555293
000180 04 d9 42 bd dc 36 0e be 6e b7 36 3d 42 42 b5 3c
       -0.047570243 -0.13888115 0.044608526 0.02212632
000190 90 b6 15 3e 02 67 be 3d 8a ef 8b 3d 08 e8 39 3e
       0.14620423 0.09296991 0.06832798 0.18154919
0001a0 99 29 5a 3d 14 89 1f 3e 4b f4 6b 3c cb bd 99 bd
       0.053262327 0.15579635 0.014401506 -0.07506903
0001b0 eb 9b 5b 3d 61 de bd bd 5c c4 1b 3d b0 76 e5 3d
       0.05361549 -0.09270931 0.03802906 0.112042785
0001c0 9e 62 40 3d e7 14 b9 3d 35 82 c0 bc d7 b9 59 3e
       0.04696905 0.0903719 -0.023499588 0.21262299
0001d0 6d 82 49 3d 6f d9 07 bd 80 fd b1 bc b1 ff 09 3d
       0.04919665 -0.033166345 -0.021727324 0.033691112
0001e0 97 90 e8 3c ba f5 0f be 10 92 a2 3d 14 09 b4 3c
       0.028389258 -0.14058581 0.079380155 0.021976985
0001f0 2b 2f 0c 3c 69 94 ae 3d 97 95 8e 3c 72 0c c7 3d
       0.008556168 0.08524401 0.017405314 0.09719171
000200 5c f6 08 3d ca 42 cc bd 26 64 8f bd 41 92 83 3d
       0.03343807 -0.099736765 -0.07001524 0.0642438
000210 49 69 b5 3d a3 70 03 be b4 35 c7 bd 95 1b c9 3d
       0.08857972 -0.12835936 -0.0972704 0.09819714
000220 86 06 0a be e0 e9 8b bc 8c 06 a3 bd df 92 11 3e
       -0.13479051 -0.017079294 -0.07960233 0.14216183
000230 a2 df f7 3d a3 28 8c bc 45 04 00 3d 74 11 a3 bd
       0.121032014 -0.01710922 0.03125407 -0.07962313
000240 7a fb de 3b 4e bc ad bd 1c 1b 98 bd f5 d0 8e bd
       0.0068048807 -0.08483182 -0.07427046 -0.06973449
000250 5a ce 39 be 11 5e 09 bd 8d a2 2d bd fa 87 c7 3d
       -0.18145123 -0.033536974 -0.04239135 0.09742732
000260 72 79 9f bc ba 06 3d bd 54 2f e0 3d 43 b5 09 3d
       -0.01946709 -0.046148993 0.10946527 0.03362013
000270 70 26 82 bd b0 1f 4f 3c 64 9d 7a bd 13 56 cb 3d
       -0.063549876 0.012641832 -0.061185256 0.09928527
000280 46 be fe bd e5 b5 ce 3c 23 ef 9e 3d 89 73 06 be
       -0.124386355 0.025233218 0.077604555 -0.1313001
000290 66 6f 7d bd ac c6 04 3d f5 78 f7 ba 9c ba 33 3d
       -0.061873816 0.03241603 -0.0018880652 0.043879136
0002a0 f3 e3 e9 3c a0 9e 82 bc ab ad d6 3d 1a a7 00 bc
       0.028551077 -0.015944779 0.10482343 -0.00785234
0002b0 15 6f 3c 3c 45 d1 f1 3d 92 ee 9b bc 7f 44 8b 3c
       0.011501093 0.11807493 -0.019034658 0.017000435
0002c0 9f 3e 9c 3b 97 e6 8f 3d 20 0e d9 bd e6 f7 4f be
       0.004768207 0.070264034 -0.10598397 -0.2030941
0002d0 3d d8 db bd f1 72 6f 3d 17 df ff 3a c7 5e 86 bd
       -0.107346036 0.058459226 0.0019521442 -0.06561046
0002e0 36 f4 9d bc 85 32 57 3d 8e 27 d1 3b d6 88 64 be
       -0.019281488 0.052538414 0.006382889 -0.22317824
0002f0 01 4a 36 bd c3 fc 23 bd 5c 63 11 bc 48 e3 94 3d
       -0.04450417 -0.040035974 -0.008873787 0.07269913
000300 9a e0 f1 bc d1 4d 9f bc a5 d7 db 3d b6 28 fd 3c
       -0.029526044 -0.019446285 0.1073449 0.030903202
000310 ee 88 de 3d 75 92 03 bd b0 49 13 be ed 04 d0 3c
       0.10865961 -0.032122094 -0.14383578 0.025392974
000320 ab 01 08 3d ba 51 e3 3d 39 ed 1b bc e0 90 1e bd
       0.033204716 0.110995725 -0.0095170075 -0.038712382
000330 f4 41 db 3d 1b 8b d4 3c 6f 6a 96 bd 53 c8 13 bd
       0.10705939 0.025945237 -0.07344519 -0.036079716
000340 d5 56 0c bd 68 ce 9e 3c 7e 7e 23 3d 31 03 0f 3e
       -0.034262497 0.019385532 0.039915554 0.13966061
000350 f3 ae dd 3d e0 e9 28 bd eb 78 06 3d f0 1c 6d 3c
       0.108243845 -0.041238666 0.03283016 0.014472231
000360 4e 97 52 3d c7 89 a6 bc 33 54 a9 3d f2 39 0d 3e
       0.051413827 -0.02032937 0.08268013 0.13791636
000370 4f 14 b9 bd 37 84 6c bd 90 96 22 bd 75 e0 20 bb
       -0.09037077 -0.057743277 -0.03969437 -0.002454785
000380 08 48 44 bb 79 fb b3 bd 17 58 c8 bd e8 75 10 3e
       -0.002995016 -0.08788199 -0.09782427 0.14107478
000390 12 5c c9 bd 6f d0 03 3c be e4 b3 bd 20 d1 d8 3d
       -0.09832014 0.0080453 -0.087838635 0.105867624
0003a0 b8 26 d3 bd 2e 35 44 3e e9 1a 9b 3d 14 54 42 bc
       -0.103101194 0.19160911 0.07573492 -0.011860866
0003b0 6a ad ae bc a8 82 25 3d 2b ce c8 3c 2a a9 47 3d
       -0.021322925 0.040407807 0.024512371 0.04874531
0003c0 30 b7 9c bd f3 d6 08 bd 9e 65 0b 3d 13 9a d5 3c
       -0.07652128 -0.033408117 0.034032457 0.026074445
0003d0 1b 38 25 3d 65 08 9b 3d d4 99 fa bc 20 d1 9f 3c
       0.04033671 0.075699605 -0.03059093 0.019508898
0003e0 2a 99 6d bd 07 e3 3c be ac fa c4 bd 6f a4 1f 3e
       -0.058007397 -0.18445979 -0.09618124 0.1559007
0003f0 1b ee 0d 3e 80 28 d5 3c 58 47 ea bb 9f 8f ec bb
       0.13860361 0.026020288 -0.007149618 -0.0072192694

network_body._body_endoder.seq_layers.2.bias f4 [128]
000000 18 92 97 bb f9 36 03 bc 8a 66 3e 3c 75 c7 66 38
       -0.00462557 -0.008008712 0.011621127 5.5022032e-05
000010 68 70 a5 3b 32 f3 9e 3b ff 1c 61 3a 6e 89 ad bb
       0.0050488003 0.0048507685 0.00085873896 -0.005295924
000020 89 cc 6a bb 77 3c 1c bc 12 38 ee bb 6f 72 d6 ba
       -0.003582748 -0.0095359 -0.0072698677 -0.0016361008
000030 a5 92 79 3a 04 6d b8 bb cf 68 a2 3b 76 61 84 3c
       0.0009520448 -0.00562823 0.004956342 0.016159754
000040 5e 16 bb 3b 06 7e f6 3a 59 fa 56 bb f3 fd f0 bb
       0.0057094535 0.0018805868 -0.0032803027 -0.007354492
000050 43 c5 ea 3a d7 d4 2b 3c 0e 34 ab bc 58 b9 4a bc
       0.0017911572 0.010487757 -0.020898845 -0.012373291
000060 a2 28 25 bc 36 a5 2a 3c 3d c3 36 3c 9d f7 6e 3c
       -0.010080488 0.010415366 0.011154947 0.014585403
000070 be 4c f0 3b 91 ba 33 bc 11 00 14 3c 52 c3 b2 3a
       0.007333367 -0.010969774 0.009033219 0.0013638532
000080 dd 55 0a 3c 60 e8 7c 3b ba b7 ad bb 86 b0 4d bb
       0.008443323 0.0038590655 -0.005301443 -0.0031385734
000090 aa f4 b3 bb de ac 22 3c 32 d1 a9 bb 5e ec 1f 3b
       -0.0054918127 0.00992891 -0.0051824087 0.002440236
0000a0 8e 3c 27 b9 a1 a7 56 bb f7 d6 16 bb 42 27 33 bc
       -0.0001594892 -0.0032753723 -0.0023016313 -0.010934653
0000b0 a4 f7 17 bb bb 98 00 bc ab 9c 8b ba 00 27 0b ba
       -0.0023188377 -0.007848914 -0.0010651549 -0.00053082407
0000c0 64 af 28 bc 25 9b 9c 3b 97 56 07 3c ba 45 4b 3c
       -0.010295723 0.004779237 0.008260391 0.012406761
0000d0 f4 5b 00 bc 89 36 6c 3c bd c1 c6 ba 92 44 94 3b
       -0.007834423 0.014417299 -0.001516394 0.004524776
0000e0 3f 83 83 3b 6a a9 f2 bb 25 20 df bb c6 02 dc bb
       0.0040134485 -0.0074054496 -0.006809252 -0.006714198
0000f0 f0 58 ba 3b 69 a5 17 bc 94 96 f3 bb 1f 30 05 bc
       0.0056868717 -0.009255745 -0.007433722 -0.008129149
000100 e9 ce c5 bb cd cf e0 3a 18 25 8f 3c 0d b4 17 bb
       -0.0060366285 0.0017151773 0.017473742 -0.002314809
000110 f1 26 50 bb ac 30 8e ba ab 8b c6 3b 91 e4 a4 bb
       -0.0031761492 -0.0010848246 0.00605913 -0.00503213
000120 1b 3b 37 3a 2d 60 06 3b 10 c8 25 3c e9 d6 ed bb
       0.00069897034 0.0020504103 0.010118499 -0.0072582853
000130 ab 99 c8 bb ff 3c 2c bb 0b c4 97 3c e7 db df bb
       -0.0061218343 -0.0026281474 0.018526098 -0.0068316343
000140 4b a3 40 3c 77 1b 96 3c e9 5f b6 38 8b 5c 3b 3c
       0.011757682 0.018323643 8.696301e-05 0.011435638
000150 f3 85 03 3c ad 3d f1 3a 4a 92 4c 3c 68 ab 95 ba
       0.008027541 0.0018405222 0.01248605 -0.0011418881
000160 f3 f1 96 3c 43 6b 4d 3c 1f 29 95 3a 68 bf f8 3b
       0.018425917 0.01253778 0.0011380053 0.007591177
000170 27 d2 f6 39 d5 12 4e 3c 65 17 9f 39 92 cc 1c 3c
       0.00047077352 0.012577732 0.00030344274 0.009570258
000180 88 97 c1 3a 27 08 49 bb 3d c6 34 bb 92 6b 09 3c
       0.0014769891 -0.0030675025 -0.002758398 0.008387463
000190 da 6f f7 3b c8 d7 51 bc 26 6a ad bb 8f 56 47 3c
       0.0075511755 -0.012807794 -0.005292195 0.012166633
0001a0 93 ba 23 bc 2f 5f f7 3a aa f5 18 bc 1e f7 3d 3c
       -0.009993213 0.0018872971 -0.009335915 0.011594562
0001b0 17 8e ce bb 7c e6 af bb 35 41 dd ba 59 5e 86 bb
       -0.0063035595 -0.005368052 -0.0016880395 -0.0041006026
0001c0 4e e4 d6 ba 5e 19 03 bc 21 50 14 3c 37 3c cf bb
       -0.0016394944 -0.0080016535 0.009052307 -0.006324317
0001d0 cc 79 b1 ba 67 be 45 bb 25 aa b2 3c 1c 2b 29 bc
       -0.0013540327 -0.0030173303 0.021809647 -0.0103252195
0001e0 f4 b9 53 3c f3 36 31 bc 68 c5 bc ba a7 68 25 3c
       0.012922753 -0.010816324 -0.0014402093 0.010095752
0001f0 d8 55 e0 3b 7d 92 9d bb d7 d7 37 3b 18 29 81 bb
       0.006846171 -0.0048087225 0.0028052235 -0.0039416663

action_model._continuous_distribution.log_sigma f4 [1, 2]
000000 e8 ff 02 bd 8e 72 16 3b
       -0.031982332 0.0022956464

action_model._continuous_distribution.mu.weight f4 [2, 128]
000000 dc ff 5f bc 33 97 55 ba 52 75 38 3d b1 36 a3 bb
       -0.0136718415 -0.00081478356 0.04503376 -0.004980885
000010 87 fd 3d 3c fc 37 7f bc 22 77 13 bc 12 27 01 bc
       0.01159609 -0.015577313 -0.009000571 -0.00788285
000020 8a 1a c9 bb 10 c4 ae 3b 2b 6a 78 3c 59 ad 48 bd
       -0.006137197 0.005333431 0.015162031 -0.048993442
000030 20 95 d8 b9 41 38 f9 bc 92 99 17 bc 5c 9c 7e 3c
       -0.00041309837 -0.030422332 -0.009252923 0.015540209
000040 8d 5f d8 bb 97 9b 28 bd 16 fc a5 bc aa 1e 5a 3b
       -0.0066031874 -0.041164007 -0.020261806 0.0033282437
000050 c4 6e 5e 3c e3 a8 a0 3b 34 10 09 bc 8f 3a 55 bd
       0.013576213 0.0049029454 -0.0083656795 -0.0520578
000060 2d 09 20 3b eb b7 66 3c 17 8e 04 3d 5e 36 b0 3c
       0.0024419532 0.014081935 0.03236207 0.0215103
000070 3f 49 08 3c ca c3 cd bc 86 24 9c 3c f6 78 5f 3c
       0.0083182445 -0.025117774 0.019060384 0.013639679
000080 05 96 03 3d 04 1d 20 bd f7 3e d6 bc 2d 4b 76 bd
       0.03212549 -0.03909017 -0.02615307 -0.060130287
000090 42 53 52 bc 08 62 cd 3c 4b 30 78 3b 90 f0 4c 3c
       -0.012837233 0.025071159 0.0037870582 0.012508526
0000a0 91 5a 0a 3c cb ac d4 bb 13 a6 e9 bc 96 af 1a bd
       0.008444444 -0.006490325 -0.028521573 -0.037765108
0000b0 3d c2 cb bc 03 50 a1 bc ac d9 df bc 28 2f cb bc
       -0.024872893 -0.019691473 -0.027325474 -0.02480276
0000c0 c9 b6 0d bc 61 06 d5 bc af 35 76 3d 57 5b 82 3c
       -0.008649536 -0.026004018 0.06010979 0.015912695
0000d0 43 7f 7a bc 8a 27 ae 3c df 6f 00 bd 27 44 f6 3c
       -0.015289131 0.021259088 -0.03135669 0.030061794
0000e0 b3 17 ad 3c 9f 70 0c bc de 6b 8a 3c cf f1 cc bc
       0.021129465 -0.008571773 0.016897138 -0.025017647
0000f0 b5 34 db bc 0c d7 26 bc 6b 30 f0 3a c9 ba fe 3b
       -0.026758531 -0.010183107 0.0018324977 0.0077737314
000100 f0 64 d9 bc 58 aa 1c bd 28 8a eb 3c 76 22 9c 3c
       -0.026537389 -0.03824839 0.028752401 0.019059401
000110 67 e6 34 3c f9 11 f8 bc 62 50 a0 ba f0 e1 23 bd
       0.01104126 -0.030282008 -0.0012230987 -0.040010393
000120 bd 83 9d bb ef 6e 67 39 bc 4a 11 3c 64 08 32 bc
       -0.004806964 0.00022071203 0.008867916 -0.010866258
000130 d1 45 ea 3b ee 1b f8 bc 0e 87 d9 3b 69 c9 c3 bc
       0.007149436 -0.030286755 0.006638414 -0.02389975
000140 b7 fb be 3c 6d c5 2b 3d eb 68 d8 bc e8 05 1e 3d
       0.023313386 0.041936327 -0.026417216 0.03857985
000150 45 44 2e 3c d1 aa d9 bc fd d1 6c 3b 92 5c 96 bc
       0.010636394 -0.02657071 0.0036135905 -0.018354688
000160 a4 9f a6 3c b1 0f db bc 43 16 21 3c 9c 33 94 bc
       0.020339794 -0.02674088 0.009831968 -0.018091016
000170 a2 5f b5 3c f3 0d 09 3d f9 16 a6 bc 1e 44 b5 3b
       0.022140328 0.03346057 -0.020274626 0.005531802
000180 78 d9 9e 3c fc a2 27 bd a6 95 35 3b fa 19 8e 3c
       0.019390807 -0.04092692 0.0027707606 0.017346371
000190 bf 31 36 3c 0c 0c 2b bc 78 f4 2a bc 24 f2 8b 3c
       0.011120259 -0.010439884 -0.010434262 0.017083235
0001a0 64 a0 b8 bb a0 36 4d bc 11 f3 65 3b 05 28 8b 3c
       -0.0056343544 -0.012525231 0.0035087506 0.016986856
0001b0 f4 be 74 bc f8 2b ed bb 94 02 dc bc d8 47 99 3c
       -0.014938105 -0.0072379075 -0.026856698 0.018711016
0001c0 6d 1d 38 3c a5 23 9a 3a eb 3c 04 3b 57 61 be bc
       0.011237484 0.001175989 0.0020177912 -0.023239775
0001d0 44 20 67 3c e8 05 20 bd b5 be ca 3c aa 91 a3 bc
       0.014106814 -0.039068133 0.02474914 -0.019966919
0001e0 3b 6b a0 3c ae a3 34 bc 31 80 c6 bc b6 b7 07 bc
       0.019582381 -0.011025352 -0.024231048 -0.008283546
0001f0 bc 19 99 3c 7a ca be bc 5d a8 42 bc 6c 29 86 bc
       0.018689029 -0.023289908 -0.011880961 -0.016377173
000200 b2 06 ae 3b 47 5e 09 bc 3a 88 bc 3b 21 5c d7 3c
       0.0053108567 -0.008384294 0.005753544 0.026289048
000210 75 4b 84 bb 80 85 33 3d e0 4b 5f bc ba a9 c6 3b
       -0.0040373155 0.043828487 -0.01362893 0.0060627135
000220 f9 5c 83 bb bb 9a a3 bc fd 85 e9 ba 84 ef e9 ba
       -0.004008886 -0.019971242 -0.0017816421 -0.001784787
000230 e4 0b 76 3b 24 00 d7 bc bf e7 19 3d 29 c6 f5 3c
       0.0037543708 -0.026245184 0.037574526 0.030001717
000240 8e 81 d2 3c db c1 62 bc ce b9 70 bc 25 c1 ec bc
       0.025696542 -0.013840164 -0.014692737 -0.028900692
000250 46 ff 93 38 15 a1 0c 3d 2c 88 02 bd cc e7 34 3c
       7.0570546e-05 0.034333307 -0.031868145 0.011041593
000260 80 d8 98 bc 05 33 c6 3c f2 87 54 3d 99 7c 67 3c
       -0.018657923 0.02419425 0.05188746 0.0141288275
000270 f0 6c b0 3b 87 b7 c5 bb 03 13 95 3c d4 96 88 bc
       0.00538408 -0.006033841 0.018197542 -0.016673483
000280 1c 17 0a 37 ff d9 17 ba ca 47 b4 bc cd ea 12 bd
       8.230822e-06 -0.0005792677 -0.022006888 -0.035868455
000290 43 f3 27 bd 1c 9f 0f 3c 3c 1c f0 3b d8 ce 11 bc
       -0.041003477 0.008765962 0.0073275845 -0.008899413
0002a0 e9 1f 09 bd 98 03 33 3c 94 8d 50 3c 35 26 4d bc
       -0.033477698 0.01092615 0.012729067 -0.012521316
0002b0 be 5e f9 3c c5 c9 e3 bc a9 d3 21 3c 3e 40 8f bc
       0.030440684 -0.027806172 0.009877124 -0.017486688
0002c0 eb 47 01 bc ce bb ae bc c4 33 67 3c df d1 8b 3c
       -0.007890682 -0.021329787 0.014111463 0.017067848
0002d0 a2 ba a7 bc 76 ec 3d ba 82 b5 9c bc 12 e1 a0 bc
       -0.020474736 -0.0007245013 -0.019129518 -0.019638572
0002e0 45 35 a6 bb 91 b1 1c bd ab ac 0b bd bf 5f 03 bd
       -0.005072268 -0.038255278 -0.034100216 -0.032073732
0002f0 3d f3 ee 3b b3 b8 d2 bb ab ab d8 bc ea b8 36 bc
       0.00729218 -0.0064307093 -0.026449045 -0.011152485
000300 4e 72 9a bb 38 a7 9a bc 13 ec 35 3c 60 c7 bc bc
       -0.004713333 -0.018878564 0.011103648 -0.023044288
000310 c6 ed e3 bc b6 b4 35 3c 4c 5b 39 3c 68 52 4a bb
       -0.02782334 0.011090448 0.011313271 -0.0030871872
000320 eb 4b b2 3c 0b 72 86 3c 0b 20 87 3c f3 c2 99 bb
       0.021764716 0.016411802 0.016494771 -0.004692429
000330 6e 15 14 bc 2f 88 3e bc 14 35 41 3b 31 a3 87 bc
       -0.009038312 -0.011629148 0.00294811 -0.016557308
000340 93 03 24 3d b6 12 b6 3c da fb 24 bd 9c ad fa 3b
       0.04004247 0.022225719 -0.040279247 0.0076500904
000350 03 d7 2f 3c 5d cf 81 bb 4d df e4 3c 5d 53 4e bc
       0.010732415 -0.003961487 0.02793851 -0.012593118
000360 6c 6f 99 3b 20 36 a7 3c 53 c0 16 bc 56 0e 54 3b
       0.004682472 0.020411551 -0.009201127 0.0032357178
000370 11 26 e8 bc c4 df 69 3c de 68 c8 3c ce c3 10 3d
       -0.028338464 0.014274541 0.024464067 0.035342984
000380 38 6d 41 bc 25 02 c4 3b 3d fb 3f 3c 04 56 12 bc
       -0.011805825 0.005981701 0.011717615 -0.008931641
000390 9b db 91 3c ca 4f 09 bd 29 81 a0 3b f4 c2 3d 3d
       0.017804911 -0.03352336 0.0048982096 0.0463285
0003a0 be c4 c4 bc c6 7f ba 3a 43 9b ad bc 16 66 bd 3c
       -0.024019595 0.0014228753 -0.021192199 0.023119967
0003b0 ab ee cc ba 9e e6 7b bc 02 a2 68 39 9b bc 30 bc
       -0.0015635093 -0.015374808 0.00022185597 -0.010787155
0003c0 8b 04 65 bc dc 12 23 bd 8a cc 18 3d eb f2 f6 bb
       -0.013978134 -0.039812908 0.03730444 -0.0075362823
0003d0 5d e2 84 3b 9e d5 79 3b da 2b 1e 3d 13 04 9e bc
       0.004055305 0.003812171 0.03861604 -0.019289052
0003e0 00 ec b9 3c d4 1f 27 bd 18 26 15 3c 04 38 f9 3c
       0.022695541 -0.040801838 0.009103321 0.030422218
0003f0 4a 98 12 3c 4f ca 94 3c c8 6d 05 3d 55 b1 fa ba
       0.008947441 0.018162875 0.0325754 -0.0019126335

action_model._continuous_distribution.mu.bias f4 [2]
000000 26 c6 c1 3b 8d df 3d 3c
       0.0059135137 0.011588943

exp_avg f4 [128, 33]
000000 6c 8e 97 37 00 00 00 00 03 43 0e 37 a3 42 9d 37
       1.8066923e-05 0.0 8.479462e-06 1.8746889e-05
000010 ef 45 95 37 00 00 00 00 a3 7f 08 36 03 e3 ad 37
       1.779475e-05 0.0 2.0339874e-06 2.0728918e-05
000020 27 82 82 37 00 00 00 00 c3 3f 16 38 c3 38 4d 38
       1.5557815e-05 0.0 3.582217e-05 4.8928672e-05
000030 c3 59 98 37 00 00 00 00 af d4 a6 38 cd f8 98 38
       1.816161e-05 0.0 7.955112e-05 7.2942676e-05
000040 c9 f1 87 37 00 00 00 00 c6 a9 1a 37 fa 9e 6e 38
       1.6205844e-05 0.0 9.218644e-06 5.689168e-05
000050 89 86 23 37 7a 34 e5 36 a4 5b e7 38 47 1e b9 38
       9.746881e-06 6.830841e-06 0.00011032008 8.827127e-05
000060 f8 f2 97 37 00 00 00 00 e8 e2 04 38 2f b9 95 38
       1.8113744e-05 0.0 3.1682575e-05 7.139367e-05
000070 f8 f8 d7 39 36 36 0c 38 50 04 a6 b7 8c 66 35 b8
       0.00041193492 3.342909e-05 -1.979075e-05 -4.3249267e-05
000080 da d9 c3 b8 e1 56 85 35 00 00 00 00 08 22 94 37
       -9.3389026e-05 9.934557e-07 0.0 1.7658822e-05
000090 b8 b7 c2 37 50 a7 61 35 00 00 00 00 b9 79 af b7
       2.3212153e-05 8.4062503e-07 0.0 -2.0918307e-05
0000a0 fc c3 c7 b6 32 f9 dd 34 00 00 00 00 02 84 b4 36
       -5.9534777e-06 4.134577e-07 0.0 5.3797858e-06
0000b0 1a 39 01 38 a8 68 4f 35 00 00 00 00 65 7d 0a 38
       3.0809177e-05 7.7265804e-07 0.0 3.3018547e-05
0000c0 49 5e a8 37 7a 55 63 35 00 00 00 00 fe 29 5d b7
       2.0071066e-05 8.4688475e-07 0.0 -1.3182404e-05
0000d0 b6 34 c1 37 88 e5 b8 35 b1 38 cb 33 ca 27 71 38
       2.3031938e-05 1.3775871e-06 9.463236e-08 5.7495934e-05
0000e0 04 ee 8b 37 0f c4 da 35 00 00 00 00 54 7a 8d 37
       1.6680926e-05 1.6299326e-06 0.0 1.6865473e-05
0000f0 6e 01 2e 38 de a7 a9 38 b5 46 54 37 ec 75 61 38
       4.1486164e-05 8.089816e-05 1.26526475e-05 5.3754004e-05
000100 85 c5 79 b8 de 8d e7 b8 bb d0 88 37 00 00 00 00
       -5.955018e-05 -0.00011041363 1.6309661e-05 0.0
000110 a6 41 f1 36 f8 82 aa 37 5b ab 86 37 00 00 00 00
       7.190002e-06 2.0326566e-05 1.6053838e-05 0.0
000120 b0 5b 1f 37 9d d6 07 38 e8 b0 6c 37 00 00 00 00
       9.498486e-06 3.2386382e-05 1.4107885e-05 0.0
000130 a5 c6 19 38 da 37 3e 38 8f bf 8a 37 00 00 00 00
       3.6663045e-05 4.5351546e-05 1.6540083e-05 0.0
000140 c5 4f c5 38 26 82 bb 38 a1 70 76 37 00 00 00 00
       9.40855e-05 8.941097e-05 1.4688966e-05 0.0
000150 f6 ef 86 37 ff 6f 7b 38 92 2d fa 36 c8 f4 f2 36
       1.6085785e-05 5.9947368e-05 7.4558857e-06 7.2406583e-06
000160 59 e4 f6 38 bd 64 c8 38 06 9c 87 37 00 00 00 00
       0.00011772727 9.555507e-05 1.6165908e-05 0.0
000170 c7 f1 43 38 15 da ab 38 43 ce ef 39 a4 6a 19 38
       4.6716796e-05 8.194536e-05 0.0004573931 3.657736e-05
000180 24 4c 48 38 19 68 8e b8 1d 85 ef b8 9e 2f 1e b7
       4.7754627e-05 -6.790477e-05 -0.00011421202 -9.428621e-06
000190 00 00 00 00 2f 3b cc 36 87 c8 ae 36 cc 6b 1c b7
       0.0 6.0865636e-06 5.2089486e-06 -9.323423e-06
0001a0 00 00 00 00 f3 85 a7 b5 cd 9e d5 b5 43 c5 14 b7
       0.0 -1.2481454e-06 -1.5915954e-06 -8.867416e-06
0001b0 00 00 00 00 c8 52 c8 36 4c 77 3e 37 3d b3 21 b7
       0.0 5.9701015e-06 1.13526585e-05 -9.63808e-06
0001c0 00 00 00 00 1b 09 17 37 17 c7 03 b7 3c e6 10 b7
       0.0 9.002421e-06 -7.854563e-06 -8.6366745e-06
0001d0 00 00 00 00 e6 0e 36 b7 53 fc b6 b6 84 9d 28 b6
       0.0 -1.0851514e-05 -5.453397e-06 -2.5125637e-06
0001e0 fa 12 b0 b6 fa cd b9 37 55 39 0d b7 a0 0a 0d b7
       -5.247418e-06 2.2149634e-05 -8.417604e-06 -8.406729e-06
0001f0 00 00 00 00 16 dd e0 b7 87 88 95 b7 4b b7 02 b9
       0.0 -2.6805832e-05 -1.782576e-05 -0.00012466048
000200 6b fc b6 b6 a6 ff be 38 05 6b fd 36 4c 1d 0a b8
       -5.453408e-06 9.107524e-05 7.5524463e-06 -3.292905e-05
000210 eb 55 3b 37 00 00 00 00 78 76 9c 37 c8 b8 8d 37
       1.1166073e-05 0.0 1.8651815e-05 1.6894555e-05
000220 1e 72 38 37 00 00 00 00 aa 2e a6 37 3c fa 9d 37
       1.0993825e-05 0.0 1.9810472e-05 1.8832383e-05
000230 57 63 26 37 00 00 00 00 56 8c dd 37 ff da bc 37
       9.9175e-06 0.0 2.6410602e-05 2.2513324e-05
000240 54 ca 3a 37 00 00 00 00 f8 22 0f 38 d7 80 2e 38
       1.1133572e-05 0.0 3.4126424e-05 4.1604824e-05
000250 41 41 26 37 00 00 00 00 72 72 b5 37 21 10 d5 37
       9.909564e-06 0.0 2.1630174e-05 2.539909e-05
000260 a3 57 57 36 80 11 ca 36 ce c2 25 38 dc ab 35 38
       3.2088508e-06 6.0221064e-06 3.952049e-05 4.331382e-05
000270 61 29 2d 37 00 00 00 00 3c 56 2b 37 9f e2 60 37
       1.0321238e-05 0.0 1.0212472e-05 1.3404205e-05
000280 d4 20 7c 39 cf 1b 84 37 52 27 9d 38 7b c9 91 b7
       0.00024044822 1.5748576e-05 7.493667e-05 -1.7379169e-05
000290 a3 03 97 36 62 8c 93 b6 00 00 00 00 60 ed 13 b7
       4.500574e-06 -4.397284e-06 0.0 -8.817151e-06
0002a0 e6 73 1d b7 28 3d 8d b6 00 00 00 00 2f ab ac 37
       -9.384914e-06 -4.209247e-06 0.0 2.0583711e-05
0002b0 27 dc 8b 37 27 0f 82 b6 00 00 00 00 4b 67 20 37
       1.6672608e-05 -3.876066e-06 0.0 9.560793e-06
0002c0 f6 16 3c b7 dd 94 84 b6 00 00 00 00 33 3d c9 b7
       -1.1211019e-05 -3.9512365e-06 0.0 -2.3989565e-05
0002d0 5c 47 03 b6 81 0b 9a b6 00 00 00 00 35 f6 8b 37
       -1.9562058e-06 -4.590897e-06 0.0 1.668474e-05
0002e0 88 2c 17 b7 36 09 59 b6 67 dd d4 b5 1a 80 11 b8
       -9.01067e-06 -3.2340881e-06 -1.5859667e-06 -3.4689998e-05
0002f0 a8 0a 95 b3 bd 4c af b6 00 00 00 00 d7 a8 a1 b7
       -6.9402915e-08 -5.22434e-06 0.0 -1.9271318e-05
000300 30 b5 1c b8 2b 92 14 37 01 a2 1c b6 09 e1 eb 38
       -3.7362042e-05 8.85552e-06 -2.334011e-06 0.00011247589
000310 aa e1 25 38 80 e8 70 38 22 1b 00 b4 00 00 00 00
       3.954923e-05 5.743699e-05 -1.19308e-07 0.0
000320 78 92 e0 36 3c ff 06 37 bf 7b e3 b3 00 00 00 00
       6.6927714e-06 8.046449e-06 -1.05930205e-07 0.0
000330 18 2d 94 36 85 38 c4 36 e3 a8 fc b3 00 00 00 00
       4.4159933e-06 5.847835e-06 -1.1765385e-07 0.0
000340 e1 a6 a1 36 7c ed a8 36 0e 67 db b3 00 00 00 00
       4.817601e-06 5.034437e-06 -1.0216728e-07 0.0
000350 e9 40 6a 36 7d 78 b3 36 d1 46 0d b4 00 00 00 00
       3.49065e-06 5.3486424e-06 -1.3157411e-07 0.0
000360 fb 09 eb 36 0d 3f a9 36 9e dc 04 b4 24 3b d3 b2
       7.0047076e-06 5.0439326e-06 -1.2373718e-07 -2.4590527e-08
000370 11 c4 a1 b2 8e ad 48 35 57 2d 0d b4 00 00 00 00
       -1.8832027e-08 7.475836e-07 -1.3148143e-07 0.0
000380 8b a7 7b 36 30 9d 34 36 9f 74 62 37 65 6a 3c 36
       3.7499437e-06 2.6913585e-06 1.3497803e-05 2.8076113e-06
000390 5e c4 19 38 f0 78 cb 35 d6 f3 1d b5 62 42 0a b4
       3.6660924e-05 1.5159876e-06 -5.8841886e-07 -1.2876401e-07
0003a0 00 00 00 00 e2 16 e9 37 b7 1a b2 37 d7 5b c2 b3
       0.0 2.778642e-05 2.1231694e-05 -9.0505345e-08
0003b0 00 00 00 00 79 ce 92 35 7e e3 98 36 22 98 a6 b4
       0.0 1.0937939e-06 4.5564366e-06 -3.10306e-07
0003c0 00 00 00 00 4b 5c af 37 0f fe d1 37 bb 79 4f b4
       0.0 2.0904603e-05 2.5033047e-05 -1.9322663e-07
0003d0 00 00 00 00 14 67 e7 37 a1 5e 29 37 b6 d5 87 33
       0.0 2.7585345e-05 1.00952175e-05 6.325301e-08
0003e0 00 00 00 00 42 ce c4 b5 42 ba f2 36 34 f7 87 35
       0.0 -1.4663167e-06 7.2338453e-06 1.0130229e-06
0003f0 ef e1 9e b4 62 96 22 38 b4 91 94 b6 39 78 5c 35
       -2.9594182e-07 3.8763865e-05 -4.427706e-06 8.2131334e-07

exp_avg_sq f4 [128, 33]
000000 00 e8 3d 2f 00 00 00 00 00 3e c4 30 5b df 12 31
       1.7271873e-10 0.0 1.4278498e-09 2.137276e-09
000010 1d 18 43 2f 00 00 00 00 9c 58 bd 30 33 46 17 31
       1.7743713e-10 0.0 1.3776744e-09 2.2013296e-09
000020 24 ee 3d 2f 00 00 00 00 bf e0 cc 30 e3 28 19 31
       1.7274054e-10 0.0 1.490683e-09 2.2287672e-09
000030 1e 9c 56 2f 00 00 00 00 ee e4 d8 30 5b be 35 31
       1.951865e-10 0.0 1.5781134e-09 2.6447171e-09
000040 6a e5 45 2f 00 00 00 00 90 9b a2 30 82 bf 08 31
       1.799855e-10 0.0 1.1831265e-09 1.9899464e-09
000050 18 df 33 2f 5c d3 85 2d ec e1 e2 30 6a 96 39 31
       1.6359214e-10 1.5214212e-11 1.6507875e-09 2.7006544e-09
000060 64 f4 4e 2f 00 00 00 00 a1 95 89 30 77 cf e8 30
       1.8822416e-10 0.0 1.0010589e-09 1.6939187e-09
000070 8c 62 99 33 69 d8 bf 30 d7 1e 2f 32 26 73 93 31
       7.142543e-08 1.3958587e-09 1.0193353e-08 4.291354e-09
000080 13 ce 9f 31 aa c7 b6 2c 00 00 00 00 ec a9 8e 31
       4.650937e-09 5.1949183e-12 0.0 4.152062e-09
000090 6d 5f b3 31 7b 93 bf 2c 00 00 00 00 73 be 76 31
       5.2204343e-09 5.44492e-12 0.0 3.590597e-09
0000a0 a7 c6 a2 31 cb e5 d3 2c 00 00 00 00 b6 d9 a3 31
       4.7374047e-09 6.022493e-12 0.0 4.7686752e-09
0000b0 e4 5e bd 31 51 e3 e8 2c 00 00 00 00 49 a9 47 31
       5.5114118e-09 6.6190738e-12 0.0 2.9054539e-09
0000c0 ba 27 98 31 b2 08 c7 2c 00 00 00 00 6c e1 80 31
       4.4282986e-09 5.6568856e-12 0.0 3.750918e-09
0000d0 f7 69 a3 31 41 f1 e0 2c ef 94 bb 29 53 c4 19 31
       4.755971e-09 6.3932475e-12 8.330304e-14 2.2376028e-09
0000e0 47 2e 81 31 31 8b d1 2c 00 00 00 00 f1 30 3e 31
       3.7596553e-09 5.9555906e-12 0.0 2.767646e-09
0000f0 8d 12 83 31 a4 d8 87 33 fa 9c 31 31 8e 40 47 33
       3.8147108e-09 6.325834e-08 2.584612e-09 4.639201e-08
000100 d4 18 0f 32 ed bc ca 31 b2 37 28 2f 00 00 00 00
       8.329341e-09 5.900452e-09 1.5299298e-10 0.0
000110 a7 cb ee 30 83 22 42 31 0e 77 2b 2f 00 00 00 00
       1.7374661e-09 2.8250333e-09 1.5594656e-10 0.0
000120 f0 9e 08 31 4e fa 6f 31 d1 fe 28 2f 00 00 00 00
       1.988095e-09 3.492136e-09 1.537004e-10 0.0
000130 04 11 2b 31 bf d7 6e 31 53 08 3d 2f 00 00 00 00
       2.4893447e-09 3.4756196e-09 1.7192407e-10 0.0
000140 35 f0 29 31 86 3a a6 31 ff 45 2e 2f 00 00 00 00
       2.4729279e-09 4.837889e-09 1.5850075e-10 0.0
000150 77 fe 64 31 96 b8 9f 31 fb f0 15 2f 1d e1 b7 2d
       3.3323013e-09 4.648494e-09 1.3637085e-10 2.0904662e-11
000160 dd 53 05 31 c1 06 95 31 f1 e5 34 2f 00 00 00 00
       1.9401718e-09 4.3372386e-09 1.6452596e-10 0.0
000170 a2 76 62 31 32 cd 9d 31 b2 21 1b 34 56 d3 1b 31
       3.2954763e-09 4.5926294e-09 1.4447758e-07 2.26756e-09
000180 ab a2 4b 32 33 5e a0 31 41 38 05 32 72 d2 05 2f
       1.1853142e-08 4.667322e-09 7.75441e-09 1.2171045e-10
000190 00 00 00 00 6e 6c 9c 2f b2 19 16 30 c7 18 0c 2f
       0.0 2.845328e-10 5.46062e-10 1.2741729e-10
0001a0 00 00 00 00 6b 77 35 2f b7 b4 01 30 94 e3 09 2f
       0.0 1.650428e-10 4.718674e-10 1.254093e-10
0001b0 00 00 00 00 74 54 38 30 5f 53 67 30 a4 fd 0b 2f
       0.0 6.7058825e-10 8.415579e-10 1.2732088e-10
0001c0 00 00 00 00 d4 b2 2c 2f 9a 3b 3f 30 1c 44 0d 2f
       0.0 1.5706841e-10 6.9570094e-10 1.2848073e-10
0001d0 00 00 00 00 d7 65 4f 30 76 73 84 30 c1 5b cb 2e
       0.0 7.5450884e-10 9.63708e-10 9.24767e-11
0001e0 23 85 2a 2d 85 4c 2d 2f d1 55 31 30 3d 85 0c 2f
       9.6929435e-12 1.5761444e-10 6.451418e-10 1.2780262e-10
0001f0 00 00 00 00 b0 40 71 30 fd e0 8b 30 cf 2f fa 32
       0.0 8.7767216e-10 1.0177527e-09 2.9125571e-08
000200 6a 11 08 30 1a 66 49 32 28 b7 9d 2f 03 b0 b2 30
       4.950126e-10 1.1722955e-08 2.8688274e-10 1.300123e-09
000210 21 86 16 2f 00 00 00 00 16 81 ae 30 a6 72 28 31
       1.3690073e-10 0.0 1.2696855e-09 2.4512388e-09
000220 36 60 1e 2f 00 00 00 00 cb ef c4 30 61 ea 40 31
       1.4404197e-10 0.0 1.432903e-09 2.8072906e-09
000230 08 07 1c 2f 00 00 00 00 a0 ed af 30 db e6 1f 31
       1.4190615e-10 0.0 1.2800463e-09 2.3268771e-09
000240 f1 10 22 2f 00 00 00 00 d6 5f f0 30 91 17 6b 31
       1.4739833e-10 0.0 1.7489536e-09 3.4210397e-09
000250 32 2a 20 2f 00 00 00 00 44 46 cb 30 c1 29 34 31
       1.4566906e-10 0.0 1.4790165e-09 2.6217182e-09
000260 bc 47 f4 2e 23 7c ce 2d 9c f8 ae 30 ce 42 41 31
       1.1108578e-10 2.3474616e-11 1.2730825e-09 2.812317e-09
000270 83 21 20 2f 00 00 00 00 3a 6a a5 30 e3 0c 1f 31
       1.4563821e-10 0.0 1.2035521e-09 2.314487e-09
000280 7d 1b a7 33 67 70 eb 30 f8 de b1 32 47 36 13 31
       7.7815436e-08 1.7130447e-09 2.0706906e-08 2.1422168e-09
000290 c6 82 e9 30 58 08 b7 2e 00 00 00 00 ec d8 cf 31
       1.6990149e-09 8.323359e-11 0.0 6.049154e-09
0002a0 14 f5 11 32 16 1c c7 2e 00 00 00 00 8b fb c0 31
       8.495835e-09 9.0544613e-11 0.0 5.6165326e-09
0002b0 c0 55 11 32 56 62 bc 2e 00 00 00 00 59 57 e1 31
       8.459608e-09 8.566718e-11 0.0 6.558292e-09
0002c0 89 65 10 32 8f ef ca 2e 00 00 00 00 31 d4 9d 31
       8.40499e-09 9.2284506e-11 0.0 4.5934248e-09
0002d0 04 05 0c 32 6a c0 c9 2e 00 00 00 00 30 c8 b5 31
       8.150213e-09 9.1746014e-11 0.0 5.290552e-09
0002e0 eb 19 ff 31 bd 95 8c 2e e4 77 6d 2d e5 59 79 31
       7.4244233e-09 6.393062e-11 1.3498511e-11 3.6285368e-09
0002f0 53 3b e8 31 c3 71 c9 2e 00 00 00 00 08 bb 8a 31
       6.758833e-09 9.16063e-11 0.0 4.0375916e-09
000300 46 f7 d2 31 aa 02 11 34 f9 f1 97 31 99 6f b4 33
       6.139916e-09 1.3505147e-07 4.4221875e-09 8.402203e-08
000310 58 05 d9 31 42 c0 af 31 06 c8 81 29 00 00 00 00
       6.3161387e-09 5.1150275e-09 5.7634493e-14 0.0
000320 4c 2e 49 2d 12 11 cf 2d ac a2 7e 29 00 00 00 00
       1.1435807e-11 2.3540756e-11 5.6540425e-14 0.0
000330 63 29 39 2d 70 46 d5 2d 8e 4f 8d 29 00 00 00 00
       1.0525222e-11 2.4246577e-11 6.2754584e-14 0.0
000340 8b b9 24 2e 58 b0 64 2e 5c 85 87 29 00 00 00 00
       3.7454078e-11 5.1997823e-11 6.0183385e-14 0.0
000350 b2 ac 0d 2d b7 83 16 2e 82 dc 5b 29 00 00 00 00
       8.053268e-12 3.4223038e-11 4.881903e-14 0.0
000360 4f 02 93 2e 19 15 a2 2e 6a ff 71 29 f1 27 c4 27
       6.685196e-11 7.370655e-11 5.3734286e-14 5.4444233e-15
000370 36 c1 2d 2d 6d 4d 2a 2e 26 6f 5b 29 00 00 00 00
       9.876813e-12 3.8722293e-11 4.8724174e-14 0.0
000380 f5 8a a7 2e 08 38 b2 2e b0 87 d7 30 8a b6 0f 2e
       7.6189645e-11 8.104456e-11 1.5681874e-09 3.2676563e-11
000390 88 18 20 30 17 ee 48 2e f0 35 a8 2e d1 54 5f 2e
       5.824252e-10 4.56862e-11 7.649337e-11 5.077966e-11
0003a0 00 00 00 00 b1 95 db 30 20 eb 0f 31 52 1a 6f 2e
       0.0 1.5976892e-09 2.0942892e-09 5.4365686e-11
0003b0 00 00 00 00 b6 13 bc 30 fe db 00 31 33 ae 61 2e
       0.0 1.3684403e-09 1.8751503e-09 5.1313797e-11
0003c0 00 00 00 00 6d 56 1d 31 06 5f 2e 31 17 d4 75 2e
       0.0 2.2895634e-09 2.5374347e-09 5.5894924e-11
0003d0 00 00 00 00 6e 4c b0 30 93 19 10 31 72 27 6c 2e
       0.0 1.2827408e-09 2.0969295e-09 5.3695222e-11
0003e0 00 00 00 00 68 f8 1b 31 c7 ec 34 31 c3 5e 60 2e
       0.0 2.2696671e-09 2.632804e-09 5.101587e-11
0003f0 a2 e4 0e 2c 02 f0 a0 30 b8 e9 19 31 a6 30 6e 2e
       2.030633e-12 1.1709747e-09 2.2397284e-09 5.4158143e-11

exp_avg f4 [128]
000000 f3 20 a8 38 2d 60 d5 37 e0 10 ac 38 4d 64 77 b7
       8.0170015e-05 2.5436364e-05 8.204742e-05 -1.47457e-05
000010 e9 26 17 38 61 6b 55 b7 8f 6f 9e 36 d5 e1 13 b6
       3.6037443e-05 -1.272079e-05 4.721754e-06 -2.2036158e-06
000020 ba a1 61 b8 65 52 da b8 c2 44 81 b8 3c ca 36 36
       -5.37948e-05 -0.00010410397 -6.1640065e-05 2.723783e-06
000030 dc fa 56 37 35 d2 ba 38 af 67 b1 38 e0 28 de b6
       1.2813802e-05 8.908325e-05 8.45933e-05 -6.620874e-06
000040 fc 27 b8 b8 3f 29 8c 36 dd 45 e1 38 38 a3 a2 b5
       -8.7812514e-05 4.177127e-06 0.00010741849 -1.2117443e-06
000050 ee 44 81 b6 73 00 8a b7 be 59 d4 b7 da 69 8e 37
       -3.852524e-06 -1.6451091e-05 -2.5314159e-05 1.697701e-05
000060 c0 71 a4 b6 87 d9 3c b8 98 e4 10 b8 83 3e 26 38
       -4.900823e-06 -4.502528e-05 -3.454517e-05 3.9635703e-05
000070 0c 20 a7 b6 9e fb 85 36 08 86 89 b7 35 38 63 37
       -4.9807186e-06 3.993001e-06 -1.6394086e-05 1.3543341e-05
000080 d5 79 80 b7 91 2c bf 37 e5 3b 08 b7 8b ac a7 36
       -1.5315522e-05 2.2789727e-05 -8.120177e-06 4.9970745e-06
000090 04 d4 89 37 36 f7 bc 36 f8 58 0d 36 c4 68 cc b7
       1.64304e-05 5.6316157e-06 2.1062424e-06 -2.436748e-05
0000a0 26 b6 04 37 da 6b 48 38 a3 5b f2 b8 0b 1f 82 38
       7.910223e-06 4.778416e-05 -0.00011556528 6.204665e-05
0000b0 d0 3c fc 36 9e b3 c6 b5 fb 42 10 39 02 e8 99 b8
       7.5172647e-06 -1.4804425e-06 0.00013757862 -7.338823e-05
0000c0 6c d1 41 37 ec 46 b6 38 36 82 66 b8 47 5d 96 b6
       1.1552456e-05 8.6916465e-05 -5.495754e-05 -4.4812073e-06
0000d0 33 87 fc b6 2f 23 0f b8 08 4f 7e b7 2c 08 b3 b8
       -7.5259245e-06 -3.4126624e-05 -1.5157981e-05 -8.536907e-05
0000e0 26 ef e4 b5 5c bd ae 38 69 c2 98 36 b8 7c 0a 38
       -1.7056925e-06 8.3322375e-05 4.5525853e-06 3.3017917e-05
0000f0 92 fa 3d 39 4b 6a 8d 37 3c 95 3d b7 4b 5e 12 b8
       0.0001811779 1.6858006e-05 -1.1300024e-05 -3.489693e-05
000100 78 17 cb 37 72 3e b3 37 6d 53 63 b8 da ad 45 34
       2.4210414e-05 2.1367541e-05 -5.4198714e-05 1.8410302e-07
000110 d2 fa 72 b6 81 00 e3 b8 1e bd c3 b8 b0 06 fe b6
       -3.6206807e-06 -0.00010824297 -9.3335504e-05 -7.5705684e-06
000120 06 60 a1 37 c2 78 b8 38 0d b6 b3 b7 d0 20 0b 39
       1.923741e-05 8.7962966e-05 -2.1423237e-05 0.00013268297
000130 9d d5 d0 b7 77 24 9a b8 1a a7 99 b6 29 18 2e 38
       -2.4895004e-05 -7.350084e-05 -4.5792085e-06 4.1507334e-05
000140 fc db 97 b6 72 d9 d7 b8 dd 7f 98 38 ff d2 a3 37
       -4.5257602e-06 -0.00010292501 7.271741e-05 1.9529367e-05
000150 ca df 3f b7 37 c9 e4 b6 9c f3 19 b9 75 97 5e b8
       -1.1436592e-05 -6.818354e-06 -0.00014681969 -5.306998e-05
000160 a3 2f 7d 38 89 31 ce 38 9c 27 28 b9 2e 37 ed b6
       6.0364266e-05 9.832072e-05 -0.00016036484 -7.069574e-06
000170 35 90 dc 35 40 8c ab 37 1a a0 27 38 15 0f 9a 38
       1.6433247e-06 2.0450098e-05 3.996501e-05 7.3461015e-05
000180 36 c4 32 b6 f6 49 e7 b7 4f 06 b3 b6 ac f8 c7 b7
       -2.6638277e-06 -2.7571787e-05 -5.33535e-06 -2.3838445e-05
000190 54 8b 76 37 77 bc db 37 45 f8 d4 b7 c7 87 13 b7
       1.46951825e-05 2.6194595e-05 -2.5387979e-05 -8.793496e-06
0001a0 54 57 1b b7 a3 69 ba b7 4d 9a 20 37 42 f3 82 37
       -9.259053e-06 -2.2222119e-05 9.572669e-06 1.5610483e-05
0001b0 5d a5 07 38 2f 94 05 38 d1 ff 0d 38 77 52 d0 37
       3.2340515e-05 3.1847678e-05 3.3855267e-05 2.4833933e-05
0001c0 ed 27 15 38 b3 3a 38 b8 61 f6 fe b7 ab 2d 95 38
       3.5561552e-05 -4.3923686e-05 -3.0393889e-05 7.11338e-05
0001d0 38 b3 91 38 29 d9 74 b7 bd 3d fa b6 e6 56 80 36
       6.947521e-05 -1.4594095e-05 -7.457768e-06 3.8248136e-06
0001e0 3c 6f 84 38 f4 19 0c b9 01 e4 13 b8 d3 45 82 36
       6.3149695e-05 -0.00013361109 -3.5259876e-05 3.8824305e-06
0001f0 78 17 dc b7 90 e8 82 38 e0 78 89 b6 6f 36 e7 b6
       -2.6236972e-05 6.242201e-05 -4.09699e-06 -6.8906734e-06
