results/test/CarParking/CarParking-52916.onnx (onnx, 88962 bytes, 7 tensors)

network_body._body_endoder.seq_layers.0.weight f4 [128, 33]
0.026575012 -0.04901396 0.024755143 -0.12289716 0.094537124 0.0780462 0.0270148 -0.06898674
-0.12866895 0.067616194 0.09657748 -0.005603353 -0.2133197 0.2825997 -0.03837066 0.122945696
0.044084426 0.1274711 -0.035030685 -0.19143634 0.4300204 -0.040937304 0.28459322 -0.07572706
0.056229975 -0.3914747 -0.06579045 -0.30433792 0.14856394 0.22432666 -0.12074294 0.28959912
0.0870991 0.03555877 -0.010453706 0.008896351 -0.06909492 -0.23698431 0.1302588 0.3024052
-0.32731986 0.080664635 0.3163604 0.06959232 -0.051227555 -0.0674277 -0.06334306 -0.013355681
0.15696359 -0.33454052 -0.31259096 -0.06799889 0.064350076 -0.059312947 -0.26546675 -0.20896384
0.22368641 -0.2585633 -0.0673026 -0.026952395 0.13130462 -0.013902607 -0.090428956 -0.10813792
0.21041392 0.01148363 0.11392165 -0.0058397534 -0.13456087 -0.074865624 -0.11510182 0.18781783
0.00578772 0.058506444 0.101550385 0.07107784 -0.09403364 0.12169867 0.10969133 -0.000994322
-0.021011828 0.009687304 0.09737051 0.15420888 -0.230757 0.062308334 0.3140983 0.07924347
-0.21786655 0.35173437 -0.0022184006 0.10695279 0.06522417 0.30581766 0.24286999 0.17410219
-0.2413536 0.09326005 0.15156625 0.40668327 0.3218892 0.07421149 -0.20437016 -0.018472234
-0.43851513 -0.33492553 -0.044207476 -0.021536084 -0.058454074 0.041928545 -0.03788686 0.18044278
-0.18573998 -0.07544117 0.07837431 -0.14885707 -0.120490626 -0.07374116 0.094871946 -0.16158225
-0.005441783 -0.31477302 -0.30791932 0.14500079 0.075292446 0.54748315 -0.07593519 0.039818592
0.2061496 -0.24075545 -0.19739495 -0.093771175 -0.056300726 -0.100966915 -0.0687317 0.04316454
-0.012947768 0.059707258 0.019655617 -0.04497342 -0.13593166 -0.31917635 0.017365426 -0.16723338
0.25135782 -0.16985907 0.15509422 -0.1649477 0.08206567 0.2510914 0.039828606 0.12911278
-0.102773264 0.18654206 -0.06792146 -0.053718008 0.34307796 -0.059924014 0.067127466 -0.23575346
-0.033529762 0.24668778 0.13903919 0.10300187 0.12047612 -0.29039785 -0.14183155 0.39601842
-0.00086857175 -0.090151474 -0.06755981 0.17398256 0.0007926401 0.026748592 0.2897035 0.17469515
-0.091065995 -0.006586371 -0.16120541 -0.19663908 -0.06649913 0.13702846 0.25291052 -0.10696207
-0.13939652 -0.0911535 -0.011366351 -0.0044046356 0.47038347 -0.1678144 -0.027123008 0.22723527
0.047634203 0.14047764 -0.17639583 0.07294479 -0.16208792 -0.10708198 0.014698343 0.1724688
-0.3314408 -0.068284266 0.093945146 0.24321906 0.08167868 -0.30912888 -0.14321701 9.677104e-05
-0.16728976 -0.010905609 -0.21304406 -0.0043158587 -0.011851928 0.043403443 -0.056106355 -0.1647841
0.00078117667 -0.11467675 -0.036175232 0.010463905 -0.33449987 -0.4261067 -0.21307077 0.22629659
0.2079813 0.2812678 -0.13604736 0.18336627 -0.18432976 -0.3515188 0.013233505 -0.040874522
0.09820159 0.09385817 -0.08776439 0.121805504 -0.23837487 -0.026020233 -0.058909506 -0.08657913
-0.1959445 0.051575348 0.12201737 0.07979386 -0.25310525 -0.04850479 0.06465877 -0.14208868
0.25434563 0.15298423 -0.09170077 -0.015801743 -0.07075034 0.018524129 0.14843954 0.23062846
00000000: d7b3 d93c ddc2 48bd 4ccb ca3c 82b1 fbbd
00000010: ae9c c13d b0d6 9f3d 244e dd3c ec48 8dbd
00000020: cbc1 03be 5c7a 8a3d 6aca c53d 559c b7bb
00000030: 7b70 5abe e8b0 903e 8e2a 1dbd f4ca fb3d
00000040: df91 343d c987 023e 567c 0fbd e307 44be
00000050: a22b dc3e e0ad 27bd 34b6 913e ca16 9bbd
00000060: 6751 663d 5f6f c8be 25bd 86bd 2ed2 9bbe
00000070: 2521 183e e3b5 653e 1348 f7bd 5646 943e
00000080: 0361 b23d 13a6 113d 0546 2bbc 00c2 113c
00000090: a381 8dbd 04ac 72be 9062 053e dbd4 9a3e
000000a0: 7896 a7be 8033 a53d fef9 a13e 6b86 8e3d
000000b0: fcd3 51bd 8917 8abd 02ba 81bd c9d1 5abc
000000c0: 10bb 203e e548 abbe ec0b a0be 0143 8bbd
000000d0: f9c9 833d 22f2 72bd 42eb 87be 9efa 55be
000000e0: 0d0e 653e 6962 84be f2d5 89bd 45cb dcbc
000000f0: b874 063e c3c7 63bc d132 b9bd 6a77 ddbd
00000100: bf76 573e d625 3c3c c14f e93d 675b bfbb
00000110: 53ca 09be 2653 99bd 81ba ebbd 5153 403e
00000120: eaa6 bd3b 74a4 6f3d a6f9 cf3d 4291 913d
00000130: b694 c0bd 273d f93d d9a5 e03d e953 82ba
00000140: ff20 acbc 7fb7 1e3c 316a c73d efe8 1d3e
00000150: 904b 6cbe 0637 7f3d 7ed1 a03e 674a a23d
00000160: 6918 5fbe 8716 b43e 9662 11bb 100a db3d
00000170: 4094 853d 2294 9c3e e9b2 783e d847 323e
00000180: 6625 77be 20ff be3d 2f34 1b3e ca38 d03e
00000190: a9ce a43e 32fc 973d 6946 51be 1553 97bc
000001a0: 0e85 e0be 5c7b abbe e612 35bd 716c b0bc
000001b0: 8a6d 6fbd 44bd 2b3d 412f 1bbd fec5 383e
000001c0: 9f32 3ebe e680 9abd b682 a03d fd6d 18be
000001d0: cac3 f6bd 9b05 97bd 394c c23d d175 25be
000001e0: fc50 b2bb ee29 a1be 9aa7 9dbe 167b 143e
000001f0: ed32 9a3d db27 0c3f e983 9bbd d218 233d
00000200: e118 533e 9988 76be e721 4abe 1a0b c0bd
00000210: 979b 66bd bec7 cebd 35c3 8cbd 4dcd 303d
00000220: e022 54bc 998f 743d d104 a13c 0d36 38bd
00000230: ab31 0bbe 156b a3be f041 8e3c 3a3f 2bbe
00000240: f9b1 803e 89ef 2dbe 05d1 1e3e 0de8 28be
00000250: 0c12 a83d 0d8f 803e 5223 233d 2436 043e
00000260: ca7a d2bd e204 3f3e 681a 8bbd 6a07 5cbd
00000270: eaa7 af3e e272 75bd 207a 893d 5b69 71be
00000280: 8156 09bd b99b 7c3e 4a60 0e3e a5f2 d23d
00000290: 2fbc f63d 07af 94be 4a3c 11be edc2 ca3e
000002a0: ddb0 63ba 56a1 b8bd cc5c 8abd 7c28 323e
000002b0: 2dc9 4f3a dd1f db3c 0454 943e 49e3 323e
000002c0: cf80 babd 7cd2 d7bb 0813 25be c15b 49be
000002d0: b230 88bd 3051 0c3e 7d7d 813e ee0e dbbd
000002e0: f6bd 0ebe b0ae babd ee39 3abc c354 90bb
000002f0: 1ad6 f03e 8ad7 2bbe 1231 debc 5db0 683e
00000300: 151c 433d 5fd9 0f3e 1ca1 34be 1464 953d
00000310: 60fa 25be cc4d dbbd 52d1 703c a99b 303e
00000320: 9cb2 a9be 9fd8 8bbd 5066 c03d 6b0e 793e
00000330: 2747 a73d 2446 9ebe 7ba7 12be 8ef1 ca38
00000340: 024e 2bbe 70ad 32bc 3928 5abe 0c6c 8dbb
00000350: 972e 42bc cfc7 313d c7cf 65bd 2abd 28be
00000360: e1c7 4c3a a5db eabd 7b2c 14bd cc70 2b3c
00000370: 9143 abbe a82a dabe 392f 5abe 4bba 673e
00000380: 0df9 543e 5502 903e 0050 0bbe 5ec4 3b3e
00000390: f1c0 3cbe 46fa b3be 58d1 583c 0b6c 27bd
000003a0: ea1d c93d b638 c03d d1bd b3bd 2a75 f93d
000003b0: 8b18 74be 6228 d5bc 184b 71bd 6650 b1bd
000003c0: ada5 48be ac40 533d 3ee4 f93d f76a a33d
000003d0: 0397 81be f5ac 46bd d16b 843d b27f 11be
000003e0: 9739 823e e6a7 1c3e 9dcd bbbd a872 81bc
000003f0: 8ee5 90bd eabf 973c 8900 183e de29 6c3e

network_body._body_endoder.seq_layers.0.bias f4 [128]
0.009378124 0.001511008 -0.004149761 0.008790923 0.0012798154 0.0035993562 -0.015558732 0.0103087295
0.008109462 0.0127271 0.022087798 0.0030267872 -0.0126766255 -0.0014936788 0.0030745827 -0.0084195165
-0.0017641106 0.0016163677 -0.0014325472 -0.0009444359 -0.0003683355 0.001169942 0.006861479 -0.0073700384
-0.006605315 0.0036945865 0.0033088545 -0.007316975 -0.010265818 -0.0053735534 0.00315354 -0.008523068
-0.017933024 0.008679927 -0.00046115226 -0.0033644706 -0.0032581706 0.011024082 0.0057913144 -0.014742029
0.007227916 -0.00202589 0.015964217 0.0038058902 -0.0037075917 -0.018472256 -0.00029316754 0.00480962
0.011412716 -0.005863424 0.017605359 -0.005884475 -0.004620106 0.013127118 0.0065952726 0.011239464
-0.0055465614 0.0102732405 -0.011437135 0.0029030084 0.00061216886 -0.01833779 0.0046542026 0.005895804
0.0022415258 -0.003553343 0.007511564 -0.007236695 0.020055227 0.012967177 0.008215295 0.0020416637
-0.01478602 -0.006207626 -0.0065856227 -0.00014534187 -0.009571287 -0.007102243 -0.011096289 0.0028816566
-0.013696745 0.007682008 0.0073170895 0.014065319 -0.009979628 -0.0007246551 0.0049811825 0.006740896
0.008707518 -0.0020854264 0.010630949 -0.0047692712 0.0052823005 0.021102602 -0.00094157615 -0.0030423168
-0.006329368 0.015914636 -0.0031835176 -0.0033506202 -0.015052901 -0.0077081127 0.011410175 0.013486563
0.012170644 -0.0026967174 -0.010244869 -0.00652491 -0.00982441 0.008889224 0.008260486 -0.0065783984
0.005503016 0.009364667 0.014774676 -0.0042528147 0.010289318 0.024691876 0.0024030076 -0.014328465
-0.0018070103 0.027650962 -0.0079694325 -0.010172355 -0.0065805726 -0.0032200166 -0.0050383145 0.02770742
00000000: b4a6 193c 040d c63a b8fa 87bb ce07 103c
00000010: 7bbf a73a 2de3 6b3b 0dea 7ebc f2e5 283c
00000020: 8ddd 043c 5485 503c 78f1 b43c 105d 463b
00000030: 9fb1 4fbc 8bc7 c3ba f07e 493b 03f2 09bc
00000040: bb39 e7ba 4ddc d33a 4fc4 bbba 0594 77ba
00000050: 271d c1b9 bd58 993a 42d6 e03b 5d80 f1bb
00000060: 6671 d8bb e020 723b 5ed9 583b 3cc3 efbb
00000070: f631 28bc a214 b0bb 9fab 4e3b 57a4 0bbc
00000080: 47e8 92bc 4136 0e3c cfc6 f1b9 737e 5cbb
00000090: 0887 55bb 5a9e 343c 11c5 bd3b 8d88 71bc
000000a0: 27d8 ec3b cbc4 04bb 64c7 823c 3e6c 793b
000000b0: 11fb 72bb 2153 97bc 48b4 99b9 049a 9d3b
000000c0: 66fc 3a3c f721 c0bb 1d39 903c 8ed2 c0bb
000000d0: 4264 97bb 2013 573c 281d d83b bb25 383c
000000e0: eebf b5bb 1851 283c d262 3bbc 6640 3e3b
000000f0: f579 203a 2239 96bc 4882 983b 9731 c13b
00000100: 90e6 123b 34df 68bb 9123 f63b cc21 edbb
00000110: dc4a a43c 4874 543c 7299 063c 6fcd 053b
00000120: 1041 72bc 5769 cbbb 35cc d7bb e966 18b9
00000130: e3d0 1cbc efb9 e8bb 36cd 35bc 2dda 3c3b
00000140: 5068 60bc 5bb9 fb3b 32c4 ef3b 3972 663c
00000150: 9881 23bc c8f6 3dba 3039 a33b bce2 dc3b
00000160: faa9 0e3c a6ab 08bb 6f2d 2e3c 8c47 9cbb
00000170: 2617 ad3b 5ddf ac3c 1bd4 76ba 9b61 47bb
00000180: 9666 cfbb 695f 823c 90a2 50bb 1496 5bbb
00000190: 71a0 76bc 5694 fcbb bef1 3a3c bff6 5c3c
000001a0: 6167 473c 69bb 30bb 18da 27bc eace d5bb
000001b0: 90f6 20bc 1ca4 113c fd56 073c 9b8f d7bb
000001c0: a552 b43b 436e 193c 7c11 723c 325b 8bbb
000001d0: 8794 283c 9e46 ca3c c77b 1d3b f0c1 6abc
000001e0: 34d9 ecba 4584 e23c 3992 02bc f3a9 26bc
000001f0: d8a1 d7bb ea06 53bb 7218 a5bb acfa e23c

network_body._body_endoder.seq_layers.2.weight f4 [128, 128]
-0.032039974 0.056613863 0.039590586 0.0053160093 -0.010408551 0.06575122 0.087945275 0.009402833
0.008171285 -0.120654024 -0.08194681 -0.017664235 0.10757432 -0.023479631 0.06829394 0.012830844
-0.016120994 -0.014784951 -0.056642663 0.019246852 -0.040637802 0.03664998 0.23135728 0.027669555
0.02489317 0.034561336 -0.09370135 0.076356515 -0.036151566 0.045912527 -0.07082697 0.14635144
0.043808475 -0.032279793 0.11498343 0.08117976 -0.10145933 -4.8514557e-05 0.047767762 0.08357638
-0.018090146 0.035523567 0.0091515845 -0.07178306 -0.031842623 -0.04419666 0.18349186 -0.17773364
-0.07936479 0.03477554 0.0277998 -0.045437485 0.04624571 0.0129085835 0.030522358 0.0104908515
0.113102175 0.039382473 0.036305286 0.03525305 -0.0044111568 0.13042966 0.036462132 0.13022737
0.02751224 -0.00057322456 0.06546276 0.14779133 -0.006583683 0.050126385 0.06946637 0.09107777
0.031275176 -0.11599186 -0.05534294 0.22941059 0.024091724 -0.12640566 -0.015892297 -0.0041661575
-0.14070636 -0.1539357 -0.024219347 0.03319706 -0.008882662 0.12281484 -0.1585648 -0.03531154
-0.05243773 -0.2681281 0.19570787 -0.0450508 -0.042812783 0.003184572 0.0074108443 0.041555293
-0.047570243 -0.13888115 0.044608526 0.02212632 0.14620423 0.09296991 0.06832798 0.18154919
0.053262327 0.15579635 0.014401506 -0.07506903 0.05361549 -0.09270931 0.03802906 0.112042785
0.04696905 0.0903719 -0.023499588 0.21262299 0.04919665 -0.033166345 -0.021727324 0.033691112
0.028389258 -0.14058581 0.079380155 0.021976985 0.008556168 0.08524401 0.017405314 0.09719171
0.03343807 -0.099736765 -0.07001524 0.0642438 0.08857972 -0.12835936 -0.0972704 0.09819714
-0.13479051 -0.017079294 -0.07960233 0.14216183 0.121032014 -0.01710922 0.03125407 -0.07962313
0.0068048807 -0.08483182 -0.07427046 -0.06973449 -0.18145123 -0.033536974 -0.04239135 0.09742732
-0.01946709 -0.046148993 0.10946527 0.03362013 -0.063549876 0.012641832 -0.061185256 0.09928527
-0.124386355 0.025233218 0.077604555 -0.1313001 -0.061873816 0.03241603 -0.0018880652 0.043879136
0.028551077 -0.015944779 0.10482343 -0.00785234 0.011501093 0.11807493 -0.019034658 0.017000435
0.004768207 0.070264034 -0.10598397 -0.2030941 -0.107346036 0.058459226 0.0019521442 -0.06561046
-0.019281488 0.052538414 0.006382889 -0.22317824 -0.04450417 -0.040035974 -0.008873787 0.07269913
-0.029526044 -0.019446285 0.1073449 0.030903202 0.10865961 -0.032122094 -0.14383578 0.025392974
0.033204716 0.110995725 -0.0095170075 -0.038712382 0.10705939 0.025945237 -0.07344519 -0.036079716
-0.034262497 0.019385532 0.039915554 0.13966061 0.108243845 -0.041238666 0.03283016 0.014472231
0.051413827 -0.02032937 0.08268013 0.13791636 -0.09037077 -0.057743277 -0.03969437 -0.002454785
-0.002995016 -0.08788199 -0.09782427 0.14107478 -0.09832014 0.0080453 -0.087838635 0.105867624
-0.103101194 0.19160911 0.07573492 -0.011860866 -0.021322925 0.040407807 0.024512371 0.04874531
-0.07652128 -0.033408117 0.034032457 0.026074445 0.04033671 0.075699605 -0.03059093 0.019508898
-0.058007397 -0.18445979 -0.09618124 0.1559007 0.13860361 0.026020288 -0.007149618 -0.0072192694
00000000: 593c 03bd f0e3 673d bd29 223d eb31 ae3b
00000010: a188 2abc 93a8 863d a71c b43d 570e 1a3c
00000020: dae0 053c 7519 f7bd bbd3 a7bd 96b4 90bc
00000030: ed4f dc3d 5b58 c0bc b1dd 8b3d 7638 523c
00000040: 2d10 84bc 943c 72bc 2302 68bd 93ab 9d3c
00000050: d373 26bd 4a1e 163d ece8 6c3e 43ab e23c
00000060: c3ec cb3c 3090 0d3d 7ee6 bfbd ce60 9c3d
00000070: aa13 14bd c60e 3c3d bb0d 91bd 27dd 153e
00000080: 8470 333d d137 04bd 6f7c eb3d 9341 a63d
00000090: e9c9 cfbd 1c7c 4bb8 21a8 433d 182a ab3d
000000a0: c931 94bc 2981 113d 87f0 153c ff02 93bd
000000b0: 696d 02bd 8f07 35bd 4ae5 3b3e cfff 35be
000000c0: 028a a2bd cc70 0e3d 68bc e33c a81c 3abd
000000d0: 246c 3d3d 867e 533c 060a fa3c d2e1 2b3c
000000e0: 1da2 e73d 844f 213d dab4 143d 8165 103d
000000f0: 778b 90bb 5a8f 053e 5159 153d 535a 053e
00000100: 5961 e13c 7344 16ba 5711 863d 9c56 173e
00000110: f0bb d7bb 5351 4d3d 6244 8e3d fb86 ba3d
00000120: 661a 003d 248d edbd 47af 62bd 9cea 6a3e
00000130: 025c c53c 7c70 01be 9030 82bc 4384 88bb
00000140: 5415 10be 52a1 1dbe a767 c6bc a4f9 073d
00000150: 9688 11bc 5986 fb3d d05e 22be d5a2 10bd
00000160: f2c8 56bd 1648 89be a567 483e 3087 38bd
00000170: 755c 2fbd 41b4 503b abd6 f23b e235 2a3d
00000180: 04d9 42bd dc36 0ebe 6eb7 363d 4242 b53c
00000190: 90b6 153e 0267 be3d 8aef 8b3d 08e8 393e
000001a0: 9929 5a3d 1489 1f3e 4bf4 6b3c cbbd 99bd
000001b0: eb9b 5b3d 61de bdbd 5cc4 1b3d b076 e53d
000001c0: 9e62 403d e714 b93d 3582 c0bc d7b9 593e
000001d0: 6d82 493d 6fd9 07bd 80fd b1bc b1ff 093d
000001e0: 9790 e83c baf5 0fbe 1092 a23d 1409 b43c
000001f0: 2b2f 0c3c 6994 ae3d 9795 8e3c 720c c73d
00000200: 5cf6 083d ca42 ccbd 2664 8fbd 4192 833d
00000210: 4969 b53d a370 03be b435 c7bd 951b c93d
00000220: 8606 0abe e0e9 8bbc 8c06 a3bd df92 113e
00000230: a2df f73d a328 8cbc 4504 003d 7411 a3bd
00000240: 7afb de3b 4ebc adbd 1c1b 98bd f5d0 8ebd
00000250: 5ace 39be 115e 09bd 8da2 2dbd fa87 c73d
00000260: 7279 9fbc ba06 3dbd 542f e03d 43b5 093d
00000270: 7026 82bd b01f 4f3c 649d 7abd 1356 cb3d
00000280: 46be febd e5b5 ce3c 23ef 9e3d 8973 06be
00000290: 666f 7dbd acc6 043d f578 f7ba 9cba 333d
000002a0: f3e3 e93c a09e 82bc abad d63d 1aa7 00bc
000002b0: 156f 3c3c 45d1 f13d 92ee 9bbc 7f44 8b3c
000002c0: 9f3e 9c3b 97e6 8f3d 200e d9bd e6f7 4fbe
000002d0: 3dd8 dbbd f172 6f3d 17df ff3a c75e 86bd
000002e0: 36f4 9dbc 8532 573d 8e27 d13b d688 64be
000002f0: 014a 36bd c3fc 23bd 5c63 11bc 48e3 943d
00000300: 9ae0 f1bc d14d 9fbc a5d7 db3d b628 fd3c
00000310: ee88 de3d 7592 03bd b049 13be ed04 d03c
00000320: ab01 083d ba51 e33d 39ed 1bbc e090 1ebd
00000330: f441 db3d 1b8b d43c 6f6a 96bd 53c8 13bd
00000340: d556 0cbd 68ce 9e3c 7e7e 233d 3103 0f3e
00000350: f3ae dd3d e0e9 28bd eb78 063d f01c 6d3c
00000360: 4e97 523d c789 a6bc 3354 a93d f239 0d3e
00000370: 4f14 b9bd 3784 6cbd 9096 22bd 75e0 20bb
00000380: 0848 44bb 79fb b3bd 1758 c8bd e875 103e
00000390: 125c c9bd 6fd0 033c bee4 b3bd 20d1 d83d
000003a0: b826 d3bd 2e35 443e e91a 9b3d 1454 42bc
000003b0: 6aad aebc a882 253d 2bce c83c 2aa9 473d
000003c0: 30b7 9cbd f3d6 08bd 9e65 0b3d 139a d53c
000003d0: 1b38 253d 6508 9b3d d499 fabc 20d1 9f3c
000003e0: 2a99 6dbd 07e3 3cbe acfa c4bd 6fa4 1f3e
000003f0: 1bee 0d3e 8028 d53c 5847 eabb 9f8f ecbb

network_body._body_endoder.seq_layers.2.bias f4 [128]
-0.00462557 -0.008008712 0.011621127 5.5022032e-05 0.0050488003 0.0048507685 0.00085873896 -0.005295924
-0.003582748 -0.0095359 -0.0072698677 -0.0016361008 0.0009520448 -0.00562823 0.004956342 0.016159754
0.0057094535 0.0018805868 -0.0032803027 -0.007354492 0.0017911572 0.010487757 -0.020898845 -0.012373291
-0.010080488 0.010415366 0.011154947 0.014585403 0.007333367 -0.010969774 0.009033219 0.0013638532
0.008443323 0.0038590655 -0.005301443 -0.0031385734 -0.0054918127 0.00992891 -0.0051824087 0.002440236
-0.0001594892 -0.0032753723 -0.0023016313 -0.010934653 -0.0023188377 -0.007848914 -0.0010651549 -0.00053082407
-0.010295723 0.004779237 0.008260391 0.012406761 -0.007834423 0.014417299 -0.001516394 0.004524776
0.0040134485 -0.0074054496 -0.006809252 -0.006714198 0.0056868717 -0.009255745 -0.007433722 -0.008129149
-0.0060366285 0.0017151773 0.017473742 -0.002314809 -0.0031761492 -0.0010848246 0.00605913 -0.00503213
0.00069897034 0.0020504103 0.010118499 -0.0072582853 -0.0061218343 -0.0026281474 0.018526098 -0.0068316343
0.011757682 0.018323643 8.696301e-05 0.011435638 0.008027541 0.0018405222 0.01248605 -0.0011418881
0.018425917 0.01253778 0.0011380053 0.007591177 0.00047077352 0.012577732 0.00030344274 0.009570258
0.0014769891 -0.0030675025 -0.002758398 0.008387463 0.0075511755 -0.012807794 -0.005292195 0.012166633
-0.009993213 0.0018872971 -0.009335915 0.011594562 -0.0063035595 -0.005368052 -0.0016880395 -0.0041006026
-0.0016394944 -0.0080016535 0.009052307 -0.006324317 -0.0013540327 -0.0030173303 0.021809647 -0.0103252195
0.012922753 -0.010816324 -0.0014402093 0.010095752 0.006846171 -0.0048087225 0.0028052235 -0.0039416663
00000000: 1892 97bb f936 03bc 8a66 3e3c 75c7 6638
00000010: 6870 a53b 32f3 9e3b ff1c 613a 6e89 adbb
00000020: 89cc 6abb 773c 1cbc 1238 eebb 6f72 d6ba
00000030: a592 793a 046d b8bb cf68 a23b 7661 843c
00000040: 5e16 bb3b 067e f63a 59fa 56bb f3fd f0bb
00000050: 43c5 ea3a d7d4 2b3c 0e34 abbc 58b9 4abc
00000060: a228 25bc 36a5 2a3c 3dc3 363c 9df7 6e3c
00000070: be4c f03b 91ba 33bc 1100 143c 52c3 b23a
00000080: dd55 0a3c 60e8 7c3b bab7 adbb 86b0 4dbb
00000090: aaf4 b3bb deac 223c 32d1 a9bb 5eec 1f3b
000000a0: 8e3c 27b9 a1a7 56bb f7d6 16bb 4227 33bc
000000b0: a4f7 17bb bb98 00bc ab9c 8bba 0027 0bba
000000c0: 64af 28bc 259b 9c3b 9756 073c ba45 4b3c
000000d0: f45b 00bc 8936 6c3c bdc1 c6ba 9244 943b
000000e0: 3f83 833b 6aa9 f2bb 2520 dfbb c602 dcbb
000000f0: f058 ba3b 69a5 17bc 9496 f3bb 1f30 05bc
00000100: e9ce c5bb cdcf e03a 1825 8f3c 0db4 17bb
00000110: f126 50bb ac30 8eba ab8b c63b 91e4 a4bb
00000120: 1b3b 373a 2d60 063b 10c8 253c e9d6 edbb
00000130: ab99 c8bb ff3c 2cbb 0bc4 973c e7db dfbb
00000140: 4ba3 403c 771b 963c e95f b638 8b5c 3b3c
00000150: f385 033c ad3d f13a 4a92 4c3c 68ab 95ba
00000160: f3f1 963c 436b 4d3c 1f29 953a 68bf f83b
00000170: 27d2 f639 d512 4e3c 6517 9f39 92cc 1c3c
00000180: 8897 c13a 2708 49bb 3dc6 34bb 926b 093c
00000190: da6f f73b c8d7 51bc 266a adbb 8f56 473c
000001a0: 93ba 23bc 2f5f f73a aaf5 18bc 1ef7 3d3c
000001b0: 178e cebb 7ce6 afbb 3541 ddba 595e 86bb
000001c0: 4ee4 d6ba 5e19 03bc 2150 143c 373c cfbb
000001d0: cc79 b1ba 67be 45bb 25aa b23c 1c2b 29bc
000001e0: f4b9 533c f336 31bc 68c5 bcba a768 253c
000001f0: d855 e03b 7d92 9dbb d7d7 373b 1829 81bb

action_model._continuous_distribution.log_sigma f4 [1, 2]
-0.031982332 0.0022956464
00000000: e8ff 02bd 8e72 163b

action_model._continuous_distribution.mu.weight f4 [2, 128]
-0.0136718415 -0.00081478356 0.04503376 -0.004980885 0.01159609 -0.015577313 -0.009000571 -0.00788285
-0.006137197 0.005333431 0.015162031 -0.048993442 -0.00041309837 -0.030422332 -0.009252923 0.015540209
-0.0066031874 -0.041164007 -0.020261806 0.0033282437 0.013576213 0.0049029454 -0.0083656795 -0.0520578
0.0024419532 0.014081935 0.03236207 0.0215103 0.0083182445 -0.025117774 0.019060384 0.013639679
0.03212549 -0.03909017 -0.02615307 -0.060130287 -0.012837233 0.025071159 0.0037870582 0.012508526
0.008444444 -0.006490325 -0.028521573 -0.037765108 -0.024872893 -0.019691473 -0.027325474 -0.02480276
-0.008649536 -0.026004018 0.06010979 0.015912695 -0.015289131 0.021259088 -0.03135669 0.030061794
0.021129465 -0.008571773 0.016897138 -0.025017647 -0.026758531 -0.010183107 0.0018324977 0.0077737314
-0.026537389 -0.03824839 0.028752401 0.019059401 0.01104126 -0.030282008 -0.0012230987 -0.040010393
-0.004806964 0.00022071203 0.008867916 -0.010866258 0.007149436 -0.030286755 0.006638414 -0.02389975
0.023313386 0.041936327 -0.026417216 0.03857985 0.010636394 -0.02657071 0.0036135905 -0.018354688
0.020339794 -0.02674088 0.009831968 -0.018091016 0.022140328 0.03346057 -0.020274626 0.005531802
0.019390807 -0.04092692 0.0027707606 0.017346371 0.011120259 -0.010439884 -0.010434262 0.017083235
-0.0056343544 -0.012525231 0.0035087506 0.016986856 -0.014938105 -0.0072379075 -0.026856698 0.018711016
0.011237484 0.001175989 0.0020177912 -0.023239775 0.014106814 -0.039068133 0.02474914 -0.019966919
0.019582381 -0.011025352 -0.024231048 -0.008283546 0.018689029 -0.023289908 -0.011880961 -0.016377173
0.0053108567 -0.008384294 0.005753544 0.026289048 -0.0040373155 0.043828487 -0.01362893 0.0060627135
-0.004008886 -0.019971242 -0.0017816421 -0.001784787 0.0037543708 -0.026245184 0.037574526 0.030001717
0.025696542 -0.013840164 -0.014692737 -0.028900692 7.0570546e-05 0.034333307 -0.031868145 0.011041593
-0.018657923 0.02419425 0.05188746 0.0141288275 0.00538408 -0.006033841 0.018197542 -0.016673483
8.230822e-06 -0.0005792677 -0.022006888 -0.035868455 -0.041003477 0.008765962 0.0073275845 -0.008899413
-0.033477698 0.01092615 0.012729067 -0.012521316 0.030440684 -0.027806172 0.009877124 -0.017486688
-0.007890682 -0.021329787 0.014111463 0.017067848 -0.020474736 -0.0007245013 -0.019129518 -0.019638572
-0.005072268 -0.038255278 -0.034100216 -0.032073732 0.00729218 -0.0064307093 -0.026449045 -0.011152485
-0.004713333 -0.018878564 0.011103648 -0.023044288 -0.02782334 0.011090448 0.011313271 -0.0030871872
0.021764716 0.016411802 0.016494771 -0.004692429 -0.009038312 -0.011629148 0.00294811 -0.016557308
0.04004247 0.022225719 -0.040279247 0.0076500904 0.010732415 -0.003961487 0.02793851 -0.012593118
0.004682472 0.020411551 -0.009201127 0.0032357178 -0.028338464 0.014274541 0.024464067 0.035342984
-0.011805825 0.005981701 0.011717615 -0.008931641 0.017804911 -0.03352336 0.0048982096 0.0463285
-0.024019595 0.0014228753 -0.021192199 0.023119967 -0.0015635093 -0.015374808 0.00022185597 -0.010787155
-0.013978134 -0.039812908 0.03730444 -0.0075362823 0.004055305 0.003812171 0.03861604 -0.019289052
0.022695541 -0.040801838 0.009103321 0.030422218 0.008947441 0.018162875 0.0325754 -0.0019126335
00000000: dcff 5fbc 3397 55ba 5275 383d b136 a3bb
00000010: 87fd 3d3c fc37 7fbc 2277 13bc 1227 01bc
00000020: 8a1a c9bb 10c4 ae3b 2b6a 783c 59ad 48bd
00000030: 2095 d8b9 4138 f9bc 9299 17bc 5c9c 7e3c
00000040: 8d5f d8bb 979b 28bd 16fc a5bc aa1e 5a3b
00000050: c46e 5e3c e3a8 a03b 3410 09bc 8f3a 55bd
00000060: 2d09 203b ebb7 663c 178e 043d 5e36 b03c
00000070: 3f49 083c cac3 cdbc 8624 9c3c f678 5f3c
00000080: 0596 033d 041d 20bd f73e d6bc 2d4b 76bd
00000090: 4253 52bc 0862 cd3c 4b30 783b 90f0 4c3c
000000a0: 915a 0a3c cbac d4bb 13a6 e9bc 96af 1abd
000000b0: 3dc2 cbbc 0350 a1bc acd9 dfbc 282f cbbc
000000c0: c9b6 0dbc 6106 d5bc af35 763d 575b 823c
000000d0: 437f 7abc 8a27 ae3c df6f 00bd 2744 f63c
000000e0: b317 ad3c 9f70 0cbc de6b 8a3c cff1 ccbc
000000f0: b534 dbbc 0cd7 26bc 6b30 f03a c9ba fe3b
00000100: f064 d9bc 58aa 1cbd 288a eb3c 7622 9c3c
00000110: 67e6 343c f911 f8bc 6250 a0ba f0e1 23bd
00000120: bd83 9dbb ef6e 6739 bc4a 113c 6408 32bc
00000130: d145 ea3b ee1b f8bc 0e87 d93b 69c9 c3bc
00000140: b7fb be3c 6dc5 2b3d eb68 d8bc e805 1e3d
00000150: 4544 2e3c d1aa d9bc fdd1 6c3b 925c 96bc
00000160: a49f a63c b10f dbbc 4316 213c 9c33 94bc
00000170: a25f b53c f30d 093d f916 a6bc 1e44 b53b
00000180: 78d9 9e3c fca2 27bd a695 353b fa19 8e3c
00000190: bf31 363c 0c0c 2bbc 78f4 2abc 24f2 8b3c
000001a0: 64a0 b8bb a036 4dbc 11f3 653b 0528 8b3c
000001b0: f4be 74bc f82b edbb 9402 dcbc d847 993c
000001c0: 6d1d 383c a523 9a3a eb3c 043b 5761 bebc
000001d0: 4420 673c e805 20bd b5be ca3c aa91 a3bc
000001e0: 3b6b a03c aea3 34bc 3180 c6bc b6b7 07bc
000001f0: bc19 993c 7aca bebc 5da8 42bc 6c29 86bc
00000200: b206 ae3b 475e 09bc 3a88 bc3b 215c d73c
00000210: 754b 84bb 8085 333d e04b 5fbc baa9 c63b
00000220: f95c 83bb bb9a a3bc fd85 e9ba 84ef e9ba
00000230: e40b 763b 2400 d7bc bfe7 193d 29c6 f53c
00000240: 8e81 d23c dbc1 62bc ceb9 70bc 25c1 ecbc
00000250: 46ff 9338 15a1 0c3d 2c88 02bd cce7 343c
00000260: 80d8 98bc 0533 c63c f287 543d 997c 673c
00000270: f06c b03b 87b7 c5bb 0313 953c d496 88bc
00000280: 1c17 0a37 ffd9 17ba ca47 b4bc cdea 12bd
00000290: 43f3 27bd 1c9f 0f3c 3c1c f03b d8ce 11bc
000002a0: e91f 09bd 9803 333c 948d 503c 3526 4dbc
000002b0: be5e f93c c5c9 e3bc a9d3 213c 3e40 8fbc
000002c0: eb47 01bc cebb aebc c433 673c dfd1 8b3c
000002d0: a2ba a7bc 76ec 3dba 82b5 9cbc 12e1 a0bc
000002e0: 4535 a6bb 91b1 1cbd abac 0bbd bf5f 03bd
000002f0: 3df3 ee3b b3b8 d2bb abab d8bc eab8 36bc
00000300: 4e72 9abb 38a7 9abc 13ec 353c 60c7 bcbc
00000310: c6ed e3bc b6b4 353c 4c5b 393c 6852 4abb
00000320: eb4b b23c 0b72 863c 0b20 873c f3c2 99bb
00000330: 6e15 14bc 2f88 3ebc 1435 413b 31a3 87bc
00000340: 9303 243d b612 b63c dafb 24bd 9cad fa3b
00000350: 03d7 2f3c 5dcf 81bb 4ddf e43c 5d53 4ebc
00000360: 6c6f 993b 2036 a73c 53c0 16bc 560e 543b
00000370: 1126 e8bc c4df 693c de68 c83c cec3 103d
00000380: 386d 41bc 2502 c43b 3dfb 3f3c 0456 12bc
00000390: 9bdb 913c ca4f 09bd 2981 a03b f4c2 3d3d
000003a0: bec4 c4bc c67f ba3a 439b adbc 1666 bd3c
000003b0: abee ccba 9ee6 7bbc 02a2 6839 9bbc 30bc
000003c0: 8b04 65bc dc12 23bd 8acc 183d ebf2 f6bb
000003d0: 5de2 843b 9ed5 793b da2b 1e3d 1304 9ebc
000003e0: 00ec b93c d41f 27bd 1826 153c 0438 f93c
000003f0: 4a98 123c 4fca 943c c86d 053d 55b1 faba

action_model._continuous_distribution.mu.bias f4 [2]
0.0059135137 0.011588943
00000000: 26c6 c13b 8ddf 3d3c
