results/car1/CarParking/CarParking-490474.onnx (onnx, 141699 bytes, 7 tensors)

network_body._body_endoder.seq_layers.0.weight f4 [128, 136]
0	0xbde9cc7b	-0.11415955
1	0xbe532eaa	-0.2062327
2	0xbd0532f1	-0.032519285
3	0xbdbe8d32	-0.093042746
4	0xbdf00fc9	-0.11721761
5	0x3d3d7186	0.046250843
6	0x3e1c117c	0.15241045
7	0x3c803d82	0.01565433
8	0x3e0765bc	0.13222402
9	0x3e1117e8	0.14169276
10	0xbbfc8d28	-0.007707257
11	0xbdbd4df0	-0.09243381
12	0xbe08f59f	-0.13374947
13	0xbe27a4c1	-0.16371442
14	0x3d694037	0.056946006
15	0x3d1aa7b2	0.037757583
16	0x3d77321b	0.06035052
17	0x3bd9954a	0.006640111
18	0x3e4d7a02	0.20066074
19	0xbd0567ad	-0.032569576
20	0x3db96e66	0.0905426
21	0x3d8ef4e7	0.06980305
22	0x3c9d1679	0.019175755
23	0xbdde6b71	-0.108603366
24	0x3dd02635	0.101635374
25	0x3d1d3805	0.038383503
26	0x3d44998e	0.047998004
27	0xbd0a3ef4	-0.033751443
28	0x3d8e810f	0.0695821
29	0x3d9fbaf1	0.07799328
30	0xbda4a559	-0.0803935
31	0x3d125b6d	0.03573172
32	0xbd56ef7f	-0.052474495
33	0xbca99d87	-0.020704998
34	0xbde68371	-0.11255539
35	0x3d5429c9	0.051797662
36	0x3d8d5919	0.0690176
37	0x3dfc0324	0.123052865
38	0xbc5cfef5	-0.013488521
39	0xbdcca4d9	-0.0999238
40	0xbd0f5a00	-0.03499794
41	0x3c00f922	0.007871898
42	0xbd79dd06	-0.0610018
43	0xbdd69b12	-0.10478796
44	0xbb4d8cc9	-0.0031364432
45	0x3db36a00	0.08760452
46	0x3cf89fea	0.03034969
47	0xbdeb6b8a	-0.11495121
48	0xbd95de18	-0.07317752
49	0xbd818ce8	-0.06325704
50	0x3d443c0e	0.047908835
51	0xbbef8f11	-0.007310756
52	0x3cdb4f4c	0.02677121
53	0x3d87bb36	0.066275045
54	0x3bccddc5	0.006252023
55	0xbd1d861c	-0.038457975
56	0x3d99bf36	0.07507174
57	0x3e123428	0.14277709
58	0xbdb02219	-0.086002536
59	0x3d53b1c2	0.051683195
60	0x3daa85b7	0.08326285
61	0xbca80229	-0.020508843
62	0xbdfb5c73	-0.12273493
63	0x3bf38e09	0.0074327034
64	0xbd1a1c81	-0.03762484
65	0x3c8fc47c	0.017549746
66	0xbd86e793	-0.06587138
67	0xbbd7991c	-0.0065795314
68	0x3c03887d	0.008028147
69	0x3d93fcb4	0.07225934
70	0x39807ed7	0.00024508566
71	0x3cb67936	0.022274595
72	0x3dbda012	0.092590466
73	0x3d8d3680	0.06895161
74	0x3e2605ae	0.16213104
75	0x3ca770af	0.020439474
76	0xbe256dc0	-0.16155148
77	0x3d79ded6	0.06100353
78	0x3ddd8e38	0.10818142
79	0xbd7ef94d	-0.06224947
80	0xbe21e260	-0.15809011
81	0xbd538032	-0.05163593
82	0x3d9c436c	0.07630047
83	0x3d09fda3	0.033689152
84	0xbd95f134	-0.073213965
85	0xbc3f80e5	-0.011688446
86	0xbcc466ec	-0.023974858
87	0x3db72978	0.089434564
88	0x3d323a1e	0.043512456
89	0xbdf56a80	-0.11983204
90	0xbc892ffb	-0.016746512
91	0xbc94afc2	-0.018150214
92	0xbd3666df	-0.0445317
93	0xbc00bfc9	-0.007858225
94	0x3cfa35e7	0.03054328
95	0x3d3633d5	0.044483025
96	0xbb79c5ad	-0.0038112209
97	0xbe347962	-0.17624429
98	0x3d35b066	0.04435768
99	0x3d6b9126	0.05751147
100	0xbdc01b4f	-0.09380209
101	0x3d1b6dd9	0.037946556
102	0xbb78db5c	-0.0037972545
103	0x3c834795	0.016025344
104	0xbdec7cf7	-0.11547273
105	0xbd977f90	-0.073973775
106	0x3d882d10	0.0664922
107	0xbc1c7db6	-0.009551456
108	0x3e198493	0.1499198
109	0xbe364b79	-0.17802228
110	0x3d962382	0.07330991
111	0xbe081b6f	-0.13291715
112	0x3dbaac96	0.091149494
113	0x3d588e0f	0.052869853
114	0xb91d10ad	-0.00014978899
115	0x3bde4191	0.0067827185
116	0x3e244329	0.16041245
117	0x3deb9f79	0.11505026
118	0x3d3af0a7	0.04563966
119	0xbdae4c48	-0.08510643
120	0xbce83b84	-0.028348692
121	0xbcffeb8e	-0.03124025
122	0x3dbceeb4	0.092252165
123	0x3e18a4d9	0.14906634
124	0xbc09a88b	-0.008402
125	0xbc0eac5a	-0.008708084
126	0xbd58fda9	-0.052976284
127	0x3d0770e2	0.033066638
128	0x3dbd79c4	0.092517406
129	0xbd1383f1	-0.0360145
130	0x3d1b630a	0.037936248
131	0xbe5d1f52	-0.21593979
132	0x3e093c2f	0.13401864
133	0x3cebfdf8	0.028807625
134	0x3d26c722	0.04071725
135	0xbd5684fc	-0.052372918
136	0x3cee4e92	0.0290902
137	0xbd94f2fa	-0.072729066
138	0xbd8e9fd3	-0.06964078
139	0xbd6996d4	-0.057028607
140	0x3d9d6604	0.076854736
141	0xbd3801fe	-0.044923775
142	0x3cc3c6ec	0.023898564
143	0x3e0ff579	0.14058484
144	0xbe056152	-0.13025406
145	0xb7d243bd	-2.5065494e-05
146	0xbd004167	-0.031312373
147	0xbcb4628e	-0.02201965
148	0x3d6eae62	0.058271773
149	0xbdb0320d	-0.086032964
150	0xbb849a5b	-0.004046721
151	0xbcc6b0ef	-0.02425429
152	0x3df7cbd4	0.12099424
153	0x3c208a73	0.009798634
154	0x3d974019	0.073852725
155	0xbbf1223a	-0.0073588165
156	0xbcdbd434	-0.026834585
157	0x3d2acb23	0.041697633
158	0x3d0e6b9f	0.034770604
159	0x3d04f7ea	0.03246299
160	0xbddec191	-0.108767636
161	0xbd2e41e4	-0.042543307
162	0xbca2505d	-0.01981371
163	0xbdd5f7f7	-0.10447686
164	0x3bfc58f8	0.0077010356
165	0xbdd8bd20	-0.10582948
166	0x3c8e604c	0.017379902
167	0x3df3f5d2	0.11912121
168	0xbe1df2f6	-0.15424713
169	0x3cb4fe03	0.022093778
170	0xbd690efe	-0.056899063
171	0x3dfc90a8	0.123322785
172	0xbe02f63f	-0.12789248
173	0xbd44d9ca	-0.048059262
174	0x3cc15516	0.023600142
175	0xbc063866	-0.008192157
176	0x3d7998d1	0.060936753
177	0xbd85d0eb	-0.065339886
178	0xbdf12b18	-0.117757976
179	0xbcf0be64	-0.02938766
180	0xbd8484c4	-0.064706355
181	0xbd1a07cd	-0.037605096
182	0x3e38a432	0.18031386
183	0xbce187df	-0.027530609
184	0xbd095a8f	-0.03353363
185	0xba893193	-0.0010467045
186	0xbde608ab	-0.11232122
187	0x3cc14e7e	0.023596998
188	0xbcc7acbf	-0.024374364
189	0x3c93ca14	0.018040694
190	0xbd8f4bc8	-0.06996876
191	0x3e00f3d8	0.12593019
192	0x3dbf59e5	0.09343318
193	0x3c040766	0.008058405
194	0xbd8f51eb	-0.069980465
195	0x3df3a921	0.11897493
196	0xbe073584	-0.13204008
197	0xbd1ee30a	-0.03879074
198	0x3de408b2	0.11134471
199	0xbdcf7ce0	-0.1013124
200	0xbdd540c3	-0.10412743
201	0xbe1b7669	-0.15181889
202	0xbdc897de	-0.09794591
203	0xbdafdbec	-0.08586869
204	0xbd0a3ddd	-0.033750404
205	0xbdc18535	-0.09449235
206	0x3ac4f292	0.0015025905
207	0x3d210a0e	0.03931623
208	0x3dafb457	0.08579319
209	0x3c7b5b8e	0.015341653
210	0xbdfdfd92	-0.1240188
211	0xbd370e1d	-0.044691194
212	0x3dd1c3d2	0.10242428
213	0xbd8f0106	-0.06982617
214	0x3e1a5e07	0.15074931
215	0xbd750957	-0.05982336
216	0x3d54dfff	0.05197143
217	0x3db0a896	0.08625905
218	0x3ccab6dc	0.024745397
219	0xbe1b3e4c	-0.15160483
220	0x3ca69a3b	0.020337215
221	0xbb1e11f7	-0.0024119595
222	0xbe3867e5	-0.18008383
223	0x3c79cdff	0.015246867
224	0xbc571ea7	-0.013129867
225	0xbd39aa09	-0.045328174
226	0x3d2b70ec	0.041855738
227	0xbdd76935	-0.105181135
228	0xbcfcc649	-0.030856268
229	0x3dc90402	0.098152176
230	0x3ce608b4	0.028080322
231	0xbd773b88	-0.060359508
232	0xbdd2a6c9	-0.10285718
233	0x3caf31df	0.021386085
234	0x3dcfc56d	0.10145078
235	0x3cd6bd2e	0.026213255
236	0xbe2bf5d0	-0.16792989
237	0xbe3a8ec6	-0.18218526
238	0x3bece365	0.007229256
239	0xbd0804aa	-0.033207573
240	0x3a4742b2	0.0007601186
241	0xbc93c19b	-0.018036654
242	0xbde81902	-0.11332895
243	0xbd86e327	-0.065862946
244	0xbdab8c92	-0.08376421
245	0xbd913ca4	-0.070916444
246	0x3d3cd938	0.046105593
247	0x3e062d24	0.13103157
248	0x3a9c6694	0.0011932426
249	0xbddf2555	-0.108957924
250	0xbc34df84	-0.011039618
251	0x3c9580b0	0.01824984
252	0x3bdc28bf	0.0067187245
253	0xbd537949	-0.05162934
254	0xbd0263b2	-0.031833358
255	0xbdbc01c8	-0.09180027

network_body._body_endoder.seq_layers.0.bias f4 [128]
0	0x3c7c70df	0.01540777
1	0x3a4d0e61	0.0007822272
2	0xbbf186e0	-0.0073708147
3	0x3ce2b911	0.027676137
4	0x3c377acc	0.011198711
5	0x3b7e5ad7	0.003881147
6	0x3bbb6bb3	0.005719626
7	0x3c229083	0.00992215
8	0xbbea0909	-0.0071421904
9	0xbc1f3d93	-0.00971927
10	0xbbea1c04	-0.007144453
11	0x3c463112	0.01209666
12	0x3c701bd9	0.014655077
13	0x3bdc2017	0.0067176926
14	0xba12cf10	-0.0005600313
15	0x3bd3ab85	0.0064596557
16	0x3b8348a6	0.004006463
17	0x3b24b3a4	0.0025131488
18	0xbbbc25f5	-0.0057418295
19	0x3b88e0d8	0.004177194
20	0x3c59fc12	0.013304727
21	0x3c1170f0	0.008877024
22	0xbc9ea29a	-0.019364644
23	0xbc8e9368	-0.017404273
24	0xbbfa53cb	-0.0076393834
25	0x3be88c9e	0.007096841
26	0x3a8c7309	0.0010715435
27	0x3b6e3184	0.0036345432
28	0x3afb8bbe	0.0019191427
29	0x3c65bb18	0.014021657
30	0xbc1501c8	-0.009094663
31	0x3c1fb710	0.009748235
32	0xba7e6410	-0.00097042415
33	0x3cd81d82	0.026381258
34	0x3c22eec1	0.009944619
35	0x3bae66e5	0.0053223246
36	0xbb08ca20	-0.002087243
37	0x3a4d61c9	0.00078347005
38	0xbbee3e22	-0.0072705904
39	0x3c20d203	0.009815696
40	0x3b969436	0.004595305
41	0x3cfc9e00	0.030837059
42	0x3c3b2cbc	0.01142424
43	0x3bbbb5f1	0.005728476
44	0x3c580a86	0.013186103
45	0x3bb29d95	0.005450914
46	0x3bd92e9d	0.006627871
47	0x3c64b358	0.0139587745
48	0x3ce2b1ff	0.027672766
49	0x3c3408c6	0.01098842
50	0xbc98407f	-0.018585442
51	0x3c6ba837	0.014383367
52	0xbb0a1638	-0.0021070372
53	0x3cadeb1a	0.02123027
54	0x3c255334	0.010090638
55	0xbb11cac2	-0.0022246097
56	0x3cf4fc9b	0.029905608
57	0x3cabbd95	0.020964423
58	0x3b316773	0.0027069717
59	0xbb1ee8c2	-0.0024247621
60	0x3c0cfb08	0.008604772
61	0x3cb7f0b2	0.02245364
62	0x3af66638	0.0018798774
63	0xbb62cde1	-0.0034607577
64	0x3c70f5d1	0.014707045
65	0x3c8888cb	0.01666679
66	0xbc6fa5b9	-0.014626914
67	0x3c42c402	0.011887552
68	0xbb5441d8	-0.0032387879
69	0x3c3d789c	0.0115644
70	0xbc99998d	-0.018749977
71	0xbbf0f2b9	-0.0073531535
72	0x3bee08d9	0.0072642383
73	0xbcc41ece	-0.02394047
74	0xbb90d9cd	-0.004420495
75	0x3b4af5be	0.0030969228
76	0x3c51835a	0.012787664
77	0x3be51836	0.0069914116
78	0xbb2cbc37	-0.0026357302
79	0x3c45755c	0.012051906
80	0x3bf11e60	0.0073583573
81	0x3cb3078d	0.021854186
82	0x3caa40b4	0.020782806
83	0x3c60750b	0.01369978
84	0x3b7e8008	0.0038833637
85	0x3c87b342	0.016564969
86	0x3c534b23	0.012896332
87	0x3ce96eb2	0.028495166
88	0xbc5826b8	-0.013192825
89	0xbbf77547	-0.0075518223
90	0x3c14762c	0.0090613775
91	0x3c59974f	0.013280704
92	0xbbd58166	-0.0065156696
93	0x3c63c7aa	0.013902584
94	0xbb16b2a9	-0.0022994673
95	0x3c62e3ef	0.013848289
96	0xbac86bbd	-0.0015290898
97	0x3c0c8f12	0.0085790325
98	0x3c7b7888	0.015348561
99	0xbc8fa293	-0.017533576
100	0x3bf421a4	0.0074502993
101	0x3c8d2e3c	0.01723396
102	0x3b298e92	0.0025872332
103	0x3bf05096	0.0073338253
104	0x3c09666b	0.008386235
105	0x3a33f4e4	0.00068647997
106	0xbc075fa2	-0.008262547
107	0x3c1e4d5c	0.009661999
108	0x3984aa85	0.0002530405
109	0xbcf24189	-0.029572265
110	0x3aee8895	0.0018198664
111	0xbb9d527b	-0.004801092
112	0x3bcbf8a9	0.006224711
113	0xbbb3180e	-0.005465514
114	0xbc9bfbaf	-0.01904091
115	0xbc9d0999	-0.019169616
116	0xbca3dd0f	-0.02000287
117	0xbb1bc898	-0.0023770686
118	0x3b928169	0.0044709933
119	0x3ca4bc65	0.020109365
120	0x3b8f6595	0.004376123
121	0xbb45db3a	-0.0030190484
122	0x3cb44cee	0.02200934
123	0x3c605722	0.013692649
124	0x3966f811	0.00022026921
125	0x3b998b9d	0.0046858327
126	0xbb525042	-0.0032091294
127	0xbca9b97b	-0.020718327

network_body._body_endoder.seq_layers.2.weight f4 [128, 128]
0	0xbdda9457	-0.10672825
1	0xbd460024	-0.048339978
2	0x3d8e8829	0.06959564
3	0xbd820788	-0.06349093
4	0x3df856e7	0.1212595
5	0x3c46632a	0.0121086035
6	0x3d85df9e	0.06536792
7	0xbd780f93	-0.060561728
8	0xbdec3343	-0.11533215
9	0x3e4b8316	0.19874224
10	0x3de67978	0.11253637
11	0xbdb0ab53	-0.086264275
12	0xbd9f78ba	-0.07786699
13	0xbddd6e16	-0.10812013
14	0x3dbcd8cf	0.092210405
15	0xbd8d04c0	-0.068856716
16	0xbd953b82	-0.07286741
17	0xbd44cafe	-0.04804515
18	0xbdf24665	-0.11829833
19	0x3dace038	0.08441204
20	0xbe37fb31	-0.17966916
21	0x3d8c21b5	0.068423666
22	0xbdf53934	-0.11973801
23	0x3dc26c9e	0.09493373
24	0x3df6e80f	0.120559804
25	0x3e04c3fe	0.1296539
26	0xbdbc9bb0	-0.092093825
27	0xbd78cc67	-0.06074181
28	0xbd78d886	-0.060753368
29	0x3c6917c8	0.014226861
30	0x3d8e7617	0.069561176
31	0x3d46e5a9	0.048558865
32	0x3c2f3986	0.010694867
33	0x3b4a93b5	0.0030910794
34	0xbdc0ff22	-0.09423663
35	0xbd9cbd98	-0.0765335
36	0x3d94d218	0.07266635
37	0x3dcc49b5	0.09974996
38	0x3da7bd8d	0.08190451
39	0xbe07a697	-0.13247143
40	0x3d39daf8	0.04537484
41	0xbca9e641	-0.020739676
42	0xbe8be104	-0.2732011
43	0x3d5038fc	0.050835595
44	0x3e031434	0.12800676
45	0xbc2ec5e5	-0.010667299
46	0x3d75b4c6	0.059986852
47	0xbc9572ae	-0.01824316
48	0x3be87d75	0.007095034
49	0xbcc2bde0	-0.02377218
50	0xbdaf1990	-0.085497975
51	0xbdd0a617	-0.10187929
52	0xbdefbc2b	-0.11705812
53	0xbb6558e6	-0.0034995615
54	0x3db61416	0.0889055
55	0xbd2bbee1	-0.041930083
56	0xbda76e8d	-0.08175383
57	0xbcef46ee	-0.029208627
58	0x3d3b5551	0.04573566
59	0x3daa25c9	0.08307988
60	0xbab1d404	-0.0013567214
61	0xbd35ee11	-0.04441649
62	0x3d8aa29a	0.06769295
63	0x3c86cb38	0.016454324
64	0xbd60b5bd	-0.05486082
65	0xbd3e7f8b	-0.046508353
66	0x3e265df0	0.16246772
67	0xbcd30477	-0.025758965
68	0xbbdc2d45	-0.0067192637
69	0x3e2d35b6	0.1691502
70	0xbb97c2ab	-0.0046313605
71	0x3d3e8f64	0.046523467
72	0xbbe82ac0	-0.0070851743
73	0xbd54cc08	-0.051952392
74	0x3e23dcae	0.16002151
75	0xbd7d4622	-0.061834462
76	0xbd29b5dd	-0.041433204
77	0x3cf04ff3	0.029334998
78	0xbde9462e	-0.11390339
79	0xbe6cb3a1	-0.23115398
80	0x3d78ae6c	0.060713217
81	0xbd897862	-0.06712414
82	0xbe64a59e	-0.22328803
83	0x3e25730a	0.16157165
84	0x3a852dcb	0.0010160742
85	0xbe8c9081	-0.27453998
86	0x3bf8bf2b	0.0075911484
87	0x3c775277	0.015095345
88	0xbd311823	-0.04323591
89	0xbe15fd86	-0.14647493
90	0xbdab79ee	-0.083728656
91	0x3dafcb45	0.085836925
92	0xbced296d	-0.028950417
93	0x3c4f0c36	0.012637189
94	0x3dfd502e	0.12368809
95	0xbdd71edd	-0.105039336
96	0xbd77a311	-0.060458247
97	0x3dd063f7	0.10175317
98	0x3cc904ac	0.02453836
99	0xbdfe34bb	-0.12412401
100	0xbdb2008d	-0.08691511
101	0x3c01ae66	0.007915115
102	0x3e0c7b2c	0.13718861
103	0x3d639475	0.0555615
104	0x3de73372	0.11289109
105	0x3beaa6c4	0.0071609933
106	0xbd22ee59	-0.039778087
107	0x3d921cbd	0.07134388
108	0x3dae67aa	0.08515866
109	0xbe0a1ece	-0.13488314
110	0x3e1d513b	0.15363018
111	0x3de416ae	0.11137138
112	0x3da1cfde	0.07900976
113	0xbe27830f	-0.16358589
114	0x3d75e406	0.060031913
115	0x3e0a2fb9	0.13494767
116	0xbe050c02	-0.12992862
117	0x3e014e41	0.12627508
118	0x3b3fe926	0.0029283254
119	0xbdd3d2b9	-0.103429265
120	0x3d6620bd	0.056183565
121	0x3d11661b	0.035497766
122	0xbd5fc3e0	-0.05463016
123	0x3cb4362c	0.021998487
124	0x3c8fa8f2	0.017536614
125	0xbd6b7104	-0.057480827
126	0x3df621cb	0.12018164
127	0xbc396bab	-0.011317174
128	0x3d1df5a3	0.038564336
129	0x3d9f3a83	0.07774832
130	0x3d3188f9	0.043343518
131	0xbbdc8c24	-0.0067305733
132	0x3db30b33	0.087423705
133	0x3e46bbe3	0.1940761
134	0x3db4e462	0.08832623
135	0xbdbf412a	-0.09338601
136	0x3db8decb	0.090268694
137	0xbceaa52e	-0.028643217
138	0xbb3760d3	-0.0027981296
139	0x3d17fddc	0.037107334
140	0xbd80a614	-0.06281677
141	0xbd7bd3cf	-0.061481293
142	0xbd2233ef	-0.03960031
143	0x3d846ad1	0.06465686
144	0xbd747de2	-0.059690364
145	0x3cc15e84	0.023604639
146	0x3db4799b	0.08812257
147	0x3d81313d	0.063082196
148	0x3cac193b	0.021008125
149	0xbe141d4a	-0.14464298
150	0x3d978a27	0.07399397
151	0x3ddd357b	0.10801216
152	0x3e095035	0.13409503
153	0xbc068c4a	-0.008212158
154	0xbd99baee	-0.07506357
155	0x3c6117eb	0.013738613
156	0xbe8a08f8	-0.26959968
157	0xbc06e985	-0.008234386
158	0xbde4e1ba	-0.111758664
159	0xbdb355ae	-0.087565765
160	0xbe30a7f1	-0.17251565
161	0x3e1304e6	0.14357337
162	0x3db2e6fd	0.08735464
163	0x3c2fe7b2	0.010736393
164	0x3dcabf6c	0.09899792
165	0x3b5ce6ad	0.003370683
166	0xbd78aeef	-0.060713705
167	0xbda88cb9	-0.08229966
168	0xbca5c1d6	-0.02023403
169	0x3de996a2	0.11405684
170	0x3d77983f	0.060447928
171	0x3ca770b2	0.02043948
172	0x3d7a76f0	0.061148584
173	0x3e4fc8e7	0.20291482
174	0x3e0ec4ef	0.13942312
175	0xbd81b948	-0.06334168
176	0x3dff2ea4	0.12460068
177	0x3cde17d3	0.02711097
178	0x3deccbe2	0.11562325
179	0x3e0adbac	0.1356036
180	0xbd58904b	-0.052871983
181	0xbd9f00b5	-0.07763807
182	0x3c5f0e54	0.013614256
183	0xbdb308fc	-0.08741948
184	0xbc793074	-0.015209306
185	0x3d47b175	0.04875322
186	0xbd43488c	-0.047676608
187	0x3d83ea97	0.06441229
188	0xbba0cb16	-0.004907022
189	0xbc92ed6b	-0.017935475
190	0x3dca6f19	0.098844714
191	0xbd5b3357	-0.05351576
192	0xbd2244da	-0.039616443
193	0x3daf2ed0	0.08553851
194	0x3d8b0186	0.067874
195	0xbafd34ae	-0.0019318068
196	0xbc94a81e	-0.01814657
197	0xbd8761b5	-0.06610433
198	0xbd515c8c	-0.05111365
199	0x3e165b90	0.14683366
200	0xbd8a845b	-0.06763526
201	0x3cf7ef9f	0.030265627
202	0xbcf87186	-0.03032757
203	0x3d868d45	0.06569914
204	0xbd885601	-0.06657029
205	0x3e2894cf	0.16463016
206	0x3cc539f7	0.024075491
207	0xbc22d8f0	-0.009939417
208	0xbd3b9cd5	-0.045803864
209	0x3de9b2c2	0.114110485
210	0xbdc3a941	-0.09553767
211	0xbc66799a	-0.014067078
212	0xbe1c2c9b	-0.1525139
213	0x3e0117ce	0.12606737
214	0x3dbdbca7	0.09264498
215	0xbd9b1b90	-0.075736165
216	0xbdcb87a9	-0.099379845
217	0xbcb45864	-0.022014804
218	0x3d025958	0.031823486
219	0x3d3407e1	0.043952826
220	0xbda08dd3	-0.07839551
221	0x3d312ed8	0.043257564
222	0x3cfce3fe	0.030870434
223	0x3d65550b	0.055989306
224	0xbd4a27f8	-0.049354523
225	0xbe3db244	-0.18525034
226	0xbcfe0e34	-0.031012632
227	0x3e42cb92	0.19022968
228	0xbdf4c5e4	-0.11951807
229	0xbd74b643	-0.05974413
230	0x3b9c21c8	0.004764769
231	0x3e16a543	0.1471148
232	0x3e6bd182	0.2302914
233	0xbb2c87be	-0.0026326026
234	0x3e14c99d	0.14530034
235	0xbcdf7345	-0.027276644
236	0x3e70de91	0.23522402
237	0x3e191b8e	0.14951918
238	0x3e0a99ea	0.13535276
239	0xbd880119	-0.06640834
240	0x3dbc34d7	0.09189766
241	0x3dd23686	0.10264306
242	0x3e0681cb	0.1313545
243	0x3da1424b	0.078739725
244	0xbdb47bdf	-0.08812689
245	0xbe7740e1	-0.24145843
246	0xbdd18fed	-0.1023253
247	0xbd0eb621	-0.03484166
248	0xbe1267e8	-0.1429745
249	0x3da62d03	0.08114054
250	0x3b90a019	0.0044136164
251	0xbda3b8ad	-0.079942085
252	0x3d1e2481	0.03860903
253	0x3d719114	0.058976248
254	0xbdc6f357	-0.09714382
255	0x398980a0	0.0002622651

network_body._body_endoder.seq_layers.2.bias f4 [128]
0	0x3a6f24b2	0.00091225945
1	0x3c2633a9	0.010144153
2	0xbbc12929	-0.0058947993
3	0xbcaaa48f	-0.02083042
4	0x3c924a15	0.01785759
5	0xbb69fd86	-0.003570409
6	0x3c74bc93	0.014937538
7	0xbb140e0f	-0.0022591387
8	0xba0dffae	-0.00054168224
9	0xbb9ad7bc	-0.0047254246
10	0xb961a9c3	-0.00021520913
11	0xb9870ac0	-0.00025757216
12	0xbb216a04	-0.002462984
13	0xbb87c824	-0.0041437317
14	0x3bcf0efc	0.006318925
15	0xbc840eac	-0.016120277
16	0xbbb54ee3	-0.0055330857
17	0x3b02869a	0.0019916655
18	0x3c2e539b	0.01064005
19	0x3aa3d2ad	0.0012498699
20	0x3c135b9b	0.008994008
21	0x3ac9db20	0.0015400387
22	0x3b901194	0.0043966267
23	0x3bd09acd	0.00636611
24	0x3b73c157	0.0037194097
25	0xbb2904a3	-0.0025790117
26	0x3b792ecb	0.0038022276
27	0x3b0305d9	0.00199925
28	0xbadf3831	-0.0017030296
29	0xbadb596b	-0.0016735023
30	0x3b8dfa5a	0.0043328227
31	0x3b16d40a	0.0023014569
32	0xbbb84927	-0.005623955
33	0x3bc71202	0.0060751447
34	0xbb5c9a67	-0.0033661367
35	0x3c069e03	0.008216384
36	0x3bc6061a	0.006043208
37	0xbb75550e	-0.003743473
38	0x3b2682ab	0.0025407474
39	0x3c8f370d	0.017482305
40	0xbba8b156	-0.005148093
41	0xbab8f2ff	-0.0014110504
42	0x3c9d72ec	0.019219838
43	0xbb8dce8b	-0.0043276004
44	0xbaa9cfb0	-0.0012955572
45	0x3c1d7f7c	0.009612914
46	0x3c61cde6	0.013782
47	0x3b684eca	0.0035447353
48	0xbbd61854	-0.006533662
49	0x3c7da802	0.015481951
50	0xbbe1647f	-0.006878435
51	0x3abe660e	0.0014526264
52	0x3bbc4534	0.0057455543
53	0x3b1a6f90	0.0023565032
54	0x3b53bd6f	0.0032308956
55	0x3c052cc8	0.008128352
56	0x3c8e3d63	0.017363256
57	0x3c1d2191	0.009590522
58	0xbb5bf641	-0.0033563527
59	0x3b3e1d8a	0.0029009306
60	0x3b8e78f9	0.004347917
61	0xbaf9a7e0	-0.0019047223
62	0x3c06a4c7	0.008217997
63	0x3c21472b	0.009843628
64	0x3c9dfd17	0.019285722
65	0x3c7f613f	0.01558715
66	0xbb24b19b	-0.0025130275
67	0xbbdf3e32	-0.006812834
68	0xbb3f858f	-0.0029223894
69	0xbac772e8	-0.001521674
70	0x3ce7c746	0.028293263
71	0x3a911dc2	0.0011071491
72	0x3c801713	0.015636003
73	0x3c6c11f1	0.014408574
74	0x3bcbf4e9	0.006224264
75	0x3c4a89b0	0.012361929
76	0x3b9217ec	0.004458418
77	0xbb60b7e1	-0.0034289288
78	0xbb6a19e2	-0.0035720994
79	0x3c5dc8e5	0.0135366665
80	0x3a0f7680	0.0005472675
81	0x3a3d0ea8	0.0007211962
82	0x3c66a68e	0.014077796
83	0x3ce697de	0.028148588
84	0x3cb48c51	0.022039564
85	0xba590140	-0.00082780793
86	0x3903dddb	0.00012575781
87	0xbc1c87ed	-0.009553892
88	0x3b212019	0.0024585782
89	0x3b06917d	0.0020533495
90	0x3caaea3c	0.020863645
91	0xbbe7aa53	-0.007069865
92	0x3c3e3eb4	0.011611629
93	0x3c0b072a	0.008485595
94	0xbb9ce837	-0.0047884244
95	0xbbf20e88	-0.007386986
96	0xbb5c24f0	-0.0033591352
97	0xbb2e1d81	-0.0026567879
98	0xba23ea90	-0.0006252909
99	0x3c8e763b	0.017390361
100	0x3b608b09	0.003426256
101	0xbbb5b8cd	-0.0055457116
102	0xbbfc1e60	-0.0076940507
103	0xbbc0e7be	-0.005887001
104	0x3b0670bd	0.0020513975
105	0x3c550075	0.013000597
106	0xbb32f033	-0.0027303814
107	0x3bd982b9	0.006637898
108	0xba7c8b3a	-0.00096337835
109	0x3ccb907c	0.024849169
110	0x3c830872	0.015995238
111	0xbb9d0410	-0.004791744
112	0xbbd5a13b	-0.0065194643
113	0x3bdac15a	0.0066758813
114	0x3b1dcb20	0.002407737
115	0x3c5937bc	0.013257917
116	0x3c1ef6eb	0.0097024245
117	0xbbf769d2	-0.0075504566
118	0x3c90501d	0.017616326
119	0x3ca7c0c5	0.020477662
120	0x3b6c3290	0.003604088
121	0x3c9bc1be	0.019013282
122	0x3c3f5696	0.011678359
123	0x3c528983	0.012850168
124	0x3b64ee18	0.0034931954
125	0x3a11c739	0.00055609975
126	0x3c04524a	0.00807626
127	0xbb478584	-0.0030444572

action_model._continuous_distribution.log_sigma f4 [1, 2]
0	0x3b51b07b	0.003199606
1	0xbd282058	-0.04104647

action_model._continuous_distribution.mu.weight f4 [2, 128]
0	0xbc344751	-0.011003331
1	0xbc9f3489	-0.01943423
2	0x3b95c80e	0.0045709675
3	0x3b9529da	0.0045521082
4	0x3c532e05	0.01288939
5	0x3d0b70cc	0.03404312
6	0xbc11f238	-0.008907847
7	0xbc56d50c	-0.013112318
8	0x3c3d3d05	0.011550193
9	0xbbe4f352	-0.006987014
10	0x3c5b4832	0.013383912
11	0xbc16450b	-0.009171735
12	0xbc426700	-0.011865377
13	0x3c9e8d10	0.019354373
14	0xbb03c463	-0.002010607
15	0xbb8a65d5	-0.004223565
16	0x3cb6d3ca	0.022317786
17	0x3d081777	0.033225503
18	0x3ca9b959	0.020718263
19	0x3c94746a	0.018121917
20	0xbb8ab623	-0.004233138
21	0xbba6c861	-0.005089805
22	0xbcf06db9	-0.029349195
23	0xbbab78c2	-0.0052329013
24	0xbc97c6d7	-0.018527431
25	0xbcf4f122	-0.029900137
26	0xbc738739	-0.014863783
27	0x3bf0f535	0.0073534497
28	0x3cf9cbca	0.030492682
29	0x3c9afa14	0.018918075
30	0xbca8da35	-0.020611862
31	0xbc9137c3	-0.017726785
32	0x3a85390a	0.0010164094
33	0xbc5b08d6	-0.013368806
34	0xbc832c0c	-0.016012214
35	0x3c64defe	0.013969181
36	0xbc75ba74	-0.014998067
37	0xbb8d6394	-0.004314849
38	0x3b2bfff8	0.0026245099
39	0xbac4560f	-0.0014979261
40	0xbc04c69b	-0.008103992
41	0xbcba8b48	-0.022771493
42	0xbbd5fa69	-0.0065300954
43	0xbbb737d5	-0.0055913725
44	0xbcf7f2be	-0.030267116
45	0xbcbecc69	-0.02329083
46	0x3c0a93c8	0.008458085
47	0xbc8e96d3	-0.017405903
48	0x3b93e88c	0.0045138057
49	0x3b562289	0.0032674393
50	0x3bddd2b6	0.0067695035
51	0xbb80a460	-0.003925845
52	0xbbd5672f	-0.0065125446
53	0xbc148b14	-0.009066362
54	0xbcf5a4e4	-0.029985853
55	0x3bf3d18c	0.0074407514
56	0xbb6fc124	-0.0036583627
57	0x3bb98a08	0.0056622066
58	0xbc88c146	-0.016693722
59	0xbca74993	-0.020420825
60	0xbc036fb8	-0.008022241
61	0x3ad48d85	0.0016216493
62	0x3c90f777	0.017696125
63	0x3c5ca227	0.0134663945
64	0x3d38a448	0.045078546
65	0xbc929616	-0.017893832
66	0x3c78a125	0.015175139
67	0x3bffcd6f	0.007806472
68	0x3bd2905e	0.0064259013
69	0xbb88e55e	-0.0041777333
70	0x39f35665	0.0004641294
71	0xbd0b963f	-0.034078833
72	0x3c8a136f	0.01685497
73	0xbc50ae39	-0.01273685
74	0x3d15fffb	0.036621075
75	0x3a0d7640	0.0005396344
76	0x3caff363	0.02147836
77	0x3c8879af	0.016659586
78	0xbca37a12	-0.019955669
79	0xbc54ac1a	-0.012980485
80	0xbcb9e28d	-0.022691036
81	0xba4fd4ee	-0.00079281523
82	0xbb282140	-0.0025654584
83	0x3a7307da	0.00092708843
84	0x3b3bff06	0.0028685941
85	0xbc6005c1	-0.013673247
86	0xbc188d66	-0.009311056
87	0xbb6db41b	-0.0036270681
88	0x3d0a4969	0.033761416
89	0x3b84cec2	0.0040529678
90	0xbcc24369	-0.023713784
91	0x3abd0171	0.0014419985
92	0x3c09bf20	0.008407384
93	0xbc90a16c	-0.017655097
94	0x3d069a4a	0.032861985
95	0x3cca6183	0.0247047
96	0xbc8bda5d	-0.017071897
97	0xbca1103b	-0.01966106
98	0x3bbf0756	0.005829732
99	0x3b3b106e	0.0028543728
100	0xbc659f1f	-0.014014988
101	0x3c07d801	0.008291245
102	0x3ca0fc77	0.019651635
103	0x3b3a2409	0.0028402826
104	0x3c68102e	0.014164014
105	0xbb00d5d3	-0.00196587
106	0xbcc68eee	-0.024238076
107	0xbc830fc2	-0.015998725
108	0x3c37d49a	0.011220122
109	0x3b8153d5	0.003946761
110	0xbbc6524c	-0.006052291
111	0x3a80722e	0.0009799653
112	0xbc091634	-0.00836711
113	0x3b24bbe3	0.0025136403
114	0x3c455a99	0.012045526
115	0xbb9ca07a	-0.0047798725
116	0x3ca4cbd0	0.020116717
117	0x3b4cf6ad	0.003127496
118	0xb7ed8e04	-2.8318733e-05
119	0xbce20f86	-0.027595293
120	0x3c2bb78c	0.010480773
121	0xbb66646f	-0.0035155078
122	0xbcb415a4	-0.021982975
123	0x3c0d7ff0	0.00863646
124	0x3c6435f2	0.013928877
125	0x3ce27349	0.027642863
126	0xbcb6e1bb	-0.022324434
127	0x3c0c2e64	0.008555982
128	0xbd1e8687	-0.038702514
129	0x3d40d3bb	0.047076922
130	0xbc82c048	-0.015960827
131	0xbc540add	-0.012942043
132	0x3c0c4b6d	0.008562905
133	0xbbc27a90	-0.0059350207
134	0x3d861981	0.06547833
135	0xbc7ec2ce	-0.015549375
136	0x3c552d7f	0.013011335
137	0xbc869e3c	-0.016432874
138	0xbb0ebcf8	-0.0021780115
139	0xbd50f7e1	-0.051017646
140	0xbd0916ef	-0.033469137
141	0xbb9e4bd4	-0.0048308168
142	0xbc1585ad	-0.009126109
143	0xbc930b6e	-0.017949786
144	0xbc9b979d	-0.018993193
145	0x3c948478	0.018129572
146	0x3d206da1	0.03916705
147	0x3aa4ea77	0.0012582083
148	0x3d0c5fde	0.034271114
149	0x3c25b72d	0.010114473
150	0xbd1ba17e	-0.037995808
151	0x3d2edb2f	0.0426895
152	0xbcfe33aa	-0.031030495
153	0xbb70dba4	-0.003675201
154	0xbd1e574d	-0.038657475
155	0x3b97d27a	0.004633245
156	0xbcfec989	-0.031101959
157	0xbc8054f9	-0.015665518
158	0x3cc64357	0.024202032
159	0xbd262bd4	-0.04056914
160	0xbd15e6f5	-0.03659721
161	0x3ce4a76e	0.027911868
162	0xbc08b7ac	-0.008344572
163	0x3cf67ad9	0.030087875
164	0x3cdee44c	0.02720847
165	0xbcb8df62	-0.022567455
166	0xbd7cd51a	-0.061726667
167	0x3cb7420a	0.022370357
168	0xbd6205e1	-0.055181388
169	0xbcc4c289	-0.024018543
170	0x3cac0b8a	0.021001596
171	0xbca843da	-0.020540167
172	0xbd0bbe9c	-0.034117326
173	0x3ccf4cbf	0.02530515
174	0x3d49ceff	0.049269672
175	0xbd2dc524	-0.042424336
176	0xbbe21e83	-0.00690061
177	0x3d0c7e93	0.034300398
178	0xbb707969	-0.003669346
179	0xbae74de8	-0.0017647119
180	0xbd3def60	-0.046370864
181	0xbcd8936b	-0.026437482
182	0xbd4d03dc	-0.05005251
183	0x3cf3ac96	0.029745381
184	0x3dac75db	0.08420917
185	0x3ce770e5	0.028252074
186	0xbbc92f2e	-0.0061396575
187	0xbca0045e	-0.019533332
188	0xbd633415	-0.05546959
189	0xbd3b4063	-0.0457157
190	0x3d17ea0b	0.037088435
191	0x3c95cac8	0.01828517
192	0x3d5c262c	0.05374734
193	0x3d8c61d3	0.06854596
194	0xbc851f66	-0.016250324
195	0xbc9ea8c6	-0.019367587
196	0xbd5269f4	-0.051370576
197	0xbd578fc2	-0.052627333
198	0x3ca03473	0.01955626
199	0xba425104	-0.0007412585
200	0x3d587f1f	0.052855607
201	0x3d4ba8f4	0.049721673
202	0x3c922057	0.017837686
203	0x3cfcc6bb	0.03085648
204	0x3c9deaa0	0.019276917
205	0xbbaba2c6	-0.00523791
206	0xbcd8512d	-0.026405895
207	0x3c2b1f27	0.010444439
208	0xbc8ea9b2	-0.017414901
209	0xbd2f4595	-0.042790968
210	0x3d2c5de2	0.04208172
211	0x3d488de8	0.048963457
212	0x3c0ddc6e	0.008658512
213	0x3b5c462a	0.0033611157
214	0xbd0271bf	-0.031846758
215	0xbb1bcd55	-0.002377351
216	0x3c00e702	0.007867577
217	0xbd0ea4aa	-0.034825005
218	0x3d929386	0.07157044
219	0xbd11dabc	-0.035608992
220	0x3cfc9f8a	0.030837793
221	0x3cb823a7	0.022477938
222	0xbc5d8146	-0.013519591
223	0xbccafeb3	-0.024779653
224	0xbb7fab3e	-0.003901198
225	0xbd06e614	-0.032934263
226	0xba232041	-0.0006222763
227	0x3d4f74f2	0.050648637
228	0xbd26631f	-0.040621873
229	0x3b55bf8b	0.003261539
230	0xbc4b51d9	-0.012409651
231	0xbc97d847	-0.018535746
232	0x3ce7f883	0.028316742
233	0x3cdb0e20	0.026740134
234	0xbd130b70	-0.03589958
235	0x3c886e8b	0.016654273
236	0xbcd14e82	-0.02555013
237	0x3d179473	0.037006807
238	0x3d953fa5	0.0728753
239	0xbc11dbd3	-0.008902508
240	0xbc258042	-0.01010138
241	0x3d3b2730	0.04569167
242	0x3c5f4039	0.013626152
243	0x3d307eaf	0.043089565
244	0x3c1fd663	0.009755704
245	0x3a8a7a12	0.0010564944
246	0x3cf0e2c2	0.029405002
247	0x3da3a409	0.079902716
248	0x3c8a14f2	0.01685569
249	0x3d557d9f	0.052121755
250	0x3d5119b3	0.0510499
251	0x3d937852	0.07200684
252	0x3c670279	0.014099711
253	0xbd03d200	-0.032182693
254	0x3c246bdb	0.01003548
255	0xbd1322aa	-0.03592173

action_model._continuous_distribution.mu.bias f4 [2]
0	0xba9f96a1	-0.0012175628
1	0x3bfd8247	0.0077364775
