results/car1/CarParking/CarParking-2048.pt (torch, 283098 bytes, 12 tensors)

network_body._body_endoder.seq_layers.0.weight f4 [128, 136]
00000000: ae7b 41be dc3f 0dbd 25b4 21bd f8fa 173e
00000010: 1714 a03c a45f aebd 73ab d2bd 3302 59bc
00000020: 60bd 84bd fe0c 37bd f2df 423d e91b 2ebc
00000030: 97c8 1bbe 175d 533b 1ac3 debc 622f 813d
00000040: 9380 073e 8d50 f43d 6d1d cdbd 99f6 153d
00000050: 9fb4 e3bd db88 cebc 6b67 22be 454a 893d
00000060: 522e 57bd 7c7d 483e a235 95bc 388a 61bd
00000070: 4db8 14be 6779 6c3b df7e f43b b074 8b3b
00000080: 516f cd3d b9e3 e5bb 73df e73d 3a8a 3f3d
00000090: 0e9d 833d a899 d7bc 970f b6bd 8e0e e63b
000000a0: bbe1 afbd 0cda 003d 9b84 9b3d a76f 5fbd
000000b0: 1fc6 7ebc 745e c93d e520 1a3c d98f 0e3e
000000c0: ff1d 613d e9cd d73d 4498 98bd ee07 633d
000000d0: ace1 c23d 4237 4abd 84bf c8bc 0fec 1abb
000000e0: 7c7b 80bd 4e2b b7bd 4fb0 0bbc b99e fabc
000000f0: 4992 bb3d 2c73 25be faf7 00bc 53a1 4cbc
00000100: 0dc5 e83d 5977 91bc f450 b0bc f0a0 3cbd
00000110: bb8e 973d fc75 a13c f4e5 d0bd 78b7 ce3d
00000120: 29fd dfbd 8084 cc3c 1189 0ebd 395f 77bd
00000130: 3b1e cd3d d762 923c 71fc 25bd 743a 2a3d
00000140: f4c8 083e 69dc 0e3e 7ce6 ed3d 0326 123e
00000150: 6f95 11bd 45c5 63bd 27c5 9ebd a678 0fbc
00000160: 7898 983c 97a7 05be 9514 42bd 9777 23bc
00000170: 15b2 34bd 2e7b 24be 6971 3dbe 82e0 a5bd
00000180: 8c89 e2bc 1b9e 23bd dadf b8bd d565 903c
00000190: 765d a2bd 68cc babd 8974 483e 9d8b b5bd
000001a0: ddbb f4bc 5aac adbc 9aab a4bd 93ff 1b3e
000001b0: 6515 75bd 41c4 97bd 7756 cbbd 22ff e8bc
000001c0: b358 a53c b77d 883d b558 a33d bfda 993d
000001d0: 8fa7 d33b a540 97bd 019c 2ebd c55c 043c
000001e0: 7e37 3a3c f836 223e 1105 c1bd f95f b139
000001f0: 0644 da3d 6b08 523d e372 173c 8fec 173e
00000200: cf02 99bd 78d2 48bd 1a65 093e 5bfd 1bbe
00000210: 5d32 aaba 60d8 f73b 73e8 f03d cecb a03d
00000220: 0d4a 7f3b 8243 463c 3328 b33d ac62 b1bc
00000230: 02f0 013e 8c31 353e a868 f23c d875 1c3d
00000240: 4de2 dabc e6bf 39bc 4502 ff3d 3da9 4a3d
00000250: 6591 d63b d42c c7bc 34a6 78bc 7bd5 babd
00000260: 4a3e 0c3d 0767 8f3e 5afe 1cbe e485 60bd
00000270: b372 7fbd 4307 fbbd d089 33bd a0d2 b3bd
00000280: ab5b 84bc 458f 873d 7fc1 843d 672d 323d
00000290: a4f6 3d3c e214 ed3d a6b5 83bc 542d 1d3e
000002a0: 6393 19bb c8d4 003e 4b8b 0ebe 2c59 083d
000002b0: efe0 5ebc 1d89 71bd 8ed5 813e 47eb 9cbb
000002c0: c402 6a3d 8bcc b7bd 0d3a 2c3d 812d 25be
000002d0: 5e6c 793d bc29 4c3d 5f70 87bd adaf 4cbc
000002e0: 6b61 b6bd 904b 153d ff37 f5bd d26c 973d
000002f0: c4af 97bd f233 3e39 b940 203d e95e e7bd
00000300: 84bd 403d 30d0 c4bc 7865 babb b0e9 c4bd
00000310: e194 75bd 1233 e7bc 6708 503d ca88 dbbc
00000320: fe28 d7bd ac89 1e3e 6697 be3d 5468 40bd
00000330: ff8a 4dbe d15c 813b d660 99bd da17 77bd
00000340: cd30 3abc 444b 05bd 1085 2fbc 479c 1e3e
00000350: 857e 293d d2ad 5b3d b283 b6bd fd74 683d
00000360: 99a0 ae3c 1fc3 c03c aa73 af3c 3eb5 cb3d
00000370: b1d2 b0bd ef20 e93d 444e ca3d 814f 66b9
00000380: 757f 7c3c e031 693d 005b 7fbb df3a 36be
00000390: 3c97 e23d 94c1 0c3e bb91 89bd d91a c23c
000003a0: 7868 3e3e 0095 e43b 57c0 1ebc b1ff 383d
000003b0: d5a1 babd e98f 5a3d a996 0abd 3908 133e
000003c0: 3c65 b6bc 9875 1cbd 53f7 2cbe f9a2 0b38
000003d0: 6965 853d 33cd 3abb 450f 5a3d 2367 723c
000003e0: e506 b83c 182b ebbc 060b b1bc a7c7 35be
000003f0: 344b 15bd aa5d 11be 7a6f bf3d 933f 2a3d
-0.18894836 -0.03448473 -0.03947844 0.1484183 0.01954083 -0.08514336 -0.102866076 -0.013245153
-0.06481433 -0.044690125 0.047576852 -0.0106267715 -0.15213238 0.003225153 -0.027192641 0.06307866
0.13232641 0.11929426 -0.10015378 0.036612127 -0.11118435 -0.025211742 -0.15859763 0.06703619
-0.05253441 0.19579118 -0.01821405 -0.055063456 -0.1452343 0.0036083104 0.0074614133 0.0042558536
0.100309975 -0.007015672 0.113219164 0.046762682 0.0642644 -0.026318386 -0.08889692 0.007020778
-0.085879765 0.031457946 0.07593652 -0.05454984 -0.015550165 0.09832469 0.009407257 0.13922061
0.054960247 0.10537321 -0.07450917 0.055427484 0.095157 -0.049369104 -0.024505384 -0.0023639237
-0.06273553 -0.089438066 -0.008525922 -0.030593263 0.09158761 -0.16157216 -0.007871622 -0.012489635
0.113657095 -0.017757105 -0.021522976 -0.04605192 0.074002706 0.01970958 -0.1020011 0.10093588
-0.10936958 0.024965525 -0.034798685 -0.060393546 0.10015532 0.017869396 -0.04052395 0.04155965
0.13357908 0.13951267 0.11616227 0.14272313 -0.0355429 -0.055608053 -0.077524476 -0.008756792
0.01862739 -0.13052212 -0.04738291 -0.009977243 -0.044115145 -0.16062614 -0.18500294 -0.08099462
-0.027653478 -0.039945703 -0.09027071 0.017626682 -0.079279825 -0.09121019 0.19575705 -0.0886452
-0.029874736 -0.021200348 -0.08040543 0.15234213 -0.059834857 -0.07410479 -0.09928601 -0.02844197
0.020183897 0.06664603 0.07975904 0.07512426 0.0064591835 -0.07385377 -0.042629246 0.008078759
0.011365769 0.15841281 -0.094247945 0.00033831576 0.10657506 0.05127756 0.0092437 0.14836334
-0.07471239 -0.049028844 0.13417473 -0.15233366 -0.001298498 0.0075636357 0.11763086 0.07851373
0.003895405 0.012101056 0.08747902 -0.021653496 0.12689212 0.17694682 0.02959092 0.038198322
-0.026719237 -0.011337256 0.12451605 0.049477804 0.006548094 -0.024313368 -0.015176345 -0.091227494
0.03423909 0.2800829 -0.15331402 -0.054815188 -0.062365245 -0.122572444 -0.0438326 -0.08780408
-0.016156992 0.06619123 0.06482219 0.04350033 0.011594448 0.11576249 -0.016077828 0.15349323
-0.0023433797 0.1258117 -0.13920324 0.033288166 -0.013603433 -0.058968652 0.25358242 -0.0047887894
0.057131544 -0.0897456 0.04204755 -0.1613064 0.060894363 0.04984449 -0.0661323 -0.012493056
-0.089053 0.036449015 -0.11973571 0.07393803 -0.074065715 0.00018139163 0.039124224 -0.112973996
0.047055736 -0.024025053 -0.0056883655 -0.09614885 -0.059956435 -0.028222594 0.050789263 -0.026798625
-0.105058655 0.15482205 0.09306221 -0.046974495 -0.20072554 0.003947832 -0.07489173 -0.06032548
-0.011364174 -0.032542482 -0.010712877 0.15489303 0.041380424 0.053632565 -0.08911838 0.056752194
0.021316813 0.023530541 0.021417458 0.099466786 -0.08633936 0.11383235 0.09878209 -0.00021964127
0.0154112475 0.05693233 -0.0038964152 -0.17795895 0.11064002 0.13745719 -0.06717249 0.023694443
0.18594539 0.00697577 -0.009689412 0.04516572 -0.09112898 0.0533599 -0.033835087 0.14358605
-0.02226507 -0.038198084 -0.16891222 3.3291963e-05 0.06513483 -0.0028503656 0.05323722 0.0147950975
0.022464225 -0.028707072 -0.021611702 -0.17751943 -0.036448672 -0.14195886 0.09347434 0.041564535

network_body._body_endoder.seq_layers.0.bias f4 [128]
00000000: 0000 0000 0000 0000 0000 0000 0000 0000
00000010: 0000 0000 0000 0000 0000 0000 0000 0000
00000020: 0000 0000 0000 0000 0000 0000 0000 0000
00000030: 0000 0000 0000 0000 0000 0000 0000 0000
00000040: 0000 0000 0000 0000 0000 0000 0000 0000
00000050: 0000 0000 0000 0000 0000 0000 0000 0000
00000060: 0000 0000 0000 0000 0000 0000 0000 0000
00000070: 0000 0000 0000 0000 0000 0000 0000 0000
00000080: 0000 0000 0000 0000 0000 0000 0000 0000
00000090: 0000 0000 0000 0000 0000 0000 0000 0000
000000a0: 0000 0000 0000 0000 0000 0000 0000 0000
000000b0: 0000 0000 0000 0000 0000 0000 0000 0000
000000c0: 0000 0000 0000 0000 0000 0000 0000 0000
000000d0: 0000 0000 0000 0000 0000 0000 0000 0000
000000e0: 0000 0000 0000 0000 0000 0000 0000 0000
000000f0: 0000 0000 0000 0000 0000 0000 0000 0000
00000100: 0000 0000 0000 0000 0000 0000 0000 0000
00000110: 0000 0000 0000 0000 0000 0000 0000 0000
00000120: 0000 0000 0000 0000 0000 0000 0000 0000
00000130: 0000 0000 0000 0000 0000 0000 0000 0000
00000140: 0000 0000 0000 0000 0000 0000 0000 0000
00000150: 0000 0000 0000 0000 0000 0000 0000 0000
00000160: 0000 0000 0000 0000 0000 0000 0000 0000
00000170: 0000 0000 0000 0000 0000 0000 0000 0000
00000180: 0000 0000 0000 0000 0000 0000 0000 0000
00000190: 0000 0000 0000 0000 0000 0000 0000 0000
000001a0: 0000 0000 0000 0000 0000 0000 0000 0000
000001b0: 0000 0000 0000 0000 0000 0000 0000 0000
000001c0: 0000 0000 0000 0000 0000 0000 0000 0000
000001d0: 0000 0000 0000 0000 0000 0000 0000 0000
000001e0: 0000 0000 0000 0000 0000 0000 0000 0000
000001f0: 0000 0000 0000 0000 0000 0000 0000 0000
0.0 0.0 0.0 0.0 0.0 0.0 0.0 0.0
0.0 0.0 0.0 0.0 0.0 0.0 0.0 0.0
0.0 0.0 0.0 0.0 0.0 0.0 0.0 0.0
0.0 0.0 0.0 0.0 0.0 0.0 0.0 0.0
0.0 0.0 0.0 0.0 0.0 0.0 0.0 0.0
0.0 0.0 0.0 0.0 0.0 0.0 0.0 0.0
0.0 0.0 0.0 0.0 0.0 0.0 0.0 0.0
0.0 0.0 0.0 0.0 0.0 0.0 0.0 0.0
0.0 0.0 0.0 0.0 0.0 0.0 0.0 0.0
0.0 0.0 0.0 0.0 0.0 0.0 0.0 0.0
0.0 0.0 0.0 0.0 0.0 0.0 0.0 0.0
0.0 0.0 0.0 0.0 0.0 0.0 0.0 0.0
0.0 0.0 0.0 0.0 0.0 0.0 0.0 0.0
0.0 0.0 0.0 0.0 0.0 0.0 0.0 0.0
0.0 0.0 0.0 0.0 0.0 0.0 0.0 0.0
0.0 0.0 0.0 0.0 0.0 0.0 0.0 0.0

network_body._body_endoder.seq_layers.2.weight f4 [128, 128]
00000000: d7ce b1bd 8123 013e 4905 c4bc f397 aebd
00000010: 13d5 b23d 13f7 9ebd 98c9 203e 226f 853a
00000020: bf87 683d eb39 06bd daaa 52be b696 583c
00000030: 1b5f 27bd ef4b 053d ec8d 8fbb 317b e4bd
00000040: 17b6 8bbd cb32 27bc 28cb 513d c206 063e
00000050: 8150 183d 1b3b 963c 40ce b83d 3094 b5bc
00000060: d7b8 f2bb 7cd9 43bd d5bc e93d c3ca 413d
00000070: 2341 65be 9183 823d 67dc 18bd 7b64 da3a
00000080: 445a 103e 317f 8fbc 2dfe c6bc e7cf 7cbd
00000090: a172 c73b 9a3f e63c ef01 f6bc 9480 1dba
000000a0: 1640 edbb a4bd b33c 62b5 38bd 869b 00be
000000b0: c05c d8bd f861 83bd 4852 263e 52f6 c9bb
000000c0: cf9a 673e 09af 41bd 1050 743d 8885 063e
000000d0: d046 2d3d 2d0a 1abc 04a6 4ebc 8c31 bc3d
000000e0: 817b 0c3d c3ef bcbd 5088 f9bd 79c3 0a3e
000000f0: ab84 a0bc 4412 a6bd a6c0 01be bba4 433e
00000100: 1ec8 00be d53d f23c 9f08 2bbd b364 dbbd
00000110: 8c19 abbd fa04 153e aeea 56bc 1ca8 2c3e
00000120: 2b81 cb3d e740 efbd f72f 91bd 1cae 02be
00000130: e541 64bd 2aa9 cc3d dbcc ec3d a598 153e
00000140: 77aa 52bc 0457 2ebe 9535 e63b e18a d73a
00000150: 7c79 363d 0053 3dbd 76c2 11be dd62 66bb
00000160: e0ff 0abc dc49 813e c86d 453c e32f 3b3d
00000170: 4ea8 cfbc 4f4c 68bd 92e4 ea3d 7d2b b23b
00000180: 29c1 6c3d 1d1d b83c 0e56 71be 6b94 853d
00000190: 7d94 dfbd 8c27 f23d 3081 92bc 6337 0b3d
000001a0: 1423 a2bd b4e1 f0bd 1bf8 afbd 476a d53b
000001b0: d000 88bc 1803 e2bd f247 123e 2ab6 2cbe
000001c0: 6ac6 4d3d d23d 813d 86f2 9d3d af87 6abd
000001d0: 9bac dc3c 2b82 093e 11a4 17bd 44e1 423e
000001e0: f7e6 f5bd 1e4c 593c b0dc 013c 68f1 d6bd
000001f0: 481c f83c 3778 403c 710e 03bd 6a6f a0bc
00000200: e51d c1bd eb13 b0bd 4a05 ebbd 03c5 253e
00000210: 3c02 83be b71f f63c aae7 a3bc 23d2 b13d
00000220: 78cf 253e e9eb 123e 8954 a43d 7d97 903d
00000230: 90c8 dbbc 0595 2f3d 34dc 1bbd a0d5 963c
00000240: 21d4 053e 7d55 27be 0d08 d93d 0c32 1c3c
00000250: ddc4 9ebd c8e7 eb3c 7bf4 9b3c b57c 81bd
00000260: 30c7 853c 0403 c83d 385a ccbc a283 8c3d
00000270: e170 913d 26e4 8bbc b764 19bd d225 853c
00000280: 7eeb 263d 82ec dcbd d34d 7b3b 61a9 de3d
00000290: dc02 183c 3fd3 f13d afef 0c3c ce03 493d
000002a0: e945 74bd 9ed6 013c 413a 47bd 7f1e 26be
000002b0: d1e8 02bc c1b6 5ebd 952c 983d 62c9 abbd
000002c0: b6f0 3abd 43fd c1bc 1132 cf3d 3901 32bb
000002d0: 3b44 d23c 75af 133d dc18 59bd b918 3fbd
000002e0: 4a59 5fbd cbd4 73bd 1c08 4e3d 51dd 3f3e
000002f0: ca04 f03d d061 0a3e df4f 4b3c 1c46 893d
00000300: cac6 81be 6063 423c da5f 35be cda7 bb3d
00000310: 1d7a af3d 629e 97b9 d030 5dbd 1b7c 143d
00000320: f8a7 f03d c53e 30bd dd18 a13d 1d50 a8bd
00000330: 7a53 1cbe e90e 203d ff74 ff3c 1f2e c33b
00000340: 3740 403c 0b95 6c3c 30ec 9cba 0092 003d
00000350: 9f10 42bb 8fb7 66bd 8edb 97bd b550 16bd
00000360: 3c33 fa3d 6a01 adbc 9b76 2abe 925a 4dbc
00000370: 93de a73b 314e a4bc 7eb7 223e d711 d9bd
00000380: 13c9 82bd b473 0e3e 78de 893d 742e 21bd
00000390: 26bc af3d 8b6c d0bd 14fb cbbc 6bd5 16bc
000003a0: 7e0f 7c3d c77f cebc b3a5 6a3d bcb9 163e
000003b0: 390e 673c 0ae9 e5bd 508f 7c3d 4ea8 253d
000003c0: 3c69 51bd 80ff db3c e969 da3d 3a69 993d
000003d0: b50d 0f3d ae2e 02bd c811 c1bc ce68 8e3d
000003e0: 196e 27be cd8d 34bd 55af c3bd 55b4 fdbd
000003f0: d0e1 7bbd b0fd 52bc 3b57 853d 03d1 f7bd
-0.0868203 0.126112 -0.023928301 -0.08525076 0.08732047 -0.077619694 0.15701902 0.0010180215
0.056770083 -0.03277008 -0.20572987 0.013219526 -0.040862184 0.03254312 -0.004380932 -0.111563094
-0.0682184 -0.010204981 0.051219136 0.13088515 0.03718615 0.01833873 0.09023714 -0.022165388
-0.0074072885 -0.04781483 0.1141297 0.04731251 -0.22388129 0.063727506 -0.037319567 0.0016662026
0.14096934 -0.017516704 -0.024291122 -0.06172171 0.006086663 0.0281065 -0.030030219 -0.00060082343
-0.0072403057 0.021941014 -0.045094855 -0.12559327 -0.10564566 -0.064151704 0.16242325 -0.006163397
0.22617649 -0.047286067 0.059646666 0.13136876 0.04230386 -0.00940184 -0.012612823 0.09189138
0.03429747 -0.092254184 -0.12184203 0.1355113 -0.019594511 -0.08108953 -0.12671146 0.19105808
-0.12576339 0.0295705 -0.04175627 -0.10712566 -0.08354482 0.1455268 -0.013117475 0.16861004
0.09936746 -0.11682301 -0.07089227 -0.1276173 -0.055726904 0.09993203 0.115625106 0.1460901
-0.012858025 -0.17025381 0.0070254304 0.0016444587 0.04454945 -0.046221733 -0.14234337 -0.0035154142
-0.008483857 0.25251663 0.0120501 0.045699965 -0.025348809 -0.0567134 0.114693776 0.005437313
0.0578014 0.02247482 -0.23567984 0.06522449 -0.10916994 0.11823949 -0.017883867 0.033988368
-0.07916847 -0.117617995 -0.08592244 0.0065129134 -0.01660195 -0.11035746 0.14285257 -0.16866365
0.05023805 0.063106194 0.07712273 -0.057258304 0.026937773 0.13428561 -0.0370217 0.19031245
-0.12006944 0.013262777 0.007926151 -0.10495263 0.030286923 0.011747411 -0.031996194 -0.019584376
-0.0942953 -0.08597549 -0.11475618 0.16188435 -0.25587642 0.03004442 -0.020007927 0.086826585
0.16192424 0.14347805 0.08023936 0.07060144 -0.026829034 0.042866725 -0.0380518 0.018412411
0.13069202 -0.16341205 0.10597239 0.0095334165 -0.077523924 0.028797045 0.019037476 -0.06322614
0.016330332 0.097662 -0.024945363 0.068610445 0.07101608 -0.017076563 -0.037449565 0.016253386
0.040751927 -0.10787298 0.0038345947 0.1087215 0.0092780255 0.1180787 0.008602067 0.049075894
-0.059636984 0.007924704 -0.04863954 -0.16222571 -0.007990078 -0.054373506 0.07430378 -0.0838802
-0.045639716 -0.023680335 0.10116971 -0.0027161373 0.0256673 0.036056 -0.053002223 -0.046654437
-0.054528512 -0.059529107 0.050300702 0.1873677 0.117196634 0.13513875 0.0124091795 0.067028254
-0.25346977 0.011864513 -0.17712346 0.09162865 0.08568213 -0.0002891897 -0.05400163 0.03625117
0.117507875 -0.04302861 0.078660704 -0.082184054 -0.15266219 0.03907672 0.031183718 0.005956426
0.01173406 0.0144398315 -0.0011972245 0.031389236 -0.0029611958 -0.0563274 -0.074149236 -0.036698062
0.122168034 -0.021118838 -0.16646807 -0.012533801 0.0051229685 -0.020056816 0.15890309 -0.10599106
-0.06386008 0.13911325 0.06731886 -0.03935094 0.08580808 -0.10176953 -0.024899997 -0.009206156
0.061538212 -0.025207413 0.05728693 0.1471929 0.014102512 -0.11226089 0.06166011 0.04044371
-0.05112575 0.02685523 0.10664732 0.074907735 0.03492518 -0.0317828 -0.02356805 0.06953584
-0.16350593 -0.044080544 -0.09554926 -0.12387911 -0.06149465 -0.012877867 0.065107785 -0.12100413

network_body._body_endoder.seq_layers.2.bias f4 [128]
00000000: 0000 0000 0000 0000 0000 0000 0000 0000
00000010: 0000 0000 0000 0000 0000 0000 0000 0000
00000020: 0000 0000 0000 0000 0000 0000 0000 0000
00000030: 0000 0000 0000 0000 0000 0000 0000 0000
00000040: 0000 0000 0000 0000 0000 0000 0000 0000
00000050: 0000 0000 0000 0000 0000 0000 0000 0000
00000060: 0000 0000 0000 0000 0000 0000 0000 0000
00000070: 0000 0000 0000 0000 0000 0000 0000 0000
00000080: 0000 0000 0000 0000 0000 0000 0000 0000
00000090: 0000 0000 0000 0000 0000 0000 0000 0000
000000a0: 0000 0000 0000 0000 0000 0000 0000 0000
000000b0: 0000 0000 0000 0000 0000 0000 0000 0000
000000c0: 0000 0000 0000 0000 0000 0000 0000 0000
000000d0: 0000 0000 0000 0000 0000 0000 0000 0000
000000e0: 0000 0000 0000 0000 0000 0000 0000 0000
000000f0: 0000 0000 0000 0000 0000 0000 0000 0000
00000100: 0000 0000 0000 0000 0000 0000 0000 0000
00000110: 0000 0000 0000 0000 0000 0000 0000 0000
00000120: 0000 0000 0000 0000 0000 0000 0000 0000
00000130: 0000 0000 0000 0000 0000 0000 0000 0000
00000140: 0000 0000 0000 0000 0000 0000 0000 0000
00000150: 0000 0000 0000 0000 0000 0000 0000 0000
00000160: 0000 0000 0000 0000 0000 0000 0000 0000
00000170: 0000 0000 0000 0000 0000 0000 0000 0000
00000180: 0000 0000 0000 0000 0000 0000 0000 0000
00000190: 0000 0000 0000 0000 0000 0000 0000 0000
000001a0: 0000 0000 0000 0000 0000 0000 0000 0000
000001b0: 0000 0000 0000 0000 0000 0000 0000 0000
000001c0: 0000 0000 0000 0000 0000 0000 0000 0000
000001d0: 0000 0000 0000 0000 0000 0000 0000 0000
000001e0: 0000 0000 0000 0000 0000 0000 0000 0000
000001f0: 0000 0000 0000 0000 0000 0000 0000 0000
0.0 0.0 0.0 0.0 0.0 0.0 0.0 0.0
0.0 0.0 0.0 0.0 0.0 0.0 0.0 0.0
0.0 0.0 0.0 0.0 0.0 0.0 0.0 0.0
0.0 0.0 0.0 0.0 0.0 0.0 0.0 0.0
0.0 0.0 0.0 0.0 0.0 0.0 0.0 0.0
0.0 0.0 0.0 0.0 0.0 0.0 0.0 0.0
0.0 0.0 0.0 0.0 0.0 0.0 0.0 0.0
0.0 0.0 0.0 0.0 0.0 0.0 0.0 0.0
0.0 0.0 0.0 0.0 0.0 0.0 0.0 0.0
0.0 0.0 0.0 0.0 0.0 0.0 0.0 0.0
0.0 0.0 0.0 0.0 0.0 0.0 0.0 0.0
0.0 0.0 0.0 0.0 0.0 0.0 0.0 0.0
0.0 0.0 0.0 0.0 0.0 0.0 0.0 0.0
0.0 0.0 0.0 0.0 0.0 0.0 0.0 0.0
0.0 0.0 0.0 0.0 0.0 0.0 0.0 0.0
0.0 0.0 0.0 0.0 0.0 0.0 0.0 0.0

action_model._continuous_distribution.log_sigma f4 [1, 2]
00000000: 0000 0000 0000 0000
0.0 0.0

action_model._continuous_distribution.mu.weight f4 [2, 128]
00000000: c515 723b 98d5 f23c 28e9 ebbb 2532 2fbb
00000010: d483 00bc 4d57 63bc 0f1a 253d 4773 dd3c
00000020: f82f 33b9 33bc 34bc 0189 94bb 2b75 273c
00000030: 6f85 073c b4d8 9cbc 5f7b a0bc 65ed e63b
00000040: 6845 d53b a7ca b73b 456c 57bc 09ae 223c
00000050: 9a7e a73b a040 0ebc deaa 39bb 7b44 26bc
00000060: ab98 7c3c 8d88 2b3c 374e 8e3c 627e b9bc
00000070: 6209 5a3c 2391 cdba 9bac f03c c9b8 c4bb
00000080: 1d33 0dbc c30f 1ebc 72b7 06bd 7a99 f9bb
00000090: 6648 a1b9 e334 4eba 662f 04bb 9bec 9ebc
000000a0: 3bba 1ebd c21e 13bb 39a6 1c3a f8b2 46bb
000000b0: a22d 76bb 4570 033d 13ce 033d 60cb 013d
000000c0: b2b5 f93c ab54 6a3c e2e2 543c 4ce6 a9bc
000000d0: 4326 92bb a337 3c3d e4ff 0bbd 3555 843c
000000e0: d98c 4b3c be32 93bb b241 4bbc cf9a 8f3c
000000f0: e860 5e3b 6e25 26bd 198d 81bc c6cb 1c3d
00000100: f9b3 9abc 176a 2bbb 670f fb3b e38d 5ebc
00000110: 710e b23b ef40 cbbc 8277 8bbc 4070 bdbb
00000120: 2271 e73c ba85 d93b 58e2 7a3a 6faa 7abc
00000130: f12d aa3c ed5c f13c a5d0 ba3b a7d7 a6bc
00000140: 15ef f93c 4f57 ee3c bd5e cdbc 1529 153d
00000150: c91d a9bb 5be0 013d 7e12 90bc d31f 053d
00000160: 85e3 6ebb 804f 153c 259a 0bbd bb17 c0bc
00000170: bfe2 b53c 1c6e b63c 25de 8f3b 5b1c 43bb
00000180: a7d8 8c3b f887 863c f32b 54bc 5d89 c0bc
00000190: 2d05 78bc b0f5 7d3c 53cb d1bc e232 90bc
000001a0: cfa0 91bc 8729 e2bb dd65 253c 18b5 2c3c
000001b0: 1be6 be3c 44af 01bd bf3f 9fbc f78e 2bbc
000001c0: cf28 3cbb e4a1 09bd dfd2 8e3c 1357 aebc
000001d0: 1487 3a3d 7368 08bc f1c7 0cbd d72e 08bb
000001e0: b7c5 893c 1b07 833c d0bf fe3c 776c 103c
000001f0: 5922 273a 7f65 9c3c ed06 d43b aafd ed3c
00000200: 4503 dd3b ccbf 2dbc 2b8c 98bb 6972 09bc
00000210: 0c6a 8d3b a74c 8c3c cd95 9e3c 79ec b1bb
00000220: 0f3e 253d 747b 4cbc ccc3 baba 1421 97bc
00000230: d385 d0bb d4ee 2a3c 2f17 983b ecef 803c
00000240: 9a18 6bbb 6268 67bc 26d4 013c 88dd 903a
00000250: e3f0 3b3d 3f88 b73c 0f1b 19bc 37ee 1cbc
00000260: 8808 27bb 8036 1ebc 8cdf 34bc 7d6b ce3b
00000270: f572 fabb df7a ffbb 17d1 d8bc 9f7e 133b
00000280: 354e 8d3a 72e5 48bb 9a00 043c 80f5 f4bb
00000290: c7d8 53bb 96f6 8ebc 1d62 34bb a0f9 db3c
000002a0: db00 e53c 9e8f 073c 10b7 f1bb bb28 3e3b
000002b0: 450a df3a 7888 01bb 7c4e 33bc 03f4 a53b
000002c0: d8c6 c9bc 036f 7cb9 c338 16bc 387f 50bc
000002d0: 47f2 233d d379 f6ba 66e8 3bbc 50dd 193c
000002e0: d284 ef3b 3f4f 38bc 18a0 6b3b b229 66bc
000002f0: 0b6a 19bb f2f6 4cbb ddb7 d8bc 1404 0ebd
00000300: b9db a43c 174b 81bc 4d74 813b b22c 6dbc
00000310: b0ea 6f3c ebf6 f53c e478 b33b d408 01bd
00000320: bb86 8fbb 28f0 bd3c 69bb 023d 6b13 b4bc
00000330: d326 6939 f1e1 b83c 7297 51bb 28ec f2bb
00000340: e19d 91bc 75f3 fdba eb1f b03b 990d 0dbd
00000350: 780d 363b d51c edbc 463d 1d3c 6f8a 75bc
00000360: 378f 903c 79c5 3fbc 488f 53bc a2e7 22bd
00000370: 537c b7bb d30f 523c 678a e6bc c3db 6eba
00000380: b7b1 4ebc 0ede aebc a883 e93b 659b 553c
00000390: 7d47 ee3c 3c37 0abc c5ea 4a37 5896 4d3c
000003a0: 0fa9 983c 65bc 413c f559 c4bb 2189 21bd
000003b0: a5ea 96bc 4be6 cb3c 29eb 3bbb ee06 c6bc
000003c0: 54aa ccbb ffcb fb3b 28ea 013c da1f debc
000003d0: 0373 363b 3d50 4fbc 9740 cfbb 9107 a93c
000003e0: b236 d73c 0721 313b 0a22 63bc a679 b3ba
000003f0: dfcc a7bc 2298 b7bb f5bd e038 d5f8 29bc
0.0036939245 0.029642865 -0.0071994253 -0.002673277 -0.00784393 -0.013875795 0.040308055 0.027032508
-0.0001708864 -0.011031198 -0.0045329337 0.010220806 0.008271559 -0.0191463 -0.019590078 0.0070473426
0.006508518 0.005608875 -0.013148372 0.0099291885 0.0051115276 -0.0086824 -0.0028330605 -0.010148163
0.015417258 0.010469568 0.01737128 -0.022643272 0.013307901 -0.0015683513 0.02937918 -0.0060034734
-0.008618143 -0.009647313 -0.03288979 -0.007617173 -0.00030762254 -0.0007866157 -0.0020169853 -0.019399932
-0.038751822 -0.0022448753 0.0005975697 -0.0030319076 -0.003756382 0.03208949 0.03217895 0.031688094
0.030482147 0.014302413 0.012993546 -0.020739697 -0.0044601276 0.045951497 -0.034179583 0.016153911
0.012423717 -0.004492133 -0.0124058 0.017529873 0.0033932272 -0.04056304 -0.01581435 0.03828027
-0.018884646 -0.0026155764 0.007661748 -0.013583633 0.0054338505 -0.024811236 -0.01702476 -0.0057812035
0.028252188 0.006638256 0.0009570471 -0.015299424 0.02077386 0.029463256 0.005701142 -0.020366503
0.030509511 0.029094366 -0.025069589 0.036416132 -0.0051610214 0.031708103 -0.017586943 0.032501053
-0.003645153 0.009113193 -0.03408255 -0.023448816 0.022202848 0.022269301 0.0043904954 -0.002977154
0.004298288 0.016422257 -0.012949931 -0.023503 -0.015137953 0.015500471 -0.025609648 -0.017602388
-0.017776875 -0.006901923 0.010095087 0.010541223 0.023303082 -0.031661287 -0.019439576 -0.010471097
-0.0028710847 -0.033601657 0.017434536 -0.021281755 0.045538977 -0.008325684 -0.034370366 -0.0020779872
0.01681791 0.0159946 0.031097323 0.0088149225 0.00063756626 0.019091366 0.006470552 0.02905162
0.0067447745 -0.01060481 -0.004655381 -0.008389094 0.0043156203 0.017126394 0.01935854 -0.005429801
0.040342387 -0.012480605 -0.0014249026 -0.01844839 -0.0063636093 0.010432918 0.0046414356 0.015739404
-0.0035872818 -0.014124008 0.007924115 0.001105235 0.045884024 0.022403834 -0.00934483 -0.009578279
-0.0025487263 -0.0096565485 -0.011039626 0.0062994347 -0.0076430985 -0.00779663 -0.02646689 0.0022505892
0.0010780754 -0.0030654338 0.008056784 -0.007475555 -0.0032325254 -0.017451566 -0.00275243 0.026852429
0.02795451 0.008273987 -0.007376559 0.0029015976 0.001701661 -0.001976518 -0.010944005 0.005064489
-0.024630949 -0.00024073948 -0.0091688065 -0.012725644 0.040025976 -0.0018804617 -0.011468982 0.009391144
0.0073095346 -0.0112493625 0.0035953578 -0.014048027 -0.0023409154 -0.003127512 -0.02645486 -0.034671858
0.020124303 -0.015782876 0.0039506317 -0.014475988 0.014643356 0.030024966 0.005477058 -0.03150256
-0.004380075 0.023185804 0.03191701 -0.021981915 0.00022235075 0.022568675 -0.0031981138 -0.007413406
-0.017775478 -0.0019374924 0.0053748987 -0.034436796 0.0027779024 -0.028944412 0.009597128 -0.014986618
0.017646415 -0.011704796 -0.012912579 -0.039771684 -0.0055995374 0.012821156 -0.028142167 -0.00091117265
-0.012615613 -0.021346118 0.0071262904 0.013037537 0.029086823 -0.00843602 1.20948e-05 0.012548052
0.0186353 0.011824702 -0.005992169 -0.039437417 -0.018422434 0.024890086 -0.0028674102 -0.024173226
-0.0062458906 0.0076842303 0.007929362 -0.027114797 0.0027839548 -0.012653408 -0.0063248384 0.02063349
0.026271198 0.0027027742 -0.013863096 -0.001369287 -0.020483432 -0.0056028524 0.000107165346 -0.010374268

action_model._continuous_distribution.mu.bias f4 [2]
00000000: 0000 0000 0000 0000
0.0 0.0

network_body._body_endoder.seq_layers.0.weight f4 [128, 136]
00000000: e09d 7d3d b7ab e83c 6423 393e bc3c bbbd
00000010: fc41 8c3d e77b c43b ca07 13bd 068a a0bd
00000020: aaee d83d 902f 943d fead acbc 3ea8 89bd
00000030: 5a2f f1b7 5e2b 1b3e e096 a9bd 00a9 043d
00000040: ccc3 173d ee7d 20be f713 0e3e 7cfc 543e
00000050: fa36 743b a09c 923c c8ed dcbd 5623 a23d
00000060: 6d21 fc3d f33a 5cbd cea6 873c e2ad e8bd
00000070: af7e 933c fc3a 2b3d 423b a6bd 3dfb b1bc
00000080: a6c3 143d 2459 913d 2450 4ebe 5238 aa3d
00000090: 13e9 5a3d 81fe 52bd 69d7 97bd 31fd 813d
000000a0: 81ec 27bd c053 e83d 533c 703d c0ee 293d
000000b0: 65da fabd cc8d 5e3d 6b52 7b3d 6722 d33d
000000c0: dbf4 9b3d f38a b13d d9d7 36bd 0a62 bb3d
000000d0: a991 853d dead e23d 40c5 0fbe ae25 febd
000000e0: 0d10 22bd 9a6c fa3c 8665 94bd 33ee b2bc
000000f0: 187b a73d c720 25bd 3cc9 393d 0be0 33bd
00000100: e5f1 803d 1d7a 81bc dd1a c2bd d797 133d
00000110: ebaf 0abe 5bec e63d 3aff f83d df75 4bbd
00000120: a725 b93d 13c2 4fbd b817 94bd bd0d ebbd
00000130: 5b49 8e3c 34c6 9c3d 9c1f bdbc 0e16 01bd
00000140: 4103 ed3d f9bf d53d 47f9 46bc 99cb 42be
00000150: 0e20 3abd 9ea8 0c3b 6bb9 293d 1397 edbc
00000160: db46 5d3c 195c 97bc b9b9 193c 7821 25be
00000170: 7c1f e0bd ab66 1c3d d006 e8bc e63b 26be
00000180: 6047 253a 2141 0ebd 9b7a 353c 1986 0e3e
00000190: 9f8a 033e caf4 803d 9cd8 babd c963 7cbd
000001a0: 556c 10bc e5a9 763d 5498 cebd 5977 293d
000001b0: 2488 34bc 3e0c 23bd d8ca 4a3d b07a 6d3c
000001c0: 55f7 c5bd 5ef1 b63d 7263 cbbd 4abd debd
000001d0: a2be ad3c 8426 a7bc f032 033d 6933 cd3d
000001e0: fbd3 82bd dafa d73d 7355 32bd 36f6 edbd
000001f0: 5717 2f3d 0b0c 1f3d 2424 32bd 509f 44bd
00000200: a555 e03c 5152 263e f095 2a3e ed1d d03d
00000210: e228 34bd 2ba2 273d ca6d 35bd 046a a6bc
00000220: 00a6 c93c e151 e8bc a103 a2bd 939c 49bd
00000230: 9d6a a33d c5ca 09be 5e49 e4bc dce0 f23c
00000240: 53e5 2cbc baf8 54bd 686e b4bd 1f15 683d
00000250: 8fd2 f3bd 4a41 073d 2c42 05bd 30fb d03b
00000260: 8ab7 1d3d 19a4 7bbc 6e9c 63bb ac3d f5bc
00000270: 8c0c 363d a8b7 cbbd b4cf 203e 736c adbd
00000280: 242e 593c e007 10bd eb69 b9bb 2558 3d3d
00000290: 4485 aebc 818c df3d 2a0c b9bc cc03 47bb
000002a0: 0f5c 943d 0d6c a4bd 2db6 39bc 7149 d1bd
000002b0: 3ffb 4e3d 377c a03d 736e 0f3b 8714 1a3d
000002c0: fdd4 35be 90f9 86bd 838a ea3c 263d 143e
000002d0: 9f6d 1dbd b883 103e be55 33be 0a64 7bbd
000002e0: 3e14 f73c 5ade 2dbd 7d94 f9ba a884 283e
000002f0: 820e f0bd 9614 823d 9989 c9bd 8690 e4bd
00000300: 77ba 8fbd 1931 213e 051f 3c39 150b dd3d
00000310: 1abe 08be c46d dbbc e1ce 99bb e783 29bd
00000320: 11e7 0a3d 8727 d2bd 6ebb bebc 0197 db3d
00000330: a129 d2bd e265 903d 0f99 7abc df53 993d
00000340: 4582 863d f994 f23d d1c2 a6bd 6414 a4bd
00000350: 9c75 ca3d 5910 07bd c6d4 9c3c 755b 06bd
00000360: 2d70 d0bc 52c4 083e 24c0 3ebd 8c50 0cbc
00000370: c41b 32bc f47e 663d 0e9d 463d b77d 023d
00000380: 6fdb cd3d 346f 9ebd 87c5 853d ceeb ef3d
00000390: 494e 48be 134a 09be ea1f 0fbd d9de c2bc
000003a0: e07d dcbc 33ef 9a3d b624 a2bd 5fac 43bd
000003b0: 959f 80bc b740 00be dbb5 113d f88a 09be
000003c0: abf3 4a3c 016e 893c 20c7 c33d bcbd 71bc
000003d0: e21e b3bd 84ab 70bd 2db5 3a3d 402c f93c
000003e0: 285e 91bd 3dbf ecbd 69de 723d 6ec6 8dbd
000003f0: 4bea d83d 39fa 23be 8582 6a3d 735d 9bbc
0.06191814 0.028402193 0.18079907 -0.091424435 0.06848523 0.0059962156 -0.0358961 -0.07838826
0.105923966 0.07235634 -0.02107906 -0.06721543 -2.8751489e-05 0.15153262 -0.0828073 0.032387733
0.03705196 -0.15673038 0.13874803 0.2079944 0.0037264214 0.01789695 -0.10787541 0.07916896
0.12311063 -0.053767156 0.01655903 -0.113612905 0.018004743 0.0418043 -0.08116771 -0.021726245
0.036319397 0.0709708 -0.20147759 0.083115235 0.053444933 -0.051512245 -0.07414133 0.063471206
-0.040997032 0.11344099 0.05865128 0.041487455 -0.12248687 0.054334447 0.061357897 0.10309296
0.07615062 0.086690806 -0.044639442 0.09149559 0.06521923 0.11068319 -0.14040089 -0.124095306
-0.03956609 0.030569363 -0.072459266 -0.021842098 0.08177775 -0.040314462 0.045357928 -0.043914836
0.06296138 -0.015805298 -0.0947778 0.036033478 -0.1354367 0.1127555 0.121580556 -0.049672958
0.09040385 -0.050722193 -0.072310865 -0.1147723 0.017368963 0.07654992 -0.023086362 -0.031515174
0.11572886 0.104370065 -0.012144393 -0.19022979 -0.045440726 0.0021462808 0.041436594 -0.029002702
0.013505663 -0.018476533 0.009382659 -0.16126049 -0.10943505 0.03818385 -0.028323561 -0.16233787
0.0006304886 -0.03473008 0.011076595 0.13918342 0.12845849 0.0629669 -0.09123346 -0.0616186
-0.008814891 0.060220618 -0.10087648 0.041373584 -0.011018787 -0.039806597 0.049509853 0.014494583
-0.096663155 0.08932756 -0.09931077 -0.10875948 0.021209065 -0.020404108 0.032031 0.10019571
-0.06388088 0.10545893 -0.043538522 -0.11619227 0.042746868 0.038829844 -0.043491498 -0.048003495
0.027384588 0.16242339 0.16658759 0.10161958 -0.0439843 0.04092614 -0.044294156 -0.020314224
0.024615288 -0.028359355 -0.079108484 -0.049221586 0.07979319 -0.13456257 -0.027867015 0.029648237
-0.010552722 -0.051995017 -0.08810121 0.056660768 -0.11905395 0.03302125 -0.03253381 0.0063776
0.038505115 -0.015358948 -0.003473069 -0.029936634 0.04444556 -0.09947139 0.15704232 -0.08467951
0.01325563 -0.03516376 -0.0056583784 0.04622664 -0.02130378 0.10915471 -0.022588808 -0.0030367253
0.07244121 -0.080284216 -0.011334938 -0.10219086 0.050532576 0.07836192 0.0021885901 0.037617233
-0.1775703 -0.06590569 0.0286305 0.14476451 -0.03843462 0.14112747 -0.17513177 -0.0613747
0.03016102 -0.04244838 -0.0019041445 0.16456854 -0.11721517 0.06351583 -0.09840698 -0.11160378
-0.07017987 0.15741386 0.00017940633 0.10793129 -0.13353768 -0.026785739 -0.0046938513 -0.041385558
0.03391177 -0.102614455 -0.023282733 0.10722161 -0.10261846 0.070506826 -0.015295281 0.074867
0.06567816 0.118448205 -0.08142627 -0.08011702 0.098857135 -0.032974575 0.019144427 -0.032802064
-0.025444115 0.1335614 -0.04656996 -0.008564126 -0.010870878 0.056273416 0.048489623 0.031858172
0.10051619 -0.07736054 0.06531816 0.11714898 -0.19561113 -0.13407163 -0.034942545 -0.023787903
-0.02691549 0.07565155 -0.07917158 -0.047771808 -0.015701095 -0.12524687 0.03557382 -0.13431919
0.0123871965 0.016776087 0.095594645 -0.014754709 -0.08746125 -0.05875732 0.04558294 0.030416608
-0.07098037 -0.11559913 0.059294138 -0.06922613 0.10591563 -0.16013421 0.05725338 -0.018965458

network_body._body_endoder.seq_layers.0.bias f4 [128]
00000000: 0000 0000 0000 0000 0000 0000 0000 0000
00000010: 0000 0000 0000 0000 0000 0000 0000 0000
00000020: 0000 0000 0000 0000 0000 0000 0000 0000
00000030: 0000 0000 0000 0000 0000 0000 0000 0000
00000040: 0000 0000 0000 0000 0000 0000 0000 0000
00000050: 0000 0000 0000 0000 0000 0000 0000 0000
00000060: 0000 0000 0000 0000 0000 0000 0000 0000
00000070: 0000 0000 0000 0000 0000 0000 0000 0000
00000080: 0000 0000 0000 0000 0000 0000 0000 0000
00000090: 0000 0000 0000 0000 0000 0000 0000 0000
000000a0: 0000 0000 0000 0000 0000 0000 0000 0000
000000b0: 0000 0000 0000 0000 0000 0000 0000 0000
000000c0: 0000 0000 0000 0000 0000 0000 0000 0000
000000d0: 0000 0000 0000 0000 0000 0000 0000 0000
000000e0: 0000 0000 0000 0000 0000 0000 0000 0000
000000f0: 0000 0000 0000 0000 0000 0000 0000 0000
00000100: 0000 0000 0000 0000 0000 0000 0000 0000
00000110: 0000 0000 0000 0000 0000 0000 0000 0000
00000120: 0000 0000 0000 0000 0000 0000 0000 0000
00000130: 0000 0000 0000 0000 0000 0000 0000 0000
00000140: 0000 0000 0000 0000 0000 0000 0000 0000
00000150: 0000 0000 0000 0000 0000 0000 0000 0000
00000160: 0000 0000 0000 0000 0000 0000 0000 0000
00000170: 0000 0000 0000 0000 0000 0000 0000 0000
00000180: 0000 0000 0000 0000 0000 0000 0000 0000
00000190: 0000 0000 0000 0000 0000 0000 0000 0000
000001a0: 0000 0000 0000 0000 0000 0000 0000 0000
000001b0: 0000 0000 0000 0000 0000 0000 0000 0000
000001c0: 0000 0000 0000 0000 0000 0000 0000 0000
000001d0: 0000 0000 0000 0000 0000 0000 0000 0000
000001e0: 0000 0000 0000 0000 0000 0000 0000 0000
000001f0: 0000 0000 0000 0000 0000 0000 0000 0000
0.0 0.0 0.0 0.0 0.0 0.0 0.0 0.0
0.0 0.0 0.0 0.0 0.0 0.0 0.0 0.0
0.0 0.0 0.0 0.0 0.0 0.0 0.0 0.0
0.0 0.0 0.0 0.0 0.0 0.0 0.0 0.0
0.0 0.0 0.0 0.0 0.0 0.0 0.0 0.0
0.0 0.0 0.0 0.0 0.0 0.0 0.0 0.0
0.0 0.0 0.0 0.0 0.0 0.0 0.0 0.0
0.0 0.0 0.0 0.0 0.0 0.0 0.0 0.0
0.0 0.0 0.0 0.0 0.0 0.0 0.0 0.0
0.0 0.0 0.0 0.0 0.0 0.0 0.0 0.0
0.0 0.0 0.0 0.0 0.0 0.0 0.0 0.0
0.0 0.0 0.0 0.0 0.0 0.0 0.0 0.0
0.0 0.0 0.0 0.0 0.0 0.0 0.0 0.0
0.0 0.0 0.0 0.0 0.0 0.0 0.0 0.0
0.0 0.0 0.0 0.0 0.0 0.0 0.0 0.0
0.0 0.0 0.0 0.0 0.0 0.0 0.0 0.0

network_body._body_endoder.seq_layers.2.weight f4 [128, 128]
00000000: d4b7 bcbd b241 683d d67f 7e3d 8434 103e
00000010: 9eb1 aa3c 9438 a73d 1614 c5bd 8c0e ecbc
00000020: 7154 d43d c8fd 1a3e a7cf 143d cf65 acbd
00000030: f3a5 933d 884d ebbd 9b65 273e 6185 37be
00000040: 161d 9f3e 2a17 80bd a281 9d3d 8353 05be
00000050: f613 2c3e 2d2a 8d3b 0919 f6bc dede 13be
00000060: aa82 98bd 49cc 1e3c 8132 4b3d 13c5 e63d
00000070: 71c1 963d 4d7d 233d 895c 18bd 1a80 74bd
00000080: c427 4dbe be4c 55bd 61ba 893d 92dd 7dbd
00000090: 50bf a33c 7c73 353d 9e9c 2f3e a154 8cbc
000000a0: d84e bbbd c22b 6d3d eb13 ebbd cf2f b93c
000000b0: 2254 d73d ed8e 533d ca18 0c3e d5df 993d
000000c0: 4eb6 5c3d 3001 ef3d d554 503b b443 9fbd
000000d0: 8b85 1fbd 54bb 63bd 11a3 62be f81b b43d
000000e0: 8076 a33d 45ca e9bc 804b 643c 27fe 9cbd
000000f0: 85a8 dfbd 59e8 1d3d c042 5f3d a305 c43d
00000100: 4641 29bc e094 0f3e a4c9 d8bb a8bd dbbd
00000110: 08e1 33be 4b3b 2abe f482 89bc 4ebb 13bd
00000120: 89e7 3bbd ec4d afbd 8623 43bc 7ba9 f63a
00000130: be12 95bc 275f 4fbe 7495 433a 8ffc 00be
00000140: d0cf 613d 5267 123e 7a94 b5be 79bd b13d
00000150: f57c ca3d 6724 d2bc 1d3b 5f3e 65be 80bd
00000160: d60f c6bd 32a8 edbd bcbc 97bc 7b0d 1d3e
00000170: bc9f 32bd edf6 4cbd 5ccc 1fbe 435e 713a
00000180: d054 c63d f093 713d 7a61 b5bd e580 4ebd
00000190: 9413 f13b 0bc5 8abd e72f 6abd 3a29 81bc
000001a0: f0da 613d b3ff ea3d 0632 38be aa98 f4bd
000001b0: e130 a83e 779a 9ebd b6ec bf3c e006 01be
000001c0: 79c6 853d 4980 49be db2d 34bc c812 b0bd
000001d0: b00e 17bd 7239 f2bd 3679 95bd 09da 173e
000001e0: ca20 afbd 39f6 4dbc 0e53 473e f079 03bd
000001f0: 3811 133d 8479 183e cf12 cabd e67e 67bd
00000200: 2a7b 1dbd e8f6 84bd 6ed9 e4bd 47c5 a63d
00000210: 9ad9 80bd 16de dd3d e542 963d 1f4d ff3d
00000220: 93b9 523e 8d4e 72bd dfff 90bd 1a31 a43d
00000230: db01 a1bc 46a9 1f3e 3e26 a9bb 292c 753d
00000240: 2e78 cfbd af9a 0fbb 2e19 1abd 805e 053c
00000250: 3d0c 393c 8f2c 1c3e ac79 e13d c10d c6bd
00000260: b687 8d3d 3445 babd df24 f53d e0e8 f0ba
00000270: 91fa c1bd 61e9 0f3e 16c4 543d 160a a7bd
00000280: 115a 7ebb a476 8fbc 4af7 1e3d 12f3 76bd
00000290: 9219 543d 806f 0abd 8a49 b0bd eded 0bbd
000002a0: 876c a93d 05ef 883d ddad 00be bef8 80bd
000002b0: 9a65 4a3c 4dff 0abd a991 773d fc77 793e
000002c0: 8a90 383d 0ffd d43d f46f b13d eb7b 153e
000002d0: 8422 b2bb d53b acbd 9ee7 adbd fb63 523d
000002e0: 55fb 4e3d ecc8 ecbd 2bd3 283c c471 ddbb
000002f0: 26f2 343d f80f 5fbd 85dd 3fbe 0b10 c8bb
00000300: 7c97 0b3d 0fd9 b63d 0aad d53c 394f 2f3d
00000310: 4b66 87bc cd1c 9bbd a90c 54bd 0eb6 8b3d
00000320: 359b d63d d7c3 5e3b 8518 473c 290d c03c
00000330: 141d 1abd d40c 5d3d 4cf4 dbbd 50eb 793e
00000340: 7bd6 fdbc d951 033d ddf2 da3d 0302 3fbd
00000350: ed89 a2bc 3e30 0b3e 577f 373c 876e 663d
00000360: e84f 00be 4238 eebd 49b6 613c af78 753d
00000370: 41d6 b23d 34a5 2e3e 6518 cdbc ffef 15be
00000380: 5058 0dbe 1cb3 e63c fbe3 f03c 6335 753d
00000390: c9c3 afbd 4696 82bc 4d5b 5ebd e918 d5bd
000003a0: 7004 00be 1d42 393d 43db 6a3d c232 cb3d
000003b0: f485 4ebd 388a 623d 6f3c 083e 1cf4 c43d
000003c0: a9ab a6bd 15ef 07be 7857 2f3e c873 fe3c
000003d0: d39e a73b 8533 debd 8141 6cbc 9b90 afbd
000003e0: b02d ebbd d7f3 1c3d 5c30 393e 79d4 863d
000003f0: f63a f03c 8a6a c03c 8d25 b93d f8ef 0fbe
-0.0921475 0.056703277 0.062133633 0.14082533 0.020836648 0.08165088 -0.09622972 -0.02881553
0.103676684 0.15135872 0.036330845 -0.08417856 0.07209387 -0.11489397 0.16347353 -0.17921974
0.31076878 -0.06254418 0.07690741 -0.13020138 0.1680449 0.0043080063 -0.030041235 -0.14440486
-0.07446797 0.00969226 0.04960871 0.11268058 0.07361115 0.039914418 -0.037197623 -0.05969248
-0.200347 -0.05207514 0.06725002 -0.061978884 0.019988686 0.044299588 0.17149588 -0.017130198
-0.091458976 0.05790306 -0.114784084 0.022605805 0.10514094 0.051649977 0.13681331 0.07513396
0.053884797 0.116701484 0.0031788845 -0.07776585 -0.038945716 -0.055598572 -0.22132517 0.08794397
0.079815865 -0.028538832 0.013934016 -0.07665663 -0.109208144 0.038551662 0.054507017 0.095713876
-0.010330504 0.14021635 -0.0066158343 -0.107295334 -0.17566311 -0.16624181 -0.016786076 -0.0360673
-0.045875106 -0.08559784 -0.011910325 0.001881882 -0.018197414 -0.20251141 0.000746093 -0.12596343
0.055129826 0.14297226 -0.3546484 0.08678717 0.09887115 -0.025652124 0.21799894 -0.06286315
-0.09670989 -0.11604346 -0.018522613 0.15337174 -0.043609366 -0.050040174 -0.156053 0.00092074665
0.096841455 0.058978975 -0.08856483 -0.050415892 0.00735707 -0.06775864 -0.05717459 -0.015766729
0.055140436 0.11474552 -0.17987832 -0.11943181 0.32849792 -0.077443056 0.023428302 -0.12600279
0.06531996 -0.19677843 -0.010997261 -0.08597332 -0.03687924 -0.11827363 -0.0729851 0.14829268
-0.08551176 -0.012570911 0.19465277 -0.03209871 0.035905093 0.14890105 -0.09866869 -0.056517504
-0.038447537 -0.06492406 -0.11174284 0.081430964 -0.06291504 0.10833375 0.07336978 0.124658816
0.20578603 -0.059156943 -0.070800535 0.08017178 -0.019654205 0.15591916 -0.0051620295 0.059856568
-0.10130344 -0.0021912267 -0.03762167 0.008140206 0.011294422 0.15251373 0.11009535 -0.09670592
0.069106504 -0.09095231 0.11969923 -0.0018379949 -0.0947162 0.1405387 0.051944815 -0.081562206
-0.0038811008 -0.017512627 0.038810052 -0.060290404 0.0517822 -0.03379774 -0.086077765 -0.03416245
0.08272653 0.06686214 -0.12566324 -0.06297444 0.012353325 -0.03393488 0.060441647 0.24362177
0.04505972 0.103998296 0.086639315 0.14598052 -0.0054362435 -0.084098496 -0.08491443 0.05136488
0.050532658 -0.1156176 0.010304253 -0.0067579467 0.044176243 -0.05445859 -0.18736847 -0.006105428
0.034080014 0.089281194 0.026083488 0.042800162 -0.01652827 -0.07573853 -0.051769886 0.068218336
0.10478822 0.0033991241 0.012151842 0.023443775 -0.037625387 0.053967312 -0.10739955 0.24406171
-0.030986061 0.032060478 0.10690854 -0.046632778 -0.019841159 0.13592622 0.011199794 0.05625775
-0.12530482 -0.11631824 0.01377637 0.059929546 0.08732272 0.17055207 -0.025036046 -0.14642332
-0.1380322 0.028161578 0.029405585 0.059865367 -0.08582265 -0.015940797 -0.05428629 -0.10405142
-0.12501693 0.045229066 0.05733801 0.09921791 -0.050420716 0.055307597 0.13304304 0.09616873
-0.0813821 -0.13274796 0.1712321 0.031061068 0.005115369 -0.1084967 -0.014419914 -0.08572503
-0.114833236 0.03831848 0.18084854 0.06583495 0.02932499 0.023488302 0.09040365 -0.14056385

network_body._body_endoder.seq_layers.2.bias f4 [128]
00000000: 0000 0000 0000 0000 0000 0000 0000 0000
00000010: 0000 0000 0000 0000 0000 0000 0000 0000
00000020: 0000 0000 0000 0000 0000 0000 0000 0000
00000030: 0000 0000 0000 0000 0000 0000 0000 0000
00000040: 0000 0000 0000 0000 0000 0000 0000 0000
00000050: 0000 0000 0000 0000 0000 0000 0000 0000
00000060: 0000 0000 0000 0000 0000 0000 0000 0000
00000070: 0000 0000 0000 0000 0000 0000 0000 0000
00000080: 0000 0000 0000 0000 0000 0000 0000 0000
00000090: 0000 0000 0000 0000 0000 0000 0000 0000
000000a0: 0000 0000 0000 0000 0000 0000 0000 0000
000000b0: 0000 0000 0000 0000 0000 0000 0000 0000
000000c0: 0000 0000 0000 0000 0000 0000 0000 0000
000000d0: 0000 0000 0000 0000 0000 0000 0000 0000
000000e0: 0000 0000 0000 0000 0000 0000 0000 0000
000000f0: 0000 0000 0000 0000 0000 0000 0000 0000
00000100: 0000 0000 0000 0000 0000 0000 0000 0000
00000110: 0000 0000 0000 0000 0000 0000 0000 0000
00000120: 0000 0000 0000 0000 0000 0000 0000 0000
00000130: 0000 0000 0000 0000 0000 0000 0000 0000
00000140: 0000 0000 0000 0000 0000 0000 0000 0000
00000150: 0000 0000 0000 0000 0000 0000 0000 0000
00000160: 0000 0000 0000 0000 0000 0000 0000 0000
00000170: 0000 0000 0000 0000 0000 0000 0000 0000
00000180: 0000 0000 0000 0000 0000 0000 0000 0000
00000190: 0000 0000 0000 0000 0000 0000 0000 0000
000001a0: 0000 0000 0000 0000 0000 0000 0000 0000
000001b0: 0000 0000 0000 0000 0000 0000 0000 0000
000001c0: 0000 0000 0000 0000 0000 0000 0000 0000
000001d0: 0000 0000 0000 0000 0000 0000 0000 0000
000001e0: 0000 0000 0000 0000 0000 0000 0000 0000
000001f0: 0000 0000 0000 0000 0000 0000 0000 0000
0.0 0.0 0.0 0.0 0.0 0.0 0.0 0.0
0.0 0.0 0.0 0.0 0.0 0.0 0.0 0.0
0.0 0.0 0.0 0.0 0.0 0.0 0.0 0.0
0.0 0.0 0.0 0.0 0.0 0.0 0.0 0.0
0.0 0.0 0.0 0.0 0.0 0.0 0.0 0.0
0.0 0.0 0.0 0.0 0.0 0.0 0.0 0.0
0.0 0.0 0.0 0.0 0.0 0.0 0.0 0.0
0.0 0.0 0.0 0.0 0.0 0.0 0.0 0.0
0.0 0.0 0.0 0.0 0.0 0.0 0.0 0.0
0.0 0.0 0.0 0.0 0.0 0.0 0.0 0.0
0.0 0.0 0.0 0.0 0.0 0.0 0.0 0.0
0.0 0.0 0.0 0.0 0.0 0.0 0.0 0.0
0.0 0.0 0.0 0.0 0.0 0.0 0.0 0.0
0.0 0.0 0.0 0.0 0.0 0.0 0.0 0.0
0.0 0.0 0.0 0.0 0.0 0.0 0.0 0.0
0.0 0.0 0.0 0.0 0.0 0.0 0.0 0.0

value_heads.value_heads.extrinsic.weight f4 [1, 128]
00000000: d821 2dbe a10c 213e ce04 9abd 365e 5b3e
00000010: 88d1 953c 224a 433e 397c 023d 787d 4f3e
00000020: eb73 63bc 4ddb fc3d 4a85 45be 7d36 f23c
00000030: 8f66 04be c8c9 313e 4bba 24be 5681 a4bb
00000040: f560 143c 3271 353e 4677 db3d f510 7ebc
00000050: 7a57 123d f483 073e 7011 45be 7c34 193e
00000060: 7a1e 1a3e 0af4 3ebe 1afd 91bd 95eb 543e
00000070: f08e 03be b985 31be f7f9 323e d57b c0bc
00000080: 8095 52bd 99a4 4dbe 7616 dabd ed10 a03d
00000090: 11f6 d4bd 2da1 2e3e 897d 443e d8e4 eebd
000000a0: f6fe 1d3e 9098 1b3a 3fa5 2e3d d461 c63d
000000b0: d385 2c3d 71fb b2bd 9c29 543e af31 e83d
000000c0: 6b36 65bd 4100 fabd 430f 863d 4075 ab3d
000000d0: 63d4 db3d 4189 803d 3f00 52ba 6abe f13d
000000e0: 930a 35be aae5 2dbe 9a4c 133e 0df4 66bd
000000f0: c821 e7bd 150f 343e cc3d 31be 7ee5 a8bd
00000100: cb5a 1bbe 368e 9b3b 9919 233e 5a1b 103e
00000110: d51f 1f3e 6a7d a43d f583 99bd feca adbc
00000120: fadb 5bbe 4d70 c8bd 1ecd 0e3e d2fe 5b3e
00000130: c4be 99bd 807e b0bd de28 2d3d 4a91 b03d
00000140: 2032 3dbe d9d7 33be 728c b93c 52e9 ab3d
00000150: 5fae 7abd 94bb 3b3e 015e 33be 1312 e1bd
00000160: 5f61 a03d 7f18 0dbe 4b2c 183e f796 b23d
00000170: b7a0 653d 2413 c23d 6b29 f93d cf98 563c
00000180: 5849 13be 8a27 87bd cb02 0d3e 90b2 033d
00000190: 1c5b 21be a341 513e f157 1d3e 38ca 7abd
000001a0: 41a1 2abe 5dde 60bd a418 f33d ef8b c93c
000001b0: 3638 dfbd e7ba dd3d 2820 42be 0992 10be
000001c0: 6262 2abd f551 2f3e e34c a8bd 1350 37be
000001d0: 2126 18be d6bf 28be bde7 4fbe 3327 0fbe
000001e0: f60a 3ebe ee89 d83d 3e3a 4b3e 6cae e83d
000001f0: ecfb 40be 9bd4 0fbd 62ac 4bbc 2e7d 703c
-0.16907442 0.15727474 -0.07520448 0.21422657 0.018288389 0.19071248 0.03185675 0.20262706
-0.0138826175 0.12346516 -0.19289127 0.029566998 -0.12929748 0.1736213 -0.1608669 -0.005020301
0.0090563195 0.17718962 0.10716109 -0.015506973 0.035727955 0.1323393 -0.19244933 0.14961427
0.15050688 -0.18647781 -0.071283534 0.20792992 -0.12847495 -0.17336167 0.17478167 -0.023496548
-0.051412106 -0.2008232 -0.10648815 0.07815728 -0.10398496 0.17053671 0.19188513 -0.11664742
0.15429291 0.00059355143 0.04263806 0.09686628 0.042119812 -0.08739365 0.20718998 0.113376014
-0.0559601 -0.1220708 0.0654588 0.08371973 0.10733869 0.06276179 -0.0008010901 0.11803897
-0.17679815 -0.16982141 0.1438469 -0.05638509 -0.1128574 0.17583878 -0.1730873 -0.08246897
-0.15171354 0.0047471775 0.15927733 0.14072934 0.15539487 0.08031733 -0.07495872 -0.021214958
-0.21470633 -0.09787045 0.13945433 0.21483925 -0.07507089 -0.08617878 0.042275302 0.08621462
-0.18476152 -0.17562808 0.022649977 0.08394112 -0.06120145 0.18333274 -0.17516328 -0.109897755
0.07831072 -0.13778876 0.14860646 0.087202005 0.056061473 0.09476307 0.12166103 0.013097956
-0.14383447 -0.06599338 0.13770597 0.032152712 -0.15757412 0.20435195 0.15365578 -0.061228007
-0.16663076 -0.054899562 0.11869934 0.024602858 -0.10899393 0.108266644 -0.18957579 -0.14118208
-0.04159773 0.17121108 -0.0821779 -0.1790164 -0.14858295 -0.1647943 -0.20303245 -0.13979797
-0.18558869 0.10573183 0.19846436 0.11361393 -0.188461 -0.035114866 -0.012431236 0.014678283
