results/car1/CarParking/CarParking-768.pt (torch, 283074 bytes, 12 tensors)

network_body._body_endoder.seq_layers.0.weight f4 [128, 136]
0	0xbdbfaa87	-0.093586974
1	0x3e708c0a	0.2349092
2	0xbbf127b2	-0.0073594684
3	0xbd846035	-0.064636625
4	0x3e50340e	0.20332357
5	0x3c9ba9b4	0.01900182
6	0x3d575958	0.05257544
7	0xbe0f145b	-0.13972609
8	0xbdb2a43e	-0.08722733
9	0xbdf7ad66	-0.1209362
10	0xbb8c5cc3	-0.004283519
11	0xbe6ad3a2	-0.22932294
12	0x3d0ca659	0.03433833
13	0xbcbae601	-0.022814753
14	0xbd7aa06f	-0.061188158
15	0x3dab88db	0.083757125
16	0xbd546f22	-0.051863797
17	0x3db12f55	0.08651606
18	0x3d9c380d	0.07627878
19	0x3c03c5de	0.008042781
20	0x3d8edd4e	0.06975804
21	0xbe0f506f	-0.13995527
22	0xbd3038de	-0.043022983
23	0x3d8693e0	0.06571174
24	0x3d4383e1	0.04773319
25	0x3d8726da	0.06599207
26	0xb9b59324	-0.0003463264
27	0x3b924ccb	0.004464721
28	0x3c7d633d	0.015465555
29	0xbca3021c	-0.019898467
30	0x3c908fec	0.017646752
31	0x3c0f6e44	0.008754317
32	0xbd4fede8	-0.050763994
33	0x3c6d5614	0.014485855
34	0x3d39eb56	0.04539045
35	0xbc718e1b	-0.014743353
36	0x3e233da1	0.15941478
37	0xbdd0a6e6	-0.10188083
38	0xbd98c62a	-0.07459672
39	0x3d71d615	0.059042055
40	0x3e33711d	0.17523618
41	0xbd04bff9	-0.032409642
42	0xbe2505b1	-0.16115452
43	0xbd0d35ca	-0.034475125
44	0x3dd8bfff	0.10583495
45	0x3d0aff3c	0.033934817
46	0xbde012d2	-0.1094109
47	0xbd095dea	-0.03353683
48	0x3e3411f6	0.17584977
49	0x3dd3514e	0.10318242
50	0xbdacdfa5	-0.08441094
51	0x3c645077	0.0139352
52	0x3e1edf40	0.1551485
53	0x3dfd9c4c	0.12383327
54	0xbdbed1bb	-0.09317347
55	0x3dadc11f	0.084841006
56	0xbc75ef97	-0.015010736
57	0x3c97ed38	0.018545732
58	0x3e338605	0.17531593
59	0xbc9d4df9	-0.01920222
60	0x3bd21578	0.0064112507
61	0x3be275d2	0.006911018
62	0xbccee59c	-0.02525597
63	0x3d71deb6	0.059050284
64	0x3db8a946	0.09016661
65	0x3d35eaf3	0.04441352
66	0xbdc48797	-0.09596174
67	0xbdc4a865	-0.09602431
68	0xbd4fa397	-0.05069312
69	0xbd115b04	-0.03548719
70	0xbd392345	-0.04519965
71	0xbbbb9b07	-0.005725268
72	0xbc78d196	-0.015186688
73	0x3da8372a	0.08213647
74	0xbd314734	-0.043280795
75	0x3d711251	0.05885536
76	0xbd237957	-0.03991064
77	0x3d20b9c1	0.03923965
78	0xbd25b929	-0.040459786
79	0xbdf3b69e	-0.11900066
80	0xbc95b084	-0.018272646
81	0xbce63878	-0.028103098
82	0xbd093cb0	-0.03350514
83	0xbda716a7	-0.081586175
84	0x3c5a1fe9	0.013313272
85	0xbd9f9f12	-0.07794012
86	0x3d6964c3	0.05698086
87	0xbdaf9bbc	-0.08574626
88	0xbd637ab1	-0.05553693
89	0x3da5b182	0.080904976
90	0xbc8ed1a7	-0.017433954
91	0xbcd7c6f8	-0.026339993
92	0xbe048d7a	-0.12944594
93	0xbde05357	-0.10953396
94	0xbd95f983	-0.07322981
95	0xbcc0b3f9	-0.023523318
96	0xbd329086	-0.04359486
97	0x3d94735c	0.072485656
98	0x3dd93d86	0.10607438
99	0xbe16ee5b	-0.14739363
100	0xbcee3355	-0.029077211
101	0x3d7a173f	0.061057325
102	0x3e379b1f	0.17930268
103	0x3db82f2d	0.08993373
104	0x3c7faf23	0.015605721
105	0xbd1efeed	-0.038817335
106	0xbe983888	-0.2973063
107	0x3dce6756	0.100783035
108	0xbd64bc98	-0.05584392
109	0xbd65e597	-0.056127157
110	0xbc921e20	-0.01783663
111	0xbd3afe01	-0.045652393
112	0x3e13342f	0.14375375
113	0x3d078717	0.033087816
114	0xbe0d736a	-0.13813558
115	0xbc48fd74	-0.012267459
116	0xbda80fb0	-0.08206117
117	0x3db1e166	0.086855695
118	0x3dd6d9d6	0.10490768
119	0x3d9007d3	0.07032742
120	0x3d4fa90d	0.05069833
121	0x3e417952	0.18893936
122	0x3e090be8	0.13383448
123	0xbd4a9440	-0.04945779
124	0xbd072704	-0.032996193
125	0x3e3b7d3c	0.18309492
126	0x3ddac902	0.106828704
127	0x3d3f01dd	0.046632636
128	0x3dce5bd8	0.100761116
129	0x3d8cf6f9	0.06883044
130	0x3d99932f	0.07498776
131	0x3db66f11	0.08907903
132	0x3c3e46eb	0.011613588
133	0xbdd77055	-0.105194725
134	0x3d52078d	0.051276732
135	0xbdc561ba	-0.096377805
136	0xbe12d8a9	-0.14340462
137	0xbe17715c	-0.14789337
138	0x3e287eaf	0.16454576
139	0x3bf32745	0.007420453
140	0xbd75f3bd	-0.0600469
141	0xbce083a1	-0.027406516
142	0x3dcf7cfa	0.10131259
143	0x3cf3582e	0.029705133
144	0x3db24315	0.08704201
145	0x3d7bbd22	0.061459668
146	0xbdf687ad	-0.12037597
147	0x3e9d15cb	0.3068069
148	0xbd9df377	-0.07712453
149	0xbe625ebb	-0.2210645
150	0x3bdbd8f8	0.0067092143
151	0x3c718618	0.014741443
152	0x3d1e5141	0.03865171
153	0xbe38f798	-0.180632
154	0x3d97222a	0.07379563
155	0xbe0670c5	-0.13128956
156	0x3db2b0da	0.08725138
157	0x3b052795	0.0020317782
158	0xbda3db99	-0.08000869
159	0xbbee08a4	-0.0072642136
160	0x3dbc4c3f	0.0919423
161	0xbd87f490	-0.066384435
162	0xbd0c3a78	-0.034235448
163	0x3d4f9cef	0.050686773
164	0x3d43b2a3	0.047777783
165	0xbd534ec5	-0.051588792
166	0x3ba7a911	0.00511659
167	0xbdf8442d	-0.121223785
168	0xbd9e2184	-0.07721236
169	0x3b9670eb	0.0045910976
170	0x3cdf18e0	0.027233541
171	0xbd81021d	-0.06299231
172	0x3d3b323b	0.0457022
173	0xbd60cbd0	-0.05488187
174	0x3d01fcc2	0.03173519
175	0xbd91cda2	-0.071192995
176	0xbd1705df	-0.036870833
177	0x3cc7a2f4	0.024369694
178	0xbe053307	-0.13007747
179	0x3d0175a8	0.031606346
180	0x3dcf0204	0.10107806
181	0xbcad6a8e	-0.021168973
182	0xbde5025b	-0.1118209
183	0x3bc1fb88	0.0059198774
184	0xbdbedf02	-0.09319879
185	0xbcf105ff	-0.029421804
186	0xbdfa4394	-0.12219921
187	0xbd0d56c7	-0.034506585
188	0xbd2b5ff0	-0.04183954
189	0x3d9708b6	0.07374708
190	0xbd2ba6b8	-0.041907042
191	0xbd1a6986	-0.03769829
192	0xbd090fdb	-0.033462387
193	0x3d9513c4	0.072791606
194	0xbc2d1307	-0.0105636185
195	0x3cf333d8	0.029687807
196	0xbce7e0d5	-0.02830545
197	0x3e2bc193	0.16773061
198	0x3e09741c	0.13423198
199	0x3d43936f	0.047748026
200	0x3d4826f5	0.048865277
201	0xbcf8283b	-0.03029262
202	0xbcf84433	-0.030305957
203	0x3d931ecf	0.07183611
204	0xbdc78287	-0.09741693
205	0x3e1b94ce	0.15193483
206	0xbc981a22	-0.018567149
207	0x3d647780	0.055778027
208	0xbd06e61f	-0.032934304
209	0x3d335ba2	0.04378856
210	0x3d8bb619	0.06821842
211	0xbce79257	-0.028268022
212	0x3cc1b161	0.023644151
213	0xbdb79443	-0.089638256
214	0x3e332d25	0.1749769
215	0xbdfb6976	-0.122759745
216	0x3bb8f6c5	0.0056446516
217	0xbd7454d1	-0.0596512
218	0x3d49180e	0.049095206
219	0x3c46801b	0.012115504
220	0x3d849a98	0.06474799
221	0xbc264f63	-0.010150763
222	0xbd574507	-0.052556064
223	0xbd19d3cf	-0.037555512
224	0xbc0fb864	-0.0087719895
225	0xbcb886f4	-0.022525288
226	0xbb3919ae	-0.0028244066
227	0xbd4861bf	-0.048921343
228	0xbe325332	-0.17414549
229	0x3d955b86	0.07292847
230	0x3d8bc21d	0.068241335
231	0xbdcbe839	-0.09956402
232	0xbb64610d	-0.0034847886
233	0xbe4f240b	-0.20228593
234	0xbd9016b0	-0.07035577
235	0xbc94780a	-0.018123645
236	0x3b7ebe49	0.0038870743
237	0xbd42742a	-0.047474064
238	0x3e05577c	0.13021654
239	0x3e0c0722	0.13674596
240	0xbcbf842d	-0.023378456
241	0xbd965eb9	-0.07342286
242	0x3e362f6b	0.17791526
243	0x3d68db00	0.05684948
244	0xbd161115	-0.036637384
245	0x3d517427	0.051136162
246	0x3d11dde7	0.035612013
247	0x3d7716b3	0.060324382
248	0xbcf267a2	-0.029590432
249	0x3e4c9a9d	0.19980855
250	0x3e1345b4	0.14382058
251	0x3e06371f	0.13106965
252	0x3e003afd	0.12522502
253	0x3cf7647b	0.03019928
254	0x3d3bbab4	0.04583235
255	0xbe198bbd	-0.14994712

network_body._body_endoder.seq_layers.0.bias f4 [128]
0	0x00000000	0.0
1	0x00000000	0.0
2	0x00000000	0.0
3	0x00000000	0.0
4	0x00000000	0.0
5	0x00000000	0.0
6	0x00000000	0.0
7	0x00000000	0.0
8	0x00000000	0.0
9	0x00000000	0.0
10	0x00000000	0.0
11	0x00000000	0.0
12	0x00000000	0.0
13	0x00000000	0.0
14	0x00000000	0.0
15	0x00000000	0.0
16	0x00000000	0.0
17	0x00000000	0.0
18	0x00000000	0.0
19	0x00000000	0.0
20	0x00000000	0.0
21	0x00000000	0.0
22	0x00000000	0.0
23	0x00000000	0.0
24	0x00000000	0.0
25	0x00000000	0.0
26	0x00000000	0.0
27	0x00000000	0.0
28	0x00000000	0.0
29	0x00000000	0.0
30	0x00000000	0.0
31	0x00000000	0.0
32	0x00000000	0.0
33	0x00000000	0.0
34	0x00000000	0.0
35	0x00000000	0.0
36	0x00000000	0.0
37	0x00000000	0.0
38	0x00000000	0.0
39	0x00000000	0.0
40	0x00000000	0.0
41	0x00000000	0.0
42	0x00000000	0.0
43	0x00000000	0.0
44	0x00000000	0.0
45	0x00000000	0.0
46	0x00000000	0.0
47	0x00000000	0.0
48	0x00000000	0.0
49	0x00000000	0.0
50	0x00000000	0.0
51	0x00000000	0.0
52	0x00000000	0.0
53	0x00000000	0.0
54	0x00000000	0.0
55	0x00000000	0.0
56	0x00000000	0.0
57	0x00000000	0.0
58	0x00000000	0.0
59	0x00000000	0.0
60	0x00000000	0.0
61	0x00000000	0.0
62	0x00000000	0.0
63	0x00000000	0.0
64	0x00000000	0.0
65	0x00000000	0.0
66	0x00000000	0.0
67	0x00000000	0.0
68	0x00000000	0.0
69	0x00000000	0.0
70	0x00000000	0.0
71	0x00000000	0.0
72	0x00000000	0.0
73	0x00000000	0.0
74	0x00000000	0.0
75	0x00000000	0.0
76	0x00000000	0.0
77	0x00000000	0.0
78	0x00000000	0.0
79	0x00000000	0.0
80	0x00000000	0.0
81	0x00000000	0.0
82	0x00000000	0.0
83	0x00000000	0.0
84	0x00000000	0.0
85	0x00000000	0.0
86	0x00000000	0.0
87	0x00000000	0.0
88	0x00000000	0.0
89	0x00000000	0.0
90	0x00000000	0.0
91	0x00000000	0.0
92	0x00000000	0.0
93	0x00000000	0.0
94	0x00000000	0.0
95	0x00000000	0.0
96	0x00000000	0.0
97	0x00000000	0.0
98	0x00000000	0.0
99	0x00000000	0.0
100	0x00000000	0.0
101	0x00000000	0.0
102	0x00000000	0.0
103	0x00000000	0.0
104	0x00000000	0.0
105	0x00000000	0.0
106	0x00000000	0.0
107	0x00000000	0.0
108	0x00000000	0.0
109	0x00000000	0.0
110	0x00000000	0.0
111	0x00000000	0.0
112	0x00000000	0.0
113	0x00000000	0.0
114	0x00000000	0.0
115	0x00000000	0.0
116	0x00000000	0.0
117	0x00000000	0.0
118	0x00000000	0.0
119	0x00000000	0.0
120	0x00000000	0.0
121	0x00000000	0.0
122	0x00000000	0.0
123	0x00000000	0.0
124	0x00000000	0.0
125	0x00000000	0.0
126	0x00000000	0.0
127	0x00000000	0.0

network_body._body_endoder.seq_layers.2.weight f4 [128, 128]
0	0xbcad618e	-0.021164682
1	0x3c973b80	0.018460989
2	0xbe0a133f	-0.13483904
3	0xbe4c2ef5	-0.19939788
4	0xbca0e263	-0.0196392
5	0xbdcc7be0	-0.09984565
6	0x3dbc9257	0.092075996
7	0xbbafefac	-0.0053691473
8	0x3d0ff5b7	0.03514644
9	0xbdfa7afc	-0.12230489
10	0xbc459ad2	-0.012060838
11	0x3d78cc10	0.060741484
12	0x3c1a1361	0.009404034
13	0x3d3e031e	0.04638969
14	0x3db875ea	0.09006865
15	0xbbec1d56	-0.0072056456
16	0xbdb3373c	-0.087507695
17	0x3ca31d3a	0.019911397
18	0xbcaab5cd	-0.020838642
19	0x3df06aaf	0.11739098
20	0x3cbbe31f	0.022935448
21	0xbc98639c	-0.018602185
22	0xbe39bd17	-0.18138538
23	0x3dafe367	0.085882954
24	0xbd2f4387	-0.04278901
25	0xbdbfc546	-0.09363799
26	0xbca892ae	-0.020577755
27	0x3ab495b1	0.0013777522
28	0x3d5e7f20	0.054320455
29	0xbdf40dca	-0.119166926
30	0x3c916365	0.01774759
31	0xbd6b1291	-0.057390753
32	0x3db06c12	0.08614363
33	0x3d0bf682	0.034170635
34	0xbdc35c55	-0.09539095
35	0x3dc0f829	0.09422333
36	0xbe117c33	-0.14207534
37	0x3dcefe9a	0.10107155
38	0x3d8cde05	0.06878284
39	0x3cf57d0f	0.02996686
40	0xbdc0703d	-0.09396408
41	0xbd19cde7	-0.03754988
42	0xbe011f14	-0.12609512
43	0xbd2da15c	-0.042390212
44	0xbd18ea3d	-0.037332762
45	0x3de5a4f9	0.11213107
46	0x3e127e4d	0.14305992
47	0xbd0894dd	-0.033345092
48	0xbdb0ae9b	-0.08627053
49	0x3d970e90	0.073758245
50	0xbdcda856	-0.10041873
51	0xbc8023d1	-0.015642079
52	0x3e0cf7ad	0.13766356
53	0x3e1bd5c9	0.15218271
54	0x3beda4b3	0.0072522997
55	0xbd2e3e61	-0.042539958
56	0x3d5deb3c	0.054179415
57	0x3d9903f0	0.07471454
58	0x3d969c74	0.0735406
59	0xbced8a9e	-0.028996762
60	0x3d63fec1	0.055662874
61	0x3e3728a4	0.17886597
62	0xbd96972b	-0.07353052
63	0xbe15f21d	-0.1464314
64	0x3d103b7d	0.035212982
65	0xbc0f09a7	-0.008730329
66	0xbda269da	-0.07930346
67	0x3d566b8d	0.052348662
68	0x3db2f788	0.08738619
69	0xbd320584	-0.04346229
70	0xbd110c66	-0.035412215
71	0xbd5f0c72	-0.05445523
72	0x3d88570d	0.066572286
73	0x3cf3e613	0.029772794
74	0xbd15d84e	-0.036583237
75	0xbc9ff264	-0.01952476
76	0xbba60dea	-0.0050675767
77	0xbd101036	-0.03517171
78	0xbdc039c4	-0.09386018
79	0xbdb89feb	-0.09014877
80	0xbe605213	-0.21906309
81	0x3d407e39	0.046995375
82	0xbd55ed8c	-0.052228495
83	0x3b995a6d	0.004679969
84	0x3d91a155	0.0711085
85	0x3de10ebf	0.10989141
86	0x3d85756f	0.06516539
87	0xbdf22a85	-0.11824516
88	0x3d673906	0.056450866
89	0xbd67f94d	-0.056634236
90	0xbdb4b0d0	-0.08822787
91	0xbcaa5609	-0.020792978
92	0x3dd87a24	0.105701715
93	0xbdb4f3ef	-0.08835589
94	0x3dc587a3	0.09645011
95	0xbd4c42ea	-0.0498685
96	0x3cc3bc67	0.023893548
97	0x3dd278a0	0.10276914
98	0x3e4a4b8a	0.19755378
99	0x3d5744c2	0.052555807
100	0xbe4dee61	-0.20110466
101	0x3d24e9b2	0.04026193
102	0x3e0ec5e0	0.13942671
103	0xbe769b36	-0.24082646
104	0x3dd5378b	0.104109846
105	0x3d321c87	0.043484237
106	0x3dcd2855	0.10017458
107	0x3dfc0625	0.123058595
108	0xbda63c73	-0.081169985
109	0x3e2e9c7e	0.17051885
110	0x3cb654ed	0.022257293
111	0xbdbdf2f6	-0.09274857
112	0xbc204fa0	-0.009784609
113	0x3dff49f6	0.12465279
114	0x3e373b53	0.17893724
115	0xbd826001	-0.063659675
116	0xbd932a76	-0.07185833
117	0xbdf3f840	-0.11912584
118	0xbce9a595	-0.028521338
119	0xbda5ed39	-0.08101887
120	0xbe00957b	-0.12557022
121	0x3dcfe687	0.101513915
122	0x3db005a2	0.085948244
123	0xbbb5b66d	-0.0055454285
124	0xbd4fe875	-0.050758798
125	0xbd3d1604	-0.046163574
126	0x3da387df	0.079849
127	0xbdc4c6ed	-0.096082546
128	0xbe2e1eb2	-0.17003897
129	0xbb8ecd6a	-0.0043579834
130	0x3d25b5c5	0.040456552
131	0xbe250442	-0.16114905
132	0x3dc4eee2	0.09615876
133	0xbd8b6416	-0.06806199
134	0x3e096244	0.13416392
135	0x3d98d33c	0.07462165
136	0xbd77623d	-0.06039642
137	0xbc1d9cef	-0.009619935
138	0xbcc661f7	-0.024216635
139	0x3d107368	0.03526631
140	0x3d2241e0	0.039613605
141	0x3e44a95c	0.1920523
142	0x3c98fef2	0.018676255
143	0xbd90576f	-0.07047927
144	0x3d3c9619	0.04604158
145	0x3d0166d0	0.03159219
146	0xbe20684b	-0.15664785
147	0x3d42243e	0.047397844
148	0xbb30556a	-0.002690638
149	0x3df06957	0.11738842
150	0x3dea5474	0.114418894
151	0xbe630cf7	-0.22172914
152	0xbd529e44	-0.051420465
153	0xbdc65d28	-0.09685737
154	0xbe93800b	-0.28808627
155	0x3c076767	0.008264399
156	0x3d282b30	0.04105681
157	0x3dbbaae9	0.09163458
158	0xbd078a7c	-0.033091053
159	0xbc91e67c	-0.017810099
160	0x3e1d55f6	0.15364823
161	0xbd157599	-0.036489103
162	0x3d921dbd	0.071345784
163	0x3d31e576	0.04343172
164	0xbc2d9973	-0.010595667
165	0x3c3acd30	0.01140146
166	0x3dc7a428	0.09748107
167	0x3d1cc02c	0.038269207
168	0x3dcda78c	0.10041723
169	0x3d241135	0.040055472
170	0xbd184954	-0.037179306
171	0x3e474ede	0.19463679
172	0x3da6c2aa	0.08142598
173	0x3e07ec45	0.13273723
174	0xbddf8721	-0.10914446
175	0x3dba24cf	0.09089052
176	0x3e78d9d0	0.24301839
177	0x3c6b9c24	0.014380489
178	0xbe1538c5	-0.14572437
179	0x3deb9405	0.11502842
180	0x3e0c5dc6	0.13707647
181	0xbd298217	-0.04138383
182	0xbdeee605	-0.116649665
183	0xbd387d02	-0.04504109
184	0x3c1c58df	0.009542673
185	0xbe1c7b3f	-0.1528139
186	0x3cf5ce51	0.030005606
187	0x3bf08f97	0.007341336
188	0xbc3cab18	-0.011515401
189	0x3d86cbff	0.06581878
190	0x3c4179d7	0.011808834
191	0x3d144e3a	0.036207415
192	0xbc97c3ca	-0.018525977
193	0xbd06fbf5	-0.03295513
194	0x3b1ba02d	0.0023746595
195	0x3b307b22	0.0026928862
196	0xbd7cb9bc	-0.061700568
197	0xbdb59165	-0.088656224
198	0xbd7c66dc	-0.06162153
199	0x3d035454	0.032062843
200	0x3e228e28	0.15874541
201	0xbd38978b	-0.045066398
202	0x3d452cb2	0.048138328
203	0x3e635c46	0.22203168
204	0x3e3c309b	0.18377917
205	0xbe13dd5d	-0.14439912
206	0x3dd72650	0.105053544
207	0xbc19b93a	-0.00938254
208	0x3d97f3ab	0.07419523
209	0x3d03ada3	0.032148015
210	0x3d3e5638	0.046468943
211	0xbdaeaefe	-0.08529471
212	0xbd8d9897	-0.0691387
213	0x3dbb604e	0.09149228
214	0xbdeb3a32	-0.11485709
215	0x3d8c092f	0.06837689
216	0xbe47fbb1	-0.19529606
217	0xbd85269a	-0.06501503
218	0xbd22d464	-0.039753333
219	0x3e333897	0.17502056
220	0x3d47c266	0.048769377
221	0x3d503e3b	0.050840598
222	0x3dea1366	0.11429481
223	0xbddc636e	-0.10761152
224	0x3dde747d	0.10862062
225	0x3c9cc9b7	0.019139154
226	0x3d0514e5	0.03249063
227	0x3da2aa94	0.079426914
228	0x3d0ab08e	0.033859782
229	0xbd07b0a3	-0.03312744
230	0xbc8aea81	-0.016957523
231	0xbd24600c	-0.04013066
232	0xbdac7877	-0.08421414
233	0x3db3b131	0.08774031
234	0xbd55ec96	-0.05222758
235	0xbe2082d4	-0.15674907
236	0xbc6bda81	-0.014395357
237	0x3d9f14c4	0.077676326
238	0x3df633cd	0.12021599
239	0x3cd15ced	0.025557006
240	0x3cdb512f	0.02677211
241	0x39b17c38	0.0003385262
242	0x3d7b73cf	0.06138974
243	0x3e0819ba	0.13291064
244	0x3e0433ca	0.12910381
245	0xbe00478b	-0.12527291
246	0x3df86465	0.12128524
247	0xbd44e902	-0.048073776
248	0xbd919334	-0.07108155
249	0x3e14e7d0	0.14541554
250	0x3d60db4f	0.05489665
251	0x3c17a871	0.009256468
252	0x3d8cd647	0.06876808
253	0x3b957205	0.0045607113
254	0xbdbb0985	-0.09132675
255	0xbdb07ae8	-0.086171925

network_body._body_endoder.seq_layers.2.bias f4 [128]
0	0x00000000	0.0
1	0x00000000	0.0
2	0x00000000	0.0
3	0x00000000	0.0
4	0x00000000	0.0
5	0x00000000	0.0
6	0x00000000	0.0
7	0x00000000	0.0
8	0x00000000	0.0
9	0x00000000	0.0
10	0x00000000	0.0
11	0x00000000	0.0
12	0x00000000	0.0
13	0x00000000	0.0
14	0x00000000	0.0
15	0x00000000	0.0
16	0x00000000	0.0
17	0x00000000	0.0
18	0x00000000	0.0
19	0x00000000	0.0
20	0x00000000	0.0
21	0x00000000	0.0
22	0x00000000	0.0
23	0x00000000	0.0
24	0x00000000	0.0
25	0x00000000	0.0
26	0x00000000	0.0
27	0x00000000	0.0
28	0x00000000	0.0
29	0x00000000	0.0
30	0x00000000	0.0
31	0x00000000	0.0
32	0x00000000	0.0
33	0x00000000	0.0
34	0x00000000	0.0
35	0x00000000	0.0
36	0x00000000	0.0
37	0x00000000	0.0
38	0x00000000	0.0
39	0x00000000	0.0
40	0x00000000	0.0
41	0x00000000	0.0
42	0x00000000	0.0
43	0x00000000	0.0
44	0x00000000	0.0
45	0x00000000	0.0
46	0x00000000	0.0
47	0x00000000	0.0
48	0x00000000	0.0
49	0x00000000	0.0
50	0x00000000	0.0
51	0x00000000	0.0
52	0x00000000	0.0
53	0x00000000	0.0
54	0x00000000	0.0
55	0x00000000	0.0
56	0x00000000	0.0
57	0x00000000	0.0
58	0x00000000	0.0
59	0x00000000	0.0
60	0x00000000	0.0
61	0x00000000	0.0
62	0x00000000	0.0
63	0x00000000	0.0
64	0x00000000	0.0
65	0x00000000	0.0
66	0x00000000	0.0
67	0x00000000	0.0
68	0x00000000	0.0
69	0x00000000	0.0
70	0x00000000	0.0
71	0x00000000	0.0
72	0x00000000	0.0
73	0x00000000	0.0
74	0x00000000	0.0
75	0x00000000	0.0
76	0x00000000	0.0
77	0x00000000	0.0
78	0x00000000	0.0
79	0x00000000	0.0
80	0x00000000	0.0
81	0x00000000	0.0
82	0x00000000	0.0
83	0x00000000	0.0
84	0x00000000	0.0
85	0x00000000	0.0
86	0x00000000	0.0
87	0x00000000	0.0
88	0x00000000	0.0
89	0x00000000	0.0
90	0x00000000	0.0
91	0x00000000	0.0
92	0x00000000	0.0
93	0x00000000	0.0
94	0x00000000	0.0
95	0x00000000	0.0
96	0x00000000	0.0
97	0x00000000	0.0
98	0x00000000	0.0
99	0x00000000	0.0
100	0x00000000	0.0
101	0x00000000	0.0
102	0x00000000	0.0
103	0x00000000	0.0
104	0x00000000	0.0
105	0x00000000	0.0
106	0x00000000	0.0
107	0x00000000	0.0
108	0x00000000	0.0
109	0x00000000	0.0
110	0x00000000	0.0
111	0x00000000	0.0
112	0x00000000	0.0
113	0x00000000	0.0
114	0x00000000	0.0
115	0x00000000	0.0
116	0x00000000	0.0
117	0x00000000	0.0
118	0x00000000	0.0
119	0x00000000	0.0
120	0x00000000	0.0
121	0x00000000	0.0
122	0x00000000	0.0
123	0x00000000	0.0
124	0x00000000	0.0
125	0x00000000	0.0
126	0x00000000	0.0
127	0x00000000	0.0

action_model._continuous_distribution.log_sigma f4 [1, 2]
0	0x00000000	0.0
1	0x00000000	0.0

action_model._continuous_distribution.mu.weight f4 [2, 128]
0	0xbc3720c3	-0.011177245
1	0xbbb18728	-0.005417723
2	0x3c00451a	0.007828975
3	0x3c137aff	0.0090014925
4	0xbcad02db	-0.021119526
5	0xbc1bf744	-0.009519402
6	0xbb3f7643	-0.0029214777
7	0xbc78d5bf	-0.01518768
8	0xbca86852	-0.020557556
9	0xbcb62d8a	-0.022238512
10	0xbccb94f5	-0.024851302
11	0xbc82a707	-0.015948785
12	0xba6ff7e2	-0.0009154064
13	0xbcb4ea56	-0.022084396
14	0xbcaf3aa7	-0.021390272
15	0xbc341437	-0.010991148
16	0xbd0741de	-0.0330218
17	0xbc60bfaa	-0.013717571
18	0x3bfd0a1d	0.007722153
19	0x3d0e03f6	0.034671746
20	0x3c4216f7	0.011846296
21	0xbcc90433	-0.024538135
22	0xba9af2c3	-0.0011821616
23	0xbcc90fc6	-0.024543654
24	0x3b696bbf	0.00356172
25	0x3c36bedc	0.011153903
26	0x3b88c2e3	0.004173623
27	0xb946ad18	-0.00018947234
28	0x3b312983	0.00270328
29	0x3c7c7dd0	0.015410855
30	0xbd0247bf	-0.031806704
31	0x39a1b576	0.00030843512
32	0xbc5796ab	-0.013158481
33	0x3c44ee60	0.012019724
34	0xbca5cc5f	-0.020239053
35	0x3bbed703	0.0058239712
36	0x3b756195	0.0037442197
37	0x3bdfaf4b	0.0068263165
38	0xbc819aac	-0.015820824
39	0xbc30a090	-0.010780469
40	0x3c3b64fb	0.01143765
41	0x3cff56ba	0.031169284
42	0x3c36a453	0.011147576
43	0xba16b882	-0.00057495397
44	0xbc8409f3	-0.016118025
45	0xbc82c8e9	-0.015964942
46	0xba451c1b	-0.00075191417
47	0x3ca72070	0.02040121
48	0x3cc80888	0.02441813
49	0x3d02869d	0.03186666
50	0xbd0beab8	-0.034159392
51	0xbc902a96	-0.017598432
52	0x3c777d93	0.015105623
53	0xbcf236dd	-0.029567176
54	0xbccbeace	-0.024892237
55	0xbb87faf3	-0.0041497885
56	0x3c85a72c	0.016315065
57	0xbd2dd9bd	-0.04244398
58	0x3b1fb1bb	0.002436741
59	0xbc66aa83	-0.014078739
60	0x3c843fc7	0.016143693
61	0xbbfc4e45	-0.00769976
62	0xbac494e3	-0.0014997985
63	0xbc13d500	-0.009022951
64	0xbbe1f7ba	-0.0068959864
65	0xbc4d7f48	-0.012542553
66	0xbcb6b6e9	-0.022304015
67	0x3c9b67bd	0.018970365
68	0xb9c14c7c	-0.00036868814
69	0xbca5222a	-0.020157892
70	0xbbbf2d0f	-0.005834229
71	0x3cecb037	0.02889262
72	0xb9784b67	-0.00023679213
73	0xbb6a9583	-0.0035794682
74	0xbc9c398b	-0.019070407
75	0xbcb9b520	-0.022669375
76	0x3c159963	0.0091308085
77	0xbcf92a5f	-0.030415712
78	0xbd0bd867	-0.034141924
79	0x3c7bd232	0.015369939
80	0xbc893b4f	-0.016751913
81	0x3c782c3b	0.015147264
82	0xbc9bf6f4	-0.019038655
83	0x3c6c4c4a	0.014422486
84	0x379fc27b	1.9044839e-05
85	0xbb923858	-0.004462283
86	0x3bb8881c	0.00563146
87	0xbd22dac0	-0.039759398
88	0xbc5045e8	-0.012711979
89	0x3d014085	0.03155567
90	0xbc3eb05e	-0.011638729
91	0xbc24171f	-0.010015278
92	0xbb7e40ef	-0.0038796028
93	0xbd2239af	-0.039605793
94	0x3b0060a2	0.0019588848
95	0x3ab6c10a	0.0013943028
96	0x3d040042	0.03222681
97	0x3bd44688	0.0064781345
98	0xbaf9f11d	-0.001906905
99	0xbc76a9aa	-0.0150550995
100	0xbb8b6880	-0.0042544007
101	0xbca72aaf	-0.020406095
102	0xbc39ec62	-0.011347862
103	0xbb5eeb38	-0.0034014713
104	0xbb2f6634	-0.0026763799
105	0xbc0650c9	-0.008197972
106	0x3b392fee	0.0028257328
107	0xbc8f7c90	-0.01751545
108	0xbbf53090	-0.0074825957
109	0x39e6a83a	0.00043994357
110	0x3cd9566d	0.026530469
111	0xbb0238cb	-0.0019870277
112	0xbc794cb5	-0.015216042
113	0x3c841390	0.01612261
114	0x3c0da028	0.008644141
115	0xbc40c4d8	-0.011765681
116	0xbc9c515b	-0.019081762
117	0x380476b7	3.1581814e-05
118	0xbc994a2c	-0.018712126
119	0x3c65a75f	0.014016955
120	0x3ccbc6a9	0.024875002
121	0xbb6c1208	-0.003602149
122	0x3c33d3f7	0.010975829
123	0xbac39fc0	-0.0014924929
124	0x3c6660ab	0.014061133
125	0xbb33b177	-0.002741901
126	0xbc52c3f2	-0.0128641
127	0xbc8fa9e0	-0.017537057
128	0x3baa8158	0.0052034073
129	0xb9e6d7e2	-0.00044029864
130	0x3c591893	0.013250488
131	0x3c976751	0.018481882
132	0xbb3fd2fa	-0.002927004
133	0xbd057ed8	-0.03259167
134	0x3c8833d5	0.016626278
135	0x3ccec72b	0.025241455
136	0x3c17fa33	0.009275961
137	0xbb7e80d0	-0.0038834102
138	0xba8fc97f	-0.0010970085
139	0xbccd0a32	-0.025029276
140	0x3cfeff25	0.031127522
141	0x3a5492e7	0.00081090484
142	0x3b519f75	0.0031985913
143	0xbc1e0cf4	-0.009646643
144	0xbc1d29db	-0.009592499
145	0xbc597432	-0.013272332
146	0x3c86b4a7	0.016443564
147	0x3c4f6a43	0.012659612
148	0x3bacde8c	0.005275553
149	0x3ba25c93	0.0049548834
150	0xbbe11158	-0.0068685226
151	0xbc3a6694	-0.011376996
152	0xbc2d337c	-0.010571357
153	0xbbb63e58	-0.005561631
154	0xbb161dfc	-0.0022906056
155	0x3cbdb3d1	0.023157032
156	0xba9d17e6	-0.0011985272
157	0xbaa157d1	-0.0012309497
158	0xbb9cf4fa	-0.0047899457
159	0xbcf1a640	-0.02949822
160	0xbb3d39bf	-0.002887353
161	0x3b101a28	0.0021988247
162	0xbcb8f5b2	-0.022578094
163	0x3c097fc6	0.00839228
164	0x3c4cbd8b	0.012496362
165	0x3d010042	0.031494386
166	0xbc8550fc	-0.016273968
167	0xbb98fff6	-0.004669185
168	0xbabe918e	-0.0014539228
169	0xba8041ab	-0.0009785196
170	0x3c83b3f6	0.016077023
171	0x3bfa8c3b	0.0076461113
172	0x3c803c0b	0.01565363
173	0xbc304731	-0.010759161
174	0xbcaa6637	-0.020800693
175	0x3c4baa21	0.012430699
176	0xbc6c7477	-0.014432064
177	0xbb5c335b	-0.0033599946
178	0x3cca65cb	0.024706742
179	0x3b92c8c9	0.004479502
180	0x3b6f8c6f	0.003655221
181	0x3ca15af6	0.019696694
182	0x3cb08e0c	0.021552108
183	0x3c81f8ae	0.01586565
184	0x396650fd	0.0002196468
185	0x3b072c6c	0.0020625843
186	0x3cc9e917	0.024647279
187	0xbc847678	-0.016169772
188	0xbc2f394b	-0.010694812
189	0xbd0341bc	-0.03204511
190	0x3b4d08c0	0.0031285733
191	0xbbc50aa4	-0.0060132314
192	0x3c0388ca	0.0080282185
193	0x3ca06e7f	0.019583939
194	0x3cd0bf58	0.025481865
195	0xbc931d08	-0.01795818
196	0x3cad5901	0.021160604
197	0x3c3c9cb3	0.011511969
198	0x3b6471a3	0.0034857772
199	0xbb70cdd2	-0.0036743772
200	0xbb84f156	-0.00405709
201	0x3cd763f8	0.026292786
202	0xbc02dbcc	-0.007986974
203	0xbc108842	-0.008821549
204	0x3b885bd1	0.004161336
205	0x3d004802	0.031318672
206	0xbcc21da8	-0.023695782
207	0x3c5b82b8	0.013397865
208	0x3c0f4692	0.008744853
209	0xbaf06370	-0.0018340182
210	0x3d17d19e	0.03706514
211	0x3cc59137	0.024117095
212	0xbcbd4a97	-0.023106856
213	0x3ba23449	0.0049500805
214	0xbc325e9b	-0.0108868135
215	0x3c87d401	0.016580584
216	0xbc170cf7	-0.0092194
217	0x3b123c37	0.0022313723
218	0x3cd38a8d	0.025822902
219	0x3bd57e07	0.006515268
220	0xbcbbbddf	-0.022917686
221	0x3cbdecff	0.023184298
222	0x3bba7490	0.005690165
223	0x3cf99263	0.03046531
224	0x3cece308	0.02891685
225	0xbc632da3	-0.013865861
226	0x3d194f57	0.03742918
227	0x39c2ed43	0.00037179337
228	0xbc113a1d	-0.008863953
229	0xbc91cba4	-0.017797299
230	0xbae109fd	-0.0017169114
231	0xbc4d5c63	-0.012534234
232	0x3cb431ce	0.021996405
233	0xbbc20800	-0.005921364
234	0xbba3bc2f	-0.0049967985
235	0xbb51e937	-0.0032029876
236	0x3b88d11c	0.0041753184
237	0x3ca7f572	0.02050278
238	0xbc75696f	-0.014978751
239	0x3c166d1a	0.009181285
240	0x3ac5d5ea	0.0015093659
241	0x3c566b63	0.013087126
242	0x3c945786	0.01810814
243	0x3b958a2e	0.0045635914
244	0xbc6c31fb	-0.014416213
245	0xbc84495f	-0.016148267
246	0xbc742b72	-0.014902936
247	0x39e19d8a	0.0004303272
248	0x3c4f5f35	0.0126569765
249	0x3cd47045	0.02593244
250	0xbc1d842e	-0.009614034
251	0xbc1a5bee	-0.009421332
252	0xbca3b97f	-0.019985912
253	0x3c1bfeeb	0.009521226
254	0xbca8007d	-0.020508045
255	0x3c83c66f	0.016085831

action_model._continuous_distribution.mu.bias f4 [2]
0	0x00000000	0.0
1	0x00000000	0.0

network_body._body_endoder.seq_layers.0.weight f4 [128, 136]
0	0xbd93cb4f	-0.072165124
1	0x3d202342	0.039096124
2	0xbd65b7bf	-0.056083437
3	0x3dd5544b	0.10416468
4	0x3dcacc1f	0.09902214
5	0xbd83f952	-0.064440385
6	0x3adfdcd1	0.0017079358
7	0xbccd9569	-0.025095658
8	0xbd372080	-0.04470873
9	0xbbd64595	-0.0065390565
10	0x3d93df43	0.07220318
11	0x3e08cc4e	0.13359186
12	0xbd1f1484	-0.038837925
13	0x3ca34c30	0.01993379
14	0xbb54c6d5	-0.0032467146
15	0x3e1728e5	0.14761694
16	0x3cdac9c2	0.026707534
17	0x3e03963f	0.12850283
18	0xbcf36a76	-0.02971385
19	0x3db1b885	0.086777724
20	0xbe2c32a6	-0.16816196
21	0x3d8c0ffc	0.06838986
22	0x3dafe3e3	0.08588388
23	0x3e25e576	0.16200814
24	0x3d73deab	0.059538525
25	0xbdca1cf2	-0.09868802
26	0xbccabb82	-0.024747614
27	0x3db8e7c1	0.090285785
28	0x3e3b07aa	0.18264642
29	0xbd84f156	-0.06491344
30	0x3e29b7e4	0.16574055
31	0xbcf72751	-0.030170115
32	0x3dcfa08d	0.101380445
33	0x3d091337	0.03346559
34	0xbd1b5c13	-0.037929606
35	0xbd91cf03	-0.071195625
36	0xbdefb267	-0.117039494
37	0xbd94cb58	-0.07265347
38	0xbe5a3cbb	-0.2131223
39	0x3d8b2ed8	0.06796044
40	0x3dab4a4d	0.08363781
41	0xbcf0ff92	-0.02941874
42	0x3cc20a55	0.023686567
43	0xbd9ea0c7	-0.077455096
44	0x3d822a69	0.06355745
45	0x3d3b849c	0.045780763
46	0x3db1d5d5	0.08683363
47	0x3dacfd67	0.0844677
48	0xbc06f596	-0.008237263
49	0xbd31155b	-0.043233257
50	0x3dc4cc5c	0.09609291
51	0x3dfd2eb2	0.12362422
52	0xbdae92e9	-0.08524115
53	0xbdbf1bb3	-0.09331455
54	0xbd6ed8df	-0.058312293
55	0x3da6e0e6	0.08148365
56	0xbaf75ece	-0.0018872858
57	0xbcb744ed	-0.022371734
58	0xbcd63924	-0.026150294
59	0xbc13b469	-0.009015181
60	0xbbbd2956	-0.00577275
61	0x3d83a9e5	0.06428889
62	0xbc80744d	-0.015680457
63	0x3dd53cfb	0.10412022
64	0xbca7f112	-0.020500693
65	0x3e21c04a	0.15796009
66	0x3bac5586	0.0052592186
67	0x3d5d3df5	0.054014165
68	0x3da1c6c0	0.07899237
69	0xbdab4af0	-0.083639026
70	0x3dcfbeff	0.101438515
71	0xbc78ea5b	-0.015192593
72	0xbd9eb172	-0.07748689
73	0x3d9f276a	0.077711895
74	0x3c16008b	0.009155403
75	0xbc40adb1	-0.011760161
76	0x3d9e9ee4	0.0774515
77	0x3e12d0d8	0.1433748
78	0x3a9294e0	0.0011183284
79	0x3cb5ea01	0.022206308
80	0xbdba1e48	-0.09087807
81	0xbd9dbb3b	-0.07701727
82	0x3d359ae3	0.044337165
83	0xbce3ce7f	-0.027808426
84	0xbd71a379	-0.05899379
85	0x3d978ab6	0.07399504
86	0x3cffdaff	0.031232355
87	0xbd612b81	-0.05497313
88	0x3d684a6e	0.056711607
89	0xbde3232a	-0.110906914
90	0xbd59de63	-0.0531906
91	0xbdbec477	-0.093148164
92	0x3d2b8935	0.041878898
93	0xbd9dc9db	-0.077045165
94	0xbe173abc	-0.14768499
95	0xbccbff12	-0.0249019
96	0xbe0ecae7	-0.13944589
97	0xbd078980	-0.033090115
98	0x3c915b57	0.01774375
99	0xbdd08f9d	-0.10183642
100	0x3d8d531c	0.069006175
101	0xbd0e8781	-0.034797195
102	0x3d7a2e41	0.061079267
103	0x3c60ecf7	0.013728372
104	0x3cb63678	0.02224277
105	0xbd7e3f8b	-0.062072318
106	0xba8044dc	-0.0009786147
107	0x3e1a3e22	0.15062764
108	0x3e35fa47	0.17771254
109	0x3d87534e	0.06607686
110	0x3c9ce0f2	0.019150231
111	0xbca9acec	-0.020712338
112	0xbde968bd	-0.1139693
113	0xbd683875	-0.056694467
114	0xbd9e65c9	-0.07734258
115	0x3d774c0c	0.06037526
116	0x3db245db	0.0870473
117	0x3d237462	0.039905913
118	0xbcfbdcd6	-0.030744951
119	0xbe74ec2d	-0.23918219
120	0x3d597b49	0.05309609
121	0xbddc7c25	-0.10765866
122	0x3d8fd533	0.070230864
123	0x3da1eb32	0.07906188
124	0x3ceb5814	0.028728522
125	0xbd2be535	-0.041966636
126	0x3d067cab	0.032833736
127	0xbd90d97b	-0.07072731
128	0x3d3931b5	0.04521342
129	0xbd89666a	-0.06708987
130	0xbcefe66d	-0.02928468
131	0x3e7b9833	0.24569778
132	0x3e01bd8e	0.12669966
133	0xbcf78db4	-0.030218937
134	0xbd99b97e	-0.07506083
135	0xbd04af4c	-0.03239374
136	0xbd46f3b8	-0.048572272
137	0x3a1cd265	0.0005982279
138	0xbbd58658	-0.006516259
139	0x3c8e3445	0.017358908
140	0xbdfc42c1	-0.1231742
141	0x3de0efad	0.109832145
142	0x3d72d4c5	0.059284944
143	0x3e1eb5e2	0.1549907
144	0x3d9e83ba	0.077399686
145	0x3ccdee28	0.025137976
146	0x3d0a85ff	0.033819195
147	0xbc27fd85	-0.010253315
148	0xbcaa819b	-0.020813754
149	0x3e01f458	0.12690866
150	0xbca46759	-0.020068811
151	0x3d19842a	0.037479557
152	0xbd0965a6	-0.033544205
153	0xbd0e8686	-0.03479626
154	0x3c961db0	0.018324703
155	0xbe157a55	-0.14597447
156	0xbd341afd	-0.04397105
157	0x3cb25224	0.021767683
158	0x3d3eb338	0.046557635
159	0x3e25f1c0	0.16205502
160	0x3e00c422	0.12574819
161	0xbde5a3dc	-0.11212894
162	0xbd9a5841	-0.07536364
163	0xbba77650	-0.0051105395
164	0xbe12b9dd	-0.14328714
165	0x3c36ffd9	0.011169397
166	0x3c1f9137	0.009739212
167	0xbdf89441	-0.12137652
168	0xbd898fec	-0.06716904
169	0xbdb4a5f8	-0.088207185
170	0x3d5e4793	0.054267477
171	0xbe012599	-0.12611999
172	0x3e5434c4	0.20723253
173	0xbd8e4440	-0.069466114
174	0x3dff811d	0.12475798
175	0x3dc5b893	0.09654345
176	0x3d9fd28b	0.0780383
177	0xbd2689c2	-0.04065872
178	0xbc39810d	-0.011322272
179	0xba9539b5	-0.0011384996
180	0x3d071485	0.032978553
181	0xbe175d90	-0.14781785
182	0x3ced2482	0.028948072
183	0xbdea1711	-0.11430181
184	0xbd8fb174	-0.070162684
185	0x3e58a92c	0.21158284
186	0x3d8f6e4c	0.07003459
187	0xbd7f3dab	-0.06231467
188	0xbd215242	-0.039385088
189	0xbd223469	-0.039600763
190	0x3da5d3da	0.08097048
191	0xbdb91425	-0.090370454
192	0xbced069f	-0.028933821
193	0x3bc9ce8d	0.006158656
194	0x3cbdae0f	0.023154287
195	0x3e2203ca	0.15821758
196	0xbcb8c7eb	-0.022556266
197	0x3d81a929	0.06331093
198	0x3e0d8a1c	0.13822216
199	0xbd7e066a	-0.062017836
200	0x3dce602f	0.10076939
201	0xbe0ae4d3	-0.13563852
202	0x3e4936a8	0.19649756
203	0xbdf23cd8	-0.11828011
204	0xbe29c9ca	-0.16580883
205	0xbd6b173c	-0.057395205
206	0xbd9e99b1	-0.07744158
207	0xbbe160b6	-0.006877984
208	0xbc947d09	-0.018126028
209	0x3d08d168	0.03340283
210	0xbdaa99f8	-0.083301485
211	0x3cafa724	0.021442004
212	0xbdbc44d5	-0.09192816
213	0x3e4e4ff4	0.20147687
214	0xbc43e280	-0.011955857
215	0xbd65737b	-0.056018334
216	0x3d718b5e	0.0589708
217	0x3d02d946	0.03194549
218	0x3d4400d7	0.047852363
219	0xbd29280f	-0.04129797
220	0x3da7d99e	0.08195804
221	0x3d12282f	0.035682853
222	0xbc97b03b	-0.01851665
223	0xbdb2e9d9	-0.08736009
224	0x3d0ea668	0.034826666
225	0x3da8a41d	0.08234427
226	0xbd0e3893	-0.034721922
227	0xbd96afa0	-0.073577166
228	0xbdca4e74	-0.09878245
229	0xbdcae553	-0.099070214
230	0xbca502cb	-0.020142933
231	0xbd30987d	-0.043114174
232	0x3e36032f	0.17774652
233	0x3d5b9d78	0.05361697
234	0xbe48be91	-0.19603945
235	0xbe310f8d	-0.17291088
236	0x3e66b4dc	0.2252993
237	0x3d77eff9	0.06053159
238	0xbd892a05	-0.06697468
239	0x3dcfb8bf	0.101426594
240	0xbd858d90	-0.065211415
241	0xbcc16a90	-0.023610383
242	0xbd22a349	-0.039706502
243	0x3cbb60e7	0.022873355
244	0xbd57a716	-0.05264958
245	0x3cf5ddb6	0.030012947
246	0xbd8df345	-0.069311656
247	0xbca315d0	-0.019907862
248	0xbe0b82e9	-0.13624157
249	0x3e08701a	0.13324013
250	0x3dda1cd3	0.10650029
251	0x3e622b23	0.22086768
252	0x3d60ea8c	0.05491118
253	0xbdfca33f	-0.12335824
254	0x3e088878	0.13333309
255	0xbd447b7c	-0.047969326

network_body._body_endoder.seq_layers.0.bias f4 [128]
0	0x00000000	0.0
1	0x00000000	0.0
2	0x00000000	0.0
3	0x00000000	0.0
4	0x00000000	0.0
5	0x00000000	0.0
6	0x00000000	0.0
7	0x00000000	0.0
8	0x00000000	0.0
9	0x00000000	0.0
10	0x00000000	0.0
11	0x00000000	0.0
12	0x00000000	0.0
13	0x00000000	0.0
14	0x00000000	0.0
15	0x00000000	0.0
16	0x00000000	0.0
17	0x00000000	0.0
18	0x00000000	0.0
19	0x00000000	0.0
20	0x00000000	0.0
21	0x00000000	0.0
22	0x00000000	0.0
23	0x00000000	0.0
24	0x00000000	0.0
25	0x00000000	0.0
26	0x00000000	0.0
27	0x00000000	0.0
28	0x00000000	0.0
29	0x00000000	0.0
30	0x00000000	0.0
31	0x00000000	0.0
32	0x00000000	0.0
33	0x00000000	0.0
34	0x00000000	0.0
35	0x00000000	0.0
36	0x00000000	0.0
37	0x00000000	0.0
38	0x00000000	0.0
39	0x00000000	0.0
40	0x00000000	0.0
41	0x00000000	0.0
42	0x00000000	0.0
43	0x00000000	0.0
44	0x00000000	0.0
45	0x00000000	0.0
46	0x00000000	0.0
47	0x00000000	0.0
48	0x00000000	0.0
49	0x00000000	0.0
50	0x00000000	0.0
51	0x00000000	0.0
52	0x00000000	0.0
53	0x00000000	0.0
54	0x00000000	0.0
55	0x00000000	0.0
56	0x00000000	0.0
57	0x00000000	0.0
58	0x00000000	0.0
59	0x00000000	0.0
60	0x00000000	0.0
61	0x00000000	0.0
62	0x00000000	0.0
63	0x00000000	0.0
64	0x00000000	0.0
65	0x00000000	0.0
66	0x00000000	0.0
67	0x00000000	0.0
68	0x00000000	0.0
69	0x00000000	0.0
70	0x00000000	0.0
71	0x00000000	0.0
72	0x00000000	0.0
73	0x00000000	0.0
74	0x00000000	0.0
75	0x00000000	0.0
76	0x00000000	0.0
77	0x00000000	0.0
78	0x00000000	0.0
79	0x00000000	0.0
80	0x00000000	0.0
81	0x00000000	0.0
82	0x00000000	0.0
83	0x00000000	0.0
84	0x00000000	0.0
85	0x00000000	0.0
86	0x00000000	0.0
87	0x00000000	0.0
88	0x00000000	0.0
89	0x00000000	0.0
90	0x00000000	0.0
91	0x00000000	0.0
92	0x00000000	0.0
93	0x00000000	0.0
94	0x00000000	0.0
95	0x00000000	0.0
96	0x00000000	0.0
97	0x00000000	0.0
98	0x00000000	0.0
99	0x00000000	0.0
100	0x00000000	0.0
101	0x00000000	0.0
102	0x00000000	0.0
103	0x00000000	0.0
104	0x00000000	0.0
105	0x00000000	0.0
106	0x00000000	0.0
107	0x00000000	0.0
108	0x00000000	0.0
109	0x00000000	0.0
110	0x00000000	0.0
111	0x00000000	0.0
112	0x00000000	0.0
113	0x00000000	0.0
114	0x00000000	0.0
115	0x00000000	0.0
116	0x00000000	0.0
117	0x00000000	0.0
118	0x00000000	0.0
119	0x00000000	0.0
120	0x00000000	0.0
121	0x00000000	0.0
122	0x00000000	0.0
123	0x00000000	0.0
124	0x00000000	0.0
125	0x00000000	0.0
126	0x00000000	0.0
127	0x00000000	0.0

network_body._body_endoder.seq_layers.2.weight f4 [128, 128]
0	0xbce641d0	-0.028107554
1	0xbc47d24f	-0.012196138
2	0xbd024fbc	-0.031814322
3	0xbd30edb4	-0.04319544
4	0xbd54b631	-0.051931564
5	0x3dea5abd	0.11443088
6	0xbae1b9b9	-0.0017221487
7	0xbd6ac620	-0.057317853
8	0x3ddf1f38	0.108946264
9	0xbdf9e518	-0.12201899
10	0xbe4a5909	-0.19760527
11	0xbd3a066e	-0.045416288
12	0xbd7951c7	-0.060869005
13	0x3ca0fe5f	0.019652544
14	0xbe751cdb	-0.23936789
15	0x3d814581	0.06312085
16	0x3dc62ff7	0.09677117
17	0xbb5cbb51	-0.0033680985
18	0xba967393	-0.0011478536
19	0x3da27c98	0.079339206
20	0x3d155a4f	0.036463078
21	0x3d2613f2	0.040546365
22	0x3e26098f	0.16214584
23	0x3e0abeb9	0.13549317
24	0x3c15053a	0.009095484
25	0xbd85592d	-0.065111496
26	0xbdc1032a	-0.094244316
27	0x3c8194d5	0.015818039
28	0xba7a39e7	-0.0009545371
29	0xbd75bdb0	-0.059995353
30	0xbd88466a	-0.066540554
31	0x3d967c34	0.073479086
32	0xbe635204	-0.22199255
33	0x3af91ee0	0.0019006394
34	0x3e5bfe27	0.2148367
35	0xbd81867e	-0.063244805
36	0xbe06ae94	-0.13152534
37	0x3d10eb0a	0.0353804
38	0xbe8559f0	-0.2604518
39	0x3da4ab5c	0.08040497
40	0x3df4aa43	0.11946537
41	0x3da484cf	0.08033144
42	0x3c27066c	0.010194402
43	0x3d886e43	0.06661656
44	0xbdaebcf0	-0.08532131
45	0xbda92c5a	-0.082604125
46	0x3cf427c1	0.029804112
47	0xbd587210	-0.052843153
48	0x3cf652f3	0.03006885
49	0xbbd90b7d	-0.006623684
50	0xbb1aed98	-0.0023640152
51	0xbd826306	-0.063665435
52	0xbde35f1e	-0.111021265
53	0xbe33b220	-0.17548418
54	0xbcf0f790	-0.029414922
55	0xbcdba25a	-0.026810814
56	0x3d982b6c	0.07430157
57	0x3bb0d098	0.00539596
58	0xbde76d29	-0.113001175
59	0x3c2e6f20	0.010646611
60	0xbdb68fe7	-0.08914166
61	0x3cecf430	0.028925031
62	0x3d05c57c	0.03265904
63	0x3d6fb396	0.058520876
64	0xbd7fdf54	-0.06246884
65	0xbdeb3ec5	-0.11486582
66	0xbe2e7052	-0.17035034
67	0x3c1870c6	0.009304231
68	0x3e0df8da	0.1386446
69	0xbde97e4c	-0.11401042
70	0xbd73091f	-0.05933487
71	0xbcaef436	-0.021356683
72	0x3e36df80	0.17858696
73	0x3d767148	0.060166627
74	0x3d8356cb	0.06413039
75	0xbd106fa6	-0.035262726
76	0x3df55a2f	0.11980092
77	0xbdec86a8	-0.11549121
78	0x3dd3f0e0	0.10348678
79	0xbdf551ba	-0.11978479
80	0x3d6d3b39	0.057917807
81	0x3de78cea	0.11306174
82	0xbcd9a3f7	-0.026567442
83	0x3df4217e	0.11920451
84	0xbe38a15a	-0.180303
85	0x3e300d36	0.1719254
86	0x3d6ebf9c	0.0582882
87	0xbded6afd	-0.11592672
88	0xbd4b57de	-0.049644344
89	0xbe16d87a	-0.14731017
90	0x3e1f30cc	0.15545958
91	0xbd2bc428	-0.041935116
92	0xbdd60023	-0.10449245
93	0xbd3ece32	-0.046583362
94	0xbda43190	-0.08017266
95	0x3d6f35d8	0.05840096
96	0xbd020fa1	-0.031753186
97	0x3b9f530c	0.004862195
98	0x3e569159	0.20953883
99	0x3e271208	0.16315472
100	0x3baddba6	0.005305725
101	0x3df84b16	0.121236965
102	0xbe3ea86d	-0.18618937
103	0x3db633d5	0.08896605
104	0x3c3756ce	0.011190129
105	0xbd5ae16f	-0.053437646
106	0xbc89c249	-0.016816275
107	0xbd2c164c	-0.04201345
108	0x3dd3e4c7	0.1034637
109	0x3c98d980	0.0186584
110	0x3cddcc1f	0.027074872
111	0x3d4780d9	0.048706863
112	0x3dbd2a08	0.092365324
113	0xbc9024f5	-0.017595747
114	0xbda9f188	-0.082980216
115	0xbe20f8db	-0.15719931
116	0xbcba40ae	-0.02273592
117	0x3ddacad5	0.106832184
118	0x3de5a187	0.112124495
119	0x3d845637	0.06461757
120	0x3d99721a	0.07492466
121	0xbd73f139	-0.05955622
122	0x3d0896fc	0.033347115
123	0x3c26a5a5	0.010171329
124	0xbe5279ee	-0.20554325
125	0xbde4fa28	-0.11180526
126	0x3b959097	0.0045643556
127	0xbe5bc16a	-0.214605
128	0x3da5f501	0.081033714
129	0x3c711a11	0.014715687
130	0xbc941058	-0.0180742
131	0xbd833b0a	-0.06407745
132	0x3cf6f7f1	0.030147525
133	0x3e0acf8c	0.13555735
134	0xbd46089e	-0.04834806
135	0xbdc49a78	-0.09599775
136	0xbde9fd34	-0.11425248
137	0xbd9cdebf	-0.07659673
138	0xbe219382	-0.15778926
139	0xbdf585ff	-0.11988448
140	0x3dddaee9	0.10824377
141	0xbe123873	-0.14279346
142	0x3d2d430e	0.042300276
143	0x3cff6b34	0.031179048
144	0x3de28ba2	0.11061789
145	0xbd6c95b2	-0.057759948
146	0x3cd882d0	0.026429564
147	0xbd897449	-0.06711633
148	0x3d03b8e7	0.03215876
149	0x3da29d6d	0.07940183
150	0x3db63a75	0.088978685
151	0xbd0fe37b	-0.03512905
152	0xbd7deb2a	-0.061991848
153	0xbc2936d0	-0.01032801
154	0x3e3441cf	0.17603229
155	0xbdf61f21	-0.12017656
156	0xbde498fe	-0.111619934
157	0x3d0fcfbe	0.035110228
158	0x3da39615	0.0798761
159	0xbd8d9ebb	-0.06915041
160	0x3e0a1d00	0.13487625
161	0x3c102235	0.008797218
162	0xbdb9771c	-0.090559214
163	0x3c5766b0	0.013147041
164	0x3d623f3b	0.055236083
165	0xbbe02c4d	-0.0068412186
166	0x3d0dbb5e	0.034602515
167	0x3e133b75	0.1437815
168	0x3cd87dd7	0.026427193
169	0xbdca1c68	-0.09868699
170	0xbd86cb66	-0.06581764
171	0x3cf2baf5	0.029630164
172	0xbde035ce	-0.109477624
173	0x3e0b4a26	0.13602504
174	0x3d61c554	0.055119827
175	0xbcb9a778	-0.022662863
176	0xbc9a8b57	-0.01886527
177	0x3d3b8c64	0.045788184
178	0x3cef37a9	0.029201346
179	0x3d0a7395	0.033801634
180	0x3d3981ad	0.045289684
181	0xbe0bd2cc	-0.13654631
182	0xbdc32fe6	-0.0953062
183	0xbd2f7182	-0.04283286
184	0x3d02dd73	0.03194947
185	0x3ccf1060	0.025276363
186	0xbde8c179	-0.11365027
187	0xbda15597	-0.07877653
188	0x3de1957e	0.110148415
189	0xbddcd54d	-0.107828714
190	0x3e07f43b	0.1327676
191	0x3d29a9a0	0.041421533
192	0x3cc23e51	0.023711355
193	0x3d8831d7	0.06650131
194	0x3dab422f	0.08362233
195	0xbdd875f0	-0.1056937
196	0x3e035b11	0.12827708
197	0x3e0777fd	0.13229366
198	0xbd8133e8	-0.063087285
199	0x3d94d02b	0.072662674
200	0x3db4f42f	0.08835637
201	0xbb6ee37d	-0.0036451512
202	0xbd93ebd2	-0.072227135
203	0xbe10aac2	-0.14127639
204	0x3da27f3a	0.07934423
205	0x3dbc1df3	0.091854
206	0xbd9b91e3	-0.07596185
207	0x3d90dc91	0.0707332
208	0x3d80c498	0.06287497
209	0xbcd401b1	-0.025879713
210	0xbdc3c929	-0.09559853
211	0x3c98c407	0.01864816
212	0xbd10346f	-0.035206255
213	0xbde7498d	-0.112933256
214	0x3d08c744	0.03339316
215	0xbdb44697	-0.088025264
216	0xbd6f4c03	-0.0584221
217	0xbc385c0c	-0.011252414
218	0x3c5c8a5e	0.013460724
219	0x3c3ddb52	0.011587935
220	0xbe0c2ee1	-0.13689758
221	0x3da063d1	0.078315385
222	0xbd9c3cc0	-0.07628775
223	0xbe1d757f	-0.15376852
224	0x3dbaa97b	0.09114357
225	0x3c5b8dbb	0.01340049
226	0xbd138380	-0.03601408
227	0xbce793a1	-0.028268637
228	0x3d394e56	0.045240723
229	0x3cd19a03	0.025586134
230	0xbd6f8662	-0.058477767
231	0xbd9f120a	-0.077671126
232	0xbdb4b408	-0.08823401
233	0x3d99800a	0.07495125
234	0x3d71df2a	0.059050716
235	0x3b4e45e5	0.0031474766
236	0xbca5e4f9	-0.020250784
237	0x3e304a05	0.17215736
238	0xbc83eb3e	-0.016103383
239	0x3daaa477	0.083321504
240	0xbc971b2a	-0.01844557
241	0x3cee9277	0.029122574
242	0x3e2fdeb6	0.17174801
243	0x3d9210b4	0.07132092
244	0x3c367161	0.01113543
245	0xbdcf0bc9	-0.1010967
246	0x3da79c50	0.08184111
247	0x3d490a38	0.04908201
248	0xbd8f4c21	-0.06996942
249	0xbe044f7f	-0.1292095
250	0x3e135fd9	0.14392032
251	0xbd856b3e	-0.065145954
252	0xbcafef78	-0.021476492
253	0xbe4655bb	-0.19368641
254	0x3e73be58	0.23803079
255	0xbdb0c043	-0.08630421

network_body._body_endoder.seq_layers.2.bias f4 [128]
0	0x00000000	0.0
1	0x00000000	0.0
2	0x00000000	0.0
3	0x00000000	0.0
4	0x00000000	0.0
5	0x00000000	0.0
6	0x00000000	0.0
7	0x00000000	0.0
8	0x00000000	0.0
9	0x00000000	0.0
10	0x00000000	0.0
11	0x00000000	0.0
12	0x00000000	0.0
13	0x00000000	0.0
14	0x00000000	0.0
15	0x00000000	0.0
16	0x00000000	0.0
17	0x00000000	0.0
18	0x00000000	0.0
19	0x00000000	0.0
20	0x00000000	0.0
21	0x00000000	0.0
22	0x00000000	0.0
23	0x00000000	0.0
24	0x00000000	0.0
25	0x00000000	0.0
26	0x00000000	0.0
27	0x00000000	0.0
28	0x00000000	0.0
29	0x00000000	0.0
30	0x00000000	0.0
31	0x00000000	0.0
32	0x00000000	0.0
33	0x00000000	0.0
34	0x00000000	0.0
35	0x00000000	0.0
36	0x00000000	0.0
37	0x00000000	0.0
38	0x00000000	0.0
39	0x00000000	0.0
40	0x00000000	0.0
41	0x00000000	0.0
42	0x00000000	0.0
43	0x00000000	0.0
44	0x00000000	0.0
45	0x00000000	0.0
46	0x00000000	0.0
47	0x00000000	0.0
48	0x00000000	0.0
49	0x00000000	0.0
50	0x00000000	0.0
51	0x00000000	0.0
52	0x00000000	0.0
53	0x00000000	0.0
54	0x00000000	0.0
55	0x00000000	0.0
56	0x00000000	0.0
57	0x00000000	0.0
58	0x00000000	0.0
59	0x00000000	0.0
60	0x00000000	0.0
61	0x00000000	0.0
62	0x00000000	0.0
63	0x00000000	0.0
64	0x00000000	0.0
65	0x00000000	0.0
66	0x00000000	0.0
67	0x00000000	0.0
68	0x00000000	0.0
69	0x00000000	0.0
70	0x00000000	0.0
71	0x00000000	0.0
72	0x00000000	0.0
73	0x00000000	0.0
74	0x00000000	0.0
75	0x00000000	0.0
76	0x00000000	0.0
77	0x00000000	0.0
78	0x00000000	0.0
79	0x00000000	0.0
80	0x00000000	0.0
81	0x00000000	0.0
82	0x00000000	0.0
83	0x00000000	0.0
84	0x00000000	0.0
85	0x00000000	0.0
86	0x00000000	0.0
87	0x00000000	0.0
88	0x00000000	0.0
89	0x00000000	0.0
90	0x00000000	0.0
91	0x00000000	0.0
92	0x00000000	0.0
93	0x00000000	0.0
94	0x00000000	0.0
95	0x00000000	0.0
96	0x00000000	0.0
97	0x00000000	0.0
98	0x00000000	0.0
99	0x00000000	0.0
100	0x00000000	0.0
101	0x00000000	0.0
102	0x00000000	0.0
103	0x00000000	0.0
104	0x00000000	0.0
105	0x00000000	0.0
106	0x00000000	0.0
107	0x00000000	0.0
108	0x00000000	0.0
109	0x00000000	0.0
110	0x00000000	0.0
111	0x00000000	0.0
112	0x00000000	0.0
113	0x00000000	0.0
114	0x00000000	0.0
115	0x00000000	0.0
116	0x00000000	0.0
117	0x00000000	0.0
118	0x00000000	0.0
119	0x00000000	0.0
120	0x00000000	0.0
121	0x00000000	0.0
122	0x00000000	0.0
123	0x00000000	0.0
124	0x00000000	0.0
125	0x00000000	0.0
126	0x00000000	0.0
127	0x00000000	0.0

value_heads.value_heads.extrinsic.weight f4 [1, 128]
0	0xbd697986	-0.05700066
1	0x3e2e67c2	0.17031768
2	0x3e58c79d	0.21169896
3	0xbe1333fb	-0.14375298
4	0x3dfc09e4	0.12306574
5	0xbdd0a8bb	-0.10188433
6	0xbd6f89d4	-0.058481053
7	0xbe1cfec5	-0.15331562
8	0x3ddfef16	0.10934274
9	0xbe2524db	-0.1612734
10	0xbda4f5fc	-0.0805473
11	0xbe361ead	-0.1778514
12	0xbe2de678	-0.16982448
13	0xbe3cf77c	-0.18453783
14	0xbcf6a391	-0.030107291
15	0x3d6a55b1	0.057210628
16	0xbe27168b	-0.16317193
17	0x3dac1f27	0.08404379
18	0x3d03963b	0.032125693
19	0x3dadb8b0	0.08482492
20	0x3d9e8f4d	0.07742176
21	0xbdbfb2e6	-0.09360294
22	0xbe44ded4	-0.19225627
23	0x3d241cc8	0.04006651
24	0x3e4bbcf4	0.19896299
25	0x3e57586f	0.21029828
26	0x3e3708f2	0.17874506
27	0x3e4ed4df	0.20198391
28	0x3d9d68b1	0.07685984
29	0x3debedd7	0.11519974
30	0xbc8736f1	-0.01650569
31	0xbe588ffb	-0.21148674
32	0x3d4ba872	0.04972119
33	0xbc462e9f	-0.012096076
34	0x3d34d709	0.044150386
35	0xbdc3c93d	-0.095598675
36	0xbe5cd0b5	-0.2156399
37	0x3e096da8	0.13420737
38	0xbd71888a	-0.058968104
39	0x3c6c854a	0.014436075
40	0xbe2475ae	-0.16060516
41	0x3e46a894	0.19400245
42	0xbe0198c1	-0.12655927
43	0x3e1adf65	0.15124281
44	0xbe4c728c	-0.19965571
45	0x3d96d9f0	0.07365787
46	0x3e2b318b	0.16718118
47	0x3d5c7325	0.053820748
48	0x3e01a954	0.1266225
49	0xbcf974b3	-0.030451154
50	0x3dc69562	0.09696461
51	0x3d8fc98a	0.070208624
52	0xbe3dbd46	-0.18529233
53	0xbe0b0f69	-0.13580097
54	0xbe4d81f6	-0.20069107
55	0xbe14030f	-0.14454292
56	0xbe4119c2	-0.18857482
57	0xbd9f82ff	-0.077886574
58	0x3e4fc20d	0.20288868
59	0x3d92c655	0.07166735
60	0xbdfa0b4c	-0.12209186
61	0x3dc7eac8	0.09761578
62	0x3e289ab6	0.16465268
63	0xbd9ba84d	-0.0760046
64	0xbdebe7b6	-0.11518805
65	0x3e235a49	0.1595241
66	0xbce542d1	-0.027985962
67	0xbdaefb97	-0.08544081
68	0x3dbb98cc	0.09160003
69	0xbcbccf6c	-0.023048125
70	0x3a5eba85	0.00084964215
71	0xbdcab159	-0.09897108
72	0x3cc7a549	0.024370806
73	0x3e3e4ec6	0.18584737
74	0xbe2a747b	-0.16645996
75	0xbe09979f	-0.13436745
76	0xbdc0d4b8	-0.09415573
77	0xbe117e50	-0.1420834
78	0xbe06dd12	-0.13170269
79	0x3dc42848	0.095779955
80	0xbab32a06	-0.001366914
81	0x3dbe5c3f	0.09294938
82	0xbde778f0	-0.11302364
83	0xbe0f8e1e	-0.14019057
84	0x3e220f63	0.15826182
85	0xbd89f23b	-0.06735655
86	0xbcaef2dc	-0.021356039
87	0xbdcacc45	-0.099022426
88	0x3e213e66	0.1574646
89	0xbdb70fe7	-0.0893858
90	0xbe531362	-0.20612863
91	0x3e1149ec	0.14188355
92	0x3e32a02c	0.17443913
93	0xbded8ac2	-0.115987316
94	0x3e2fe56e	0.17177364
95	0x3e14ed9e	0.14543769
96	0x3e405ff8	0.18786609
97	0xbe142f1b	-0.14471094
98	0x3e2e024c	0.16993064
99	0xbc257a7c	-0.010100003
100	0xbd901cec	-0.070367664
101	0x3d476ffd	0.048690785
102	0x3cd052cd	0.025430107
103	0xbe124d4e	-0.14287302
104	0x3e1076f5	0.14107879
105	0xbe049846	-0.12948713
106	0x3dddc6dc	0.10828945
107	0xbdb60231	-0.08887137
108	0xbe0579b0	-0.13034701
109	0xbabed794	-0.0014560097
110	0x3d7d639d	0.061862577
111	0x3e3f16fc	0.18661112
112	0x3db9f877	0.09080594
113	0xbc90784c	-0.017635487
114	0xbdd3e186	-0.103457496
115	0xb981c6d9	-0.0002475295
116	0xbdf90423	-0.12158992
117	0xbde12692	-0.10993685
118	0xbd5d2717	-0.053992357
119	0xbc9b3ad5	-0.018948952
120	0x3e3c7b1e	0.1840634
121	0xbb8e36ef	-0.0043400447
122	0xbd6dc5ff	-0.058050152
123	0xbde19b2b	-0.11015924
124	0x3e2265a4	0.15859085
125	0x3e3643d9	0.1779932
126	0x3d0ac69d	0.03388082
127	0xbccd3ae1	-0.02505249
