results/car1/CarParking/CarParking-768.onnx (onnx, 141246 bytes, 6 tensors)

network_body._body_endoder.seq_layers.0.weight f4 [128, 136]
000000 87 aa bf bd 0a 8c 70 3e b2 27 f1 bb 35 60 84 bd
       -0.093586974 0.2349092 -0.0073594684 -0.064636625
000010 0e 34 50 3e b4 a9 9b 3c 58 59 57 3d 5b 14 0f be
       0.20332357 0.01900182 0.05257544 -0.13972609
000020 3e a4 b2 bd 66 ad f7 bd c3 5c 8c bb a2 d3 6a be
       -0.08722733 -0.1209362 -0.004283519 -0.22932294
000030 59 a6 0c 3d 01 e6 ba bc 6f a0 7a bd db 88 ab 3d
       0.03433833 -0.022814753 -0.061188158 0.083757125
000040 22 6f 54 bd 55 2f b1 3d 0d 38 9c 3d de c5 03 3c
       -0.051863797 0.08651606 0.07627878 0.008042781
000050 4e dd 8e 3d 6f 50 0f be de 38 30 bd e0 93 86 3d
       0.06975804 -0.13995527 -0.043022983 0.06571174
000060 e1 83 43 3d da 26 87 3d 24 93 b5 b9 cb 4c 92 3b
       0.04773319 0.06599207 -0.0003463264 0.004464721
000070 3d 63 7d 3c 1c 02 a3 bc ec 8f 90 3c 44 6e 0f 3c
       0.015465555 -0.019898467 0.017646752 0.008754317
000080 e8 ed 4f bd 14 56 6d 3c 56 eb 39 3d 1b 8e 71 bc
       -0.050763994 0.014485855 0.04539045 -0.014743353
000090 a1 3d 23 3e e6 a6 d0 bd 2a c6 98 bd 15 d6 71 3d
       0.15941478 -0.10188083 -0.07459672 0.059042055
0000a0 1d 71 33 3e f9 bf 04 bd b1 05 25 be ca 35 0d bd
       0.17523618 -0.032409642 -0.16115452 -0.034475125
0000b0 ff bf d8 3d 3c ff 0a 3d d2 12 e0 bd ea 5d 09 bd
       0.10583495 0.033934817 -0.1094109 -0.03353683
0000c0 f6 11 34 3e 4e 51 d3 3d a5 df ac bd 77 50 64 3c
       0.17584977 0.10318242 -0.08441094 0.0139352
0000d0 40 df 1e 3e 4c 9c fd 3d bb d1 be bd 1f c1 ad 3d
       0.1551485 0.12383327 -0.09317347 0.084841006
0000e0 97 ef 75 bc 38 ed 97 3c 05 86 33 3e f9 4d 9d bc
       -0.015010736 0.018545732 0.17531593 -0.01920222
0000f0 78 15 d2 3b d2 75 e2 3b 9c e5 ce bc b6 de 71 3d
       0.0064112507 0.006911018 -0.02525597 0.059050284
000100 46 a9 b8 3d f3 ea 35 3d 97 87 c4 bd 65 a8 c4 bd
       0.09016661 0.04441352 -0.09596174 -0.09602431
000110 97 a3 4f bd 04 5b 11 bd 45 23 39 bd 07 9b bb bb
       -0.05069312 -0.03548719 -0.04519965 -0.005725268
000120 96 d1 78 bc 2a 37 a8 3d 34 47 31 bd 51 12 71 3d
       -0.015186688 0.08213647 -0.043280795 0.05885536
000130 57 79 23 bd c1 b9 20 3d 29 b9 25 bd 9e b6 f3 bd
       -0.03991064 0.03923965 -0.040459786 -0.11900066
000140 84 b0 95 bc 78 38 e6 bc b0 3c 09 bd a7 16 a7 bd
       -0.018272646 -0.028103098 -0.03350514 -0.081586175
000150 e9 1f 5a 3c 12 9f 9f bd c3 64 69 3d bc 9b af bd
       0.013313272 -0.07794012 0.05698086 -0.08574626
000160 b1 7a 63 bd 82 b1 a5 3d a7 d1 8e bc f8 c6 d7 bc
       -0.05553693 0.080904976 -0.017433954 -0.026339993
000170 7a 8d 04 be 57 53 e0 bd 83 f9 95 bd f9 b3 c0 bc
       -0.12944594 -0.10953396 -0.07322981 -0.023523318
000180 86 90 32 bd 5c 73 94 3d 86 3d d9 3d 5b ee 16 be
       -0.04359486 0.072485656 0.10607438 -0.14739363
000190 55 33 ee bc 3f 17 7a 3d 1f 9b 37 3e 2d 2f b8 3d
       -0.029077211 0.061057325 0.17930268 0.08993373
0001a0 23 af 7f 3c ed fe 1e bd 88 38 98 be 56 67 ce 3d
       0.015605721 -0.038817335 -0.2973063 0.100783035
0001b0 98 bc 64 bd 97 e5 65 bd 20 1e 92 bc 01 fe 3a bd
       -0.05584392 -0.056127157 -0.01783663 -0.045652393
0001c0 2f 34 13 3e 17 87 07 3d 6a 73 0d be 74 fd 48 bc
       0.14375375 0.033087816 -0.13813558 -0.012267459
0001d0 b0 0f a8 bd 66 e1 b1 3d d6 d9 d6 3d d3 07 90 3d
       -0.08206117 0.086855695 0.10490768 0.07032742
0001e0 0d a9 4f 3d 52 79 41 3e e8 0b 09 3e 40 94 4a bd
       0.05069833 0.18893936 0.13383448 -0.04945779
0001f0 04 27 07 bd 3c 7d 3b 3e 02 c9 da 3d dd 01 3f 3d
       -0.032996193 0.18309492 0.106828704 0.046632636
000200 d8 5b ce 3d f9 f6 8c 3d 2f 93 99 3d 11 6f b6 3d
       0.100761116 0.06883044 0.07498776 0.08907903
000210 eb 46 3e 3c 55 70 d7 bd 8d 07 52 3d ba 61 c5 bd
       0.011613588 -0.105194725 0.051276732 -0.096377805
000220 a9 d8 12 be 5c 71 17 be af 7e 28 3e 45 27 f3 3b
       -0.14340462 -0.14789337 0.16454576 0.007420453
000230 bd f3 75 bd a1 83 e0 bc fa 7c cf 3d 2e 58 f3 3c
       -0.0600469 -0.027406516 0.10131259 0.029705133
000240 15 43 b2 3d 22 bd 7b 3d ad 87 f6 bd cb 15 9d 3e
       0.08704201 0.061459668 -0.12037597 0.3068069
000250 77 f3 9d bd bb 5e 62 be f8 d8 db 3b 18 86 71 3c
       -0.07712453 -0.2210645 0.0067092143 0.014741443
000260 41 51 1e 3d 98 f7 38 be 2a 22 97 3d c5 70 06 be
       0.03865171 -0.180632 0.07379563 -0.13128956
000270 da b0 b2 3d 95 27 05 3b 99 db a3 bd a4 08 ee bb
       0.08725138 0.0020317782 -0.08000869 -0.0072642136
000280 3f 4c bc 3d 90 f4 87 bd 78 3a 0c bd ef 9c 4f 3d
       0.0919423 -0.066384435 -0.034235448 0.050686773
000290 a3 b2 43 3d c5 4e 53 bd 11 a9 a7 3b 2d 44 f8 bd
       0.047777783 -0.051588792 0.00511659 -0.121223785
0002a0 84 21 9e bd eb 70 96 3b e0 18 df 3c 1d 02 81 bd
       -0.07721236 0.0045910976 0.027233541 -0.06299231
0002b0 3b 32 3b 3d d0 cb 60 bd c2 fc 01 3d a2 cd 91 bd
       0.0457022 -0.05488187 0.03173519 -0.071192995
0002c0 df 05 17 bd f4 a2 c7 3c 07 33 05 be a8 75 01 3d
       -0.036870833 0.024369694 -0.13007747 0.031606346
0002d0 04 02 cf 3d 8e 6a ad bc 5b 02 e5 bd 88 fb c1 3b
       0.10107806 -0.021168973 -0.1118209 0.0059198774
0002e0 02 df be bd ff 05 f1 bc 94 43 fa bd c7 56 0d bd
       -0.09319879 -0.029421804 -0.12219921 -0.034506585
0002f0 f0 5f 2b bd b6 08 97 3d b8 a6 2b bd 86 69 1a bd
       -0.04183954 0.07374708 -0.041907042 -0.03769829
000300 db 0f 09 bd c4 13 95 3d 07 13 2d bc d8 33 f3 3c
       -0.033462387 0.072791606 -0.0105636185 0.029687807
000310 d5 e0 e7 bc 93 c1 2b 3e 1c 74 09 3e 6f 93 43 3d
       -0.02830545 0.16773061 0.13423198 0.047748026
000320 f5 26 48 3d 3b 28 f8 bc 33 44 f8 bc cf 1e 93 3d
       0.048865277 -0.03029262 -0.030305957 0.07183611
000330 87 82 c7 bd ce 94 1b 3e 22 1a 98 bc 80 77 64 3d
       -0.09741693 0.15193483 -0.018567149 0.055778027
000340 1f e6 06 bd a2 5b 33 3d 19 b6 8b 3d 57 92 e7 bc
       -0.032934304 0.04378856 0.06821842 -0.028268022
000350 61 b1 c1 3c 43 94 b7 bd 25 2d 33 3e 76 69 fb bd
       0.023644151 -0.089638256 0.1749769 -0.122759745
000360 c5 f6 b8 3b d1 54 74 bd 0e 18 49 3d 1b 80 46 3c
       0.0056446516 -0.0596512 0.049095206 0.012115504
000370 98 9a 84 3d 63 4f 26 bc 07 45 57 bd cf d3 19 bd
       0.06474799 -0.010150763 -0.052556064 -0.037555512
000380 64 b8 0f bc f4 86 b8 bc ae 19 39 bb bf 61 48 bd
       -0.0087719895 -0.022525288 -0.0028244066 -0.048921343
000390 32 53 32 be 86 5b 95 3d 1d c2 8b 3d 39 e8 cb bd
       -0.17414549 0.07292847 0.068241335 -0.09956402
0003a0 0d 61 64 bb 0b 24 4f be b0 16 90 bd 0a 78 94 bc
       -0.0034847886 -0.20228593 -0.07035577 -0.018123645
0003b0 49 be 7e 3b 2a 74 42 bd 7c 57 05 3e 22 07 0c 3e
       0.0038870743 -0.047474064 0.13021654 0.13674596
0003c0 2d 84 bf bc b9 5e 96 bd 6b 2f 36 3e 00 db 68 3d
       -0.023378456 -0.07342286 0.17791526 0.05684948
0003d0 15 11 16 bd 27 74 51 3d e7 dd 11 3d b3 16 77 3d
       -0.036637384 0.051136162 0.035612013 0.060324382
0003e0 a2 67 f2 bc 9d 9a 4c 3e b4 45 13 3e 1f 37 06 3e
       -0.029590432 0.19980855 0.14382058 0.13106965
0003f0 fd 3a 00 3e 7b 64 f7 3c b4 ba 3b 3d bd 8b 19 be
       0.12522502 0.03019928 0.04583235 -0.14994712

network_body._body_endoder.seq_layers.0.bias f4 [128]
000000 00 00 00 00 00 00 00 00 00 00 00 00 00 00 00 00
       0.0 0.0 0.0 0.0
000010 00 00 00 00 00 00 00 00 00 00 00 00 00 00 00 00
       0.0 0.0 0.0 0.0
000020 00 00 00 00 00 00 00 00 00 00 00 00 00 00 00 00
       0.0 0.0 0.0 0.0
000030 00 00 00 00 00 00 00 00 00 00 00 00 00 00 00 00
       0.0 0.0 0.0 0.0
000040 00 00 00 00 00 00 00 00 00 00 00 00 00 00 00 00
       0.0 0.0 0.0 0.0
000050 00 00 00 00 00 00 00 00 00 00 00 00 00 00 00 00
       0.0 0.0 0.0 0.0
000060 00 00 00 00 00 00 00 00 00 00 00 00 00 00 00 00
       0.0 0.0 0.0 0.0
000070 00 00 00 00 00 00 00 00 00 00 00 00 00 00 00 00
       0.0 0.0 0.0 0.0
000080 00 00 00 00 00 00 00 00 00 00 00 00 00 00 00 00
       0.0 0.0 0.0 0.0
000090 00 00 00 00 00 00 00 00 00 00 00 00 00 00 00 00
       0.0 0.0 0.0 0.0
0000a0 00 00 00 00 00 00 00 00 00 00 00 00 00 00 00 00
       0.0 0.0 0.0 0.0
0000b0 00 00 00 00 00 00 00 00 00 00 00 00 00 00 00 00
       0.0 0.0 0.0 0.0
0000c0 00 00 00 00 00 00 00 00 00 00 00 00 00 00 00 00
       0.0 0.0 0.0 0.0
0000d0 00 00 00 00 00 00 00 00 00 00 00 00 00 00 00 00
       0.0 0.0 0.0 0.0
0000e0 00 00 00 00 00 00 00 00 00 00 00 00 00 00 00 00
       0.0 0.0 0.0 0.0
0000f0 00 00 00 00 00 00 00 00 00 00 00 00 00 00 00 00
       0.0 0.0 0.0 0.0
000100 00 00 00 00 00 00 00 00 00 00 00 00 00 00 00 00
       0.0 0.0 0.0 0.0
000110 00 00 00 00 00 00 00 00 00 00 00 00 00 00 00 00
       0.0 0.0 0.0 0.0
000120 00 00 00 00 00 00 00 00 00 00 00 00 00 00 00 00
       0.0 0.0 0.0 0.0
000130 00 00 00 00 00 00 00 00 00 00 00 00 00 00 00 00
       0.0 0.0 0.0 0.0
000140 00 00 00 00 00 00 00 00 00 00 00 00 00 00 00 00
       0.0 0.0 0.0 0.0
000150 00 00 00 00 00 00 00 00 00 00 00 00 00 00 00 00
       0.0 0.0 0.0 0.0
000160 00 00 00 00 00 00 00 00 00 00 00 00 00 00 00 00
       0.0 0.0 0.0 0.0
000170 00 00 00 00 00 00 00 00 00 00 00 00 00 00 00 00
       0.0 0.0 0.0 0.0
000180 00 00 00 00 00 00 00 00 00 00 00 00 00 00 00 00
       0.0 0.0 0.0 0.0
000190 00 00 00 00 00 00 00 00 00 00 00 00 00 00 00 00
       0.0 0.0 0.0 0.0
0001a0 00 00 00 00 00 00 00 00 00 00 00 00 00 00 00 00
       0.0 0.0 0.0 0.0
0001b0 00 00 00 00 00 00 00 00 00 00 00 00 00 00 00 00
       0.0 0.0 0.0 0.0
0001c0 00 00 00 00 00 00 00 00 00 00 00 00 00 00 00 00
       0.0 0.0 0.0 0.0
0001d0 00 00 00 00 00 00 00 00 00 00 00 00 00 00 00 00
       0.0 0.0 0.0 0.0
0001e0 00 00 00 00 00 00 00 00 00 00 00 00 00 00 00 00
       0.0 0.0 0.0 0.0
0001f0 00 00 00 00 00 00 00 00 00 00 00 00 00 00 00 00
       0.0 0.0 0.0 0.0

network_body._body_endoder.seq_layers.2.weight f4 [128, 128]
000000 8e 61 ad bc 80 3b 97 3c 3f 13 0a be f5 2e 4c be
       -0.021164682 0.018460989 -0.13483904 -0.19939788
000010 63 e2 a0 bc e0 7b cc bd 57 92 bc 3d ac ef af bb
       -0.0196392 -0.09984565 0.092075996 -0.0053691473
000020 b7 f5 0f 3d fc 7a fa bd d2 9a 45 bc 10 cc 78 3d
       0.03514644 -0.12230489 -0.012060838 0.060741484
000030 61 13 1a 3c 1e 03 3e 3d ea 75 b8 3d 56 1d ec bb
       0.009404034 0.04638969 0.09006865 -0.0072056456
000040 3c 37 b3 bd 3a 1d a3 3c cd b5 aa bc af 6a f0 3d
       -0.087507695 0.019911397 -0.020838642 0.11739098
000050 1f e3 bb 3c 9c 63 98 bc 17 bd 39 be 67 e3 af 3d
       0.022935448 -0.018602185 -0.18138538 0.085882954
000060 87 43 2f bd 46 c5 bf bd ae 92 a8 bc b1 95 b4 3a
       -0.04278901 -0.09363799 -0.020577755 0.0013777522
000070 20 7f 5e 3d ca 0d f4 bd 65 63 91 3c 91 12 6b bd
       0.054320455 -0.119166926 0.01774759 -0.057390753
000080 12 6c b0 3d 82 f6 0b 3d 55 5c c3 bd 29 f8 c0 3d
       0.08614363 0.034170635 -0.09539095 0.09422333
000090 33 7c 11 be 9a fe ce 3d 05 de 8c 3d 0f 7d f5 3c
       -0.14207534 0.10107155 0.06878284 0.02996686
0000a0 3d 70 c0 bd e7 cd 19 bd 14 1f 01 be 5c a1 2d bd
       -0.09396408 -0.03754988 -0.12609512 -0.042390212
0000b0 3d ea 18 bd f9 a4 e5 3d 4d 7e 12 3e dd 94 08 bd
       -0.037332762 0.11213107 0.14305992 -0.033345092
0000c0 9b ae b0 bd 90 0e 97 3d 56 a8 cd bd d1 23 80 bc
       -0.08627053 0.073758245 -0.10041873 -0.015642079
0000d0 ad f7 0c 3e c9 d5 1b 3e b3 a4 ed 3b 61 3e 2e bd
       0.13766356 0.15218271 0.0072522997 -0.042539958
0000e0 3c eb 5d 3d f0 03 99 3d 74 9c 96 3d 9e 8a ed bc
       0.054179415 0.07471454 0.0735406 -0.028996762
0000f0 c1 fe 63 3d a4 28 37 3e 2b 97 96 bd 1d f2 15 be
       0.055662874 0.17886597 -0.07353052 -0.1464314
000100 7d 3b 10 3d a7 09 0f bc da 69 a2 bd 8d 6b 56 3d
       0.035212982 -0.008730329 -0.07930346 0.052348662
000110 88 f7 b2 3d 84 05 32 bd 66 0c 11 bd 72 0c 5f bd
       0.08738619 -0.04346229 -0.035412215 -0.05445523
000120 0d 57 88 3d 13 e6 f3 3c 4e d8 15 bd 64 f2 9f bc
       0.066572286 0.029772794 -0.036583237 -0.01952476
000130 ea 0d a6 bb 36 10 10 bd c4 39 c0 bd eb 9f b8 bd
       -0.0050675767 -0.03517171 -0.09386018 -0.09014877
000140 13 52 60 be 39 7e 40 3d 8c ed 55 bd 6d 5a 99 3b
       -0.21906309 0.046995375 -0.052228495 0.004679969
000150 55 a1 91 3d bf 0e e1 3d 6f 75 85 3d 85 2a f2 bd
       0.0711085 0.10989141 0.06516539 -0.11824516
000160 06 39 67 3d 4d f9 67 bd d0 b0 b4 bd 09 56 aa bc
       0.056450866 -0.056634236 -0.08822787 -0.020792978
000170 24 7a d8 3d ef f3 b4 bd a3 87 c5 3d ea 42 4c bd
       0.105701715 -0.08835589 0.09645011 -0.0498685
000180 67 bc c3 3c a0 78 d2 3d 8a 4b 4a 3e c2 44 57 3d
       0.023893548 0.10276914 0.19755378 0.052555807
000190 61 ee 4d be b2 e9 24 3d e0 c5 0e 3e 36 9b 76 be
       -0.20110466 0.04026193 0.13942671 -0.24082646
0001a0 8b 37 d5 3d 87 1c 32 3d 55 28 cd 3d 25 06 fc 3d
       0.104109846 0.043484237 0.10017458 0.123058595
0001b0 73 3c a6 bd 7e 9c 2e 3e ed 54 b6 3c f6 f2 bd bd
       -0.081169985 0.17051885 0.022257293 -0.09274857
0001c0 a0 4f 20 bc f6 49 ff 3d 53 3b 37 3e 01 60 82 bd
       -0.009784609 0.12465279 0.17893724 -0.063659675
0001d0 76 2a 93 bd 40 f8 f3 bd 95 a5 e9 bc 39 ed a5 bd
       -0.07185833 -0.11912584 -0.028521338 -0.08101887
0001e0 7b 95 00 be 87 e6 cf 3d a2 05 b0 3d 6d b6 b5 bb
       -0.12557022 0.101513915 0.085948244 -0.0055454285
0001f0 75 e8 4f bd 04 16 3d bd df 87 a3 3d ed c6 c4 bd
       -0.050758798 -0.046163574 0.079849 -0.096082546
000200 b2 1e 2e be 6a cd 8e bb c5 b5 25 3d 42 04 25 be
       -0.17003897 -0.0043579834 0.040456552 -0.16114905
000210 e2 ee c4 3d 16 64 8b bd 44 62 09 3e 3c d3 98 3d
       0.09615876 -0.06806199 0.13416392 0.07462165
000220 3d 62 77 bd ef 9c 1d bc f7 61 c6 bc 68 73 10 3d
       -0.06039642 -0.009619935 -0.024216635 0.03526631
000230 e0 41 22 3d 5c a9 44 3e f2 fe 98 3c 6f 57 90 bd
       0.039613605 0.1920523 0.018676255 -0.07047927
000240 19 96 3c 3d d0 66 01 3d 4b 68 20 be 3e 24 42 3d
       0.04604158 0.03159219 -0.15664785 0.047397844
000250 6a 55 30 bb 57 69 f0 3d 74 54 ea 3d f7 0c 63 be
       -0.002690638 0.11738842 0.114418894 -0.22172914
000260 44 9e 52 bd 28 5d c6 bd 0b 80 93 be 67 67 07 3c
       -0.051420465 -0.09685737 -0.28808627 0.008264399
000270 30 2b 28 3d e9 aa bb 3d 7c 8a 07 bd 7c e6 91 bc
       0.04105681 0.09163458 -0.033091053 -0.017810099
000280 f6 55 1d 3e 99 75 15 bd bd 1d 92 3d 76 e5 31 3d
       0.15364823 -0.036489103 0.071345784 0.04343172
000290 73 99 2d bc 30 cd 3a 3c 28 a4 c7 3d 2c c0 1c 3d
       -0.010595667 0.01140146 0.09748107 0.038269207
0002a0 8c a7 cd 3d 35 11 24 3d 54 49 18 bd de 4e 47 3e
       0.10041723 0.040055472 -0.037179306 0.19463679
0002b0 aa c2 a6 3d 45 ec 07 3e 21 87 df bd cf 24 ba 3d
       0.08142598 0.13273723 -0.10914446 0.09089052
0002c0 d0 d9 78 3e 24 9c 6b 3c c5 38 15 be 05 94 eb 3d
       0.24301839 0.014380489 -0.14572437 0.11502842
0002d0 c6 5d 0c 3e 17 82 29 bd 05 e6 ee bd 02 7d 38 bd
       0.13707647 -0.04138383 -0.116649665 -0.04504109
0002e0 df 58 1c 3c 3f 7b 1c be 51 ce f5 3c 97 8f f0 3b
       0.009542673 -0.1528139 0.030005606 0.007341336
0002f0 18 ab 3c bc ff cb 86 3d d7 79 41 3c 3a 4e 14 3d
       -0.011515401 0.06581878 0.011808834 0.036207415
000300 ca c3 97 bc f5 fb 06 bd 2d a0 1b 3b 22 7b 30 3b
       -0.018525977 -0.03295513 0.0023746595 0.0026928862
000310 bc b9 7c bd 65 91 b5 bd dc 66 7c bd 54 54 03 3d
       -0.061700568 -0.088656224 -0.06162153 0.032062843
000320 28 8e 22 3e 8b 97 38 bd b2 2c 45 3d 46 5c 63 3e
       0.15874541 -0.045066398 0.048138328 0.22203168
000330 9b 30 3c 3e 5d dd 13 be 50 26 d7 3d 3a b9 19 bc
       0.18377917 -0.14439912 0.105053544 -0.00938254
000340 ab f3 97 3d a3 ad 03 3d 38 56 3e 3d fe ae ae bd
       0.07419523 0.032148015 0.046468943 -0.08529471
000350 97 98 8d bd 4e 60 bb 3d 32 3a eb bd 2f 09 8c 3d
       -0.0691387 0.09149228 -0.11485709 0.06837689
000360 b1 fb 47 be 9a 26 85 bd 64 d4 22 bd 97 38 33 3e
       -0.19529606 -0.06501503 -0.039753333 0.17502056
000370 66 c2 47 3d 3b 3e 50 3d 66 13 ea 3d 6e 63 dc bd
       0.048769377 0.050840598 0.11429481 -0.10761152
000380 7d 74 de 3d b7 c9 9c 3c e5 14 05 3d 94 aa a2 3d
       0.10862062 0.019139154 0.03249063 0.079426914
000390 8e b0 0a 3d a3 b0 07 bd 81 ea 8a bc 0c 60 24 bd
       0.033859782 -0.03312744 -0.016957523 -0.04013066
0003a0 77 78 ac bd 31 b1 b3 3d 96 ec 55 bd d4 82 20 be
       -0.08421414 0.08774031 -0.05222758 -0.15674907
0003b0 81 da 6b bc c4 14 9f 3d cd 33 f6 3d ed 5c d1 3c
       -0.014395357 0.077676326 0.12021599 0.025557006
0003c0 2f 51 db 3c 38 7c b1 39 cf 73 7b 3d ba 19 08 3e
       0.02677211 0.0003385262 0.06138974 0.13291064
0003d0 ca 33 04 3e 8b 47 00 be 65 64 f8 3d 02 e9 44 bd
       0.12910381 -0.12527291 0.12128524 -0.048073776
0003e0 34 93 91 bd d0 e7 14 3e 4f db 60 3d 71 a8 17 3c
       -0.07108155 0.14541554 0.05489665 0.009256468
0003f0 47 d6 8c 3d 05 72 95 3b 85 09 bb bd e8 7a b0 bd
       0.06876808 0.0045607113 -0.09132675 -0.086171925

action_model._continuous_distribution.log_sigma f4 [1, 2]
000000 00 00 00 00 00 00 00 00
       0.0 0.0

action_model._continuous_distribution.mu.weight f4 [2, 128]
000000 c3 20 37 bc 28 87 b1 bb 1a 45 00 3c ff 7a 13 3c
       -0.011177245 -0.005417723 0.007828975 0.0090014925
000010 db 02 ad bc 44 f7 1b bc 43 76 3f bb bf d5 78 bc
       -0.021119526 -0.009519402 -0.0029214777 -0.01518768
000020 52 68 a8 bc 8a 2d b6 bc f5 94 cb bc 07 a7 82 bc
       -0.020557556 -0.022238512 -0.024851302 -0.015948785
000030 e2 f7 6f ba 56 ea b4 bc a7 3a af bc 37 14 34 bc
       -0.0009154064 -0.022084396 -0.021390272 -0.010991148
000040 de 41 07 bd aa bf 60 bc 1d 0a fd 3b f6 03 0e 3d
       -0.0330218 -0.013717571 0.007722153 0.034671746
000050 f7 16 42 3c 33 04 c9 bc c3 f2 9a ba c6 0f c9 bc
       0.011846296 -0.024538135 -0.0011821616 -0.024543654
000060 bf 6b 69 3b dc be 36 3c e3 c2 88 3b 18 ad 46 b9
       0.00356172 0.011153903 0.004173623 -0.00018947234
000070 83 29 31 3b d0 7d 7c 3c bf 47 02 bd 76 b5 a1 39
       0.00270328 0.015410855 -0.031806704 0.00030843512
000080 ab 96 57 bc 60 ee 44 3c 5f cc a5 bc 03 d7 be 3b
       -0.013158481 0.012019724 -0.020239053 0.0058239712
000090 95 61 75 3b 4b af df 3b ac 9a 81 bc 90 a0 30 bc
       0.0037442197 0.0068263165 -0.015820824 -0.010780469
0000a0 fb 64 3b 3c ba 56 ff 3c 53 a4 36 3c 82 b8 16 ba
       0.01143765 0.031169284 0.011147576 -0.00057495397
0000b0 f3 09 84 bc e9 c8 82 bc 1b 1c 45 ba 70 20 a7 3c
       -0.016118025 -0.015964942 -0.00075191417 0.02040121
0000c0 88 08 c8 3c 9d 86 02 3d b8 ea 0b bd 96 2a 90 bc
       0.02441813 0.03186666 -0.034159392 -0.017598432
0000d0 93 7d 77 3c dd 36 f2 bc ce ea cb bc f3 fa 87 bb
       0.015105623 -0.029567176 -0.024892237 -0.0041497885
0000e0 2c a7 85 3c bd d9 2d bd bb b1 1f 3b 83 aa 66 bc
       0.016315065 -0.04244398 0.002436741 -0.014078739
0000f0 c7 3f 84 3c 45 4e fc bb e3 94 c4 ba 00 d5 13 bc
       0.016143693 -0.00769976 -0.0014997985 -0.009022951
000100 ba f7 e1 bb 48 7f 4d bc e9 b6 b6 bc bd 67 9b 3c
       -0.0068959864 -0.012542553 -0.022304015 0.018970365
000110 7c 4c c1 b9 2a 22 a5 bc 0f 2d bf bb 37 b0 ec 3c
       -0.00036868814 -0.020157892 -0.005834229 0.02889262
000120 67 4b 78 b9 83 95 6a bb 8b 39 9c bc 20 b5 b9 bc
       -0.00023679213 -0.0035794682 -0.019070407 -0.022669375
000130 63 99 15 3c 5f 2a f9 bc 67 d8 0b bd 32 d2 7b 3c
       0.0091308085 -0.030415712 -0.034141924 0.015369939
000140 4f 3b 89 bc 3b 2c 78 3c f4 f6 9b bc 4a 4c 6c 3c
       -0.016751913 0.015147264 -0.019038655 0.014422486
000150 7b c2 9f 37 58 38 92 bb 1c 88 b8 3b c0 da 22 bd
       1.9044839e-05 -0.004462283 0.00563146 -0.039759398
000160 e8 45 50 bc 85 40 01 3d 5e b0 3e bc 1f 17 24 bc
       -0.012711979 0.03155567 -0.011638729 -0.010015278
000170 ef 40 7e bb af 39 22 bd a2 60 00 3b 0a c1 b6 3a
       -0.0038796028 -0.039605793 0.0019588848 0.0013943028
000180 42 00 04 3d 88 46 d4 3b 1d f1 f9 ba aa a9 76 bc
       0.03222681 0.0064781345 -0.001906905 -0.0150550995
000190 80 68 8b bb af 2a a7 bc 62 ec 39 bc 38 eb 5e bb
       -0.0042544007 -0.020406095 -0.011347862 -0.0034014713
0001a0 34 66 2f bb c9 50 06 bc ee 2f 39 3b 90 7c 8f bc
       -0.0026763799 -0.008197972 0.0028257328 -0.01751545
0001b0 90 30 f5 bb 3a a8 e6 39 6d 56 d9 3c cb 38 02 bb
       -0.0074825957 0.00043994357 0.026530469 -0.0019870277
0001c0 b5 4c 79 bc 90 13 84 3c 28 a0 0d 3c d8 c4 40 bc
       -0.015216042 0.01612261 0.008644141 -0.011765681
0001d0 5b 51 9c bc b7 76 04 38 2c 4a 99 bc 5f a7 65 3c
       -0.019081762 3.1581814e-05 -0.018712126 0.014016955
0001e0 a9 c6 cb 3c 08 12 6c bb f7 d3 33 3c c0 9f c3 ba
       0.024875002 -0.003602149 0.010975829 -0.0014924929
0001f0 ab 60 66 3c 77 b1 33 bb f2 c3 52 bc e0 a9 8f bc
       0.014061133 -0.002741901 -0.0128641 -0.017537057
000200 58 81 aa 3b e2 d7 e6 b9 93 18 59 3c 51 67 97 3c
       0.0052034073 -0.00044029864 0.013250488 0.018481882
000210 fa d2 3f bb d8 7e 05 bd d5 33 88 3c 2b c7 ce 3c
       -0.002927004 -0.03259167 0.016626278 0.025241455
000220 33 fa 17 3c d0 80 7e bb 7f c9 8f ba 32 0a cd bc
       0.009275961 -0.0038834102 -0.0010970085 -0.025029276
000230 25 ff fe 3c e7 92 54 3a 75 9f 51 3b f4 0c 1e bc
       0.031127522 0.00081090484 0.0031985913 -0.009646643
000240 db 29 1d bc 32 74 59 bc a7 b4 86 3c 43 6a 4f 3c
       -0.009592499 -0.013272332 0.016443564 0.012659612
000250 8c de ac 3b 93 5c a2 3b 58 11 e1 bb 94 66 3a bc
       0.005275553 0.0049548834 -0.0068685226 -0.011376996
000260 7c 33 2d bc 58 3e b6 bb fc 1d 16 bb d1 b3 bd 3c
       -0.010571357 -0.005561631 -0.0022906056 0.023157032
000270 e6 17 9d ba d1 57 a1 ba fa f4 9c bb 40 a6 f1 bc
       -0.0011985272 -0.0012309497 -0.0047899457 -0.02949822
000280 bf 39 3d bb 28 1a 10 3b b2 f5 b8 bc c6 7f 09 3c
       -0.002887353 0.0021988247 -0.022578094 0.00839228
000290 8b bd 4c 3c 42 00 01 3d fc 50 85 bc f6 ff 98 bb
       0.012496362 0.031494386 -0.016273968 -0.004669185
0002a0 8e 91 be ba ab 41 80 ba f6 b3 83 3c 3b 8c fa 3b
       -0.0014539228 -0.0009785196 0.016077023 0.0076461113
0002b0 0b 3c 80 3c 31 47 30 bc 37 66 aa bc 21 aa 4b 3c
       0.01565363 -0.010759161 -0.020800693 0.012430699
0002c0 77 74 6c bc 5b 33 5c bb cb 65 ca 3c c9 c8 92 3b
       -0.014432064 -0.0033599946 0.024706742 0.004479502
0002d0 6f 8c 6f 3b f6 5a a1 3c 0c 8e b0 3c ae f8 81 3c
       0.003655221 0.019696694 0.021552108 0.01586565
0002e0 fd 50 66 39 6c 2c 07 3b 17 e9 c9 3c 78 76 84 bc
       0.0002196468 0.0020625843 0.024647279 -0.016169772
0002f0 4b 39 2f bc bc 41 03 bd c0 08 4d 3b a4 0a c5 bb
       -0.010694812 -0.03204511 0.0031285733 -0.0060132314
000300 ca 88 03 3c 7f 6e a0 3c 58 bf d0 3c 08 1d 93 bc
       0.0080282185 0.019583939 0.025481865 -0.01795818
000310 01 59 ad 3c b3 9c 3c 3c a3 71 64 3b d2 cd 70 bb
       0.021160604 0.011511969 0.0034857772 -0.0036743772
000320 56 f1 84 bb f8 63 d7 3c cc db 02 bc 42 88 10 bc
       -0.00405709 0.026292786 -0.007986974 -0.008821549
000330 d1 5b 88 3b 02 48 00 3d a8 1d c2 bc b8 82 5b 3c
       0.004161336 0.031318672 -0.023695782 0.013397865
000340 92 46 0f 3c 70 63 f0 ba 9e d1 17 3d 37 91 c5 3c
       0.008744853 -0.0018340182 0.03706514 0.024117095
000350 97 4a bd bc 49 34 a2 3b 9b 5e 32 bc 01 d4 87 3c
       -0.023106856 0.0049500805 -0.0108868135 0.016580584
000360 f7 0c 17 bc 37 3c 12 3b 8d 8a d3 3c 07 7e d5 3b
       -0.0092194 0.0022313723 0.025822902 0.006515268
000370 df bd bb bc ff ec bd 3c 90 74 ba 3b 63 92 f9 3c
       -0.022917686 0.023184298 0.005690165 0.03046531
000380 08 e3 ec 3c a3 2d 63 bc 57 4f 19 3d 43 ed c2 39
       0.02891685 -0.013865861 0.03742918 0.00037179337
000390 1d 3a 11 bc a4 cb 91 bc fd 09 e1 ba 63 5c 4d bc
       -0.008863953 -0.017797299 -0.0017169114 -0.012534234
0003a0 ce 31 b4 3c 00 08 c2 bb 2f bc a3 bb 37 e9 51 bb
       0.021996405 -0.005921364 -0.0049967985 -0.0032029876
0003b0 1c d1 88 3b 72 f5 a7 3c 6f 69 75 bc 1a 6d 16 3c
       0.0041753184 0.02050278 -0.014978751 0.009181285
0003c0 ea d5 c5 3a 63 6b 56 3c 86 57 94 3c 2e 8a 95 3b
       0.0015093659 0.013087126 0.01810814 0.0045635914
0003d0 fb 31 6c bc 5f 49 84 bc 72 2b 74 bc 8a 9d e1 39
       -0.014416213 -0.016148267 -0.014902936 0.0004303272
0003e0 35 5f 4f 3c 45 70 d4 3c 2e 84 1d bc ee 5b 1a bc
       0.0126569765 0.02593244 -0.009614034 -0.009421332
0003f0 7f b9 a3 bc eb fe 1b 3c 7d 00 a8 bc 6f c6 83 3c
       -0.019985912 0.009521226 -0.020508045 0.016085831

action_model._continuous_distribution.mu.bias f4 [2]
000000 00 00 00 00 00 00 00 00
       0.0 0.0
