results/car1/CarParking/CarParking-2560.pt (torch, 283098 bytes, 12 tensors)

network_body._body_endoder.seq_layers.0.weight f4 [128, 136]
0	0x3e1a1883	0.15048413
1	0xbd42878d	-0.047492553
2	0xbdf68ba2	-0.120383516
3	0x3d817dd4	0.06322828
4	0xbd1f5652	-0.03890068
5	0x3d7f3c72	0.062313505
6	0xbdcf7a84	-0.1013079
7	0x3e183eb5	0.14867671
8	0x3dc3725a	0.09543295
9	0xbdef0fd9	-0.116729446
10	0xbd0c3b81	-0.034236435
11	0xbcccb89c	-0.024990372
12	0x3d2db0bd	0.04240488
13	0xbe02a80d	-0.12759419
14	0x396ca4fc	0.00022568175
15	0xbb1698b4	-0.0022979202
16	0x3dd7917c	0.10525796
17	0xbd9e5d72	-0.07732667
18	0x3d026a1c	0.031839475
19	0x3b551b94	0.0032517659
20	0xbdb7bfb3	-0.089721106
21	0xbd20c573	-0.039250802
22	0x3d80b4b2	0.06284465
23	0xbd55b01c	-0.052169904
24	0xbc216c6f	-0.009852513
25	0xbbfb2913	-0.0076648085
26	0x3dbd9457	0.09256809
27	0x3d1fac71	0.038982812
28	0x3ca817a1	0.02051908
29	0x3d6879ae	0.056756668
30	0xbd21d8f3	-0.03951354
31	0x3e082d9d	0.1329865
32	0xbc1a036f	-0.009400233
33	0x3c87582c	0.016521536
34	0xbd9a988d	-0.07548628
35	0xbcec0bbf	-0.028814195
36	0xbd334e49	-0.04377583
37	0xbd2bb25a	-0.041918136
38	0xbdad4996	-0.08461301
39	0xbd99fceb	-0.075189434
40	0xbd8b5c35	-0.068046965
41	0xbdf4fa74	-0.11961833
42	0xbcfacab5	-0.030614236
43	0xbdad628e	-0.084660634
44	0x3e363791	0.17794634
45	0x3d6d78d1	0.057976548
46	0xbdc6a99f	-0.097003214
47	0xbe00e955	-0.12589009
48	0x3d874d7e	0.06606577
49	0xbdc71c07	-0.09722143
50	0xbe2154a9	-0.15754952
51	0xbdc42a5f	-0.09578394
52	0x3c014caf	0.007891818
53	0x3d089171	0.03334183
54	0xbd85c2e2	-0.065313116
55	0xbdebd556	-0.115153
56	0xbd51f9f4	-0.051263765
57	0xbdb1be00	-0.08678818
58	0xbd907fc1	-0.07055617
59	0x3de31129	0.110872574
60	0xbd1adfd0	-0.0378111
61	0x3d284f4b	0.041091245
62	0x3d804512	0.06263174
63	0xbcc4d2fc	-0.024026386
64	0xbe778835	-0.24173053
65	0x3dcc3d13	0.099725865
66	0x3e4422e6	0.19153938
67	0x3dd225f0	0.10261142
68	0xbd933053	-0.071869515
69	0xbe0deb8d	-0.13859387
70	0x3d38791b	0.04503737
71	0x3b9b0daf	0.004731856
72	0x3dc76355	0.09735743
73	0xbd72982d	-0.059227157
74	0x3da24893	0.07923999
75	0x3cde0e28	0.02710636
76	0x3da5e6e2	0.08100678
77	0xbc3f0867	-0.011659718
78	0x3cf948f8	0.030430302
79	0xbaf7c66b	-0.0018903738
80	0x3d4bb927	0.049737122
81	0x3c5df29e	0.013546614
82	0xbb054db6	-0.0020340509
83	0x3c2f99e7	0.0107178455
84	0x3e074a77	0.13212
85	0x3bd37258	0.00645284
86	0x3c95f538	0.018305406
87	0xbdaebe6d	-0.085324146
88	0x3e1db2e7	0.15400277
89	0xbe2a8a8e	-0.16654417
90	0x3dcaa6ab	0.09895071
91	0x3e0ff867	0.14059602
92	0x3d9e19fd	0.077198006
93	0xbcea338e	-0.028589036
94	0xbc7da39c	-0.015480902
95	0xbc8e0a6d	-0.017338956
96	0x3d8658d0	0.065599084
97	0x3e532c17	0.20622288
98	0x3e3381d4	0.17529994
99	0xbdc5eb22	-0.09663989
100	0x3c974b88	0.018468633
101	0xbbf67a5a	-0.0075219097
102	0xbe2b98f7	-0.1675757
103	0x3d43bb7f	0.047786232
104	0x3d766f40	0.06016469
105	0x3db50147	0.08838134
106	0xbe1519ca	-0.14560619
107	0xbdbb313a	-0.091402486
108	0xbd02142d	-0.031757522
109	0x3d20c713	0.039252352
110	0xbd357585	-0.04430153
111	0xbe257132	-0.16156462
112	0xbde04955	-0.10951487
113	0x3dfc0d49	0.123072214
114	0xbd9f4f14	-0.07778755
115	0xbd8acdf2	-0.06777562
116	0xbc9135d2	-0.017725859
117	0x3d9b73c6	0.075904414
118	0x3e4089c9	0.18802561
119	0x3e300d86	0.17192659
120	0xbe261c35	-0.16221698
121	0x3d49b43b	0.049244147
122	0xbe0ee382	-0.13953975
123	0xbba85b5f	-0.0051378454
124	0xbe41ca11	-0.18924738
125	0x3c558068	0.013031103
126	0x3e05a568	0.13051379
127	0x3c7283d8	0.014801942
128	0xbd4b24f2	-0.04959578
129	0xbdf2557c	-0.11832711
130	0xbd58297f	-0.05277395
131	0xbd0232ee	-0.03178685
132	0x3e1884bb	0.14894383
133	0x3daa379c	0.08311388
134	0xbdcba704	-0.09943965
135	0xbbc4a016	-0.006000529
136	0xbe7ca135	-0.2467087
137	0xbd7aba2a	-0.061212696
138	0x3d373ef9	0.04473779
139	0xbd573a08	-0.052545577
140	0xbe1853c3	-0.14875703
141	0xbbc00951	-0.0058604856
142	0xbc8cb5a7	-0.017176462
143	0xbb0f7011	-0.0021886865
144	0xbe17da9c	-0.14829487
145	0x3db1cebc	0.086820096
146	0xbdf92a43	-0.12166264
147	0xbdcce789	-0.10005099
148	0xbda207db	-0.079116546
149	0x3c9e7cc9	0.019346612
150	0x3da5e324	0.08099964
151	0x3bc6fe62	0.0060728053
152	0xbcf84628	-0.03030689
153	0xbda260f4	-0.079286486
154	0x3ca3d482	0.019998793
155	0x3de56ba2	0.1120217
156	0x3e0c0f93	0.13677816
157	0xbbc6953c	-0.0060602706
158	0x3c2e71cb	0.010647248
159	0x3cda5d66	0.026655864
160	0x3cf518c4	0.029919036
161	0xbd16794b	-0.036736768
162	0x3d92c9ba	0.071673825
163	0xbd8b52b4	-0.06802884
164	0x3d88d39b	0.066809855
165	0x3db6858f	0.08912193
166	0x3d2409cd	0.04004841
167	0xbe5c5731	-0.21517636
168	0xbdff76c9	-0.12473828
169	0x3c9fb5af	0.019495813
170	0x3de48b17	0.11159342
171	0x3dd538cf	0.10411226
172	0xbc930f4b	-0.017951628
173	0x3dd39c7b	0.10332581
174	0xbd61d28c	-0.055132434
175	0xbdbf6073	-0.09344568
176	0xbd50c188	-0.050965816
177	0x3d6d7028	0.05796829
178	0xbd9ff4d1	-0.07810367
179	0xbd592d40	-0.05302167
180	0xbda50a0e	-0.080585584
181	0xbd905467	-0.070473485
182	0x3b16d517	0.0023015195
183	0x3dad5fdc	0.08465549
184	0x3e33dd75	0.17564948
185	0xbd89ccd5	-0.06728522
186	0x3d02042b	0.031742256
187	0xbd907cfd	-0.070550896
188	0xbb4b1e67	-0.0030993463
189	0xbc57f856	-0.0131817665
190	0xbd653c41	-0.055965666
191	0xbd698ac5	-0.057017107
192	0x3bd397cb	0.006457304
193	0x3dcb37fb	0.09922787
194	0x3e84e455	0.25955454
195	0x3de3b443	0.111183666
196	0x3cc0d27c	0.023537867
197	0x3b6c720a	0.0036078715
198	0xbc3e2627	-0.011605776
199	0x3dc90cdd	0.098169066
200	0x3d505826	0.050865315
201	0x3cd7b439	0.026331054
202	0x3d47940a	0.048725165
203	0xbdad63eb	-0.084663235
204	0x3ddee08a	0.10882671
205	0xbdbf0729	-0.093275376
206	0xbb8df08a	-0.004331653
207	0xbdb0fa74	-0.0864152
208	0x3d7721a1	0.060334805
209	0x3d8d0604	0.06885913
210	0xbdc3ffa4	-0.09570244
211	0x3dcef915	0.101061024
212	0x3d47e705	0.0488043
213	0xbd88c7e2	-0.066787496
214	0xbd1416d9	-0.0361546
215	0x3da169c3	0.078815006
216	0x3d27bdef	0.04095262
217	0xbe4ed18d	-0.20197125
218	0x3c9dfebb	0.019286504
219	0xbcc25029	-0.023719864
220	0x3e0c5a40	0.13706303
221	0xbe5bcd85	-0.21465118
222	0x3c4a1646	0.012334412
223	0xbd0ebe39	-0.03484938
224	0xbd483fec	-0.048889086
225	0xbc7fe6af	-0.015618964
226	0x3d45b4f8	0.04826829
227	0xbd12346f	-0.035694536
228	0x3cfd609f	0.030929862
229	0xbc9fbc27	-0.019498898
230	0xbca3fb14	-0.020017184
231	0xbd629a60	-0.055323005
232	0x3d926909	0.0714894
233	0x3c5cdcf4	0.013480414
234	0x3d84d348	0.06485611
235	0x3d1c60c6	0.038178228
236	0xbd97335b	-0.07382842
237	0xbc8c2cfb	-0.017111292
238	0x3e0602f9	0.13087071
239	0xbda4c4a2	-0.08045317
240	0x3d6ee906	0.058327697
241	0x3b162bfc	0.00229144
242	0xbd3615d0	-0.044454396
243	0x3a2199b7	0.0006164568
244	0xbd95cd39	-0.07314534
245	0xbd09fac4	-0.033686414
246	0xbdc2acaa	-0.09505589
247	0xbd35628a	-0.044283427
248	0xbd5c40a0	-0.05377257
249	0xbc954d3b	-0.018225303
250	0x3d5ed3eb	0.05440132
251	0x3d2c6e93	0.04209764
252	0x3c2dfc7a	0.010619277
253	0x3d48f1cc	0.04905872
254	0xbe33f4f4	-0.17573911
255	0x3d988001	0.0744629

network_body._body_endoder.seq_layers.0.bias f4 [128]
0	0x00000000	0.0
1	0x00000000	0.0
2	0x00000000	0.0
3	0x00000000	0.0
4	0x00000000	0.0
5	0x00000000	0.0
6	0x00000000	0.0
7	0x00000000	0.0
8	0x00000000	0.0
9	0x00000000	0.0
10	0x00000000	0.0
11	0x00000000	0.0
12	0x00000000	0.0
13	0x00000000	0.0
14	0x00000000	0.0
15	0x00000000	0.0
16	0x00000000	0.0
17	0x00000000	0.0
18	0x00000000	0.0
19	0x00000000	0.0
20	0x00000000	0.0
21	0x00000000	0.0
22	0x00000000	0.0
23	0x00000000	0.0
24	0x00000000	0.0
25	0x00000000	0.0
26	0x00000000	0.0
27	0x00000000	0.0
28	0x00000000	0.0
29	0x00000000	0.0
30	0x00000000	0.0
31	0x00000000	0.0
32	0x00000000	0.0
33	0x00000000	0.0
34	0x00000000	0.0
35	0x00000000	0.0
36	0x00000000	0.0
37	0x00000000	0.0
38	0x00000000	0.0
39	0x00000000	0.0
40	0x00000000	0.0
41	0x00000000	0.0
42	0x00000000	0.0
43	0x00000000	0.0
44	0x00000000	0.0
45	0x00000000	0.0
46	0x00000000	0.0
47	0x00000000	0.0
48	0x00000000	0.0
49	0x00000000	0.0
50	0x00000000	0.0
51	0x00000000	0.0
52	0x00000000	0.0
53	0x00000000	0.0
54	0x00000000	0.0
55	0x00000000	0.0
56	0x00000000	0.0
57	0x00000000	0.0
58	0x00000000	0.0
59	0x00000000	0.0
60	0x00000000	0.0
61	0x00000000	0.0
62	0x00000000	0.0
63	0x00000000	0.0
64	0x00000000	0.0
65	0x00000000	0.0
66	0x00000000	0.0
67	0x00000000	0.0
68	0x00000000	0.0
69	0x00000000	0.0
70	0x00000000	0.0
71	0x00000000	0.0
72	0x00000000	0.0
73	0x00000000	0.0
74	0x00000000	0.0
75	0x00000000	0.0
76	0x00000000	0.0
77	0x00000000	0.0
78	0x00000000	0.0
79	0x00000000	0.0
80	0x00000000	0.0
81	0x00000000	0.0
82	0x00000000	0.0
83	0x00000000	0.0
84	0x00000000	0.0
85	0x00000000	0.0
86	0x00000000	0.0
87	0x00000000	0.0
88	0x00000000	0.0
89	0x00000000	0.0
90	0x00000000	0.0
91	0x00000000	0.0
92	0x00000000	0.0
93	0x00000000	0.0
94	0x00000000	0.0
95	0x00000000	0.0
96	0x00000000	0.0
97	0x00000000	0.0
98	0x00000000	0.0
99	0x00000000	0.0
100	0x00000000	0.0
101	0x00000000	0.0
102	0x00000000	0.0
103	0x00000000	0.0
104	0x00000000	0.0
105	0x00000000	0.0
106	0x00000000	0.0
107	0x00000000	0.0
108	0x00000000	0.0
109	0x00000000	0.0
110	0x00000000	0.0
111	0x00000000	0.0
112	0x00000000	0.0
113	0x00000000	0.0
114	0x00000000	0.0
115	0x00000000	0.0
116	0x00000000	0.0
117	0x00000000	0.0
118	0x00000000	0.0
119	0x00000000	0.0
120	0x00000000	0.0
121	0x00000000	0.0
122	0x00000000	0.0
123	0x00000000	0.0
124	0x00000000	0.0
125	0x00000000	0.0
126	0x00000000	0.0
127	0x00000000	0.0

network_body._body_endoder.seq_layers.2.weight f4 [128, 128]
0	0x3dfb1493	0.122597836
1	0xbdcb6b45	-0.099325694
2	0x3d2e0121	0.042481545
3	0xbdd08c1d	-0.101829745
4	0xbe489e26	-0.19591579
5	0xbd09e322	-0.033663876
6	0x3d665176	0.05623003
7	0xbe3a1fc1	-0.18176176
8	0x3defceed	0.1170939
9	0x3d44bc15	0.04803093
10	0xbdb3d81b	-0.08781453
11	0xbd81d5fa	-0.06339641
12	0x3d8e62ee	0.06952463
13	0xbda0b0f5	-0.07846252
14	0x3d8e157d	0.06937692
15	0x3dbf3053	0.09335389
16	0xbdacc757	-0.084364586
17	0x3c99d338	0.018777475
18	0xbd3cfa09	-0.04613689
19	0x3cc14ae5	0.023595283
20	0x3c28e1e4	0.010307763
21	0xbdcb9165	-0.09939841
22	0xbcd55e2a	-0.026045877
23	0x3ce44afa	0.027867783
24	0x3dbf7ad7	0.09349602
25	0xbd14db54	-0.03634198
26	0xbdb6c1b7	-0.08923667
27	0xbcac30c3	-0.021019345
28	0x3e360937	0.17776953
29	0xbc10b834	-0.00883298
30	0xbd69db4d	-0.057093907
31	0xbd572789	-0.052527938
32	0xbdb96ba1	-0.09053732
33	0xbd869a9c	-0.06572458
34	0x3d301b70	0.042994916
35	0x3e25baa2	0.16184476
36	0xbe4164fa	-0.18886176
37	0xbca7f8d5	-0.020504395
38	0xbdbbd393	-0.09171214
39	0xbde25349	-0.11051042
40	0xbda8b317	-0.08237284
41	0x3e0f6d5e	0.14006564
42	0xbd6fc6ac	-0.058539078
43	0x3d077c3e	0.03307747
44	0x3d523c96	0.05132731
45	0x3d42efa7	0.04759183
46	0xbd7614bd	-0.06007837
47	0x3da39a0a	0.07988365
48	0xbe1acf7a	-0.15118209
49	0x3d18ffdb	0.037353378
50	0x3cf5b9a0	0.02999574
51	0xbdc589f8	-0.09645456
52	0xbc13acd3	-0.0090133725
53	0x3e386b92	0.18009785
54	0xbe0b0f3e	-0.13580033
55	0x3cf1486b	0.029453477
56	0xbc928823	-0.01788718
57	0x3dfb894d	0.122820474
58	0xbc4bd80e	-0.012441648
59	0x3c9a916b	0.018868169
60	0xba98b7bc	-0.0011651437
61	0x3d1fd793	0.039023947
62	0xbe0b5f74	-0.13610631
63	0xbdd784a1	-0.10523344
64	0x3dbf9847	0.093552165
65	0xbd96396a	-0.073351696
66	0xbd72395e	-0.05913674
67	0x3c5dcf56	0.013538202
68	0xbcc8a8bd	-0.024494523
69	0x3cb63693	0.02224282
70	0x3d745183	0.059648048
71	0x3e0fed6b	0.14055412
72	0xbce0449a	-0.027376462
73	0x3dc920bb	0.09820696
74	0xbd235f24	-0.039885655
75	0xbd1ddd57	-0.038541164
76	0x3e4128e3	0.18863253
77	0xbdcc21c5	-0.099673785
78	0x3d277514	0.04088314
79	0x3daa2802	0.08308412
80	0x3e1bf077	0.15228449
81	0xbd8dc9b3	-0.06923237
82	0xbe636d77	-0.22209726
83	0xbd3e662a	-0.04648415
84	0xbcaf8dc7	-0.02142991
85	0x3dd5fb75	0.10448352
86	0x3e10a85b	0.14126723
87	0xbde478c9	-0.111558504
88	0x3d74a316	0.059725843
89	0x3c048da7	0.008090413
90	0x3d122deb	0.035688322
91	0x3d39cec3	0.0453632
92	0xbd63ce3c	-0.055616602
93	0x3d796c30	0.06089419
94	0x38974f8d	7.2150586e-05
95	0xbd9b1155	-0.07571665
96	0x3b8dcb51	0.0043272157
97	0xbda718a5	-0.081589974
98	0x3e094994	0.13406974
99	0xbdaa56aa	-0.08317311
100	0xbc02fd9b	-0.007995035
101	0xbd215008	-0.039382964
102	0xbdf98da3	-0.12185218
103	0x3d3e1dd4	0.046415165
104	0xbb865c4e	-0.004100359
105	0x3c9d98e8	0.01923795
106	0xbd4b64f5	-0.049656827
107	0xbd07b2f3	-0.033129644
108	0x3d1e639d	0.038669217
109	0xbe096056	-0.13415655
110	0xbd24b42f	-0.0402109
111	0x3ddf7509	0.109109946
112	0x3d677a8b	0.05651335
113	0x3d6e93d1	0.058246437
114	0x3d90356f	0.07041442
115	0xbbf0a605	-0.00734401
116	0xbd89c922	-0.06727816
117	0xbdde5951	-0.108568795
118	0xbd400468	-0.046879202
119	0xbdaed984	-0.085375816
120	0xbdac6d99	-0.084193416
121	0xbc91a74e	-0.017779972
122	0xbcd42e75	-0.025901059
123	0x3dca6652	0.09882797
124	0xbdeea645	-0.11652807
125	0x3dbc19f3	0.09184637
126	0x3e114bce	0.14189073
127	0x3e0c8a74	0.1372469
128	0xbdb18f8d	-0.08669958
129	0xbe03c8eb	-0.12869613
130	0xbd8bec13	-0.06832137
131	0x3e15cdf4	0.14629346
132	0xbd91fbba	-0.07128091
133	0xbe150dfa	-0.14556113
134	0xbdd4ee83	-0.10397055
135	0x3e00d2e9	0.12580456
136	0xbc01a793	-0.007913488
137	0xbe0d56d9	-0.13802661
138	0x3d02dde7	0.031949904
139	0x3cb89039	0.022529708
140	0x3ddf7161	0.10910297
141	0xbc9278a2	-0.017879788
142	0xbd3f7786	-0.046744846
143	0xbd2d1310	-0.042254508
144	0x3d0c9390	0.034320414
145	0x39dff94b	0.00042719612
146	0xbd255e61	-0.04037321
147	0x3c53aebe	0.01292008
148	0x3c6c2197	0.014412305
149	0x3e2ca7a3	0.16860823
150	0x3d422a60	0.047403693
151	0xbde3de05	-0.11126331
152	0x3de3e6b9	0.11127991
153	0xbd830780	-0.06397915
154	0x3e29ea03	0.16593175
155	0x3a52863c	0.0008030867
156	0xbcd8491a	-0.026402045
157	0x3d1be37d	0.038058747
158	0x3b4bcc82	0.0031097238
159	0xbd8d110a	-0.068880156
160	0x383ff876	4.5769346e-05
161	0x3e82e05b	0.25561795
162	0xbe1075a0	-0.1410737
163	0xbd35fc3b	-0.04443
164	0x3d4bea7f	0.04978418
165	0x3d9969bb	0.074908696
166	0x3c3af1d8	0.011410199
167	0xbcd93c46	-0.026517998
168	0x3e0b9075	0.13629325
169	0xbdb15445	-0.08658651
170	0x3da5c192	0.08093561
171	0x3ce247f9	0.02762221
172	0xbdbf2d42	-0.09334804
173	0x3d8169dd	0.0631902
174	0xbc5b7d2c	-0.0133965425
175	0xbdcabf6a	-0.098997906
176	0x3c8717cc	0.01649084
177	0x3b58b7e9	0.0033068603
178	0xbe01dbb2	-0.12681463
179	0x3e062d59	0.13103236
180	0xbbcddece	-0.006282664
181	0x3da17f4d	0.07885609
182	0x3cc07c6a	0.023496825
183	0xbdf2ae99	-0.11849708
184	0x3d9a31da	0.0752904
185	0x3d186412	0.03720481
186	0x3d848810	0.06471264
187	0x3d1b7f4a	0.03796319
188	0x3e020c2d	0.12699957
189	0xbdd26928	-0.10273963
190	0x3cadf3ea	0.021234471
191	0xbdc3bd49	-0.09557588
192	0x3e110fef	0.14166234
193	0x3c2b72c2	0.010464372
194	0x3df0a40f	0.11750042
195	0xbdd5ba89	-0.104359694
196	0xbdae6090	-0.085145116
197	0x3e0005dd	0.12502237
198	0x3dd1b13b	0.10238882
199	0xbd9ce72b	-0.07661279
200	0x3d22a1f5	0.039705236
201	0x3df3d756	0.119063064
202	0x3dd2b8e9	0.10289175
203	0xbd6cf3b2	-0.057849593
204	0x3c1fec2b	0.009760897
205	0xbc97f4dc	-0.018549375
206	0xbe00ac56	-0.12565741
207	0xbde2dc1f	-0.11077141
208	0xbdb73515	-0.089456715
209	0xbdd8d40f	-0.10587322
210	0x3d99db5f	0.07512545
211	0xbdf6b32e	-0.120458946
212	0xbd8a6891	-0.06758226
213	0xbd4bfa39	-0.049799178
214	0xbdac1b75	-0.084036745
215	0xbcb03b20	-0.021512568
216	0xbcffc567	-0.031222058
217	0xbe1fb360	-0.1559577
218	0x3e11751c	0.1420483
219	0xbcda6f24	-0.026664324
220	0x3d645ce4	0.05575265
221	0x3d00a05f	0.03140294
222	0x3ce49dc9	0.02790727
223	0xbd916dfd	-0.07101057
224	0xbe106b84	-0.14103514
225	0x3d5927e1	0.053016547
226	0xbd3d0448	-0.04614666
227	0xbcec79d6	-0.02886669
228	0x3d3a214d	0.045441914
229	0xbda9996b	-0.08281215
230	0x3de824ca	0.11335142
231	0x3dca9a8d	0.098927595
232	0x3db44dc2	0.088038936
233	0x3dcb742d	0.09934268
234	0x3d3725fc	0.04471396
235	0xbe21c90a	-0.15799347
236	0xbe233574	-0.1593836
237	0x3dcbc474	0.0994958
238	0x3db8e57b	0.09028145
239	0x39c67557	0.00037852928
240	0x3d77e556	0.060521446
241	0x3dbb4181	0.09143353
242	0x3d902af0	0.0703944
243	0x3d60805a	0.054809906
244	0x3c83c546	0.016085278
245	0x3cac5443	0.021036273
246	0xbc0d7f53	-0.0086363135
247	0xbcbb6447	-0.022874964
248	0x3d3e51b5	0.04646464
249	0x3e57d4e9	0.21077313
250	0x3c01454c	0.007890057
251	0xbdd2e120	-0.102968454
252	0x3dc0757d	0.09397409
253	0xbe04dd5c	-0.12975067
254	0xbd615350	-0.055011094
255	0x3dcdb5bd	0.100444295

network_body._body_endoder.seq_layers.2.bias f4 [128]
0	0x00000000	0.0
1	0x00000000	0.0
2	0x00000000	0.0
3	0x00000000	0.0
4	0x00000000	0.0
5	0x00000000	0.0
6	0x00000000	0.0
7	0x00000000	0.0
8	0x00000000	0.0
9	0x00000000	0.0
10	0x00000000	0.0
11	0x00000000	0.0
12	0x00000000	0.0
13	0x00000000	0.0
14	0x00000000	0.0
15	0x00000000	0.0
16	0x00000000	0.0
17	0x00000000	0.0
18	0x00000000	0.0
19	0x00000000	0.0
20	0x00000000	0.0
21	0x00000000	0.0
22	0x00000000	0.0
23	0x00000000	0.0
24	0x00000000	0.0
25	0x00000000	0.0
26	0x00000000	0.0
27	0x00000000	0.0
28	0x00000000	0.0
29	0x00000000	0.0
30	0x00000000	0.0
31	0x00000000	0.0
32	0x00000000	0.0
33	0x00000000	0.0
34	0x00000000	0.0
35	0x00000000	0.0
36	0x00000000	0.0
37	0x00000000	0.0
38	0x00000000	0.0
39	0x00000000	0.0
40	0x00000000	0.0
41	0x00000000	0.0
42	0x00000000	0.0
43	0x00000000	0.0
44	0x00000000	0.0
45	0x00000000	0.0
46	0x00000000	0.0
47	0x00000000	0.0
48	0x00000000	0.0
49	0x00000000	0.0
50	0x00000000	0.0
51	0x00000000	0.0
52	0x00000000	0.0
53	0x00000000	0.0
54	0x00000000	0.0
55	0x00000000	0.0
56	0x00000000	0.0
57	0x00000000	0.0
58	0x00000000	0.0
59	0x00000000	0.0
60	0x00000000	0.0
61	0x00000000	0.0
62	0x00000000	0.0
63	0x00000000	0.0
64	0x00000000	0.0
65	0x00000000	0.0
66	0x00000000	0.0
67	0x00000000	0.0
68	0x00000000	0.0
69	0x00000000	0.0
70	0x00000000	0.0
71	0x00000000	0.0
72	0x00000000	0.0
73	0x00000000	0.0
74	0x00000000	0.0
75	0x00000000	0.0
76	0x00000000	0.0
77	0x00000000	0.0
78	0x00000000	0.0
79	0x00000000	0.0
80	0x00000000	0.0
81	0x00000000	0.0
82	0x00000000	0.0
83	0x00000000	0.0
84	0x00000000	0.0
85	0x00000000	0.0
86	0x00000000	0.0
87	0x00000000	0.0
88	0x00000000	0.0
89	0x00000000	0.0
90	0x00000000	0.0
91	0x00000000	0.0
92	0x00000000	0.0
93	0x00000000	0.0
94	0x00000000	0.0
95	0x00000000	0.0
96	0x00000000	0.0
97	0x00000000	0.0
98	0x00000000	0.0
99	0x00000000	0.0
100	0x00000000	0.0
101	0x00000000	0.0
102	0x00000000	0.0
103	0x00000000	0.0
104	0x00000000	0.0
105	0x00000000	0.0
106	0x00000000	0.0
107	0x00000000	0.0
108	0x00000000	0.0
109	0x00000000	0.0
110	0x00000000	0.0
111	0x00000000	0.0
112	0x00000000	0.0
113	0x00000000	0.0
114	0x00000000	0.0
115	0x00000000	0.0
116	0x00000000	0.0
117	0x00000000	0.0
118	0x00000000	0.0
119	0x00000000	0.0
120	0x00000000	0.0
121	0x00000000	0.0
122	0x00000000	0.0
123	0x00000000	0.0
124	0x00000000	0.0
125	0x00000000	0.0
126	0x00000000	0.0
127	0x00000000	0.0

action_model._continuous_distribution.log_sigma f4 [1, 2]
0	0x00000000	0.0
1	0x00000000	0.0

action_model._continuous_distribution.mu.weight f4 [2, 128]
0	0x3bafd31d	0.005365743
1	0xbc645868	-0.013937093
2	0xbc95606a	-0.01823445
3	0x3bd3e170	0.006466083
4	0xb9fc9c3b	-0.00048181586
5	0x37ad689b	2.0671918e-05
6	0xbb8c8499	-0.004288268
7	0x3d380670	0.044928014
8	0xbc358231	-0.011078403
9	0x3bd15c5d	0.0063891844
10	0xbcd8001d	-0.026367242
11	0xbaeb284f	-0.001794109
12	0x3caa28a7	0.020771338
13	0x3c0e9d67	0.00870452
14	0x3d114e18	0.035474867
15	0xbcdb9f1a	-0.026809264
16	0xbc07ed15	-0.008296271
17	0x3b41797c	0.0029521873
18	0xbc871f67	-0.016494466
19	0x3c9a6f8c	0.018852018
20	0x3bc85457	0.0061135697
21	0x3cf7db3a	0.030255903
22	0x3c5448c0	0.012956798
23	0xbbfa2a08	-0.007634405
24	0x3a0f18e7	0.0005458728
25	0xbbb7d52e	-0.00561013
26	0x3ce4c14b	0.0279242
27	0xbc455d56	-0.012046179
28	0x3ccfd8f8	0.025372013
29	0xbcc32581	-0.023821594
30	0x3cab6c83	0.020925766
31	0xbb87e46d	-0.0041471035
32	0x3c20b3c0	0.009808481
33	0x3b9dbc19	0.0048136828
34	0x3c567355	0.013089021
35	0xbd0be1e3	-0.03415097
36	0xbbffea3a	-0.0078099044
37	0xbb6d8830	-0.0036244504
38	0xbc8905ba	-0.016726363
39	0x3c878a61	0.016545476
40	0x3c948247	0.018128527
41	0xbbc57013	-0.006025323
42	0x3ac95395	0.0015359992
43	0xbaad3d55	-0.0013217131
44	0xbc0b4a95	-0.008501668
45	0x3cafaaba	0.021443713
46	0x3c2794dd	0.010228363
47	0x3cd5ee0b	0.026114484
48	0x3c19faa6	0.009398138
49	0x3bc6b1a2	0.006063656
50	0x3c4bd987	0.012441999
51	0xba900fff	-0.0010991095
52	0xbcb02217	-0.02150063
53	0xbaa6745b	-0.0012699472
54	0x3bde12c7	0.006777141
55	0x3b1d5013	0.0024004027
56	0x3a3720b3	0.00069857686
57	0xbd42990b	-0.047509234
58	0xbd23f299	-0.04002628
59	0x3b6d1e47	0.0036181377
60	0xbc1ce922	-0.009577068
61	0x3c51641a	0.012780214
62	0xbd01b0f6	-0.031662904
63	0x3bc027ed	0.0058641345
64	0xbba8e239	-0.005153921
65	0xbbebb220	-0.007192865
66	0xbcf18bba	-0.029485572
67	0xbbae5367	-0.005320001
68	0x3c9db1ac	0.01924976
69	0xbc52670a	-0.012841949
70	0xbc8a975f	-0.016917882
71	0x3d0657bf	0.032798525
72	0x3c4a399e	0.012342839
73	0xbd5ddc15	-0.054164965
74	0xbc11ff21	-0.008910925
75	0xbc7134e3	-0.014722082
76	0x3baaff6a	0.005218436
77	0xbcbe4746	-0.023227345
78	0x3c9fa38a	0.019487161
79	0x3b8d07b2	0.004303896
80	0xbb8342b3	-0.004005754
81	0x3b45744c	0.0030129133
82	0xbaf218f5	-0.0018470573
83	0x3b03b61f	0.0020097566
84	0x3abcb982	0.0014398547
85	0xbc68622f	-0.014183565
86	0x39b90819	0.00035291983
87	0x3ce91cba	0.02845608
88	0xbc30f996	-0.010801693
89	0xbca1244b	-0.019670626
90	0xbc07fafc	-0.008299585
91	0xbc915097	-0.017738624
92	0xbc331466	-0.010930156
93	0xbad1e8c7	-0.0016014808
94	0xbb6f0c50	-0.0036475845
95	0x3cb31019	0.021858262
96	0xbc95686f	-0.018238274
97	0xbc9d0cbf	-0.019171117
98	0xbc4330bf	-0.011913477
99	0x3b2c22ef	0.002626594
100	0x3ad16df0	0.0015978198
101	0x3bd00ac0	0.0063489377
102	0x397a6800	0.00023880601
103	0x3c3c8327	0.0115058785
104	0x3cb7f0c6	0.022453677
105	0x3c78c72b	0.015184204
106	0xbac09e90	-0.0014695693
107	0xbc40b7d3	-0.011762577
108	0x3a8c2e65	0.0010694979
109	0x3bd3d5ea	0.0064647095
110	0x3bde56ba	0.006785241
111	0xbc8bf593	-0.017084872
112	0x3bd9679b	0.006634665
113	0x3b7ec02f	0.0038871875
114	0x3c991bb6	0.018689971
115	0x3cd87fc2	0.026428107
116	0x398ed3a9	0.0002724205
117	0xbc0b227b	-0.0084921075
118	0x3c455c5e	0.012045948
119	0xb92051a0	-0.00015289197
120	0x3c2adaa2	0.010428103
121	0x3c713105	0.01472116
122	0xbca1ff14	-0.019774951
123	0x3cf7eae5	0.030263374
124	0x3ce235c3	0.027613526
125	0x3d2247e7	0.039619353
126	0x3c58f1c8	0.013241239
127	0xbc86a057	-0.016433878
128	0xbbe14287	-0.0068743858
129	0xbba50a18	-0.0050366037
130	0xbc51b170	-0.012798652
131	0xbd2f82da	-0.0428494
132	0xbb08f5eb	-0.0020898532
133	0xbbbd89bb	-0.005784241
134	0xbcbb7557	-0.0228831
135	0x3d01ffb8	0.031738013
136	0xbbd3a338	-0.006458666
137	0xbb757428	-0.0037453268
138	0x3cf33de3	0.029692596
139	0xbc3f026f	-0.011658295
140	0xbb216e2b	-0.0024632316
141	0x3ab553de	0.0013834198
142	0x3c9d9c87	0.019239677
143	0xbca67dbc	-0.020323627
144	0xbbf41438	-0.0074486993
145	0xbb52f04d	-0.0032186687
146	0x3d242c78	0.04008147
147	0x3c310ac4	0.010805789
148	0xbb8bc5a3	-0.0042655035
149	0x3ccf16a8	0.025279358
150	0x3c301b13	0.0107486425
151	0x3c117257	0.008877358
152	0xbc55dc93	-0.013053077
153	0xbcaca3af	-0.021074144
154	0x3c0beced	0.008540374
155	0xba874385	-0.0010319805
156	0x3cb00dc2	0.021490935
157	0x3be84b58	0.00708906
158	0x3b4e7147	0.0031500624
159	0x3ca4dff8	0.020126328
160	0x3c23781d	0.009977368
161	0xbc88e6ca	-0.016711611
162	0xbc42e3f0	-0.011895165
163	0xbc83f643	-0.016108638
164	0xba100d70	-0.00054951664
165	0x3c83ce35	0.016089538
166	0x3cb4ffc9	0.022094624
167	0x3cae99dc	0.0213136
168	0xbc33e17f	-0.010979055
169	0x3c950717	0.018191857
170	0x3bb4604b	0.005504643
171	0xbc9e8333	-0.01934967
172	0xbcd29e67	-0.025710298
173	0xbcd2eb18	-0.025746867
174	0x3cf16f48	0.029472008
175	0xbd08dbcf	-0.03341275
176	0xbc019205	-0.007908349
177	0x3c376cf2	0.011195408
178	0x3c26b19b	0.01017418
179	0x3be5cd3a	0.0070129903
180	0x3c320092	0.010864394
181	0x3b9f5361	0.0048622345
182	0x3d67024a	0.056398667
183	0xbc5bdc22	-0.013419183
184	0x3b192ce3	0.0023372702
185	0x3bf659ef	0.007518045
186	0x3cb369dc	0.021901064
187	0x3cc967ad	0.02458557
188	0xbc8a8153	-0.01690737
189	0xbbcc22eb	-0.0062297485
190	0x3cacf246	0.021111619
191	0xbc312b78	-0.010813586
192	0xbbfee150	-0.007778324
193	0xbc9f916b	-0.01947852
194	0xbaf0cc63	-0.0018371459
195	0xbc95a293	-0.018265998
196	0xbbab7aa3	-0.0052331253
197	0xbbb97677	-0.005659874
198	0xbca77d29	-0.020445423
199	0xbc24c040	-0.010055602
200	0xbbf06ada	-0.0073369564
201	0x3bc6e4f9	0.006069776
202	0x3ca2600b	0.019821187
203	0x3bd35122	0.006448881
204	0x3c0701e7	0.0082402
205	0x3c20f6b6	0.0098244455
206	0x3d17c07c	0.0370488
207	0xbce898e5	-0.028393218
208	0x3bb73bae	0.005591831
209	0x3cb27a7e	0.021786924
210	0xbd08392c	-0.03325765
211	0x3c0c6e54	0.008571226
212	0xbd62708d	-0.055283118
213	0x3bcb2bbf	0.0062002833
214	0xbb9533a7	-0.0045532766
215	0xbca881f3	-0.020569777
216	0x3d011269	0.031511698
217	0x3b2a6d77	0.0026005188
218	0x3bc164eb	0.005901923
219	0x3cccc2df	0.024995266
220	0xbd641ef8	-0.055693597
221	0x3c4bdef7	0.012443296
222	0xbc90ed3a	-0.017691243
223	0xbc89e297	-0.01683168
224	0xbb4c7e42	-0.0031203185
225	0xba8b3c5a	-0.0010622845
226	0x3ab2c8c3	0.0013640154
227	0xbc2a54e5	-0.010396217
228	0xbc88390f	-0.01662877
229	0x3c03212f	0.008003517
230	0xbc27b5ca	-0.010236213
231	0x3ce66850	0.028125912
232	0x3cb08188	0.02154614
233	0xbb8ad55c	-0.00423686
234	0xbd0a3c9a	-0.0337492
235	0xbbedd452	-0.0072579766
236	0x3c436c64	0.011927698
237	0xbba5fd4b	-0.0050655953
238	0x3b865907	0.0040999684
239	0xbcf8f1d3	-0.030388748
240	0x3ca70ecf	0.020392803
241	0x3bdf6a90	0.006818123
242	0xbcdad603	-0.026713377
243	0xbb3455ae	-0.002751689
244	0xbc373615	-0.011182328
245	0xbc72bd1f	-0.014815598
246	0x3ba426bf	0.0050095017
247	0xba80c298	-0.0009823618
248	0xbbfe7157	-0.007764976
249	0xbc41b187	-0.011822111
250	0xbcc26f7e	-0.023734804
251	0x3c9b628a	0.018967886
252	0x3c044b5e	0.00807461
253	0x3c252478	0.010079496
254	0xba8f4c56	-0.0010932784
255	0xb9936d80	-0.0002811961

action_model._continuous_distribution.mu.bias f4 [2]
0	0x00000000	0.0
1	0x00000000	0.0

network_body._body_endoder.seq_layers.0.weight f4 [128, 136]
0	0xbde2375a	-0.11045714
1	0x3d14d9a6	0.03634038
2	0xbcb70803	-0.022342687
3	0x3c5d49f3	0.0135064
4	0x3d54d33d	0.051959265
5	0x3df1c54f	0.11805212
6	0x3e0bd19f	0.13654183
7	0xbc945807	-0.018108381
8	0xbe0693a9	-0.13142265
9	0x3cae8713	0.021304643
10	0x3d937047	0.071991496
11	0x3d7a9297	0.061174955
12	0xbe3bbb60	-0.18333197
13	0x3c36cccb	0.011157225
14	0x3db646b8	0.08900207
15	0xbdc2e390	-0.0951606
16	0x3b31606e	0.0027065533
17	0xbc4cb786	-0.012494927
18	0xbd9db5e4	-0.077007085
19	0xbd5e1a1c	-0.05422412
20	0xbe3c0e1e	-0.1836476
21	0x3d9c2894	0.07624927
22	0x3d6da53b	0.058018904
23	0x3d009fda	0.031402446
24	0xbd965f19	-0.07342357
25	0xbdc48e5c	-0.095974654
26	0x3d262c1e	0.040569417
27	0x3d3916ed	0.04518788
28	0xbdb6cfef	-0.08926379
29	0xb96f9782	-0.00022849257
30	0xbb9103e7	-0.004425514
31	0xbc9377ab	-0.018001398
32	0xbd8b8507	-0.06812482
33	0xbe80929d	-0.25111857
34	0x3d8560a4	0.06512573
35	0x3dfea204	0.12433246
36	0x3cc05592	0.023478303
37	0x3d9cd706	0.076582
38	0x3da8d7b4	0.08244267
39	0xbd58017e	-0.052735798
40	0xbcd38c4b	-0.025823733
41	0x3dbef033	0.09323158
42	0x3dcdfa3c	0.10057494
43	0xbdde5f74	-0.1085805
44	0xbd30181e	-0.04299175
45	0x3d4446b7	0.047919
46	0x3dddd0da	0.10830851
47	0x3ddc4009	0.10754401
48	0x3e071e2c	0.13195103
49	0x3d86d587	0.06583696
50	0x3d9af01d	0.07565329
51	0xbdfa8ee6	-0.12234287
52	0xbcab0636	-0.020876985
53	0x3e2b6fd8	0.16741884
54	0xbac2adbf	-0.0014852806
55	0xbe000524	-0.12501961
56	0x3dac1d52	0.0840403
57	0xbd1d9b7a	-0.038478352
58	0x3c30b7bb	0.010785992
59	0xbd1e237b	-0.038608056
60	0x3c7f7002	0.01559067
61	0xbd3c68ac	-0.04599826
62	0x3b2e0ebc	0.0026559075
63	0x3de3a2d4	0.111150414
64	0x38a9daad	8.0992795e-05
65	0xbd40b92f	-0.047051605
66	0x3e4b2f29	0.19842209
67	0x3d05f2ec	0.03270237
68	0x3e4b5ee3	0.19860415
69	0xbc27c793	-0.010240453
70	0xbe1facb4	-0.15593225
71	0xbc850234	-0.016236402
72	0x3dab1f85	0.08355621
73	0x3dcc443e	0.09973954
74	0x3d73231c	0.059359655
75	0x3d943841	0.07237292
76	0x3cd5ecc8	0.026113883
77	0x3da26af4	0.07930556
78	0x3dc06cb5	0.09395734
79	0x3d886109	0.06659133
80	0xbd82eee2	-0.063932195
81	0xbcb8fadc	-0.022580557
82	0x3d563851	0.0522998
83	0x3ae42ee5	0.0017408995
84	0xbb0f9eeb	-0.002191479
85	0xbd22f7e3	-0.039787184
86	0xbe30ea65	-0.17276914
87	0x3d16540e	0.036701255
88	0xbd0fa97a	-0.035073735
89	0x3de3eb1c	0.11128828
90	0x3d26796f	0.04064315
91	0x3cbf7dbd	0.023375386
92	0x3cf8d247	0.030373706
93	0xbd05ef7d	-0.032699097
94	0xbc9d851f	-0.019228516
95	0xbd043940	-0.03228116
96	0xbe17201a	-0.1475834
97	0xbd64b4af	-0.055836376
98	0xbbf34918	-0.007424485
99	0x3d2d0ba5	0.042247433
100	0xbda22d1e	-0.07918762
101	0x3c7d9094	0.015476365
102	0x3e0db49a	0.13838425
103	0x3c806cf1	0.015676947
104	0x3d87dd07	0.066339545
105	0xbcfebd4e	-0.031096127
106	0xbd895964	-0.06706503
107	0xbe158c0b	-0.14604203
108	0xbdcc79f4	-0.09984198
109	0xbd686739	-0.056739066
110	0x3bcedf27	0.006313223
111	0xbd3902e3	-0.04516877
112	0xbd9a0758	-0.07520932
113	0xbdaee9b3	-0.08540668
114	0xbe814242	-0.25245863
115	0xbd772ffb	-0.060348492
116	0x3e50709c	0.20355457
117	0x3e04e567	0.12978135
118	0x3d38cae0	0.04511535
119	0xbe08b6c2	-0.13350967
120	0x3bfce46e	0.0077176606
121	0x3d8d203c	0.06890914
122	0xbc27ad86	-0.010234242
123	0xbd22bc43	-0.03973032
124	0xbb6dc5a5	-0.0036281135
125	0xbc38fa2f	-0.011290117
126	0x3dcdc3fd	0.100471474
127	0x3d45b905	0.04827215
128	0xbdb3f7e1	-0.087875135
129	0xbd9e73be	-0.0773692
130	0xbd26dc72	-0.040737577
131	0xbd0730df	-0.03300559
132	0xbd929de3	-0.07159021
133	0xbd8922f3	-0.06696119
134	0x3d1f5da2	0.038907655
135	0xbdb14fb1	-0.08657778
136	0x3d9fcdf1	0.07802952
137	0xbd2bfa4b	-0.041986745
138	0x3d5a98be	0.053368323
139	0x3d996ba2	0.074912325
140	0xbd5da877	-0.05411574
141	0xbd03f0ff	-0.032212254
142	0xbdd848a2	-0.105607286
143	0x3c4e6650	0.012597635
144	0x3d229f0a	0.039702453
145	0x3df66b32	0.12032165
146	0x3da981db	0.08276721
147	0x3ba384ec	0.0049902108
148	0xbc3b83eb	-0.011445026
149	0x3d3c3ffe	0.045959465
150	0xbb71410e	-0.0036812457
151	0xbdb7c754	-0.08973566
152	0x3c515e97	0.0127789
153	0xbd8dd16f	-0.06924712
154	0xbd1348ff	-0.035958286
155	0xbe87013e	-0.26368135
156	0xbe200fa4	-0.15630966
157	0xbe04e2e3	-0.12977175
158	0x3d4aca5b	0.049509387
159	0xbcdcdfcd	-0.026962185
160	0x3c9aa552	0.018877659
161	0xbdfc9363	-0.12332799
162	0x3d8e06ee	0.069349155
163	0x3d3235ac	0.043508217
164	0xbe043365	-0.1291023
165	0xbc9ca416	-0.019121211
166	0x3ca6c7da	0.020358969
167	0x3d9e5fa4	0.07733086
168	0xbd930e17	-0.07180422
169	0xbda720f1	-0.0816058
170	0xbc59f85b	-0.013303841
171	0xbd2439bc	-0.040094122
172	0xbe337533	-0.17525177
173	0x3e027bcb	0.12742536
174	0x3e0efb9e	0.13963172
175	0x3c49a7fd	0.012308118
176	0x3c91303f	0.0177232
177	0xbe106fc0	-0.14105129
178	0xbd8c1caf	-0.068414085
179	0x3dec54af	0.115395896
180	0x3dd95b70	0.106131434
181	0xbd3eff2e	-0.046630077
182	0x3d9881c6	0.07446627
183	0xbc92519f	-0.017861186
184	0xbdeea3c8	-0.116523325
185	0xbe69e4ac	-0.22841138
186	0x3d111a57	0.03542551
187	0xbd3ac20b	-0.04559521
188	0x3c2a6dc7	0.0104021495
189	0xbd4fb2b9	-0.050707553
190	0xbbaccc66	-0.0052733896
191	0xbb67e8b0	-0.0035386495
192	0xbbbe5962	-0.005808995
193	0xbdd90d12	-0.10598196
194	0xbd5d149e	-0.05397474
195	0xbc5ca4c0	-0.013467014
196	0xbd8442e8	-0.06458074
197	0x3e78ce50	0.24297452
198	0x3de980bb	0.114015065
199	0xbd9a0ee5	-0.07522372
200	0x3dd55cd4	0.10418096
201	0x3cc6f373	0.024286008
202	0x3e375c4c	0.17906302
203	0x3e1d8127	0.15381299
204	0xbd6f17a1	-0.058372144
205	0x3dddf3d1	0.1083752
206	0x3d1b8ea3	0.037977826
207	0xbce9fa4c	-0.028561734
208	0xbcb2eef2	-0.021842454
209	0xbd0eabe4	-0.034831896
210	0xbde6a260	-0.11261439
211	0x3da42231	0.08014334
212	0xbd5918bf	-0.053002115
213	0x3d1358b5	0.03597327
214	0x3a940d2f	0.0011295433
215	0x3db58040	0.08862352
216	0x3cbacd17	0.022802873
217	0x3cd56c14	0.026052512
218	0xbdd17441	-0.10227252
219	0xbd78b8e8	-0.060723215
220	0xbe046db3	-0.12932472
221	0x3e565795	0.20931847
222	0xbde89c85	-0.11357979
223	0x3e0837ec	0.13302583
224	0xbd8544ba	-0.06507249
225	0x3da9d796	0.08293073
226	0x3d809712	0.062788144
227	0x3c849ffd	0.01618957
228	0xbc192ea3	-0.009349498
229	0x3c54bd7a	0.012984628
230	0xbd1ae791	-0.037818495
231	0xbd6a6286	-0.057222866
232	0xbe144697	-0.14480053
233	0x3cbf1e61	0.023329915
234	0x3d7cd550	0.06172687
235	0xbcf21d50	-0.029554993
236	0xbd73aced	-0.059491087
237	0x3dff0f0d	0.124540426
238	0x3e280d8b	0.16411416
239	0xbdad8643	-0.08472874
240	0x3c98764a	0.018611092
241	0xbd52f299	-0.05150089
242	0x3d07b42d	0.033130813
243	0x3d2b3e45	0.04180743
244	0xbe13a53f	-0.14418505
245	0x3e179a75	0.14805014
246	0x3e20b954	0.15695697
247	0x3c0fbfdb	0.008773769
248	0x3d8ef81c	0.06980917
249	0xbcc40594	-0.023928441
250	0xbe067c3e	-0.13133332
251	0xbd7c2307	-0.061556842
252	0xbb8c13b4	-0.0042748097
253	0x3dcbd214	0.099521786
254	0xbd394d16	-0.04523953
255	0xbc2563b4	-0.010094572

network_body._body_endoder.seq_layers.0.bias f4 [128]
0	0x00000000	0.0
1	0x00000000	0.0
2	0x00000000	0.0
3	0x00000000	0.0
4	0x00000000	0.0
5	0x00000000	0.0
6	0x00000000	0.0
7	0x00000000	0.0
8	0x00000000	0.0
9	0x00000000	0.0
10	0x00000000	0.0
11	0x00000000	0.0
12	0x00000000	0.0
13	0x00000000	0.0
14	0x00000000	0.0
15	0x00000000	0.0
16	0x00000000	0.0
17	0x00000000	0.0
18	0x00000000	0.0
19	0x00000000	0.0
20	0x00000000	0.0
21	0x00000000	0.0
22	0x00000000	0.0
23	0x00000000	0.0
24	0x00000000	0.0
25	0x00000000	0.0
26	0x00000000	0.0
27	0x00000000	0.0
28	0x00000000	0.0
29	0x00000000	0.0
30	0x00000000	0.0
31	0x00000000	0.0
32	0x00000000	0.0
33	0x00000000	0.0
34	0x00000000	0.0
35	0x00000000	0.0
36	0x00000000	0.0
37	0x00000000	0.0
38	0x00000000	0.0
39	0x00000000	0.0
40	0x00000000	0.0
41	0x00000000	0.0
42	0x00000000	0.0
43	0x00000000	0.0
44	0x00000000	0.0
45	0x00000000	0.0
46	0x00000000	0.0
47	0x00000000	0.0
48	0x00000000	0.0
49	0x00000000	0.0
50	0x00000000	0.0
51	0x00000000	0.0
52	0x00000000	0.0
53	0x00000000	0.0
54	0x00000000	0.0
55	0x00000000	0.0
56	0x00000000	0.0
57	0x00000000	0.0
58	0x00000000	0.0
59	0x00000000	0.0
60	0x00000000	0.0
61	0x00000000	0.0
62	0x00000000	0.0
63	0x00000000	0.0
64	0x00000000	0.0
65	0x00000000	0.0
66	0x00000000	0.0
67	0x00000000	0.0
68	0x00000000	0.0
69	0x00000000	0.0
70	0x00000000	0.0
71	0x00000000	0.0
72	0x00000000	0.0
73	0x00000000	0.0
74	0x00000000	0.0
75	0x00000000	0.0
76	0x00000000	0.0
77	0x00000000	0.0
78	0x00000000	0.0
79	0x00000000	0.0
80	0x00000000	0.0
81	0x00000000	0.0
82	0x00000000	0.0
83	0x00000000	0.0
84	0x00000000	0.0
85	0x00000000	0.0
86	0x00000000	0.0
87	0x00000000	0.0
88	0x00000000	0.0
89	0x00000000	0.0
90	0x00000000	0.0
91	0x00000000	0.0
92	0x00000000	0.0
93	0x00000000	0.0
94	0x00000000	0.0
95	0x00000000	0.0
96	0x00000000	0.0
97	0x00000000	0.0
98	0x00000000	0.0
99	0x00000000	0.0
100	0x00000000	0.0
101	0x00000000	0.0
102	0x00000000	0.0
103	0x00000000	0.0
104	0x00000000	0.0
105	0x00000000	0.0
106	0x00000000	0.0
107	0x00000000	0.0
108	0x00000000	0.0
109	0x00000000	0.0
110	0x00000000	0.0
111	0x00000000	0.0
112	0x00000000	0.0
113	0x00000000	0.0
114	0x00000000	0.0
115	0x00000000	0.0
116	0x00000000	0.0
117	0x00000000	0.0
118	0x00000000	0.0
119	0x00000000	0.0
120	0x00000000	0.0
121	0x00000000	0.0
122	0x00000000	0.0
123	0x00000000	0.0
124	0x00000000	0.0
125	0x00000000	0.0
126	0x00000000	0.0
127	0x00000000	0.0

network_body._body_endoder.seq_layers.2.weight f4 [128, 128]
0	0x3c1057ca	0.008809993
1	0x3dbec5e9	0.09315092
2	0x3e260f26	0.16216716
3	0x3d2dd3fb	0.04243849
4	0x3d43898d	0.0477386
5	0x3c7f8f55	0.015598138
6	0xbd12cb10	-0.035838187
7	0x3daa399d	0.0831177
8	0x3d610938	0.054940432
9	0x3df0d22e	0.117588386
10	0x3d7402e2	0.05957306
11	0xbcdfe82f	-0.027332393
12	0xbe04193c	-0.12900251
13	0xbe1f3ca4	-0.15550476
14	0xbde1daca	-0.11028059
15	0xbdfc684d	-0.12324581
16	0x3cef3534	0.029200174
17	0xbdd91f81	-0.10601712
18	0xbd8e2109	-0.06939895
19	0xbdc2a332	-0.09503783
20	0x3dbfe1d3	0.093692444
21	0xbc08f7a9	-0.008359828
22	0xbc29838b	-0.010346304
23	0x3daadbad	0.08342681
24	0xbdab8419	-0.08374805
25	0x3cf29731	0.02961311
26	0x3c6a8a0d	0.01431514
27	0x3de1e543	0.11030056
28	0x3df7cd3a	0.12099691
29	0x3d8f9e24	0.07012585
30	0xbdea26d4	-0.11433187
31	0xbd7af041	-0.06126428
32	0xbd6d80c2	-0.05798412
33	0xbaf19e00	-0.0018433928
34	0x3e505b87	0.20347415
35	0x3c601395	0.013676544
36	0x3c04cc65	0.008105372
37	0xbc7316a9	-0.014836946
38	0xbe0e938c	-0.13923472
39	0x3d116a2d	0.035501648
40	0xbd4624eb	-0.04837505
41	0x3dccaa8c	0.09993467
42	0xbdd2a4fb	-0.10285374
43	0x3c2f2817	0.0106907105
44	0xbc97bcb2	-0.018522594
45	0x3d14383f	0.036186453
46	0xbca91dc0	-0.020644069
47	0xbd05f163	-0.032700907
48	0xbd20723b	-0.03917144
49	0x3de760b0	0.112977386
50	0x3dfc1a64	0.12309721
51	0x3d7acf72	0.06123299
52	0xbe2664b3	-0.16249351
53	0x3d6e22dd	0.058138717
54	0x3d4cdae2	0.05001343
55	0xbd18aefd	-0.037276257
56	0x3d83910e	0.06424151
57	0xbd77368c	-0.060354754
58	0x3d2d949a	0.042378046
59	0x3e734d2e	0.2375991
60	0xbdeafd5e	-0.11474107
61	0xbc1c0588	-0.009522803
62	0xbdae123c	-0.08499572
63	0x3d3cc2ea	0.046084322
64	0xbd0ffc0b	-0.035152476
65	0xbd3c6e2f	-0.046003517
66	0x3e0b0433	0.1357582
67	0x3c01242c	0.007882159
68	0xbdf8f056	-0.121552154
69	0x3d807904	0.06273082
70	0x3d65207f	0.055939194
71	0x3e04781d	0.12936445
72	0x3d61b66f	0.055105623
73	0xbe1db984	-0.154028
74	0xbdd907d2	-0.10597195
75	0x3db910fe	0.09036444
76	0x3d185774	0.037192777
77	0x3d850f85	0.06497101
78	0x3b40bea4	0.0029410506
79	0xbcab1826	-0.020885538
80	0xbd578440	-0.052616358
81	0xbd6b7b96	-0.057490908
82	0xbd190667	-0.03735962
83	0xbda4b31c	-0.08041975
84	0xbe0089cc	-0.12552565
85	0x3c9489b5	0.01813207
86	0xbdfbdb18	-0.12297648
87	0xbdc959a0	-0.09831548
88	0x3dd10756	0.10206477
89	0xbdd000a6	-0.10156374
90	0x3b258412	0.0025255722
91	0x3d87d090	0.06631577
92	0x3ce92de2	0.028464261
93	0x3dba505a	0.09097357
94	0x38cc9a70	9.756244e-05
95	0x39b94ed4	0.0003534468
96	0xbdec8801	-0.11549378
97	0x3d763fa4	0.060119286
98	0x3d39b275	0.045336206
99	0xbe1a31ca	-0.15058056
100	0xbda36e5b	-0.07980033
101	0x3e0cfc75	0.1376818
102	0xbd81c6df	-0.0633676
103	0x3da39810	0.07987988
104	0xbc0e47fa	-0.008684153
105	0x3cac669c	0.021045022
106	0xbd669a46	-0.05629947
107	0x3e1c768b	0.15279596
108	0x3a5d29d0	0.00084367115
109	0x3cd76832	0.026294801
110	0xbde5ec8e	-0.1122676
111	0x3dee44b0	0.11634195
112	0xbc51414a	-0.012771914
113	0x3d0a37e0	0.033744693
114	0x3c8c7617	0.017146153
115	0xbe2921ab	-0.1651675
116	0xbcdd107f	-0.026985405
117	0x3da15ba7	0.078788094
118	0xbd57f244	-0.052721277
119	0xbd12ee8a	-0.03587202
120	0x3df7cdc1	0.12099791
121	0x3e066011	0.13122584
122	0x3b773903	0.003772319
123	0x3e0863f8	0.13319385
124	0x3da3a624	0.07990673
125	0x3cc369f5	0.023854235
126	0xbd97a3f0	-0.074043155
127	0xbdb27fee	-0.08715807
128	0x3e1218cd	0.14267273
129	0x3d65a133	0.056061935
130	0x3d9d7201	0.0768776
131	0x3dd072a3	0.10178115
132	0x3dbeb96d	0.09312711
133	0xbd5f1d47	-0.05447128
134	0x3dcfa3e5	0.10138682
135	0x3c5193b7	0.012791566
136	0x3e3348e8	0.1750828
137	0x3b574cf9	0.0032852276
138	0x3cc7d618	0.02439408
139	0xbd94b5ea	-0.0726126
140	0x3e8bbf01	0.27294162
141	0x3d36efd6	0.04466232
142	0x3dde17a8	0.10844356
143	0x3d8b7d28	0.06810981
144	0x3dbfa55e	0.09357713
145	0xbddbb413	-0.10727706
146	0xbde371b2	-0.1110567
147	0xbcc317f9	-0.023815142
148	0x3d1f8c3a	0.03895209
149	0x3e00f610	0.12593865
150	0xbc41f619	-0.011838459
151	0xbd9a5d51	-0.0753733
152	0x3d70cb0e	0.058787398
153	0x3b593cf5	0.0033147905
154	0x3c87fb87	0.01659943
155	0x3cc41bf3	0.023939108
156	0xbd19dd9d	-0.037564863
157	0xbc616ec0	-0.013759315
158	0x3c8b916a	0.017037112
159	0xbcde1f5b	-0.02711456
160	0xbdd4eb8a	-0.10396488
161	0xbd7cafe5	-0.061691184
162	0x3df2ad6e	0.11849485
163	0x3c902777	0.017596943
164	0xbcfb6c48	-0.030691281
165	0xbdc9b487	-0.09848886
166	0x3de254c2	0.110513225
167	0x3e1073c2	0.14106658
168	0xbc70f2e7	-0.01470635
169	0x3e12e48b	0.14344995
170	0x3dfdc2c8	0.12390667
171	0x3c2afe02	0.010436537
172	0xbd5f3e94	-0.05450304
173	0x3e301633	0.17195968
174	0xbd2f685b	-0.04282413
175	0xbb7ac392	-0.0038263542
176	0x3c01775e	0.0079019945
177	0xbd8a6905	-0.06758312
178	0x3c738d21	0.014865191
179	0xbd4848c5	-0.048897523
180	0x3d7cb09d	0.06169187
181	0x3d1b385b	0.03789554
182	0x3dbfe0b7	0.09369033
183	0xbe3d655b	-0.18495695
184	0x3e1732c9	0.14765467
185	0x3ba0ed80	0.0049111247
186	0xbcbc18e6	-0.022961091
187	0x3d8103dc	0.06299564
188	0x3dfaa171	0.12237824
189	0xbc9689ef	-0.018376319
190	0xbd979f22	-0.07403399
191	0x3db9f496	0.09079854
192	0x3d6689c7	0.05628374
193	0xbb567696	-0.0032724491
194	0x3dd43def	0.103633754
195	0x3ca0cc53	0.01962868
196	0x3cc7433b	0.02432405
197	0xbd199fa7	-0.037505772
198	0xbcff2dce	-0.031149771
199	0xbcac6633	-0.021044826
200	0x3cebbad4	0.02877561
201	0x3cad449f	0.021150885
202	0x3a96eb25	0.001151417
203	0x3d850eaf	0.06496941
204	0x3d1057ae	0.035239868
205	0xbdca603e	-0.09881638
206	0x3ca81e9d	0.02052241
207	0xbc9fca17	-0.019505544
208	0xbdc23b03	-0.09483912
209	0xbdd7ac73	-0.10530939
210	0x3e05d41f	0.13069199
211	0x3c094797	0.008378885
212	0xbe413932	-0.18869475
213	0x3da1cbce	0.07900201
214	0x3d6e9f0b	0.058257144
215	0x3dfda18b	0.123843275
216	0xbde18c8f	-0.110131375
217	0x3bfc9639	0.0077083376
218	0x3dbfaf1b	0.093595706
219	0xbdbe9b83	-0.09307005
220	0x3cdf6236	0.02726851
221	0x3dbb3ede	0.0914285
222	0x3dd3de88	0.10345179
223	0xbe5a6950	-0.21329236
224	0x3d431396	0.0476261
225	0xbc4b2c41	-0.012400688
226	0xbe5532d2	-0.20820168
227	0xbdb281cd	-0.08716164
228	0xbde58948	-0.11207825
229	0x3e13a9d3	0.14420252
230	0x3c706d78	0.014674537
231	0xbe793aeb	-0.24338882
232	0x3d3463e6	0.044040583
233	0x3d2a0cce	0.041516118
234	0x3ead3ab6	0.33833855
235	0xbd1286c9	-0.035773072
236	0x3cf077aa	0.029353935
237	0xbda71dc9	-0.08159978
238	0x3e2c1658	0.16805398
239	0xbd252312	-0.04031665
240	0x3d1358e5	0.03597345
241	0xbdfad0cd	-0.12246857
242	0x3c094a0d	0.0083794715
243	0xbc78f7cb	-0.015195797
244	0xbb7b8fd2	-0.0038385284
245	0x3d8da86c	0.069168895
246	0x3c34fa53	0.01104601
247	0x3d5c9f07	0.053862598
248	0xbddd31f2	-0.10800542
249	0x3dadd84e	0.084885225
250	0x3ce23623	0.027613705
251	0xbc018bd6	-0.007906875
252	0xbd0150a8	-0.03157106
253	0xbca9e8da	-0.020740915
254	0xbd12b463	-0.03581656
255	0x3d3e89d9	0.04651818

network_body._body_endoder.seq_layers.2.bias f4 [128]
0	0x00000000	0.0
1	0x00000000	0.0
2	0x00000000	0.0
3	0x00000000	0.0
4	0x00000000	0.0
5	0x00000000	0.0
6	0x00000000	0.0
7	0x00000000	0.0
8	0x00000000	0.0
9	0x00000000	0.0
10	0x00000000	0.0
11	0x00000000	0.0
12	0x00000000	0.0
13	0x00000000	0.0
14	0x00000000	0.0
15	0x00000000	0.0
16	0x00000000	0.0
17	0x00000000	0.0
18	0x00000000	0.0
19	0x00000000	0.0
20	0x00000000	0.0
21	0x00000000	0.0
22	0x00000000	0.0
23	0x00000000	0.0
24	0x00000000	0.0
25	0x00000000	0.0
26	0x00000000	0.0
27	0x00000000	0.0
28	0x00000000	0.0
29	0x00000000	0.0
30	0x00000000	0.0
31	0x00000000	0.0
32	0x00000000	0.0
33	0x00000000	0.0
34	0x00000000	0.0
35	0x00000000	0.0
36	0x00000000	0.0
37	0x00000000	0.0
38	0x00000000	0.0
39	0x00000000	0.0
40	0x00000000	0.0
41	0x00000000	0.0
42	0x00000000	0.0
43	0x00000000	0.0
44	0x00000000	0.0
45	0x00000000	0.0
46	0x00000000	0.0
47	0x00000000	0.0
48	0x00000000	0.0
49	0x00000000	0.0
50	0x00000000	0.0
51	0x00000000	0.0
52	0x00000000	0.0
53	0x00000000	0.0
54	0x00000000	0.0
55	0x00000000	0.0
56	0x00000000	0.0
57	0x00000000	0.0
58	0x00000000	0.0
59	0x00000000	0.0
60	0x00000000	0.0
61	0x00000000	0.0
62	0x00000000	0.0
63	0x00000000	0.0
64	0x00000000	0.0
65	0x00000000	0.0
66	0x00000000	0.0
67	0x00000000	0.0
68	0x00000000	0.0
69	0x00000000	0.0
70	0x00000000	0.0
71	0x00000000	0.0
72	0x00000000	0.0
73	0x00000000	0.0
74	0x00000000	0.0
75	0x00000000	0.0
76	0x00000000	0.0
77	0x00000000	0.0
78	0x00000000	0.0
79	0x00000000	0.0
80	0x00000000	0.0
81	0x00000000	0.0
82	0x00000000	0.0
83	0x00000000	0.0
84	0x00000000	0.0
85	0x00000000	0.0
86	0x00000000	0.0
87	0x00000000	0.0
88	0x00000000	0.0
89	0x00000000	0.0
90	0x00000000	0.0
91	0x00000000	0.0
92	0x00000000	0.0
93	0x00000000	0.0
94	0x00000000	0.0
95	0x00000000	0.0
96	0x00000000	0.0
97	0x00000000	0.0
98	0x00000000	0.0
99	0x00000000	0.0
100	0x00000000	0.0
101	0x00000000	0.0
102	0x00000000	0.0
103	0x00000000	0.0
104	0x00000000	0.0
105	0x00000000	0.0
106	0x00000000	0.0
107	0x00000000	0.0
108	0x00000000	0.0
109	0x00000000	0.0
110	0x00000000	0.0
111	0x00000000	0.0
112	0x00000000	0.0
113	0x00000000	0.0
114	0x00000000	0.0
115	0x00000000	0.0
116	0x00000000	0.0
117	0x00000000	0.0
118	0x00000000	0.0
119	0x00000000	0.0
120	0x00000000	0.0
121	0x00000000	0.0
122	0x00000000	0.0
123	0x00000000	0.0
124	0x00000000	0.0
125	0x00000000	0.0
126	0x00000000	0.0
127	0x00000000	0.0

value_heads.value_heads.extrinsic.weight f4 [1, 128]
0	0xbe26096f	-0.16214536
1	0xbd15450a	-0.036442794
2	0x3d500255	0.050783474
3	0x3e03d259	0.1287321
4	0xbd8627f5	-0.0655059
5	0xbde6ce99	-0.11269874
6	0xbe00c657	-0.1257566
7	0x3db8bcde	0.090203986
8	0x3e43fa21	0.19138385
9	0xbe474263	-0.19458918
10	0xbd2738b2	-0.040825553
11	0xbdd58417	-0.10425585
12	0x3dddc667	0.10828858
13	0xbde8c110	-0.11364949
14	0x3d6e301e	0.058151357
15	0x3e56e8c3	0.20987229
16	0x3de23087	0.11044412
17	0xbc60181d	-0.013677624
18	0x3e159680	0.14608192
19	0xbccbf1ef	-0.024895636
20	0x3e190edc	0.14947075
21	0x3e534560	0.20631933
22	0xbd53e577	-0.051732507
23	0x3e4a5ed2	0.19762734
24	0xbc3ff288	-0.011715539
25	0x3e406726	0.18789348
26	0x3dbee551	0.093210824
27	0xbe54408c	-0.20727748
28	0xbd9727af	-0.07380616
29	0x3e0c30eb	0.13690536
30	0xbd9169ac	-0.071002334
31	0xbe54a203	-0.20764928
32	0xbd2f57f1	-0.042808477
33	0xbe5be5ae	-0.21474335
34	0x3e2b7f04	0.16747671
35	0xbe3121d7	-0.17298065
36	0x3c0e2410	0.00867559
37	0x3d09f30c	0.033679053
38	0xbe136324	-0.14393288
39	0x3e2db3fe	0.16963193
40	0xbd3c9dc7	-0.046048906
41	0xbc2507f7	-0.0100727
42	0xbd1bfae8	-0.03808108
43	0xbe118e95	-0.14214547
44	0x3d75dcf7	0.06002518
45	0x3dc156bf	0.09440374
46	0x3ddb03ec	0.106941074
47	0xbd38dd98	-0.045133203
48	0x3e1ed396	0.15510401
49	0x3e4e3cff	0.20140456
50	0x3e0ff0c9	0.14056696
51	0x3dcd02b6	0.10010283
52	0x3b3d2d6d	0.0028866187
53	0xbe3b842d	-0.1831214
54	0xbdd3a0d5	-0.10333411
55	0x3d9fe262	0.07806851
56	0xbe328cd8	-0.1743654
57	0x3d7299db	0.05922876
58	0xbdf263f9	-0.118354745
59	0x3d25f051	0.040512387
60	0x3e1e9462	0.15486291
61	0x3d4b9e72	0.049711652
62	0x3e4e48a9	0.20144905
63	0x3ce6b3e7	0.028161956
64	0x3dbb3323	0.09140613
65	0x3e48395c	0.19553131
66	0x3dc22130	0.09478986
67	0xbe364f4f	-0.17803691
68	0xbe4b9b43	-0.19883446
69	0xbe17b514	-0.1481517
70	0x3e35155a	0.17683926
71	0x3b008359	0.001960954
72	0xbde9004b	-0.11377009
73	0x3dace965	0.08442954
74	0xbdc0f799	-0.094222255
75	0xbdcf61b7	-0.101260595
76	0x3e45ef78	0.19329631
77	0xbe394163	-0.1809135
78	0xbc9d1850	-0.019176632
79	0x3e3b1d89	0.18272986
80	0x3e234728	0.15945113
81	0xbbde4def	-0.0067841928
82	0x3ce45878	0.027874216
83	0xbe056f91	-0.1303084
84	0x3dabe902	0.08394052
85	0x3d6d5b42	0.05794836
86	0xbd6fd9a4	-0.058557168
87	0xbdd6871b	-0.10474988
88	0xbd00fb80	-0.03148985
89	0x3e523e7c	0.20531648
90	0xbd78b5a9	-0.06072012
91	0xbd1decf6	-0.03855606
92	0xbd188e5d	-0.037245143
93	0x3ddad869	0.10685808
94	0x3e502461	0.20326377
95	0x3d2b1f86	0.04177811
96	0xbd9a62e7	-0.075383954
97	0x3dac1ce4	0.08403948
98	0x3e0cb46a	0.13740698
99	0x3e201312	0.15632275
100	0xbe47002d	-0.19433661
101	0x3e45d205	0.19318397
102	0xbe134b90	-0.14384294
103	0xbe2ff569	-0.1718346
104	0x3defd389	0.11710269
105	0x3c49366c	0.012281042
106	0x3e0a9e3e	0.13536927
107	0x3e029e4a	0.12755695
108	0xbe380d3a	-0.17973796
109	0x3b970de9	0.0046098125
110	0xbe2182be	-0.1577253
111	0x3e4dd886	0.20102128
112	0x3dd4ca31	0.103901275
113	0xbba531dc	-0.005041344
114	0xbd417b4d	-0.04723673
115	0xbe578b10	-0.21049142
116	0x3bce63e7	0.0062985304
117	0x3c861615	0.016367951
118	0x3c97ea0d	0.018544221
119	0x3e1e1c61	0.15440513
120	0xbd81f6dc	-0.06345913
121	0x39519997	0.0001998901
122	0xbe27f55f	-0.16402195
123	0xbb4ea731	-0.003153276
124	0xbe2f68d1	-0.17129828
125	0x3decd53c	0.11564109
126	0x3e37c676	0.179468
127	0x3e59af28	0.21258223
