results/car1/CarParking/CarParking-2560.onnx (onnx, 141246 bytes, 6 tensors)

network_body._body_endoder.seq_layers.0.weight f4 [128, 136]
0.15048413 -0.047492553 -0.120383516 0.06322828 -0.03890068 0.062313505 -0.1013079 0.14867671
0.09543295 -0.116729446 -0.034236435 -0.024990372 0.04240488 -0.12759419 0.00022568175 -0.0022979202
0.10525796 -0.07732667 0.031839475 0.0032517659 -0.089721106 -0.039250802 0.06284465 -0.052169904
-0.009852513 -0.0076648085 0.09256809 0.038982812 0.02051908 0.056756668 -0.03951354 0.1329865
-0.009400233 0.016521536 -0.07548628 -0.028814195 -0.04377583 -0.041918136 -0.08461301 -0.075189434
-0.068046965 -0.11961833 -0.030614236 -0.084660634 0.17794634 0.057976548 -0.097003214 -0.12589009
0.06606577 -0.09722143 -0.15754952 -0.09578394 0.007891818 0.03334183 -0.065313116 -0.115153
-0.051263765 -0.08678818 -0.07055617 0.110872574 -0.0378111 0.041091245 0.06263174 -0.024026386
-0.24173053 0.099725865 0.19153938 0.10261142 -0.071869515 -0.13859387 0.04503737 0.004731856
0.09735743 -0.059227157 0.07923999 0.02710636 0.08100678 -0.011659718 0.030430302 -0.0018903738
0.049737122 0.013546614 -0.0020340509 0.0107178455 0.13212 0.00645284 0.018305406 -0.085324146
0.15400277 -0.16654417 0.09895071 0.14059602 0.077198006 -0.028589036 -0.015480902 -0.017338956
0.065599084 0.20622288 0.17529994 -0.09663989 0.018468633 -0.0075219097 -0.1675757 0.047786232
0.06016469 0.08838134 -0.14560619 -0.091402486 -0.031757522 0.039252352 -0.04430153 -0.16156462
-0.10951487 0.123072214 -0.07778755 -0.06777562 -0.017725859 0.075904414 0.18802561 0.17192659
-0.16221698 0.049244147 -0.13953975 -0.0051378454 -0.18924738 0.013031103 0.13051379 0.014801942
-0.04959578 -0.11832711 -0.05277395 -0.03178685 0.14894383 0.08311388 -0.09943965 -0.006000529
-0.2467087 -0.061212696 0.04473779 -0.052545577 -0.14875703 -0.0058604856 -0.017176462 -0.0021886865
-0.14829487 0.086820096 -0.12166264 -0.10005099 -0.079116546 0.019346612 0.08099964 0.0060728053
-0.03030689 -0.079286486 0.019998793 0.1120217 0.13677816 -0.0060602706 0.010647248 0.026655864
0.029919036 -0.036736768 0.071673825 -0.06802884 0.066809855 0.08912193 0.04004841 -0.21517636
-0.12473828 0.019495813 0.11159342 0.10411226 -0.017951628 0.10332581 -0.055132434 -0.09344568
-0.050965816 0.05796829 -0.07810367 -0.05302167 -0.080585584 -0.070473485 0.0023015195 0.08465549
0.17564948 -0.06728522 0.031742256 -0.070550896 -0.0030993463 -0.0131817665 -0.055965666 -0.057017107
0.006457304 0.09922787 0.25955454 0.111183666 0.023537867 0.0036078715 -0.011605776 0.098169066
0.050865315 0.026331054 0.048725165 -0.084663235 0.10882671 -0.093275376 -0.004331653 -0.0864152
0.060334805 0.06885913 -0.09570244 0.101061024 0.0488043 -0.066787496 -0.0361546 0.078815006
0.04095262 -0.20197125 0.019286504 -0.023719864 0.13706303 -0.21465118 0.012334412 -0.03484938
-0.048889086 -0.015618964 0.04826829 -0.035694536 0.030929862 -0.019498898 -0.020017184 -0.055323005
0.0714894 0.013480414 0.06485611 0.038178228 -0.07382842 -0.017111292 0.13087071 -0.08045317
0.058327697 0.00229144 -0.044454396 0.0006164568 -0.07314534 -0.033686414 -0.09505589 -0.044283427
-0.05377257 -0.018225303 0.05440132 0.04209764 0.010619277 0.04905872 -0.17573911 0.0744629
00000000: 8318 1a3e 8d87 42bd a28b f6bd d47d 813d
00000010: 5256 1fbd 723c 7f3d 847a cfbd b53e 183e
00000020: 5a72 c33d d90f efbd 813b 0cbd 9cb8 ccbc
00000030: bdb0 2d3d 0da8 02be fca4 6c39 b498 16bb
00000040: 7c91 d73d 725d 9ebd 1c6a 023d 941b 553b
00000050: b3bf b7bd 73c5 20bd b2b4 803d 1cb0 55bd
00000060: 6f6c 21bc 1329 fbbb 5794 bd3d 71ac 1f3d
00000070: a117 a83c ae79 683d f3d8 21bd 9d2d 083e
00000080: 6f03 1abc 2c58 873c 8d98 9abd bf0b ecbc
00000090: 494e 33bd 5ab2 2bbd 9649 adbd ebfc 99bd
000000a0: 355c 8bbd 74fa f4bd b5ca fabc 8e62 adbd
000000b0: 9137 363e d178 6d3d 9fa9 c6bd 55e9 00be
000000c0: 7e4d 873d 071c c7bd a954 21be 5f2a c4bd
000000d0: af4c 013c 7191 083d e2c2 85bd 56d5 ebbd
000000e0: f4f9 51bd 00be b1bd c17f 90bd 2911 e33d
000000f0: d0df 1abd 4b4f 283d 1245 803d fcd2 c4bc
00000100: 3588 77be 133d cc3d e622 443e f025 d23d
00000110: 5330 93bd 8deb 0dbe 1b79 383d af0d 9b3b
00000120: 5563 c73d 2d98 72bd 9348 a23d 280e de3c
00000130: e2e6 a53d 6708 3fbc f848 f93c 6bc6 f7ba
00000140: 27b9 4b3d 9ef2 5d3c b64d 05bb e799 2f3c
00000150: 774a 073e 5872 d33b 38f5 953c 6dbe aebd
00000160: e7b2 1d3e 8e8a 2abe aba6 ca3d 67f8 0f3e
00000170: fd19 9e3d 8e33 eabc 9ca3 7dbc 6d0a 8ebc
00000180: d058 863d 172c 533e d481 333e 22eb c5bd
00000190: 884b 973c 5a7a f6bb f798 2bbe 7fbb 433d
000001a0: 406f 763d 4701 b53d ca19 15be 3a31 bbbd
000001b0: 2d14 02bd 13c7 203d 8575 35bd 3271 25be
000001c0: 5549 e0bd 490d fc3d 144f 9fbd f2cd 8abd
000001d0: d235 91bc c673 9b3d c989 403e 860d 303e
000001e0: 351c 26be 3bb4 493d 82e3 0ebe 5f5b a8bb
000001f0: 11ca 41be 6880 553c 68a5 053e d883 723c
00000200: f224 4bbd 7c55 f2bd 7f29 58bd ee32 02bd
00000210: bb84 183e 9c37 aa3d 04a7 cbbd 16a0 c4bb
00000220: 35a1 7cbe 2aba 7abd f93e 373d 083a 57bd
00000230: c353 18be 5109 c0bb a7b5 8cbc 1170 0fbb
00000240: 9cda 17be bcce b13d 432a f9bd 89e7 ccbd
00000250: db07 a2bd c97c 9e3c 24e3 a53d 62fe c63b
00000260: 2846 f8bc f460 a2bd 82d4 a33c a26b e53d
00000270: 930f 0c3e 3c95 c6bb cb71 2e3c 665d da3c
00000280: c418 f53c 4b79 16bd bac9 923d b452 8bbd
00000290: 9bd3 883d 8f85 b63d cd09 243d 3157 5cbe
000002a0: c976 ffbd afb5 9f3c 178b e43d cf38 d53d
000002b0: 4b0f 93bc 7b9c d33d 8cd2 61bd 7360 bfbd
000002c0: 88c1 50bd 2870 6d3d d1f4 9fbd 402d 59bd
000002d0: 0e0a a5bd 6754 90bd 17d5 163b dc5f ad3d
000002e0: 75dd 333e d5cc 89bd 2b04 023d fd7c 90bd
000002f0: 671e 4bbb 56f8 57bc 413c 65bd c58a 69bd
00000300: cb97 d33b fb37 cb3d 55e4 843e 43b4 e33d
00000310: 7cd2 c03c 0a72 6c3b 2726 3ebc dd0c c93d
00000320: 2658 503d 39b4 d73c 0a94 473d eb63 adbd
00000330: 8ae0 de3d 2907 bfbd 8af0 8dbb 74fa b0bd
00000340: a121 773d 0406 8d3d a4ff c3bd 15f9 ce3d
00000350: 05e7 473d e2c7 88bd d916 14bd c369 a13d
00000360: efbd 273d 8dd1 4ebe bbfe 9d3c 2950 c2bc
00000370: 405a 0c3e 85cd 5bbe 4616 4a3c 39be 0ebd
00000380: ec3f 48bd afe6 7fbc f8b4 453d 6f34 12bd
00000390: 9f60 fd3c 27bc 9fbc 14fb a3bc 609a 62bd
000003a0: 0969 923d f4dc 5c3c 48d3 843d c660 1c3d
000003b0: 5b33 97bd fb2c 8cbc f902 063e a2c4 a4bd
000003c0: 06e9 6e3d fc2b 163b d015 36bd b799 213a
000003d0: 39cd 95bd c4fa 09bd aaac c2bd 8a62 35bd
000003e0: a040 5cbd 3b4d 95bc ebd3 5e3d 936e 2c3d
000003f0: 7afc 2d3c ccf1 483d f4f4 33be 0180 983d

network_body._body_endoder.seq_layers.0.bias f4 [128]
0.0 0.0 0.0 0.0 0.0 0.0 0.0 0.0
0.0 0.0 0.0 0.0 0.0 0.0 0.0 0.0
0.0 0.0 0.0 0.0 0.0 0.0 0.0 0.0
0.0 0.0 0.0 0.0 0.0 0.0 0.0 0.0
0.0 0.0 0.0 0.0 0.0 0.0 0.0 0.0
0.0 0.0 0.0 0.0 0.0 0.0 0.0 0.0
0.0 0.0 0.0 0.0 0.0 0.0 0.0 0.0
0.0 0.0 0.0 0.0 0.0 0.0 0.0 0.0
0.0 0.0 0.0 0.0 0.0 0.0 0.0 0.0
0.0 0.0 0.0 0.0 0.0 0.0 0.0 0.0
0.0 0.0 0.0 0.0 0.0 0.0 0.0 0.0
0.0 0.0 0.0 0.0 0.0 0.0 0.0 0.0
0.0 0.0 0.0 0.0 0.0 0.0 0.0 0.0
0.0 0.0 0.0 0.0 0.0 0.0 0.0 0.0
0.0 0.0 0.0 0.0 0.0 0.0 0.0 0.0
0.0 0.0 0.0 0.0 0.0 0.0 0.0 0.0
00000000: 0000 0000 0000 0000 0000 0000 0000 0000
00000010: 0000 0000 0000 0000 0000 0000 0000 0000
00000020: 0000 0000 0000 0000 0000 0000 0000 0000
00000030: 0000 0000 0000 0000 0000 0000 0000 0000
00000040: 0000 0000 0000 0000 0000 0000 0000 0000
00000050: 0000 0000 0000 0000 0000 0000 0000 0000
00000060: 0000 0000 0000 0000 0000 0000 0000 0000
00000070: 0000 0000 0000 0000 0000 0000 0000 0000
00000080: 0000 0000 0000 0000 0000 0000 0000 0000
00000090: 0000 0000 0000 0000 0000 0000 0000 0000
000000a0: 0000 0000 0000 0000 0000 0000 0000 0000
000000b0: 0000 0000 0000 0000 0000 0000 0000 0000
000000c0: 0000 0000 0000 0000 0000 0000 0000 0000
000000d0: 0000 0000 0000 0000 0000 0000 0000 0000
000000e0: 0000 0000 0000 0000 0000 0000 0000 0000
000000f0: 0000 0000 0000 0000 0000 0000 0000 0000
00000100: 0000 0000 0000 0000 0000 0000 0000 0000
00000110: 0000 0000 0000 0000 0000 0000 0000 0000
00000120: 0000 0000 0000 0000 0000 0000 0000 0000
00000130: 0000 0000 0000 0000 0000 0000 0000 0000
00000140: 0000 0000 0000 0000 0000 0000 0000 0000
00000150: 0000 0000 0000 0000 0000 0000 0000 0000
00000160: 0000 0000 0000 0000 0000 0000 0000 0000
00000170: 0000 0000 0000 0000 0000 0000 0000 0000
00000180: 0000 0000 0000 0000 0000 0000 0000 0000
00000190: 0000 0000 0000 0000 0000 0000 0000 0000
000001a0: 0000 0000 0000 0000 0000 0000 0000 0000
000001b0: 0000 0000 0000 0000 0000 0000 0000 0000
000001c0: 0000 0000 0000 0000 0000 0000 0000 0000
000001d0: 0000 0000 0000 0000 0000 0000 0000 0000
000001e0: 0000 0000 0000 0000 0000 0000 0000 0000
000001f0: 0000 0000 0000 0000 0000 0000 0000 0000

network_body._body_endoder.seq_layers.2.weight f4 [128, 128]
0.122597836 -0.099325694 0.042481545 -0.101829745 -0.19591579 -0.033663876 0.05623003 -0.18176176
0.1170939 0.04803093 -0.08781453 -0.06339641 0.06952463 -0.07846252 0.06937692 0.09335389
-0.084364586 0.018777475 -0.04613689 0.023595283 0.010307763 -0.09939841 -0.026045877 0.027867783
0.09349602 -0.03634198 -0.08923667 -0.021019345 0.17776953 -0.00883298 -0.057093907 -0.052527938
-0.09053732 -0.06572458 0.042994916 0.16184476 -0.18886176 -0.020504395 -0.09171214 -0.11051042
-0.08237284 0.14006564 -0.058539078 0.03307747 0.05132731 0.04759183 -0.06007837 0.07988365
-0.15118209 0.037353378 0.02999574 -0.09645456 -0.0090133725 0.18009785 -0.13580033 0.029453477
-0.01788718 0.122820474 -0.012441648 0.018868169 -0.0011651437 0.039023947 -0.13610631 -0.10523344
0.093552165 -0.073351696 -0.05913674 0.013538202 -0.024494523 0.02224282 0.059648048 0.14055412
-0.027376462 0.09820696 -0.039885655 -0.038541164 0.18863253 -0.099673785 0.04088314 0.08308412
0.15228449 -0.06923237 -0.22209726 -0.04648415 -0.02142991 0.10448352 0.14126723 -0.111558504
0.059725843 0.008090413 0.035688322 0.0453632 -0.055616602 0.06089419 7.2150586e-05 -0.07571665
0.0043272157 -0.081589974 0.13406974 -0.08317311 -0.007995035 -0.039382964 -0.12185218 0.046415165
-0.004100359 0.01923795 -0.049656827 -0.033129644 0.038669217 -0.13415655 -0.0402109 0.109109946
0.05651335 0.058246437 0.07041442 -0.00734401 -0.06727816 -0.108568795 -0.046879202 -0.085375816
-0.084193416 -0.017779972 -0.025901059 0.09882797 -0.11652807 0.09184637 0.14189073 0.1372469
-0.08669958 -0.12869613 -0.06832137 0.14629346 -0.07128091 -0.14556113 -0.10397055 0.12580456
-0.007913488 -0.13802661 0.031949904 0.022529708 0.10910297 -0.017879788 -0.046744846 -0.042254508
0.034320414 0.00042719612 -0.04037321 0.01292008 0.014412305 0.16860823 0.047403693 -0.11126331
0.11127991 -0.06397915 0.16593175 0.0008030867 -0.026402045 0.038058747 0.0031097238 -0.068880156
4.5769346e-05 0.25561795 -0.1410737 -0.04443 0.04978418 0.074908696 0.011410199 -0.026517998
0.13629325 -0.08658651 0.08093561 0.02762221 -0.09334804 0.0631902 -0.0133965425 -0.098997906
0.01649084 0.0033068603 -0.12681463 0.13103236 -0.006282664 0.07885609 0.023496825 -0.11849708
0.0752904 0.03720481 0.06471264 0.03796319 0.12699957 -0.10273963 0.021234471 -0.09557588
0.14166234 0.010464372 0.11750042 -0.104359694 -0.085145116 0.12502237 0.10238882 -0.07661279
0.039705236 0.119063064 0.10289175 -0.057849593 0.009760897 -0.018549375 -0.12565741 -0.11077141
-0.089456715 -0.10587322 0.07512545 -0.120458946 -0.06758226 -0.049799178 -0.084036745 -0.021512568
-0.031222058 -0.1559577 0.1420483 -0.026664324 0.05575265 0.03140294 0.02790727 -0.07101057
-0.14103514 0.053016547 -0.04614666 -0.02886669 0.045441914 -0.08281215 0.11335142 0.098927595
0.088038936 0.09934268 0.04471396 -0.15799347 -0.1593836 0.0994958 0.09028145 0.00037852928
0.060521446 0.09143353 0.0703944 0.054809906 0.016085278 0.021036273 -0.0086363135 -0.022874964
0.04646464 0.21077313 0.007890057 -0.102968454 0.09397409 -0.12975067 -0.055011094 0.100444295
00000000: 9314 fb3d 456b cbbd 2101 2e3d 1d8c d0bd
00000010: 269e 48be 22e3 09bd 7651 663d c11f 3abe
00000020: edce ef3d 15bc 443d 1bd8 b3bd fad5 81bd
00000030: ee62 8e3d f5b0 a0bd 7d15 8e3d 5330 bf3d
00000040: 57c7 acbd 38d3 993c 09fa 3cbd e54a c13c
00000050: e4e1 283c 6591 cbbd 2a5e d5bc fa4a e43c
00000060: d77a bf3d 54db 14bd b7c1 b6bd c330 acbc
00000070: 3709 363e 34b8 10bc 4ddb 69bd 8927 57bd
00000080: a16b b9bd 9c9a 86bd 701b 303d a2ba 253e
00000090: fa64 41be d5f8 a7bc 93d3 bbbd 4953 e2bd
000000a0: 17b3 a8bd 5e6d 0f3e acc6 6fbd 3e7c 073d
000000b0: 963c 523d a7ef 423d bd14 76bd 0a9a a33d
000000c0: 7acf 1abe dbff 183d a0b9 f53c f889 c5bd
000000d0: d3ac 13bc 926b 383e 3e0f 0bbe 6b48 f13c
000000e0: 2388 92bc 4d89 fb3d 0ed8 4bbc 6b91 9a3c
000000f0: bcb7 98ba 93d7 1f3d 745f 0bbe a184 d7bd
00000100: 4798 bf3d 6a39 96bd 5e39 72bd 56cf 5d3c
00000110: bda8 c8bc 9336 b63c 8351 743d 6bed 0f3e
00000120: 9a44 e0bc bb20 c93d 245f 23bd 57dd 1dbd
00000130: e328 413e c521 ccbd 1475 273d 0228 aa3d
00000140: 77f0 1b3e b3c9 8dbd 776d 63be 2a66 3ebd
00000150: c78d afbc 75fb d53d 5ba8 103e c978 e4bd
00000160: 16a3 743d a78d 043c eb2d 123d c3ce 393d
00000170: 3cce 63bd 306c 793d 8d4f 9738 5511 9bbd
00000180: 51cb 8d3b a518 a7bd 9449 093e aa56 aabd
00000190: 9bfd 02bc 0850 21bd a38d f9bd d41d 3e3d
000001a0: 4e5c 86bb e898 9d3c f564 4bbd f3b2 07bd
000001b0: 9d63 1e3d 5660 09be 2fb4 24bd 0975 df3d
000001c0: 8b7a 673d d193 6e3d 6f35 903d 05a6 f0bb
000001d0: 22c9 89bd 5159 debd 6804 40bd 84d9 aebd
000001e0: 996d acbd 4ea7 91bc 752e d4bc 5266 ca3d
000001f0: 45a6 eebd f319 bc3d ce4b 113e 748a 0c3e
00000200: 8d8f b1bd ebc8 03be 13ec 8bbd f4cd 153e
00000210: bafb 91bd fa0d 15be 83ee d4bd e9d2 003e
00000220: 93a7 01bc d956 0dbe e7dd 023d 3990 b83c
00000230: 6171 df3d a278 92bc 8677 3fbd 1013 2dbd
00000240: 9093 0c3d 4bf9 df39 615e 25bd beae 533c
00000250: 9721 6c3c a3a7 2c3e 602a 423d 05de e3bd
00000260: b9e6 e33d 8007 83bd 03ea 293e 3c86 523a
00000270: 1a49 d8bc 7de3 1b3d 82cc 4b3b 0a11 8dbd
00000280: 76f8 3f38 5be0 823e a075 10be 3bfc 35bd
00000290: 7fea 4b3d bb69 993d d8f1 3a3c 463c d9bc
000002a0: 7590 0b3e 4554 b1bd 92c1 a53d f947 e23c
000002b0: 422d bfbd dd69 813d 2c7d 5bbc 6abf cabd
000002c0: cc17 873c e9b7 583b b2db 01be 592d 063e
000002d0: cede cdbb 4d7f a13d 6a7c c03c 99ae f2bd
000002e0: da31 9a3d 1264 183d 1088 843d 4a7f 1b3d
000002f0: 2d0c 023e 2869 d2bd eaf3 ad3c 49bd c3bd
00000300: ef0f 113e c272 2b3c 0fa4 f03d 89ba d5bd
00000310: 9060 aebd dd05 003e 3bb1 d13d 2be7 9cbd
00000320: f5a1 223d 56d7 f33d e9b8 d23d b2f3 6cbd
00000330: 2bec 1f3c dcf4 97bc 56ac 00be 1fdc e2bd
00000340: 1535 b7bd 0fd4 d8bd 5fdb 993d 2eb3 f6bd
00000350: 9168 8abd 39fa 4bbd 751b acbd 203b b0bc
00000360: 67c5 ffbc 60b3 1fbe 1c75 113e 246f dabc
00000370: e45c 643d 5fa0 003d c99d e43c fd6d 91bd
00000380: 846b 10be e127 593d 4804 3dbd d679 ecbc
00000390: 4d21 3a3d 6b99 a9bd ca24 e83d 8d9a ca3d
000003a0: c24d b43d 2d74 cb3d fc25 373d 0ac9 21be
000003b0: 7435 23be 74c4 cb3d 7be5 b83d 5775 c639
000003c0: 56e5 773d 8141 bb3d f02a 903d 5a80 603d
000003d0: 46c5 833c 4354 ac3c 537f 0dbc 4764 bbbc
000003e0: b551 3e3d e9d4 573e 4c45 013c 20e1 d2bd
000003f0: 7d75 c03d 5cdd 04be 5053 61bd bdb5 cd3d

action_model._continuous_distribution.log_sigma f4 [1, 2]
0.0 0.0
00000000: 0000 0000 0000 0000

action_model._continuous_distribution.mu.weight f4 [2, 128]
0.005365743 -0.013937093 -0.01823445 0.006466083 -0.00048181586 2.0671918e-05 -0.004288268 0.044928014
-0.011078403 0.0063891844 -0.026367242 -0.001794109 0.020771338 0.00870452 0.035474867 -0.026809264
-0.008296271 0.0029521873 -0.016494466 0.018852018 0.0061135697 0.030255903 0.012956798 -0.007634405
0.0005458728 -0.00561013 0.0279242 -0.012046179 0.025372013 -0.023821594 0.020925766 -0.0041471035
0.009808481 0.0048136828 0.013089021 -0.03415097 -0.0078099044 -0.0036244504 -0.016726363 0.016545476
0.018128527 -0.006025323 0.0015359992 -0.0013217131 -0.008501668 0.021443713 0.010228363 0.026114484
0.009398138 0.006063656 0.012441999 -0.0010991095 -0.02150063 -0.0012699472 0.006777141 0.0024004027
0.00069857686 -0.047509234 -0.04002628 0.0036181377 -0.009577068 0.012780214 -0.031662904 0.0058641345
-0.005153921 -0.007192865 -0.029485572 -0.005320001 0.01924976 -0.012841949 -0.016917882 0.032798525
0.012342839 -0.054164965 -0.008910925 -0.014722082 0.005218436 -0.023227345 0.019487161 0.004303896
-0.004005754 0.0030129133 -0.0018470573 0.0020097566 0.0014398547 -0.014183565 0.00035291983 0.02845608
-0.010801693 -0.019670626 -0.008299585 -0.017738624 -0.010930156 -0.0016014808 -0.0036475845 0.021858262
-0.018238274 -0.019171117 -0.011913477 0.002626594 0.0015978198 0.0063489377 0.00023880601 0.0115058785
0.022453677 0.015184204 -0.0014695693 -0.011762577 0.0010694979 0.0064647095 0.006785241 -0.017084872
0.006634665 0.0038871875 0.018689971 0.026428107 0.0002724205 -0.0084921075 0.012045948 -0.00015289197
0.010428103 0.01472116 -0.019774951 0.030263374 0.027613526 0.039619353 0.013241239 -0.016433878
-0.0068743858 -0.0050366037 -0.012798652 -0.0428494 -0.0020898532 -0.005784241 -0.0228831 0.031738013
-0.006458666 -0.0037453268 0.029692596 -0.011658295 -0.0024632316 0.0013834198 0.019239677 -0.020323627
-0.0074486993 -0.0032186687 0.04008147 0.010805789 -0.0042655035 0.025279358 0.0107486425 0.008877358
-0.013053077 -0.021074144 0.008540374 -0.0010319805 0.021490935 0.00708906 0.0031500624 0.020126328
0.009977368 -0.016711611 -0.011895165 -0.016108638 -0.00054951664 0.016089538 0.022094624 0.0213136
-0.010979055 0.018191857 0.005504643 -0.01934967 -0.025710298 -0.025746867 0.029472008 -0.03341275
-0.007908349 0.011195408 0.01017418 0.0070129903 0.010864394 0.0048622345 0.056398667 -0.013419183
0.0023372702 0.007518045 0.021901064 0.02458557 -0.01690737 -0.0062297485 0.021111619 -0.010813586
-0.007778324 -0.01947852 -0.0018371459 -0.018265998 -0.0052331253 -0.005659874 -0.020445423 -0.010055602
-0.0073369564 0.006069776 0.019821187 0.006448881 0.0082402 0.0098244455 0.0370488 -0.028393218
0.005591831 0.021786924 -0.03325765 0.008571226 -0.055283118 0.0062002833 -0.0045532766 -0.020569777
0.031511698 0.0026005188 0.005901923 0.024995266 -0.055693597 0.012443296 -0.017691243 -0.01683168
-0.0031203185 -0.0010622845 0.0013640154 -0.010396217 -0.01662877 0.008003517 -0.010236213 0.028125912
0.02154614 -0.00423686 -0.0337492 -0.0072579766 0.011927698 -0.0050655953 0.0040999684 -0.030388748
0.020392803 0.006818123 -0.026713377 -0.002751689 -0.011182328 -0.014815598 0.0050095017 -0.0009823618
-0.007764976 -0.011822111 -0.023734804 0.018967886 0.00807461 0.010079496 -0.0010932784 -0.0002811961
00000000: 1dd3 af3b 6858 64bc 6a60 95bc 70e1 d33b
00000010: 3b9c fcb9 9b68 ad37 9984 8cbb 7006 383d
00000020: 3182 35bc 5d5c d13b 1d00 d8bc 4f28 ebba
00000030: a728 aa3c 679d 0e3c 184e 113d 1a9f dbbc
00000040: 15ed 07bc 7c79 413b 671f 87bc 8c6f 9a3c
00000050: 5754 c83b 3adb f73c c048 543c 082a fabb
00000060: e718 0f3a 2ed5 b7bb 4bc1 e43c 565d 45bc
00000070: f8d8 cf3c 8125 c3bc 836c ab3c 6de4 87bb
00000080: c0b3 203c 19bc 9d3b 5573 563c e3e1 0bbd
00000090: 3aea ffbb 3088 6dbb ba05 89bc 618a 873c
000000a0: 4782 943c 1370 c5bb 9553 c93a 553d adba
000000b0: 954a 0bbc baaa af3c dd94 273c 0bee d53c
000000c0: a6fa 193c a2b1 c63b 87d9 4b3c ff0f 90ba
000000d0: 1722 b0bc 5b74 a6ba c712 de3b 1350 1d3b
000000e0: b320 373a 0b99 42bd 99f2 23bd 471e 6d3b
000000f0: 22e9 1cbc 1a64 513c f6b0 01bd ed27 c03b
00000100: 39e2 a8bb 20b2 ebbb ba8b f1bc 6753 aebb
00000110: acb1 9d3c 0a67 52bc 5f97 8abc bf57 063d
00000120: 9e39 4a3c 15dc 5dbd 21ff 11bc e334 71bc
00000130: 6aff aa3b 4647 bebc 8aa3 9f3c b207 8d3b
00000140: b342 83bb 4c74 453b f518 f2ba 1fb6 033b
00000150: 82b9 bc3a 2f62 68bc 1908 b939 ba1c e93c
00000160: 96f9 30bc 4b24 a1bc fcfa 07bc 9750 91bc
00000170: 6614 33bc c7e8 d1ba 500c 6fbb 1910 b33c
00000180: 6f68 95bc bf0c 9dbc bf30 43bc ef22 2c3b
00000190: f06d d13a c00a d03b 0068 7a39 2783 3c3c
000001a0: c6f0 b73c 2bc7 783c 909e c0ba d3b7 40bc
000001b0: 652e 8c3a ead5 d33b ba56 de3b 93f5 8bbc
000001c0: 9b67 d93b 2fc0 7e3b b61b 993c c27f d83c
000001d0: a9d3 8e39 7b22 0bbc 5e5c 453c a051 20b9
000001e0: a2da 2a3c 0531 713c 14ff a1bc e5ea f73c
000001f0: c335 e23c e747 223d c8f1 583c 57a0 86bc
00000200: 8742 e1bb 180a a5bb 70b1 51bc da82 2fbd
00000210: ebf5 08bb bb89 bdbb 5775 bbbc b8ff 013d
00000220: 38a3 d3bb 2874 75bb e33d f33c 6f02 3fbc
00000230: 2b6e 21bb de53 b53a 879c 9d3c bc7d a6bc
00000240: 3814 f4bb 4df0 52bb 782c 243d c40a 313c
00000250: a3c5 8bbb a816 cf3c 131b 303c 5772 113c
00000260: 93dc 55bc afa3 acbc edec 0b3c 8543 87ba
00000270: c20d b03c 584b e83b 4771 4e3b f8df a43c
00000280: 1d78 233c cae6 88bc f0e3 42bc 43f6 83bc
00000290: 700d 10ba 35ce 833c c9ff b43c dc99 ae3c
000002a0: 7fe1 33bc 1707 953c 4b60 b43b 3383 9ebc
000002b0: 679e d2bc 18eb d2bc 486f f13c cfdb 08bd
000002c0: 0592 01bc f26c 373c 9bb1 263c 3acd e53b
000002d0: 9200 323c 6153 9f3b 4a02 673d 22dc 5bbc
000002e0: e32c 193b ef59 f63b dc69 b33c ad67 c93c
000002f0: 5381 8abc eb22 ccbb 46f2 ac3c 782b 31bc
00000300: 50e1 febb 6b91 9fbc 63cc f0ba 93a2 95bc
00000310: a37a abbb 7776 b9bb 297d a7bc 40c0 24bc
00000320: da6a f0bb f9e4 c63b 0b60 a23c 2251 d33b
00000330: e701 073c b6f6 203c 7cc0 173d e598 e8bc
00000340: ae3b b73b 7e7a b23c 2c39 08bd 546e 0c3c
00000350: 8d70 62bd bf2b cb3b a733 95bb f381 a8bc
00000360: 6912 013d 776d 2a3b eb64 c13b dfc2 cc3c
00000370: f81e 64bd f7de 4b3c 3aed 90bc 97e2 89bc
00000380: 427e 4cbb 5a3c 8bba c3c8 b23a e554 2abc
00000390: 0f39 88bc 2f21 033c cab5 27bc 5068 e63c
000003a0: 8881 b03c 5cd5 8abb 9a3c 0abd 52d4 edbb
000003b0: 646c 433c 4bfd a5bb 0759 863b d3f1 f8bc
000003c0: cf0e a73c 906a df3b 03d6 dabc ae55 34bb
000003d0: 1536 37bc 1fbd 72bc bf26 a43b 98c2 80ba
000003e0: 5771 febb 87b1 41bc 7e6f c2bc 8a62 9b3c
000003f0: 5e4b 043c 7824 253c 564c 8fba 806d 93b9

action_model._continuous_distribution.mu.bias f4 [2]
0.0 0.0
00000000: 0000 0000 0000 0000
