results/car1/CarParking/CarParking-500023.pt (torch, 842203 bytes, 36 tensors)

network_body._body_endoder.seq_layers.0.weight f4 [128, 136]
000000 80 7a 35 bd b3 fb 37 bd 00 fb 8e bc dd c7 a8 3d
       -0.04430628 -0.044917773 -0.01745367 0.08241246
000010 3b 2a c2 bd 5d 2b d4 3d a1 33 5b 3d 27 cf 37 3d
       -0.09480711 0.103598334 0.053516034 0.04487529
000020 ad 13 44 be a7 8e 08 3e ef f5 f4 bd c6 31 9a bc
       -0.1914813 0.13335668 -0.119609706 -0.018822562
000030 31 95 09 be d1 99 d1 3d 37 dd 84 bc 54 a0 da 3c
       -0.13435818 0.10234416 -0.016218765 0.026687779
000040 4e 67 07 3d ed bb c1 3c d1 55 3f 3b 8a 95 0f be
       0.033057503 0.02364918 0.0029195438 -0.14021888
000050 9a 60 19 bd 5e 3f 99 3d 0a 76 af bd 98 c4 c4 bd
       -0.037445642 0.074827895 -0.08567436 -0.0960781
000060 e7 ed 7f 3d c2 5b 09 be 08 38 9a 3d 03 1e 10 bd
       0.06248274 -0.13413909 0.07530218 -0.03518487
000070 5c d9 30 be 96 14 91 3d 72 28 9e 3c 38 b0 b7 3c
       -0.17270416 0.070840046 0.019306395 0.022422895
000080 a9 9d 3c be 39 f2 8c 3d 31 e6 f0 bc 73 fe 6f bd
       -0.18419518 0.06882138 -0.029406639 -0.05859227
000090 86 76 13 3a f5 b7 ed 3d 8b 54 16 3d 05 f5 0a 3e
       0.00056252663 0.11607353 0.03670172 0.1357003
0000a0 e6 e4 09 3e 58 33 b7 3d 31 49 ac bd 4b 71 80 bc
       0.13466224 0.0894534 -0.08412398 -0.015679022
0000b0 51 8c ce 3d d8 af a6 bd 7f 8e 5b 3d 9e ee 02 bd
       0.10085357 -0.08139008 0.05360269 -0.031965844
0000c0 64 00 98 3c 45 ce 24 3d 96 63 e1 3c 7a e0 22 3e
       0.018554874 0.040235776 0.027513307 0.15905944
0000d0 7f 1b 1b be 1a 9c 0b be de 7f 44 3d 9e fc 81 bd
       -0.15147208 -0.13633767 0.047973506 -0.06347011
0000e0 a7 05 ed 3c 72 83 e1 3c 07 3e 43 bd 9d 24 29 bd
       0.02893336 0.027528498 -0.047666576 -0.041294683
0000f0 61 56 ed bd 31 36 e8 3c 02 07 9a bd 89 20 99 bd
       -0.11588741 0.028346153 -0.07520868 -0.07476909
000100 c7 4f 5a be 12 d8 7a 3d e4 68 2d 3d f8 64 6f 3d
       -0.21319495 0.061241217 0.04233636 0.0584459
000110 f3 32 e9 3d 88 3b 90 3b ba 8a 8e bd 42 e0 d4 bd
       0.11386671 0.004401628 -0.06960054 -0.10394336
000120 a0 c0 a6 bc 1e 17 c1 3d fe cd f7 bc b0 57 4a be
       -0.020355523 0.094282374 -0.030249592 -0.19760013
000130 3d 61 10 3d 1a f8 62 bd db 25 04 bd 07 d1 aa bd
       0.035248984 -0.05541239 -0.032262664 -0.0834065
000140 96 16 04 be a0 3b ce bc 2a b5 d2 bc 01 b5 0e bd
       -0.12899241 -0.025174916 -0.025721151 -0.034840588
000150 e5 e5 e1 bd ea 5b a5 bd 50 e9 bb 3b 86 f1 93 bd
       -0.11030177 -0.08074172 0.0057346 -0.07223801
000160 bc 32 4a 3d dd fc 54 bd 4b 54 e1 3d fd c0 6e be
       0.04936479 -0.05199896 0.11002406 -0.23315807
000170 99 fb f0 3b 74 19 41 3d 14 91 1a ba a4 55 26 be
       0.0073542115 0.047143415 -0.0005896252 -0.16243607
000180 e7 f7 00 3e d1 13 1e 3d 44 02 00 3e da 9c 6f 3c
       0.12594567 0.038593117 0.12500864 0.014624799
000190 ac 52 17 3e 5b 53 3c 3e 0e 73 96 3d e3 21 8e bc
       0.1477763 0.18391173 0.07346164 -0.017350143
0001a0 7a 03 02 3e a8 f6 10 3d 90 27 ee bc 34 62 b3 3d
       0.12696639 0.03539148 -0.0290716 0.08758965
0001b0 16 99 19 3d bb 41 30 3d 0c d5 81 3c 3f af 13 3c
       0.03749951 0.043031435 0.015848659 0.00901395
0001c0 7a 0b eb bb f6 d4 b6 bd da de 20 bd 57 95 e3 3b
       -0.007172999 -0.08927338 -0.039275028 0.006945293
0001d0 61 59 10 bc 13 5d e5 3d 5c b2 06 be c0 72 9e bc
       -0.008810372 0.11199393 -0.13153976 -0.019341826
0001e0 e1 b1 21 be 4f 99 55 bd e6 0f 34 bd 19 f4 f0 3d
       -0.15790512 -0.05214816 -0.043960474 0.11765308
0001f0 30 fc 27 3d ab af 05 bd 36 fd ae 3c ee 7e c0 3d
       0.04101199 -0.032638233 0.021360975 0.0939921
000200 d9 d0 49 3d a7 1c 90 bd 74 6d 4b 3c 2c ba 14 3e
       0.04927144 -0.07036715 0.012416232 0.14524144
000210 97 b6 b5 3d ed 24 14 bd ff d6 41 be 2b b0 8e bd
       0.08872717 -0.036168028 -0.18929671 -0.06967195
000220 6b 64 fa bd 38 c3 d2 3d d7 71 02 3c b5 56 39 3d
       -0.122261845 0.10291141 0.007961712 0.045248706
000230 e8 ce 0b 3d f6 ba 0b bd 2f cb fa bd ba 94 f5 3d
       0.034132868 -0.034113847 -0.122457854 0.11991258
000240 97 9d 8f bd a8 03 8d bd cb 8a 01 be 14 cd c2 3d
       -0.0701248 -0.06885463 -0.12650602 0.09511772
000250 67 61 a1 3d cb 90 31 3a 78 d1 c9 3d e1 b9 2f 3d
       0.07879906 0.000677359 0.09854406 0.042901877
000260 5b 8e 03 be d8 f7 f4 3c 05 a5 93 bc 4d 9b 97 3c
       -0.12847273 0.029903337 -0.018023023 0.01850667
000270 c5 3c 87 3d f2 59 4b be e5 ad 6f 3d 80 79 19 3d
       0.06603388 -0.1985853 0.058515448 0.037469387
000280 52 c6 98 3d a9 56 36 bd 12 09 98 bd 53 ee bc 3d
       0.074597016 -0.04451624 -0.07423605 0.09225144
000290 a0 87 8f bc 7f f6 26 bb a7 ab 02 bd b6 b6 32 3d
       -0.017520726 -0.0025476513 -0.03190198 0.043631278
0002a0 89 13 ae 3c d1 4f c2 bd 4b f0 99 bd d3 bf 6b 3d
       0.02124955 -0.0948788 -0.07516535 0.057555985
0002b0 39 ab 8c 3d 43 11 88 3d 3e 07 64 3d 60 c2 a8 bb
       0.06868596 0.066439174 0.05567097 -0.0051501244
0002c0 7a d9 87 3d bf 6e 30 bc f7 6b 44 bd 3a 4f 5d bd
       0.06633277 -0.010768591 -0.047954526 -0.054030634
0002d0 40 dc c4 bc e1 3c d9 bc 88 81 b9 3b cd fd e2 bd
       -0.024030805 -0.026518287 0.0056611933 -0.11083565
0002e0 6a 8a fb 3d de da 2e 3d 3a 84 ae bc df 03 84 3d
       0.1228226 0.042689197 -0.021303285 0.06446051
0002f0 6f c6 5a 3d 6c 58 2b 38 01 90 fd 3b 04 00 34 be
       0.053411897 4.0851926e-05 0.007738114 -0.17578131
000300 88 74 83 bc 64 23 7c bc 48 f0 4b 3c 5b 8e 05 3d
       -0.016046777 -0.015389297 0.012447424 0.032606464
000310 a9 52 fd bc 58 72 48 bd 96 2f 98 bd bf cc ce 3d
       -0.030923204 -0.04893717 -0.07430951 0.10097646
000320 05 9e a1 3d d4 0d e9 3c 55 f3 5d bd 0b 45 e5 3c
       0.07891468 0.028448977 -0.054187138 0.027987024
000330 a9 1b e6 bd 56 0d ee 3d 95 40 ee 3d a3 cb 74 bd
       -0.112357445 0.116236374 0.11633412 -0.059764516
000340 06 7c e5 bd 21 65 0b 3e 32 5e 17 3e 2a 23 07 3d
       -0.11205296 0.13612796 0.14782026 0.03299252
000350 f0 e8 14 3e 2a c8 d0 3d 6a 67 0c be cd 50 c0 3b
       0.14541984 0.10194428 -0.13711324 0.005869007
000360 2e 4e bf 3d a4 00 0d 3e 4c c4 20 bc b9 ea 44 3d
       0.093410835 0.13769776 -0.009812426 0.04807541
000370 7c e2 de 3d 68 86 07 3d b9 2f fd 3d b2 2c 4a bd
       0.10883042 0.033087164 0.12362618 -0.04935903
000380 4f 4b ed 3c e3 fc 44 3d a8 c5 26 bd 9d 38 06 3d
       0.028966574 0.048092734 -0.040715843 0.032768834
000390 5c 24 98 3d 8d 55 e4 bc a4 81 61 bd 85 86 0e 3d
       0.0742881 -0.027872825 -0.055055276 0.034796257
0003a0 b2 47 dc bc 01 bc 9b bb 7b bf 48 3d fe aa b3 bd
       -0.026889656 -0.0047526364 0.049010735 -0.087728485
0003b0 36 92 95 bc 15 76 11 3e 5f 64 a3 3d 0a e6 83 3d
       -0.018258195 0.14205201 0.07978129 0.06440361
0003c0 c9 16 65 3c d4 13 86 bd b4 09 5d 3d af 3c b7 3d
       0.013982483 -0.06546751 0.05396433 0.08947121
0003d0 c7 f6 d7 bd 5d db 28 3e 5a 15 98 bc f4 b1 0b bd
       -0.10545116 0.1648993 -0.018564869 -0.034105256
0003e0 4c d5 ef 3d 1f 49 c7 bd a9 22 77 3d 27 18 09 3d
       0.11710605 -0.097307436 0.06033579 0.0334703
0003f0 ab 03 f4 3a 28 45 bb bd 03 e8 18 3d 98 b3 16 bd
       0.0018616816 -0.0914405 0.03733064 -0.036792368

network_body._body_endoder.seq_layers.0.bias f4 [128]
000000 4a 89 b3 3b 32 76 7d 3b da fe ec 3b 84 c7 6a bb
       0.0054790126 0.0038675186 0.007232529 -0.0035824487
000010 9f 2c 02 3c 59 9e 04 3c 7e 9e 34 3c 8a de 82 3a
       0.007945209 0.008094394 0.011024116 0.0009984535
000020 83 2a 05 bc ca ac 41 3c ac 8b ce 3a 0c 2c 15 3c
       -0.008127811 0.011820981 0.0015758178 0.00910474
000030 5c 61 64 3a 74 15 c2 3c 49 e0 a4 3c e2 96 c5 3b
       0.00087120174 0.02369187 0.020126479 0.0060299495
000040 c9 fd 7e 3c 44 0a ee ba ba 65 da bb 0f 5a be 3b
       0.015563437 -0.0018161018 -0.006664959 0.0058090757
000050 b6 57 1e bc 1f 66 3e bb 12 5a 37 3c 05 b7 4c 3c
       -0.009664467 -0.0029052568 0.011190908 0.012494807
000060 be 51 5d ba 09 47 6b 3c 42 87 6e 3b e6 56 af 3b
       -0.00084426615 0.014360198 0.0036396538 0.0053509353
000070 07 ea 65 bb f3 a4 55 3c c5 b1 4f 3c 36 41 91 bb
       -0.0035082118 0.013039815 0.012676661 -0.0044328226
000080 b0 fb 9b 3b 4c ee d8 3b 38 e0 f0 bb a0 8a 8a 3c
       0.004760228 0.006620204 -0.0073509477 0.016911805
000090 d3 71 65 bc 0b 11 c7 3b 9f a6 4b 3c 0c 5b c0 3b
       -0.014004189 0.0060750297 0.012429862 0.0058702286
0000a0 1f 10 21 3c 4b a9 0e 3c 2c c1 7d bc d4 e3 10 3c
       0.009830504 0.008707355 -0.01548795 0.008843381
0000b0 b3 30 a5 3b 03 cf f3 3c 85 6f 38 3c f2 ac 36 bc
       0.005041206 0.029761797 0.011257057 -0.011149632
0000c0 1e ad 8a bb f5 ea 7e 3b f7 5b ca 3a 24 af 77 3c
       -0.004232063 0.003889737 0.0015438785 0.01511744
0000d0 53 cf 21 bb fb 03 00 3a 3b 24 32 3c 7c 0b 73 3c
       -0.0024690225 0.00048834056 0.010872896 0.014834281
0000e0 4c bf 32 3c e8 9b 3e bc 20 fc 4a 3c 7f e1 80 3c
       0.010909867 -0.011633851 0.012389213 0.015732525
0000f0 b1 c4 31 3c 04 4f 9d 3a 83 8d 6c 3b 06 4e 95 bb
       0.010850118 0.0012001698 0.003609509 -0.0045564203
000100 ca 1a 6f 3b a1 01 8c 3c 7f f6 dd 3b fb 47 dc 3b
       0.0036484473 0.01709062 0.0067737694 0.006722448
000110 fc 17 92 bc b7 c5 f5 3a 15 d7 10 3c c4 76 26 3c
       -0.017833702 0.001875094 0.008840342 0.010160152
000120 81 76 1b bb e7 85 1d bc 83 8f 0b 3c fd 7d 75 3c
       -0.0023721757 -0.009614444 0.008518103 0.014983651
000130 67 bc 8c bc 9a 26 ba 38 e1 8f 3d bc 1b 82 86 3b
       -0.017179681 8.876361e-05 -0.011569948 0.0041048652
000140 80 28 0a 3c b3 19 2a bb 30 8c 80 3b 0d c0 e8 3b
       0.0084325075 -0.002595526 0.0039229617 0.0071029724
000150 42 40 bf 3c 6f ce 0e 3c e6 0d 88 bb 39 0b a4 bb
       0.02334607 0.00871621 -0.0041520474 -0.0050062207
000160 d6 45 39 3b d0 cd 6c 3c 92 17 14 3c 3c b2 39 3c
       0.0028270385 0.014453366 0.009038823 0.011333998
000170 37 7b 2e 3c 3c 11 1b 3c 9b e9 13 3c ec b7 4b ba
       0.010649494 0.009464558 0.009027864 -0.0007771242
000180 53 c7 e8 3b ed 00 90 3b f7 bc c3 ba 72 be 9a 3b
       0.0071038394 0.0043946416 -0.0014933635 0.00472241
000190 b9 0a ff 3c 6f f5 d9 3b 85 bf 83 ba ca 28 05 3c
       0.031133043 0.0066515724 -0.0010051584 0.008127401
0001a0 6d 46 dd bb 76 72 9e bb ae fa a0 bc ab e2 2b 3c
       -0.00675278 -0.004835422 -0.019650783 0.010491054
0001b0 00 66 3b 3c 61 74 5a 3c fd 9f c9 ba 5f 8a 11 bc
       0.011437893 0.013333411 -0.0015382763 -0.008883088
0001c0 d5 4d fe 3a 0c 23 e2 3b 9d 09 b2 3c 46 2a 29 3b
       0.0019401858 0.0069011506 0.0217331 0.002581255
0001d0 dd f7 35 3c dc 23 3c 3c 88 99 cb 3c 99 e3 a5 3b
       0.0111064585 0.011483159 0.024853483 0.005062532
0001e0 3b a8 cf 3c 9e 9a 1d 39 a2 de ea bb ce c0 78 3b
       0.025348773 0.00015030286 -0.007167653 0.0037956717
0001f0 ba 33 94 3b 20 93 af 3b 43 6b 94 3b c3 9b e3 3b
       0.004522768 0.005358115 0.004529388 0.0069460585

network_body._body_endoder.seq_layers.2.weight f4 [128, 128]
000000 26 18 e5 bd 9b c2 a0 bd 81 90 61 3d 5a 51 f8 bb
       -0.111862466 -0.07849618 0.05506945 -0.0075780572
000010 57 83 88 3d 0e 50 04 3d 12 8a a2 3d d6 0e e7 bc
       0.06665676 0.03230291 0.07936491 -0.028205317
000020 ac 7b 18 3d 90 b2 9e 3d e7 b5 b4 bd 5d 44 24 3d
       0.037227318 0.07748902 -0.088237576 0.04010426
000030 79 a0 34 3d c8 6c 3d bc c2 1d c5 bd df 7d 1e 3e
       0.04409835 -0.01156158 -0.096248165 0.15477704
000040 57 eb 28 3d d0 93 40 bd b6 52 1f 3d 48 c5 23 bd
       0.041240063 -0.047015965 0.03889724 -0.039983064
000050 88 6f c8 bb d8 ef ae bd 71 9d 66 bc 56 8b 17 3e
       -0.006116811 -0.0854184 -0.014075623 0.14799246
000060 0a 98 2e 3e 10 61 11 bc bd b5 ce bd 36 7b 07 3d
       0.17050186 -0.008873239 -0.100932576 0.033076487
000070 2b 9a 8b 3c 63 6d 94 3b 0c b8 ab bb 3f fb d0 bd
       0.017041286 0.0045296415 -0.005240446 -0.102041714
000080 04 09 b6 3c 30 fd dd bd f5 09 83 3d 51 15 89 bc
       0.022221096 -0.10839307 0.063983835 -0.016733797
000090 69 82 4f bc 35 0e 56 3e a7 91 c6 bc 68 9d e2 3c
       -0.01266537 0.20903857 -0.024239374 0.027662948
0000a0 e8 33 b8 3d a0 e4 33 3d 28 88 53 bd 5c 00 a7 bd
       0.08994275 0.043919206 -0.05164352 -0.081543654
0000b0 d5 e1 81 3d 6c 32 b8 3d 9d 29 6f bd 8f e6 c5 bc
       0.06341902 0.08993992 -0.058389295 -0.02415779
0000c0 b1 ea 8b 3d 32 9b 92 3c fa 4b 92 bd 20 fb a0 3c
       0.06831873 0.017896269 -0.07143398 0.019650996
0000d0 f3 ae ab 3d e9 b5 25 be dd d9 2f be 87 85 d4 bc
       0.08382978 -0.16182674 -0.17172952 -0.025942577
0000e0 95 0a c0 bd 59 a3 ca bd cc 93 dc 3a 47 ac e6 bd
       -0.09377018 -0.09894437 0.0016828715 -0.11263328
0000f0 66 a0 ce 3d 9c c3 92 3d 68 11 7f bd f5 fb a6 bd
       0.10089187 0.07166216 -0.06227246 -0.08153526
000100 ca d9 69 be 19 c0 74 3d 07 d4 98 3c 49 3b ba 3b
       -0.22836986 0.05975351 0.01865579 0.005683337
000110 1e 61 5b 3d 4c b6 4b 3d 24 70 00 bd 6b e6 9c bd
       0.053559415 0.0497344 -0.031356946 -0.07661136
000120 43 fa a6 bd e9 c5 47 3d 12 41 d8 bc 81 20 b0 3d
       -0.081532024 0.048772726 -0.026398215 0.0859995
000130 2f 84 0f bc f8 2c 46 3d 36 ab b5 bd a1 99 6c 3e
       -0.008759542 0.04838273 -0.088705465 0.2310548
000140 13 f6 22 be 06 36 5b bd cf 23 80 bd e3 35 8e 3c
       -0.15914182 -0.053518318 -0.0625683 0.01735968
000150 f1 1e 99 3d c8 c2 59 3b 50 d4 5c be e8 e5 da 3d
       0.07476605 0.003322767 -0.21565366 0.106883824
000160 f7 2d 2d be ae 20 e2 bc f4 a7 74 bc 40 f5 01 be
       -0.16912065 -0.027603474 -0.014932621 -0.12691212
000170 bb a1 32 be 1a ee f6 3d cd 84 4b bd 3b 4f e3 bc
       -0.17444508 0.12057133 -0.049687196 -0.027747741
000180 4a 97 df bd fa e5 4f bb 2b 38 4a be 2e 12 1a 3e
       -0.10917528 -0.003172277 -0.19747989 0.15045998
000190 2d da 7f bc 23 b2 41 3d 5d aa e4 3c 6b 76 e8 bd
       -0.015615982 0.047289025 0.027913267 -0.113507114
0001a0 4d 91 2d bd 20 87 a1 bd d7 44 aa bd 64 d4 c8 bd
       -0.042374898 -0.07887101 -0.083139114 -0.09806135
0001b0 75 4e cc 3d c2 b2 1f be d8 0d 03 bd e8 78 d5 bd
       0.09975902 -0.15595534 -0.031995624 -0.10423452
0001c0 c6 0f b6 bc 53 8e bc 3d f4 3a b0 bc dc 82 16 3e
       -0.022224318 0.09206834 -0.021512486 0.14698356
0001d0 ca 3f 50 3c fc 18 5d bc d8 9a 09 bd a2 e8 82 bd
       0.012710521 -0.013494726 -0.033594936 -0.063920274
0001e0 35 17 25 3c 79 3a 89 3d 23 ff e5 bd de 77 cf bc
       0.010076334 0.06700606 -0.11230304 -0.025325712
0001f0 3a 4c e5 bd a4 45 80 bd b1 e9 97 3d a9 1b 16 bd
       -0.1119618 -0.06263283 0.0741762 -0.036647473
000200 27 58 5e 3d 74 fa 47 be 76 f7 5f 3d ca 0c 6d 3d
       0.054283287 -0.19529134 0.054679357 0.057873525
000210 18 9b 91 be 84 d0 98 3c 0b 03 d9 bc d8 14 97 3d
       -0.2843864 0.018654115 -0.026490709 0.073770225
000220 ee 89 21 bd d1 6c 3e be 3e a0 47 bd 89 15 59 3d
       -0.03943818 -0.18596198 -0.048736803 0.052999053
000230 85 50 23 bc 83 4a f7 bd 59 3b 2d 3e bc 66 b3 bd
       -0.009967928 -0.12074759 0.1691717 -0.087598294
000240 0e f3 92 3c 4b 38 a8 3d e4 25 19 3d 3a 08 00 3e
       0.017938163 0.08213862 0.03738965 0.12503138
000250 6e dd a5 bd ac 94 06 3e 69 02 e7 3d 7d 1e 3c 3d
       -0.08098875 0.13142651 0.112797566 0.045927513
000260 21 16 e5 3d d7 22 82 3d a1 17 d8 bd ec 5a 19 3e
       0.111858614 0.063543014 -0.10551382 0.1497609
000270 a0 36 db bd 32 23 ac bc 6c 1f df bc 41 29 42 3c
       -0.10703778 -0.021012876 -0.027236663 0.011850656
000280 97 60 e9 3c a1 a0 38 be ce fe e7 3c a5 82 75 3d
       0.02848844 -0.18030025 0.028319743 0.059939045
000290 ea df a1 bd dc b5 19 be e2 8f 1f 3e a8 e1 ef bd
       -0.07904036 -0.1501078 0.1558223 -0.117129624
0002a0 94 65 11 bd ac a8 d4 bc de 33 18 bd a3 5b f5 3d
       -0.035497263 -0.025959335 -0.03715884 0.11980369
0002b0 b7 0c a3 3b cd 6a 08 be ff 13 cf bd 20 fd 0f 3e
       0.004975881 -0.13321991 -0.10111236 0.14061403
0002c0 c3 c4 76 bc 36 a7 6c 3d 80 88 1e 3e e2 83 de 3d
       -0.01506156 0.057776652 0.15481758 0.108649984
0002d0 2a 20 15 3d e4 45 25 bd 0d a7 c6 bd 35 7d 7b 3d
       0.036407627 -0.040349856 -0.09699831 0.061398704
0002e0 ea 9f c8 bc 6f 86 35 3e 3b ff 07 3d 0e e2 b4 3d
       -0.024490315 0.17727064 0.03320239 0.08832179
0002f0 5e 9d 21 bd dd 6d 62 bd 54 34 09 3e e5 65 96 3d
       -0.039456718 -0.055280555 0.13398868 0.073436536
000300 28 e6 ca bb 70 7e d0 3c 93 b1 25 bd 81 eb 7a bd
       -0.0061919875 0.025450915 -0.04045255 -0.06125975
000310 5c ad ec 3d f9 3d 86 bd ef 7a d0 bd c4 25 6b 3d
       0.11556503 -0.06554789 -0.10179698 0.057409063
000320 ca 46 80 3c 6d 59 89 3c c1 b6 2a be 3f a3 29 3c
       0.015658755 0.016766274 -0.16671278 0.010353862
000330 ff 3e 1a be c2 00 42 3b 69 0c 17 3d ea 79 08 3d
       -0.15063094 0.0029602502 0.03687707 0.03331939
000340 45 83 28 3d d2 1e 0b 3c 04 2f 1b 3d 49 8f 88 be
       0.041140813 0.008491235 0.037886634 -0.26671818
000350 ab ed 81 3d 87 cb aa bd c0 76 5d 3d 22 e3 28 bc
       0.0634416 -0.08339601 0.054068327 -0.010308059
000360 ec 4a 8e 3d d0 f9 45 3d e9 7d 89 bd 12 ee 13 be
       0.06947884 0.048333943 -0.067134686 -0.14446285
000370 e6 5a d8 bd 2a 1f e8 3d 17 d0 38 3c 83 f3 6d 3b
       -0.105642125 0.11334069 0.011280081 0.0036308474
000380 c4 be 15 bd 2f 9d 16 37 25 e9 cf 3d 0d 03 c1 bd
       -0.03655888 8.977294e-06 0.10151891 -0.0942441
000390 3e 77 bc bd 3d 23 e9 3d 59 b3 06 3d 6f f1 97 3d
       -0.09202431 0.11383674 0.032885883 0.07419097
0003a0 67 81 26 3d 33 ec b0 bc fd 2a ac bd 01 5a f0 bd
       0.04065075 -0.021597004 -0.08406637 -0.11735917
0003b0 24 d2 58 3c eb f7 f4 bc 3e 43 ad 3d 0a 27 5a 3d
       0.013233695 -0.029903373 0.08460091 0.053259887
0003c0 90 2b 23 bd 2c 13 13 be 2e 74 61 3d b7 38 96 3c
       -0.039836466 -0.14362782 0.05504244 0.01833759
0003d0 ac 9c c6 3d 66 43 1d 3d 17 46 f3 bd 33 8b 6f bd
       0.096978515 0.038394354 -0.11878603 -0.05848236
0003e0 6e 41 08 be 13 d2 da 3a e1 da fb bc c9 02 35 3d
       -0.1330621 0.0016694687 -0.030744018 0.04419211
0003f0 81 cc fa 3c 13 e7 2c bd cc 0a 7d bd 57 e5 39 3d
       0.030615093 -0.042212557 -0.061777875 0.04538473

network_body._body_endoder.seq_layers.2.bias f4 [128]
000000 c0 67 86 3c 88 b6 93 b9 39 1b 16 3b fe 2f 0a 3c
       0.016406894 -0.0002817402 0.002290441 0.008434294
000010 42 07 b3 3a b1 f6 16 3c f4 d5 68 3c c9 76 8d 3c
       0.0013658779 0.009214089 0.014211167 0.017268555
000020 68 ed 04 3b f2 d2 90 3b 0d 21 45 bb d3 0e 9a 3b
       0.0020283107 0.004419678 -0.0030079514 0.004701474
000030 2e 99 48 3b b0 5c 91 3a 2b 52 3b 3c 41 2e a8 39
       0.003060888 0.0011090245 0.011433165 0.0003207792
000040 03 fe 8f 3b 26 8f ab ba 8a 2a da ba 4a 70 06 3b
       0.004394294 -0.0013088926 -0.0016644758 0.0020513707
000050 68 59 3a 3b d2 29 45 bb c2 a5 59 3b 7f f0 f5 b7
       0.0028434638 -0.0030084741 0.0033210372 -2.9318266e-05
000060 df 9c 06 3a 28 16 9f 3c 38 18 c4 3b e9 7a a5 3b
       0.000513507 0.019419745 0.0059843324 0.0050500524
000070 ca c8 03 3c 0d 77 0a bb ae 96 e0 3b 4a f3 49 3b
       0.008043477 -0.0021128089 0.0068539 0.0030815178
000080 42 ac 29 bb f4 b4 2a 3b 43 d6 e1 3a 89 e2 21 3b
       -0.0025890027 0.0026047798 0.0017229993 0.0024701676
000090 93 09 3b 3c 0c c5 af 3b ad 3e 15 3b f2 2c 6e 3c
       0.011415857 0.005364066 0.0022772953 0.014537083
0000a0 2b b5 0a 3c 75 8b bf 3b 81 1b 3b 3b 7a 20 ea 3b
       0.008466045 0.005845482 0.002855033 0.007144985
0000b0 0d 91 2f bb 77 70 c9 3b 69 3b a3 bb dc 6f 1a b9
       -0.0026789338 0.00614744 -0.0049814475 -0.00014728255
0000c0 61 2d f5 3b b3 45 a2 bb 3e 93 08 3c 11 62 dd 3b
       0.007482216 -0.0049521565 0.0083358865 0.006756075
0000d0 c2 8e 12 3c 01 1f bc 3b 88 da 01 3c ea d2 1e bc
       0.008945169 0.0057410006 0.007925637 -0.0096938405
0000e0 7c 76 87 3b 1d 6f 0d ba 70 4f f2 3b e7 1f 93 3b
       0.0041339975 -0.00053952803 0.0073947236 0.004489887
0000f0 e0 57 05 bb 4d 93 09 3c bd 72 06 3c 51 67 43 3a
       -0.0020346567 0.008396936 0.008206067 0.0007454055
000100 ec 38 e2 3b c6 4f df 3b cc 6f cb 3b 8a 36 ca 3b
       0.0069037583 0.0068149297 0.0062083956 0.0061710523
000110 2d 2b d5 3b fe a7 c8 3b bf cd f6 39 75 7b 25 3b
       0.006505391 0.006123542 0.0004707407 0.0025250588
000120 22 49 17 3c ad df ba 3b f1 83 af 39 24 ee d2 bb
       0.009233745 0.0057029338 0.00033476905 -0.00643708
000130 b0 f1 96 3c c1 ff 1d 3c 19 dd 92 3b f2 ba 4f 3c
       0.018425792 0.009643496 0.0044819233 0.012678849
000140 8c ae 90 3b a0 69 88 3a d5 10 c0 3b 5f 5a 2d 3c
       0.004415339 0.0010407455 0.0058613815 0.010580628
000150 3d 76 59 ba e7 ec 14 3b ef e6 ac 3b 22 1a bc 3a
       -0.0008295512 0.0022724213 0.005276553 0.001435105
000160 56 ab b7 3b 4f 6f a6 3b f1 28 30 3b cd 98 58 3c
       0.0056051416 0.005079187 0.0026879872 0.013220024
000170 cd c8 01 3c 71 f1 3c b9 bf ec f1 ba 7b 40 1b 3b
       0.00792141 -0.00018019021 -0.0018457397 0.0023689556
000180 2b 3c ab 3b a0 d0 49 3b 8c ee 13 3b 15 b6 01 3c
       0.0052256784 0.0030794516 0.0022572605 0.007916947
000190 42 93 9a 3b 41 8a 9d 3c 76 07 4c 3c 5a aa e1 3b
       0.0047172615 0.019230964 0.012452951 0.0068867626
0001a0 f3 ad 19 bb d4 80 c5 bb 57 99 96 3b 56 43 a3 3b
       -0.002344963 -0.0060273204 0.0045959163 0.0049823923
0001b0 59 cc 10 3c 7d e1 46 3b 56 7e 1a 3c 35 52 95 bb
       0.008837783 0.0030346804 0.009429535 -0.004556919
0001c0 ef 3a 6f ba 44 09 77 3b 45 11 53 3b c6 3c 3b 3c
       -0.0009125908 0.0037694732 0.0032206338 0.011428064
0001d0 4d 25 58 bb 5c 6d 38 3c 21 e5 27 3b 00 7e 0a bb
       -0.0032981217 0.011256542 0.002561875 -0.002113223
0001e0 1d 7e 92 3c a6 4d 4d 3c 44 e4 a8 3c 77 a1 13 3c
       0.017882401 0.01253072 0.020616658 0.009010664
0001f0 3b 5a 23 3b 93 1d 7a bb 22 45 84 3b a6 ff 43 3c
       0.0024925608 -0.00381646 0.0040365616 0.011962807

action_model._continuous_distribution.log_sigma f4 [1, 2]
000000 28 12 81 3b d5 24 8d bd
       0.003938932 -0.06891791

action_model._continuous_distribution.mu.weight f4 [2, 128]
000000 c5 9a 4a 3c a3 77 80 bc 10 9c c1 bc 0b c0 b6 3b
       0.0123660015 -0.015682047 -0.023633987 0.0055770925
000010 68 a5 80 3c a6 8b 4a 3c 9b 42 b7 3b ce ad 68 3c
       0.015703872 0.012362396 0.005592657 0.0142015945
000020 ff 50 64 3c 43 e1 7e bd 00 92 28 3c 3d 9a 4f bc
       0.013935327 -0.062226545 0.010288715 -0.012671051
000030 b6 e3 d7 3b d4 2d 23 3b 84 99 50 ba 63 d5 4a 3b
       0.0065884246 0.0024899142 -0.0007957446 0.0030949942
000040 01 f8 5b 3c 8d de 1f ba e0 50 05 bd f2 e3 0f 3b
       0.013425828 -0.00060985313 -0.03254783 0.0021955934
000050 ee d2 a7 3b 0e 15 c0 bb 41 45 df bc 49 7d aa 3c
       0.0051215803 -0.005861885 -0.027254703 0.020811694
000060 53 7f 26 3c 91 b6 ef bb 8a 9c 56 bc b0 82 7b 39
       0.010162192 -0.007315465 -0.013098845 0.0002398591
000070 db 09 b3 3c f0 9b fb bc 76 81 87 bc 2f 65 0b 3c
       0.021855285 -0.030714005 -0.016541224 0.008508011
000080 75 ac ac bc 47 0f 13 bd 18 dd bd 3c 73 cd b0 bc
       -0.021078328 -0.03590324 0.023176715 -0.02158234
000090 27 af 0a bc cf 6b 32 ba b1 49 34 3c 2b 4b d4 3b
       -0.008464611 -0.0006806226 0.0110038975 0.0064786873
0000a0 a1 df e8 bc 67 39 d2 3c 47 74 8d 3c f9 59 b3 bc
       -0.028426947 0.025662137 0.01726736 -0.021893488
0000b0 72 77 d2 bc 7c 49 38 bc a0 e9 db bb 56 78 7a 3c
       -0.025691722 -0.011247989 -0.0067112 0.015287479
0000c0 eb 4b b7 bc 4f fc b1 bb f9 1f fc bb 6a 59 14 bc
       -0.022375068 -0.005431689 -0.007694241 -0.009054521
0000d0 52 63 68 3b 8c b1 a3 bc c0 97 32 3c 20 66 fb bc
       0.003545959 -0.019982122 0.010900438 -0.030688345
0000e0 df 5c 1d 3d 1e 16 fc ba 0f a5 56 3c 31 c3 8f 3b
       0.038418647 -0.0019232666 0.0131008765 0.0043872823
0000f0 30 3c 70 3b f5 25 b5 3a f4 95 87 3a 30 0e c8 3c
       0.0036656968 0.0013820516 0.0010344372 0.024420828
000100 f5 dd d5 3b 99 39 b5 38 40 30 cb 3c ab aa 42 3c
       0.0065267035 8.641481e-05 0.02480328 0.011881511
000110 0f d6 f7 3b ab ce d4 bc 00 10 89 b9 92 00 1e bc
       0.0075633596 -0.025977453 -0.00026142597 -0.009643691
000120 66 e2 63 3c 30 d0 43 3d df 54 46 bc d1 79 ac 3b
       0.013908958 0.047805965 -0.012105196 0.005263545
000130 f2 73 22 bc 34 50 88 bc ca 29 a4 bc cf a8 0d bd
       -0.009915339 -0.016639806 -0.020039458 -0.034584817
000140 fb bd 66 bb 7c d5 b4 bc 8b cb cb bc dd b2 57 3c
       -0.0035208452 -0.022074454 -0.02487733 0.013165203
000150 b7 ca 49 bd 49 c5 86 3a 81 ad 0c 3d ca 74 16 3d
       -0.04926559 0.0010282184 0.034345154 0.036732472
000160 8a a5 99 bc ca 1b 8a bc 6c 11 28 3c 58 6d a7 bb
       -0.018755693 -0.016858954 0.01025806 -0.0051094703
000170 44 e9 a2 3c 22 78 fd 3b 79 c2 ad bc d6 33 cf 3c
       0.01988662 0.007735268 -0.021210896 0.025293272
000180 cd 75 5a 3c 0a 04 a8 3c c4 b0 2c bc ce 18 7e b8
       0.01333375 0.020509738 -0.010540191 -6.058142e-05
000190 b6 a1 af bb e7 f7 2c 3c 51 b1 73 bc 7a 47 2c 3c
       -0.0053598536 0.010557151 -0.0148738185 0.010515088
0001a0 33 fc 81 bc 96 45 0d 3b 8c eb f9 3c 54 da 0a 3d
       -0.015867328 0.002155637 0.030507825 0.03389962
0001b0 dd 61 5f bc 52 05 37 3b 8e 9a b1 3a 8b 35 21 bc
       -0.013634172 0.0027926755 0.0013550089 -0.009839426
0001c0 3c 5a 3e 3c 78 f9 ad bc 56 d7 8f bc bc 69 73 bc
       0.011618193 -0.02123712 -0.017558735 -0.014856752
0001d0 66 03 2b bc 95 87 ea bc fd 5a 11 3c ca 4d 2a 3c
       -0.010437822 -0.028629104 0.008871791 0.010394523
0001e0 25 fd 6c 3c 71 53 65 bc 2c 67 af bc 69 b1 e0 3c
       0.014464651 -0.013996945 -0.0214115 0.027428346
0001f0 e3 0f 31 bc 43 0b d0 bc 65 ff be 3c 4d 0f 9e bc
       -0.01080701 -0.025395995 0.023315141 -0.019294405
000200 40 ad 5c bd cb 81 38 3c 34 6a 16 bd 80 33 4a 3d
       -0.05387616 0.011261414 -0.036722377 0.04936552
000210 1e 4a ea bc be 2b 64 bd 7d 72 cc bd 4e 4b 1b 3d
       -0.028599795 -0.05570578 -0.099827744 0.037913613
000220 13 5f 0d 3d 10 55 d1 3c 6f f7 1e bc 61 13 57 3d
       0.034514498 0.025553256 -0.009702547 0.052508716
000230 65 6b 9e 3c 81 82 8a bc 04 77 7d bd d7 2b d1 bc
       0.01933832 -0.016907932 -0.06188108 -0.0255336
000240 f0 34 cd bc af 07 a3 bc 55 b9 9b bc 67 53 81 bc
       -0.025049657 -0.019901125 -0.019009272 -0.01578684
000250 48 a5 86 3c 7b 08 57 3c 24 68 09 bd 36 25 91 bb
       0.016436234 0.0131245805 -0.033546582 -0.0044294847
000260 9b 53 01 bc 3f 0a a0 3d 1f 44 16 bd f7 93 10 3d
       -0.007893468 0.07814454 -0.03668606 0.03529736
000270 5c cf 38 3d 53 8f ea 3b a4 d4 71 bd 11 72 a4 bc
       0.04511963 0.007158199 -0.05904068 -0.020073922
000280 38 3b d9 bb 92 9e 74 3c ef e2 71 3c ab d7 f8 bc
       -0.006629374 0.014930384 0.014763578 -0.030376276
000290 7c 90 df bc d1 7f 0f bd 23 32 b8 bc e8 44 3f 3d
       -0.027290575 -0.035034005 -0.022484845 0.046696573
0002a0 5c 55 7a 3d 5d a6 3c 3d b0 d4 2a bd b9 72 14 3d
       0.06111656 0.046057094 -0.04170674 0.03624222
0002b0 54 c7 88 3c 02 55 15 bd 44 e9 09 3c 7a 59 3f bc
       0.01669661 -0.036458023 0.008417431 -0.011679048
0002c0 e8 af 7e bd 39 7e 31 3c 8d 2c 45 bd 4e ba 51 bd
       -0.062179476 0.0108333165 -0.04813819 -0.051203065
0002d0 41 7b 18 bd 0f 2b 7b 3d 90 de 42 3c 60 40 78 3c
       -0.03722692 0.06132036 0.011893883 0.015152067
0002e0 8c 9d ff 3c 26 48 cf bc 6d 41 fe 3c f9 47 02 3d
       0.031203054 -0.025302958 0.031037057 0.03180692
0002f0 78 a9 96 bc a2 36 01 bd cb 17 1b 3d 30 cc 15 3d
       -0.018391356 -0.031546243 0.037864488 0.03657168
000300 13 ef 59 3d f0 9a d1 3c c5 3b ce 3c 92 98 2e bc
       0.053206515 0.025586575 0.025174985 -0.010656493
000310 b5 b8 da bc fc aa 5f bd 53 e2 b7 bc be 93 fc 3c
       -0.026699403 -0.054606423 -0.022446787 0.030832168
000320 33 ec 1f 3d 56 0f 41 3d 0c 83 a0 ba 5a 4a 14 bb
       0.039043617 0.047133766 -0.0012246086 -0.0022627325
000330 34 c7 e4 bc 7d b2 29 bd 1a 16 77 3c 60 0d b8 3c
       -0.027927019 -0.041429985 0.015080953 0.022467315
000340 9d 47 f8 3c cf a1 03 bd e0 79 4a 3d 4b 96 3c 3d
       0.030307585 -0.032136735 0.049432635 0.046041768
000350 5c 2c 76 bc e5 a0 d6 bb 5e b8 3b bd 42 2a 1f ba
       -0.015025225 -0.006549942 -0.045830123 -0.00060716656
000360 41 af 01 3d 43 1e 47 3d 24 dd 1b bc 4f 3c 6a 3d
       0.031661276 0.048612844 -0.009513173 0.05718642
000370 1c 2a 6e 3d dc b9 67 bb 57 a1 d7 3c e3 de 82 3c
       0.058145627 -0.0035358584 0.02632205 0.015975421
000380 14 a1 24 3d 6e 98 f2 3c 32 7f 27 3d be d6 37 3d
       0.04019268 0.0296137 0.040892787 0.04488253
000390 5d d2 0e bd 65 a6 64 3d bb 0e 69 3d 12 38 56 3c
       -0.034868587 0.05582275 0.056898814 0.013074892
0003a0 40 f5 e5 3c a9 f7 c0 3b 55 e8 c7 3c d6 4c 0a bd
       0.028071046 0.0058888984 0.024402777 -0.033764683
0003b0 ab 66 5e 3d 82 c5 c3 bb bb 7e 17 bd 91 f6 92 3c
       0.05429713 -0.0059744725 -0.036986094 0.017939838
0003c0 be 06 9e bb 6c 80 cc bc 42 74 7e 3d 1c df 03 bd
       -0.004822581 -0.02496358 0.06212259 -0.032195196
0003d0 3c 82 b3 3c 2c 9a 79 bd 29 37 8f bc 60 1c 8b bc
       0.021912687 -0.060938045 -0.017482357 -0.016981304
0003e0 a0 7f 4c bd b9 5b b7 bc eb 76 63 bd 95 c9 45 3d
       -0.0499264 -0.022382604 -0.05553333 0.048287947
0003f0 18 2f 35 3d f0 7f c4 3a b2 6a bf 3c 2b 5f ab 3d
       0.044234365 0.0014991742 0.023366306 0.08367761

action_model._continuous_distribution.mu.bias f4 [2]
000000 39 65 cc 3a ab fa ac ba
       0.0015594132 -0.0013197263

exp_avg f4 [128, 136]
000000 92 30 f5 b9 00 00 00 00 04 00 00 00 20 04 19 b8
       -0.0004676623 0.0 6e-45 -3.6481884e-05
000010 92 30 f5 b9 04 00 00 00 00 00 00 00 97 6b 2a b8
       -0.0004676623 6e-45 0.0 -4.063136e-05
000020 77 75 f2 b9 00 00 00 00 f8 c6 ae b6 5e 4a 2e b8
       -0.00046245355 0.0 -5.208767e-06 -4.1554093e-05
000030 92 30 f5 b9 04 00 00 00 00 00 00 00 fd df 51 b8
       -0.0004676623 6e-45 0.0 -5.003809e-05
000040 03 1a db b9 00 00 00 00 87 b4 50 b8 ff 33 c1 b8
       -0.00041790315 0.0 -4.9759194e-05 -9.212642e-05
000050 44 c8 24 b9 72 cc a2 b9 00 00 00 00 bc 7d 19 b8
       -0.00015714864 -0.00031051371 0.0 -3.6595142e-05
000060 c4 3e c9 b8 00 00 00 00 e2 e0 c2 b9 24 07 cb b9
       -9.596118e-05 0.0 -0.00037170114 -0.00038724497
000070 93 f3 30 b6 ab ce f3 b9 00 00 00 00 ac 12 f4 b7
       -2.6367823e-06 -0.0004650255 0.0 -2.9095761e-05
000080 cc 04 33 b8 00 00 00 00 28 82 d6 b9 48 52 db b9
       -4.2681393e-05 0.0 -0.00040914235 -0.0004183224
000090 b1 57 78 ba f5 5b b5 37 19 d2 f6 b7 cf 7a 59 b5
       -0.0009473516 2.1619702e-05 -2.942332e-05 -8.101751e-07
0000a0 b3 ed 2f 34 ec c9 74 ba 2d 59 b6 37 75 70 9c b7
       1.638462e-07 -0.000933795 2.1737616e-05 -1.8649016e-05
0000b0 96 40 1e 34 88 84 54 b4 14 dc 6f ba 24 29 b1 37
       1.4738393e-07 -1.9792253e-07 -0.00091499207 2.1119202e-05
0000c0 10 fe 27 b7 77 08 89 b4 50 f5 88 31 59 2d 66 ba
       -1.0013129e-05 -2.5524398e-07 3.9860097e-09 -0.0008780561
0000d0 31 29 ac 37 f8 65 fd b7 3a d9 89 34 01 62 36 b4
       2.0523179e-05 -3.0207433e-05 2.5676292e-07 -1.6985724e-07
0000e0 13 33 6b ba 60 00 ac 37 08 f5 ea b3 ca 3d 47 b5
       -0.0008972149 2.0504172e-05 -1.0941045e-07 -7.422319e-07
0000f0 95 ca 48 34 4a 2c 6b ba b8 37 ae 37 9e 87 19 37
       1.870015e-07 -0.0008971138 2.0768362e-05 9.1510865e-06
000100 66 f0 4f 33 c5 97 0d b3 a7 8e 6a ba 25 b6 ac 37
       4.8414584e-08 -3.2967154e-08 -0.00089476485 2.0588815e-05
000110 8c 2a 02 38 04 e2 3c b4 2c 23 e6 32 59 5d 6d ba
       3.103404e-05 -1.7591088e-07 2.6791518e-08 -0.00090547424
000120 16 37 ad 37 85 23 1b 38 6e 7f 41 b5 c2 2c 2b 33
       2.0648858e-05 3.698796e-05 -7.208354e-07 3.9854747e-08
000130 ab 39 6c ba 17 d8 ad 37 2a a9 24 38 04 52 4a b4
       -0.0009011279 2.0723832e-05 3.9258193e-05 -1.8842553e-07
000140 b5 59 36 b3 af 3e 6a ba 53 11 ad 37 da 22 5f 37
       -4.2456765e-08 -0.0008935732 2.0631274e-05 1.329995e-05
000150 01 61 b5 b1 fe d4 02 b4 ab db 6a ba fe 1b ad 37
       -5.2788214e-09 -1.218468e-07 -0.00089591247 2.0636242e-05
000160 f1 93 64 36 0a f8 9c b4 0a ac c4 b2 1c 77 69 ba
       3.406076e-06 -2.9237736e-07 -2.2895637e-08 -0.00089059933
000170 38 ad ab 37 66 f7 51 b7 5b f8 81 b4 1a 32 7c 33
       2.046545e-05 -1.2514973e-05 -2.4208825e-07 5.871889e-08
000180 b9 7b 67 ba 0a d4 a9 37 ab ed 50 b7 08 ac a9 b4
       -0.0008830387 2.0245108e-05 -1.24531025e-05 -3.1603872e-07
000190 dc 7c 0d 34 82 c2 67 ba 5a 74 ac 37 1f b8 89 b8
       1.3177072e-07 -0.00088409346 2.0558178e-05 -6.566964e-05
0001a0 25 49 c1 33 2b ff 60 b4 5a 18 67 ba 92 9e ab 37
       9.000568e-08 -2.0954455e-07 -0.00088155793 2.0458629e-05
0001b0 cb e6 9f b8 b6 ac d6 b3 21 de 9b b3 af 21 66 ba
       -7.624699e-05 -9.9965675e-08 -7.258155e-08 -0.0008778823
0001c0 0e ef aa 37 6d 44 cd b8 de c1 3a b4 a9 07 88 32
       2.0376898e-05 -9.787907e-05 -1.7393128e-07 1.5835967e-08
0001d0 71 6b 66 ba 79 d4 ac 37 26 a2 ee b8 7f e9 38 34
       -0.0008789814 2.0602938e-05 -0.00011378927 1.7221281e-07
0001e0 c9 2a 8d b4 d3 bc 64 ba 3c fc ad 37 b5 65 24 b9
       -2.6294427e-07 -0.0008725647 2.0740663e-05 -0.00015678148
0001f0 d1 58 7c 34 df e8 b3 b4 a7 4c 65 ba 64 a4 ad 37
       2.350164e-07 -3.3510784e-07 -0.0008747079 2.0699757e-05
000200 18 3e 4e b9 ad 8f a4 b4 3a 62 ca 33 a4 10 61 ba
       -0.00019668823 -3.0651918e-07 9.424225e-08 -0.00085855485
000210 e7 97 b1 37 05 bd 70 b9 1f 68 25 35 2e b5 5c b5
       2.117078e-05 -0.00022958599 6.1618806e-07 -8.222004e-07
000220 10 b7 3d 3a 00 00 00 00 04 00 00 00 4e 48 6b 38
       0.0007237056 0.0 6e-45 5.6095705e-05
000230 10 b7 3d 3a 04 00 00 00 00 00 00 00 6e 5a 81 38
       0.0007237056 6e-45 0.0 6.168043e-05
000240 9f de 3c 3a 00 00 00 00 c0 70 58 36 f3 52 7a 38
       0.0007204804 0.0 3.2252137e-06 5.9681897e-05
000250 10 b7 3d 3a 04 00 00 80 00 00 00 00 cd d5 9d 38
       0.0007237056 -6e-45 0.0 7.526167e-05
000260 d2 08 1d 3a 00 00 00 00 fb b8 02 39 ab 11 49 39
       0.0005990389 0.0 0.00012466677 0.00019175436
000270 f0 ae e5 39 32 bf 95 39 00 00 00 00 f0 d9 84 38
       0.00043808622 0.00028561946 0.0 6.3348445e-05
000280 c2 29 cc 38 00 00 00 00 d8 31 24 3a 41 3e 28 3a
       9.735256e-05 0.0 0.0006263531 0.0006417968
000290 62 27 b3 b7 4b 50 43 3a 00 00 00 00 e4 12 3b 38
       -2.1356802e-05 0.0007450624 0.0 4.4601868e-05
0002a0 bc af d7 38 00 00 00 00 66 2f 24 3a e9 32 28 3a
       0.00010284732 0.0 0.00062631664 0.00064162776
0002b0 d9 f6 bf 3a f6 e0 0c b8 13 0e 9c 38 0d 1e 65 35
       0.001464571 -3.3588112e-05 7.441281e-05 8.535288e-07
0002c0 2e db 66 b4 2a 07 be 3a 6b a8 0d b8 af 6e 80 38
       -2.1500156e-07 0.0014497985 -3.377387e-05 6.124132e-05
0002d0 31 f2 e0 b3 98 de 99 34 8f 0f bc 3a af 7f 0b b8
       -1.0474867e-07 2.866043e-07 0.0014347899 -3.3259097e-05
0002e0 f6 2f 8b 38 f5 1f 80 34 4d 78 42 b2 eb 62 b4 3a
       6.63697e-05 2.386511e-07 -1.13196394e-08 0.001376239
0002f0 e6 c9 06 b8 c0 be aa 38 72 66 e6 b4 73 22 b4 33
       -3.2136122e-05 8.141762e-05 -4.2915377e-07 8.3881694e-08
000300 68 e1 ba 3a 9a 39 09 b8 c5 43 f2 37 88 a5 56 35
       0.001425785 -3.271699e-05 2.8880206e-05 7.996209e-07
000310 c4 0d 29 b4 15 94 b9 3a e3 c1 09 b8 ad 71 1c 36
       -1.574436e-07 0.0014158512 -3.2843916e-05 2.331198e-06
000320 d0 b2 4c b4 af a3 d8 33 30 41 b6 3a 03 02 07 b8
       -1.9064032e-07 1.0088058e-07 0.0013904925 -3.218838e-05
000330 b7 85 0b b8 1b a0 70 b4 02 df b0 33 b8 c1 b9 3a
       -3.3264714e-05 -2.2409988e-07 8.2362035e-08 0.0014172113
000340 48 3c 08 b8 4b a2 fa b7 e6 31 81 35 74 67 9a 32
       -3.2481068e-05 -2.9877896e-05 9.625771e-07 1.7975005e-08
000350 e2 07 b8 3a ed a8 07 b8 72 a7 0b b8 e8 f8 c3 34
       0.0014040435 -3.2343833e-05 -3.3296128e-05 3.6502684e-07
000360 d2 21 03 34 c8 25 b7 3a d9 ff 07 b8 f3 e3 de 36
       1.221263e-07 0.0013973052 -3.2424785e-05 6.6426524e-06
000370 62 3f 8d b3 ea eb 6e 34 26 b0 b6 3a e1 e0 06 b8
       -6.5773534e-08 2.2251302e-07 0.0013937994 -3.2157524e-05
000380 9e a1 98 37 cc bc 05 35 9d 50 3d b1 7c 80 b5 3a
       1.819507e-05 4.9821097e-07 -2.7548943e-09 0.0013847495
000390 e8 90 05 b8 6f 00 b2 37 30 e0 01 35 58 35 a8 b3
       -3.1844625e-05 2.1219455e-05 4.838248e-07 -7.832813e-08
0003a0 11 44 b5 3a 71 8d 05 b8 d5 79 19 38 d4 26 f6 34
       0.001382949 -3.18414e-05 3.6591508e-05 4.5849322e-07
0003b0 fe 13 ab b3 d7 08 b6 3a d5 4d 07 b8 ec 4c de 38
       -7.9664446e-08 0.0013888133 -3.2258995e-05 0.00010600113
0003c0 f9 89 6d 33 cf 99 bb 33 ab 62 b5 3a de 0c 07 b8
       5.5306348e-08 8.735844e-08 0.001383861 -3.219849e-05
0003d0 19 cb 04 39 1d de c8 33 1a f1 0a 34 77 af b4 3a
       0.00012664161 9.353628e-08 1.2939964e-07 0.0013785203
0003e0 bd 37 06 b8 1a 4c 1e 39 1d c0 a7 34 26 c5 cb b3
       -3.2e-05 0.00015096404 3.1245955e-07 -9.488785e-08
0003f0 bc 3f b5 3a 89 32 08 b8 75 30 3e 39 c1 c0 73 b4
       0.0013828198 -3.247199e-05 0.00018137864 -2.2701262e-07

exp_avg_sq f4 [128, 136]
000000 2c c1 cb 34 00 00 00 00 b2 1f a4 2a 6b 95 1a 31
       3.7952248e-07 0.0 2.9154245e-13 2.2494884e-09
000010 3d c1 cb 34 82 7c 49 26 00 00 00 00 2a 87 2c 31
       3.7952296e-07 6.9904623e-16 0.0 2.5106126e-09
000020 9d 49 c8 34 00 00 00 00 07 b2 87 31 bd aa 00 32
       3.7306464e-07 0.0 3.9492565e-09 7.489402e-09
000030 8a bb cb 34 7c 01 a5 2c 00 00 00 00 59 91 6d 31
       3.794815e-07 4.689747e-12 0.0 3.457066e-09
000040 42 12 94 34 00 00 00 00 c8 fc 8b 33 c9 c9 a3 33
       2.7580433e-07 0.0 6.5186725e-08 7.6269835e-08
000050 c1 01 8b 34 c6 b6 e8 33 00 00 00 00 c0 ee 6f 31
       2.5892044e-07 1.0836588e-07 0.0 3.491479e-09
000060 b6 dc 31 34 00 00 00 00 aa 82 3c 34 57 57 49 34
       1.6564704e-07 0.0 1.75564e-07 1.8751358e-07
000070 28 b2 72 32 a9 23 c2 34 00 00 00 00 77 3a ee 30
       1.4126762e-08 3.6161262e-07 0.0 1.7333396e-09
000080 e0 90 df 33 00 00 00 00 dc 35 70 34 54 1a 78 34
       1.0410599e-07 0.0 2.2371336e-07 2.3106378e-07
000090 c3 72 a7 35 0c b2 3b 30 39 4a 9b 32 f7 85 20 2b
       1.247587e-06 6.8283224e-10 1.8078127e-08 5.702933e-13
0000a0 b6 bf 66 2a b5 51 a8 35 e7 6f 3c 30 8a 12 8c 32
       2.0494617e-13 1.2540755e-06 6.8553024e-10 1.6306576e-08
0000b0 b2 c9 67 2b af f0 45 2a 00 ad a9 35 1a af 3d 30
       8.2347594e-13 1.7580619e-13 1.2641831e-06 6.9006634e-10
0000c0 69 c7 94 32 f7 de dd 2b 48 99 a0 2a 7a aa ad 35
       1.7320149e-08 1.576488e-12 2.852807e-13 1.293912e-06
0000d0 c3 1a 42 30 7b 05 97 32 32 c7 56 2c 74 c8 b9 2a
       7.061482e-10 1.7581206e-08 3.0521805e-12 3.3001694e-13
0000e0 6f ee ae 35 58 f2 43 30 bc c3 a2 32 9f 28 b2 2b
       1.3033404e-06 7.128498e-10 1.8948292e-08 1.2658935e-12
0000f0 37 d7 59 2a 4c 14 af 35 9a 83 44 30 81 41 a3 32
       1.934814e-13 1.3044423e-06 7.14914e-10 1.9005485e-08
000100 e3 38 f4 2a c4 57 3b 2a 63 bd ae 35 fd 86 44 30
       4.338258e-13 1.6639386e-13 1.3019129e-06 7.1496215e-10
000110 65 7c b6 32 08 33 f7 2a f0 66 5d 2a d1 4e af 35
       2.1244157e-08 4.3911424e-13 1.9664457e-13 1.3061455e-06
000120 c5 20 44 30 49 a9 a0 32 35 79 3f 2b e5 19 48 2a
       7.1350953e-10 1.8703433e-08 6.802504e-13 1.7772552e-13
000130 fa 5f b0 35 0a fb 45 30 be 29 99 32 29 00 7f 2b
       1.3140955e-06 7.202493e-10 1.7830526e-08 9.059442e-13
000140 52 15 85 2a a5 17 b1 35 70 59 46 30 dd b2 96 32
       2.364034e-13 1.3194409e-06 7.215908e-10 1.7543636e-08
000150 1b 37 6a 2b 96 3d 92 2a fc 9e b1 35 db 55 47 30
       8.3209974e-13 2.5977544e-13 1.3233798e-06 7.2517786e-10
000160 28 d4 a1 32 36 0c 5c 2b a7 84 79 2a dd 93 b1 35
       1.8839344e-08 7.8176647e-13 2.2161666e-13 1.3230562e-06
000170 16 9a 47 30 17 24 a4 32 27 45 15 2b 63 4e 7d 2a
       7.261475e-10 1.9108525e-08 5.30314e-13 2.249811e-13
000180 19 fa b3 35 a0 91 49 30 ef 75 a2 32 38 99 93 2b
       1.3409327e-06 7.333032e-10 1.8912912e-08 1.0487505e-12
000190 ba d0 70 2a 2f 3b b4 35 fb c9 4a 30 15 b6 a0 32
       2.1388699e-13 1.342827e-06 7.3774203e-10 1.8709253e-08
0001a0 ba 6d 19 2b d3 4f 99 2a c0 4c b4 35 1a b7 49 30
       5.4508795e-13 2.723365e-13 1.3433382e-06 7.3383577e-10
0001b0 4f 68 9f 32 84 05 e8 2a 9a 64 35 2a 2b e0 b4 35
       1.855747e-08 4.1215306e-13 1.6110933e-13 1.3476287e-06
0001c0 7d 9f 4a 30 d1 37 98 32 99 84 34 2b 77 45 5f 2a
       7.371382e-10 1.7720511e-08 6.413286e-13 1.9830479e-13
0001d0 c4 c7 b4 35 a5 9c 4a 30 e1 ab a6 32 c0 6e ec 2a
       1.3469185e-06 7.3709777e-10 1.9403105e-08 4.199887e-13
0001e0 04 01 38 2a af 73 b4 35 12 26 4b 30 b5 33 cc 32
       1.6342835e-13 1.3444713e-06 7.390507e-10 2.377224e-08
0001f0 bc 78 09 2b 62 10 3d 2a fe a0 b3 35 45 f6 4a 30
       4.883973e-13 1.6792256e-13 1.3383394e-06 7.383714e-10
000200 74 ee 03 33 b3 33 28 2b dc f8 5d 2a ad 56 b2 35
       3.0717686e-08 5.9757337e-13 1.9715084e-13 1.328726e-06
000210 7a a1 4b 30 3c 1e 39 33 e9 26 4a 2b 83 c4 97 2a
       7.408044e-10 4.3101167e-08 7.1818815e-13 2.6959346e-13
000220 d6 23 3d 35 00 00 00 00 1f 6b 3b 2b 64 1d 8f 31
       7.0460135e-07 0.0 6.6584406e-13 4.165189e-09
000230 7e 25 3d 35 7e bd 36 27 00 00 00 00 53 91 9b 31
       7.0462545e-07 2.5360298e-15 0.0 4.527615e-09
000240 23 a2 36 35 00 00 00 00 42 8d 9e 32 c3 19 db 32
       6.8036223e-07 0.0 1.8457857e-08 2.550667e-08
000250 f5 25 3d 35 a9 1b 22 2c 00 00 00 00 a6 9b d1 31
       7.046322e-07 2.303694e-12 0.0 6.1003957e-09
000260 75 b3 ed 34 00 00 00 00 f1 ce 48 34 0f 50 5f 34
       4.4275262e-07 0.0 1.8701736e-07 2.0797619e-07
000270 a3 e2 1a 35 cc 62 e8 33 00 00 00 00 ec e6 f1 31
       5.769927e-07 1.0821313e-07 0.0 7.040276e-09
000280 b9 52 b1 34 00 00 00 00 cf 52 a8 34 cc d2 b3 34
       3.3029008e-07 0.0 3.135269e-07 3.3494723e-07
000290 83 36 4b 33 12 29 2c 35 00 00 00 00 79 c9 6b 31
       4.73142e-08 6.413476e-07 0.0 3.4311525e-09
0002a0 69 2b 82 34 00 00 00 00 05 99 b9 34 cc 65 c1 34
       2.4245972e-07 0.0 3.4570272e-07 3.6023118e-07
0002b0 a3 ed 15 36 ab 01 a8 30 67 36 02 33 f0 c8 cd 2b
       2.2341053e-06 1.2224083e-09 3.0317462e-08 1.4621897e-12
0002c0 67 56 cc 2a c3 7e 16 36 e0 92 a8 30 a0 f1 f5 32
       3.6297633e-13 2.2425527e-06 1.2265353e-09 2.8631632e-08
0002d0 f3 3b ce 2b 3b f0 b9 2a d0 2d 18 36 1b 5b aa 30
       1.465382e-12 3.3029295e-13 2.2676431e-06 1.2395022e-09
0002e0 2a 3a 02 33 d0 d6 5a 2c f6 e0 2b 2b d9 23 1d 36
       3.0320884e-08 3.1098908e-12 6.10636e-13 2.341569e-06
0002f0 41 a3 af 30 21 05 07 33 70 80 f4 2c 0b 00 28 2b
       1.2779325e-09 3.14368e-08 6.9491565e-12 5.968565e-13
000300 6d 60 1f 36 70 72 b2 30 02 45 0c 33 fb ce 8f 2c
       2.3748973e-06 1.298373e-09 3.2659052e-08 4.087284e-12
000310 ad af e1 2a 5f 6c 1f 36 4d e6 b2 30 c7 0a 0f 33
       4.0089928e-13 2.3755927e-06 1.301666e-09 3.3304584e-08
000320 f9 c6 a8 2b b9 4c c2 2a 2c 4a 1f 36 9f f4 b2 30
       1.1992344e-12 3.451456e-13 2.373602e-06 1.302073e-09
000330 f1 6d 18 33 da 31 a4 2b bd c1 ce 2a 3d b2 20 36
       3.549025e-08 1.1666737e-12 3.6727384e-13 2.3945606e-06
000340 d8 b1 b3 30 72 1f 0e 33 8e 2f 44 2c e7 8b d2 2a
       1.307451e-09 3.309055e-08 2.7879673e-12 3.740057e-13
000350 bc 2b 22 36 45 ea b5 30 de 6d 0c 33 a2 bd 37 2c
       2.4165338e-06 1.3236067e-09 3.2696214e-08 2.6111131e-12
000360 2e 15 e4 2a d5 67 23 36 e2 4b b7 30 4d b5 09 33
       4.0515632e-13 2.434933e-06 1.333657e-09 3.206269e-08
000370 3e 20 0f 2c c6 99 0a 2b 79 2b 24 36 f5 4f b8 30
       2.033942e-12 4.924085e-13 2.4463209e-06 1.3410487e-09
000380 a7 d3 15 33 c7 b5 3e 2c 9d fc 0e 2b 7b 00 24 36
       3.4884263e-08 2.710153e-12 5.0799106e-13 2.4438184e-06
000390 ee 6e b8 30 47 09 17 33 b0 7f bb 2b 8d ee 08 2b
       1.341929e-09 3.5165865e-08 1.332259e-12 4.864796e-13
0003a0 b5 25 26 36 b1 44 ba 30 0a 8c 0f 33 fe d0 0d 2c
       2.4757876e-06 1.3552804e-09 3.3422147e-08 2.015332e-12
0003b0 f5 26 cf 2a e6 98 26 36 c8 03 bb 30 ca 64 08 33
       3.6797618e-13 2.4824926e-06 1.3607115e-09 3.1756635e-08
0003c0 26 57 87 2b 54 ec ec 2a 13 f1 26 36 57 af ba 30
       9.616515e-13 4.2086007e-13 2.4876251e-06 1.3583116e-09
0003d0 cc f5 09 33 88 b0 6c 2b 17 7b ad 2a 25 4d 27 36
       3.212135e-08 8.408903e-13 3.0816384e-13 2.4929843e-06
0003e0 0e 69 bb 30 37 bb 00 33 88 0b 9b 2b 78 cf c6 2a
       1.3635899e-09 2.9972593e-08 1.1016613e-12 3.5315826e-13
0003f0 bc 74 27 36 a1 7f bb 30 c4 7b 0a 33 73 f3 72 2b
       2.4952888e-06 1.3642315e-09 3.2243193e-08 8.6313525e-13

exp_avg f4 [128]
000000 96 30 f5 b9 11 b7 3d 3a 1e 9e 8f ba 2f dd 87 b7
       -0.0004676624 0.0007237057 -0.0010957157 -1.619625e-05
000010 6e 75 8d ba 71 d8 c9 3a 24 f0 5c 3a 32 b7 7b ba
       -0.0010792443 0.0015399588 0.0008428118 -0.00096021884
000020 38 74 e6 38 6a 3c 1a ba 9c a2 d7 b7 d4 45 0b 3a
       0.00010988902 -0.0005883636 -2.5705718e-05 0.00053128344
000030 d5 1a 37 39 3d dd 0f 3a f7 ac a8 3a 74 c3 de 39
       0.00017462236 0.0005487984 0.001286893 0.00042488764
000040 ea 4f 97 ba e7 55 97 b9 d0 2a ad b9 aa 0c 72 b9
       -0.0011544202 -0.00028864967 -0.0003302903 -0.00023083636
000050 c5 56 cf 39 8e ac 68 39 17 06 5e ba 26 12 e2 ba
       0.00039546765 0.00022189526 -0.00084695354 -0.001724784
000060 d9 06 c7 ba a5 79 23 3a 35 a3 83 ba c7 6a 2d 39
       -0.0015184536 0.0006236083 -0.0010043146 0.00016538343
000070 d0 cd d8 37 1c f2 e2 b9 98 1a 91 39 d0 c1 27 b8
       2.5845045e-05 -0.00043286465 0.0002767637 -3.9996405e-05
000080 bb 9f 51 39 8f 01 99 ba 31 09 bb b8 96 9c fa b9
       0.00019991297 -0.0011673438 -8.918567e-05 -0.0004780038
000090 d2 e0 22 b6 0a f9 bd ba 8f e0 b4 3a da e3 64 ba
       -2.4270744e-06 -0.0014493775 0.0013799834 -0.00087314623
0000a0 8c 1e e6 ba 9b b9 05 b9 be 00 aa b6 a6 fd 3d 3a
       -0.0017556711 -0.00012753012 -5.066481e-06 0.00072475744
0000b0 13 f2 3f 3a 8e 3e e8 ba f2 8d 11 ba f7 9a 51 35
       0.00073221436 -0.0017718838 -0.00055524625 7.808407e-07
0000c0 3f 96 c1 b7 ff e0 40 3a 36 7b 01 39 17 cb 71 3a
       -2.3077357e-05 0.0007357746 0.00012348298 0.0009223683
0000d0 71 f2 a9 39 b4 ac 14 3a b7 2d b9 3a bb 6a 7e 3a
       0.00032414825 0.0005671487 0.0014128004 0.0009705235
0000e0 14 3b d9 ba 1a 90 8e b8 a0 0d a1 b9 90 77 9e 39
       -0.0016573393 -6.797929e-05 -0.00030718464 0.0003022519
0000f0 71 81 de ba 85 73 2a b6 f1 e2 84 3a cc f9 46 36
       -0.0016975832 -2.5399215e-06 0.0010138435 2.96497e-06
000100 bb 57 9f ba a3 5f 0a 3a d3 d1 47 38 1a 29 5f 38
       -0.0012156883 0.0005278533 4.764071e-05 5.3205622e-05
000110 a9 02 15 39 f4 36 90 b9 98 5e 74 3a a4 6c df 39
       0.00014210738 -0.00027506764 0.0009321957 0.00042614818
000120 b1 6e 1b 3a d2 85 05 37 91 f3 f2 ba 70 3b 1d b8
       0.0005929275 7.958575e-06 -0.0018535723 -3.7487072e-05
000130 58 3b 5b b7 95 f3 49 b9 0e 41 b6 b9 76 8f 11 bb
       -1.3067234e-05 -0.00019259595 -0.00034762215 -0.0022210754
000140 e4 59 19 ba 51 2c 19 38 33 03 f2 ba 30 26 49 3a
       -0.00058498816 3.6519315e-05 -0.0018464088 0.0007673232
000150 11 40 b5 ba c7 cc ae b9 05 35 4b b9 80 2b ea 39
       -0.0013828297 -0.00033340437 -0.0001937934 0.00044664368
000160 45 b4 a8 3a 02 73 fc 3a 08 62 c3 38 24 1d 10 3b
       0.0012871107 0.0019260349 9.316584e-05 0.0021990025
000170 c0 ef e4 38 0f 4a ed ba 2b be c6 3a fc e0 82 3a
       0.00010916544 -0.0018103736 0.0015162876 0.0009985263
000180 23 90 0e 39 b5 ea 9b ba 41 ad a9 37 ad c4 8d ba
       0.0001359587 -0.001189551 2.0227048e-05 -0.001081606
000190 60 ae 2d 39 82 c6 5d 3a 9a 7c 6c b9 fe 1f b0 3a
       0.00016563525 0.0008460061 -0.00022553132 0.0013437269
0001a0 16 cc b0 b7 6f 34 43 b8 e4 79 9e b7 bc 9a ae ba
       -2.107587e-05 -4.6540456e-05 -1.8891827e-05 -0.0013321261
0001b0 4e 10 cf b9 43 a6 a0 ba e0 a3 8c 39 d5 9b 19 3a
       -0.00039494265 -0.0012256581 0.00026824977 0.00058597076
0001c0 e9 87 39 3a 5b 47 88 b9 79 47 96 39 e1 c2 40 39
       0.0007077442 -0.00025993105 0.0002866348 0.00018383145
0001d0 14 b1 72 3a 90 0e 45 ba 70 01 8a 3a aa e3 1f ba
       0.0009257954 -0.00075171236 0.0010528993 -0.0006099293
0001e0 b7 06 a1 3a 4b a0 c3 39 6b 85 68 b7 0b 50 75 b9
       0.0012285326 0.00037312726 -1.3859341e-05 -0.00023394839
0001f0 79 1e 25 b9 9c bd 0e b9 18 3e 8e 37 02 aa 93 ba
       -0.00015746978 -0.0001361281 1.6956634e-05 -0.0011265876
