results/ParkingTest_02/CarParking.onnx (onnx, 90958 bytes, 11 tensors)

network_body.observation_encoder.processors.0.normalizer.running_mean f4 [28]
00000000: 5a6b 053d 0000 0000 9eb4 cb3e 938f 2b3f
00000010: 9a57 c33b 0000 0000 9dae 103f 2e1f 4b3f
00000020: 144a 9d3d 0000 0000 6a28 b73e a082 213f
00000030: 69b0 cd3b 0000 0000 cfd4 fa3e 5339 3d3f
00000040: 720a 023e 0000 0000 d8c8 fd3e 26f5 333f
00000050: d935 1e3c f93d 973a a4a4 ce3e 6d19 273f
00000060: 2123 023e 0000 0000 ab84 ec3e a1d1 303f
0.03257308 0.0 0.39786237 0.6701595 0.0059613707 0.0 0.5651644 0.7934445
0.07680145 0.0 0.3577302 0.6308994 0.0062771332 0.0 0.48990485 0.73915595
0.12699297 0.0 0.49567294 0.7029594 0.009656393 0.0011538855 0.40359986 0.6527317
0.12708713 0.0 0.46194968 0.6906987

network_body.observation_encoder.processors.1.normalizer.running_mean f4 [5]
00000000: 51aa 3c40 cd79 053f 9b04 bf3f 1bab d93e
00000010: a37e 743e
2.9478953 0.5213898 1.492328 0.42513356 0.23876433

network_body._body_endoder.seq_layers.0.weight f4 [128, 33]
00000000: cbb1 083f 5a9d 613d 3a91 e5bc fdc6 eabc
00000010: 90aa 2a3e bf82 bd3d d39b 8c3e 3612 413e
00000020: c010 4ebd 8378 9d3c 3845 8d3d c46e 853c
00000030: 2e30 9ebe 8629 623e b4e0 053e 3ba2 203e
00000040: 49e3 0f3e 1d7b 3e3e 262e 893e dc42 b5bd
00000050: 45fc 93bd 383d 303e d969 283c b4bd 0ebe
00000060: 5a78 323e b473 34be 4b30 f7bd c1d7 573e
00000070: 2565 0abe 3e91 5fbe fb5d 913e 9231 b4be
00000080: cf6a 383e 43f1 09be 7129 adbd c654 fbbd
00000090: 9753 f8bd 4c1d c8be d336 1d3e 421f bcbe
000000a0: 24e1 63be e668 e7bd 4fc7 aa3c e349 4cbd
000000b0: 66eb 603e 8fb7 313d a922 993d baed c73e
000000c0: 1e13 663e e656 833e 9803 5e3d 6729 9f3c
000000d0: de02 93ba 9102 bebc c841 84be 05a5 d43c
000000e0: aedf 91bd 2c99 a3be 9304 e93e 4144 c0bd
000000f0: 774d 4e3e ff0b e4bd 9065 193e 2d90 e9bc
00000100: 2549 c6bd fece 90bc a896 29be efc6 f3bd
00000110: a2bb 063d d597 4f3e 0c2f 93bd 8c57 9bbe
00000120: f62c 6b3d 7b44 ebbd 8ca5 993e 84c2 90bc
00000130: 5f57 ab3d 13cf 3a3e e524 69bd cb44 8c3e
00000140: c906 3c3e 8ad4 edbd 30ee 45bd 216c 27be
00000150: efd5 4bbe caa9 f63e 3f63 b63b 73b5 4c3e
00000160: feda 043e a384 8e3e 48ad f3bd cbdb 40be
00000170: 0ca4 10bc 73bc ffbe b084 f63d ef7e ad3d
00000180: 8e74 6ebe b895 1fbd 1915 393e 00a0 363e
00000190: d5f4 61bc c64a d3bd 7efb ed3d 4ae5 f03d
000001a0: 8790 463d c4e1 3fbe 8713 76bc 2357 9abb
000001b0: cc7e 1c3e e5c0 593e 8224 883c 0453 51be
000001c0: 35f7 033e 746f 90bd ed1d 8c3d 8763 f33d
000001d0: be4f cabe addb 4fbe 4fa3 cb3d baa4 053d
000001e0: 8a3a de3d 9904 a0bb dccf 283d 809a a23c
000001f0: 4556 35be 9646 a03d 1a9d 873d c35e 833d
00000200: 69ad a83d 3c96 573d 0f2d 83be 73cd 32be
00000210: ca24 9cbd cb5c d33d 7b3d 26bc e71d 15bd
00000220: 7a4a cbbe ff0b 89be 243a b43e 139b 5ebe
00000230: 1383 c5bd 9325 d7bd bf20 6cbe 5bfb 3ebe
00000240: ef5f 39bc 2ec2 a73d a67a 3fbe 0898 b93c
00000250: 7ec6 19be 50ef 46bd f3ca 163d 2777 9e3e
00000260: e3e0 efbd 93c8 12be 15e2 753e da1a 48be
00000270: f657 08be da6a 48be ea7d 743d 3c44 afbc
00000280: ab19 d4be bada 893d 1b06 743d 6ec6 93be
00000290: 7c45 77be fd4e 783d dd44 97bd 9607 6dbd
000002a0: a792 693c f933 0a3e 60ff 633e b323 e8bd
000002b0: 6552 a73b 9212 41be fa82 e6bb c672 55be
000002c0: 6888 fd3d 4cc0 86ba 74fe be3e e0ab a5be
000002d0: 3f28 c1bc bb7b d2bd 4240 033e 5825 20bd
000002e0: 1918 233e b468 bfbc 6b60 73bd 544c bfbd
000002f0: 793b 2c3e ea08 2ebe f455 79bd b3d7 90be
00000300: e1fa 89bd 7d5f 793e 9462 e83c 3583 a7bd
00000310: a9cd 343e 232f bebb ac1f a2be 15c6 58be
00000320: ebed e33b 2239 1e3e 363d 05be 862b fab9
00000330: b9bc 17bf c8a8 cbbc 8ec0 dabb 5d15 333e
00000340: 0387 293e f19f 6bbd 5a28 683e ec2c 41be
00000350: 60f0 e4be daeb 84be d317 25bd 2d8a cbbd
00000360: 7405 b1bd c59f d6bd 9e7a 8b3c fc7c 02bf
00000370: 7624 6d3c f752 94be e5a2 2cbc 92eb d93d
00000380: ccd6 0fbe 436c 54bd 14db 9dbe b4ae 133e
00000390: 2204 05be b611 88be e496 4fbe 604f 4fbe
000003a0: 06f2 3c3e 1a0b 5ebe 2b22 6c3d e5ed 08be
000003b0: 7057 643c 0829 973e 87d9 9a3e e722 0bbe
000003c0: 96c0 cebd 4970 ad3e 169f 903d 6343 ab3d
000003d0: de41 933d f93b 81ba e33c b23e 7bad 07be
000003e0: f981 4fbe 080f fd3d 882d 753e 1aff 3dbe
000003f0: afed 30be 80fa 133e ff4c e33d ca0e 2fbe
0.5339629 0.055081703 -0.028023351 -0.028659338 0.16666627 0.092534535 0.27462634 0.18854603
-0.050308943 0.019222504 0.06897968 0.016288169 -0.30896133 0.22086152 0.13073999 0.15686886
0.14051546 0.18601651 0.2679302 -0.08850643 -0.07225851 0.17210853 0.010279142 -0.13939553
0.17428723 -0.17622262 -0.12069758 0.21078397 -0.13515146 -0.21832749 0.28392014 -0.3519407
0.18009494 -0.1347094 -0.0845517 -0.122720286 -0.121253185 -0.39084852 0.15352945 -0.36742598
-0.22253853 -0.11299305 0.02084699 -0.04987515 0.21964797 0.043387946 0.07477314 0.39048558
0.2246823 0.25652236 0.054202646 0.019428922 -0.0011216064 -0.023194583 -0.25831437 0.025957594
-0.07122742 -0.31952798 0.45511302 -0.093880184 0.20146738 -0.111351006 0.1498015 -0.028511131
-0.0968192 -0.017676827 -0.16561377 -0.11903178 0.032893784 0.20272763 -0.07186708 -0.3034023
0.057415925 -0.11487671 0.30009115 -0.017670877 0.08366274 0.18243055 -0.05691995 0.27396235
0.18361963 -0.11612804 -0.048322856 -0.16349842 -0.19905828 0.48176414 0.0055660303 0.19991092
0.12974164 0.2783557 -0.11898285 -0.18833844 -0.008828174 -0.49948463 0.12037027 0.08471476
-0.2328665 -0.038961142 0.18074454 0.17834473 -0.013791283 -0.10316996 0.11620234 0.117624834
0.048477676 -0.18738467 -0.015019304 -0.0047100945 0.15282744 0.2126499 0.01661897 -0.20441824
0.12887271 -0.07052508 0.068416454 0.11884218 -0.39513963 -0.20298643 0.09943258 0.0326278
0.10851009 -0.0048833606 0.041213855 0.019849062 -0.1770869 0.07825963 0.066217616 0.06414559
0.082362 0.05263351 -0.25620314 -0.17461185 -0.076242045 0.10320433 -0.010146494 -0.03640547
-0.3970526 -0.26766965 0.35200608 -0.21738844 -0.09644141 -0.105052136 -0.23059367 -0.18650572
-0.011314376 0.08191334 -0.1869913 0.022655502 -0.15017125 -0.04856807 0.03681464 0.3095028
-0.117128156 -0.14334325 0.24012025 -0.19541493 -0.13314804 -0.1957201 0.059690394 -0.021394841
-0.41425833 0.06731172 0.059576135 -0.28862327 -0.241476 0.060622204 -0.073861815 -0.057868563
0.014256156 0.13496388 0.22265387 -0.11334934 0.0051062577 -0.1885474 -0.0070346566 -0.20844564
0.12379533 -0.0010280698 0.37303507 -0.32357693 -0.023578761 -0.10277506 0.12817481 -0.039098114
0.15927161 -0.023365356 -0.059418123 -0.0934073 0.16819562 -0.16995588 -0.060872987 -0.28289565
-0.067373045 0.24352832 0.028367318 -0.08179323 0.17656578 -0.005803959 -0.3166479 -0.21169312
0.0069558523 0.15451482 -0.13011631 -0.00047716143 -0.5927234 -0.024860755 -0.0066757863 0.17488618
0.16555409 -0.05752558 0.22671643 -0.18864793 -0.44714642 -0.2596119 -0.040305924 -0.09938464
-0.08643618 -0.10479692 0.017026242 -0.5097196 0.014474025 -0.28969547 -0.010536884 0.106406346
-0.14046782 -0.05186106 -0.30831206 0.14422113 -0.12989858 -0.26576012 -0.20272404 -0.20245123
0.184517 -0.21683922 0.057649773 -0.13372 0.013936862 0.29523492 0.30244085 -0.13587533
-0.100953266 0.3387473 0.07061593 0.08362462 0.071902975 -0.0009859792 0.34812078 -0.13249771
-0.20264424 0.123563826 0.2394315 -0.18554345 -0.17278169 0.14451027 0.1109867 -0.17095485

network_body._body_endoder.seq_layers.0.bias f4 [128]
00000000: db6e 853d 01b8 cd3d cf39 6f3d 9a31 883d
00000010: 3da2 6d3d c348 b83d 313c 6cbc 167e 6b3d
00000020: bb66 833d 4110 de3d 4a56 d33d fe2f 683d
00000030: f6a4 4b3d 9690 3ebb 77a4 06bd 08c2 c0bc
00000040: d7e6 d1bc 980d d13d 9ee9 76bd b153 a7bc
00000050: f34b 893d 4b74 023e 6cd3 9c3d 0bb2 a8bd
00000060: 58da b23c 62ed cd3d 1525 8c3c d12d b2bd
00000070: 5f76 c93d 64ee b73d dcc6 3f3b 94fe f33d
00000080: 8e86 bdbc b898 b23d 388c e2bb ee1d ba3d
00000090: 3f23 213d 5b69 8c3d 4d87 2e3d eb55 003d
000000a0: 1755 5f3d 5bb0 f63d ae9d 2b3c 9fe4 ca3d
000000b0: 72a5 903d 64b8 0f3c dfe2 3e3d 552c e53d
000000c0: 4e5b debc ec73 ab3b 8162 733d 6376 e03c
000000d0: 6dc0 243c 0860 ca3d 6557 dd3d e67d 913d
000000e0: 7d71 9f3d 54ee b6bc 44be 0f3d add8 863d
000000f0: 4178 843d 806c d03d 5e88 6f3d 78b8 96bc
00000100: 599f c03d 25c5 9f3d 6760 6c3d 55df ce3d
00000110: a850 203d 85c5 4ebd 229d e03d 7d3c ee3d
00000120: af04 3abd 19f5 353d af3f 063d 3b18 d43d
00000130: de91 e53d a393 ad3d 4ce4 dfbb 39ea 90bd
00000140: 2027 833d 04c0 943d 94d8 993c 3452 913d
00000150: 2bdc cf3d bcc0 ab3c 6147 e53d 0f39 02bc
00000160: 86a5 a13d 0945 9a3d 1354 bc3b ce61 4bbc
00000170: e873 7c3d 8fce 943d 0dd4 9a3d 9867 2e3d
00000180: 424c c93d 8c71 b63d 5560 3c3d 542c e03d
00000190: dcd1 acbd b8b0 65bc 5193 5bbd d45f 963d
000001a0: 5209 b43d 0d07 59bc 60cd 753c d2d5 f53d
000001b0: 85ca 5f3d 2eab cb3d 5afa d43c 8d84 1abd
000001c0: 871a ac3d b7cb a83d 153e 61bc 097b bbbc
000001d0: 8583 533d f0e4 49bb cb13 a83d e428 c33d
000001e0: 9a62 2c3c 9663 ec3d 6b07 973d 983c 1d3d
000001f0: 048e 27bd f3db d33c be54 ab3d 375d ec3d
0.06515285 0.100448616 0.05840474 0.06650086 0.05801605 0.08998253 -0.014418648 0.05749329
0.06416079 0.10842944 0.10319193 0.056686394 0.049717866 -0.002907788 -0.03287169 -0.023530021
-0.025622768 0.10207671 -0.06028139 -0.02042565 0.06703939 0.12739675 0.07657513 -0.08237084
0.02183263 0.10055043 0.017107526 -0.08700145 0.098370306 0.08981016 0.0029262817 0.11913791
-0.02313545 0.08720535 -0.006913688 0.0908774 0.039340254 0.068560325 0.0426095 0.031331938
0.054524507 0.12045356 0.0104746055 0.09906887 0.07062806 0.0087719895 0.04660308 0.11190096
-0.027143147 0.005232325 0.059420113 0.027400201 0.0100556435 0.09881598 0.10807685 0.07104091
0.07785318 -0.02233044 0.03509356 0.065842964 0.06468249 0.10176945 0.05847966 -0.018398508
0.09405393 0.07801274 0.057709124 0.10101191 0.03913942 -0.050481338 0.10967471 0.11632631
-0.045414623 0.044423196 0.032775577 0.10356184 0.112094626 0.08475425 -0.006832635 -0.070759244
0.06403947 0.072631866 0.01878003 0.07095757 0.101494156 0.020965926 0.11195255 -0.007948174
0.07892899 0.07532699 0.005747327 -0.012413455 0.061633974 0.072659604 0.07559977 0.042579263
0.09828998 0.08908376 0.045990307 0.10945955 -0.08438465 -0.014019184 -0.05360729 0.073424965
0.0879084 -0.01324631 0.0150025785 0.120036736 0.054636497 0.09944759 0.025998283 -0.037724067
0.08403497 0.082419805 -0.013747712 -0.022885816 0.0516391 -0.0030806623 0.082069 0.09529284
0.010521555 0.11542432 0.07374462 0.038387865 -0.04090692 0.025861716 0.08365773 0.11541217

network_body._body_endoder.seq_layers.2.weight f4 [128, 128]
00000000: 0535 16bc 7177 8f3d 0795 553e 3d6b da3d
00000010: 98f2 363d 5021 91bd 4912 cb3d 7952 213e
00000020: 189f 453c f860 3d3d 7038 a13d ccf9 7f3d
00000030: 6473 623d 8b0d 19be 6533 fb3d f571 c1bd
00000040: 8170 293e 07b8 b3bc 5745 9fbd 7593 df3a
00000050: 2b15 c5bd 26f0 823d 64ae 1f3e ae40 dfbd
00000060: b180 cd3b d96a cebd 71bd 0e3d b1b6 44bd
00000070: 2388 0e3e 5d3d 283d 2f91 623d c0ca 20bd
00000080: b502 073d dbfd 05be 99a4 703d 207d 96bd
00000090: 911f 1e3d fd24 c6ba 1f22 a1bd 7bca 28be
000000a0: ca04 c93c 1b6b 573e 3be8 ae3d 59b4 c0bd
000000b0: 4ebc 713d 63e0 35bd 9ad5 45bc f013 433d
000000c0: 527e 443e ddb8 ac3d 7232 a8bb 9879 c53c
000000d0: 8a55 363d 7724 bc3d c860 9b3d e14c 7ebc
000000e0: e7ab 103c 7827 133e b67c ab3d b9b4 5d3d
000000f0: bc17 d13d f0ba a6bb cab2 5ebd 8bf7 a83d
00000100: e946 a53d 3d60 6b3e 722e b23c 6bef cfbd
00000110: 82b8 fcbd 3422 4bbd ce6c 14be 1a35 5bbd
00000120: 7dad 0abe a88e 103d aa96 933d 3d1a 3d3e
00000130: fb31 35bd e0c2 d93d c563 3c3e be76 6ebc
00000140: 78b5 103e a15a 3ebd 29e0 5dbd e4e4 a93d
00000150: 7360 bebd 25a5 e13d 0e7b 3d3e 329d f5bd
00000160: e3c4 48bd dda3 713d 4595 9d3d 8312 b43d
00000170: f89a 22bd d93d e33b c05f 3ebe a289 9f3d
00000180: 1d24 693d a422 083c e52a 893b 8765 043e
00000190: 1e41 a73d f9e0 ebbc 1420 7ebd b400 183d
000001a0: 131a b5bd 7cd6 c03d bd48 36be ee27 4d3e
000001b0: e15c 853e 1a81 fc3d 5080 93bc 0adf 45be
000001c0: 9850 323d e827 60bc 8bfb d03d 40b9 d13d
000001d0: fe7e af3d 0024 73bc 5c65 903d 96a8 23bd
000001e0: 4ee0 55ba a8cb 203e 50ac 74bc bca3 a63d
000001f0: 6591 c4bd e3a2 ea3c 1c9b 94bd b540 163e
00000200: dcfe 633e fbcf 30be f4aa 18be 8c69 163d
00000210: 682a 763e ffec adbb 91b0 823c c267 ed3c
00000220: 3e18 133b a540 15bd 3103 2fbd 8f50 f4bc
00000230: 52c2 90bd bc40 113d 435c 25bd a79c 383d
00000240: 2e7b c5bd fc27 c43d c862 2e3d a181 d4bc
00000250: d3e6 8bbd 9700 c7bd 070d f5bd 5dd5 d5bd
00000260: ed10 083b 2144 9a3c 4451 10bd 4b6c aabd
00000270: 2090 1ebc 115b 55bd b44a 133e 1d6a 113e
00000280: eb79 f93d 2b45 d13d 8af5 d3bd df27 b73d
00000290: d3fd e43d 0897 74bd 031e 053c d528 89bd
000002a0: f3ce babd 4d1f 18be 3f4d 183d 2430 d5bd
000002b0: 0df8 ca3d 4775 2c3d 9cbf 8dbd 6560 a5bd
000002c0: 284f 7bbd f367 223e d310 29be 82c4 733d
000002d0: a19b 473e 09c3 51bc f664 64bd 1989 58bd
000002e0: ec34 0abe 2ace 0e3e 24d3 20bd aebb 55bd
000002f0: c57b 063e da3e 1e3c 0eb6 ca3d bd4f 0d3d
00000300: bd08 adbc 6a9f 75bd 8016 023e de72 f3bc
00000310: a7d9 253d fae3 0fbc 18cb ccbd 2734 bb3d
00000320: 3438 debc 3774 81bc 2a58 ee3c 471c 343d
00000330: 238d bd3d 8433 693b 3f49 1cbe c564 743d
00000340: c4b9 61bd f200 803d c9f4 99be 38fc 07be
00000350: b522 6bbb 1857 06bd 03a7 633d 2bc6 213d
00000360: cf31 ebbd c285 c63c 282d c3bc 23f8 96bc
00000370: e0b6 ac3d 7271 36be 4cbb a9bc 1064 323d
00000380: 2a74 1cbe 1fef 993d 9d84 9db9 5d1d e2bd
00000390: 2dca 7e3e 1993 97bd b978 303d f19d 12be
000003a0: aa9a 47bd cb44 2f3d 1846 12be ed8b 6ebd
000003b0: fe85 633d 836f 0e3d 54da bb3c ff8d 2d3e
000003c0: b17c 1c3e d5e0 883d 0124 633e 2f3f 00be
000003d0: 3b44 0a3e 7f18 1b3e 503a adbd 4d48 b33d
000003e0: 8b89 46be c80e e2bd f217 efbd 8fcc e33d
000003f0: 9fd1 a4bc 36c6 653d 2846 63bc 0711 6abd
-0.009167914 0.070052035 0.2085763 0.10664985 0.04466495 -0.07086432 0.09915597 0.15754117
0.012061857 0.046235055 0.07872093 0.062494084 0.055285826 -0.14946572 0.12265662 -0.09445564
0.16546823 -0.021938337 -0.077768974 0.0017057495 -0.09623178 0.06393461 0.15593868 -0.109010085
0.0062714447 -0.10078973 0.034848634 -0.04802579 0.1391912 0.041074146 0.05531424 -0.039255857
0.032961566 -0.1308512 0.058750723 -0.073480844 0.038604323 -0.0015117225 -0.07867836 -0.1648349
0.024538416 0.21036951 0.08540388 -0.094093986 0.059017472 -0.044403445 -0.012074852 0.047626436
0.19188812 0.084336974 -0.0051329667 0.024105832 0.04451517 0.091866426 0.07586819 -0.015521259
0.008830047 0.14370525 0.08373396 0.05412743 0.10209605 -0.0050882027 -0.054369725 0.0825034
0.08070166 0.2298593 0.021750662 -0.10153087 -0.123398796 -0.049593166 -0.1449463 -0.05351744
-0.13542743 0.035292298 0.07206471 0.1846704 -0.04423712 0.106328726 0.18397434 -0.0145546775
0.14131725 -0.04647315 -0.054168854 0.082956105 -0.0929574 0.11017827 0.18503973 -0.11992873
-0.04901589 0.058994163 0.076944865 0.08792593 -0.03969857 0.006934863 -0.18591213 0.07789923
0.056919206 0.00830904 0.0041860216 0.12929355 0.08166717 -0.028793799 -0.06204231 0.037110046
-0.08842864 0.0941591 -0.17801185 0.20034763 0.26047423 0.12329312 -0.01800552 -0.19323364
0.04353389 -0.013681389 0.10204228 0.10240412 0.08569144 -0.014840126 0.07050583 -0.039955698
-0.0008158729 0.15702689 -0.014933661 0.081366986 -0.09598044 0.028642124 -0.07256147 0.14673121
0.2226519 -0.17266838 -0.14908963 0.03672175 0.24039614 -0.005307793 0.015953334 0.02898014
0.002244487 -0.036438603 -0.042727653 -0.02982357 -0.07068314 0.035462126 -0.04037119 0.04507127
-0.09642635 0.09577939 0.042574674 -0.025940718 -0.068311356 -0.097169094 -0.119653754 -0.104410864
0.0020762042 0.018831315 -0.03523375 -0.083214365 -0.009677917 -0.0520888 0.14383966 0.14200635
0.12181457 0.10218271 -0.10349567 0.08943152 0.11181226 -0.059714347 0.008124831 -0.06697241
-0.09121504 -0.1485569 0.037183043 -0.10409573 0.09910593 0.042104032 -0.06921312 -0.080750264
-0.061354786 0.15859966 -0.16510324 0.059513576 0.19492961 -0.012802848 -0.055760346 -0.05286512
-0.1349675 0.13945833 -0.03926386 -0.05218094 0.13133152 0.00965854 0.098980054 0.034499872
-0.02112233 -0.059966482 0.12703896 -0.029717859 0.040490773 -0.008782381 -0.099996746 0.09140807
-0.02712641 -0.015802486 0.029094774 0.04397228 0.09255435 0.0035583684 -0.15262316 0.059666414
-0.0551088 0.0625018 -0.3006957 -0.13279808 -0.0035878841 -0.032797903 0.055579197 0.03949563
-0.114841096 0.024233703 -0.023825243 -0.018428868 0.08433318 -0.17816713 -0.020719193 0.04355246
-0.15278688 0.07516312 -0.00030044178 -0.11040757 0.24881811 -0.074011035 0.04308388 -0.14318062
-0.048731484 0.042790215 -0.14284551 -0.058238912 0.055547707 0.034774315 0.022931255 0.16948698
0.15281941 0.06683508 0.22181703 -0.12524103 0.1350259 0.15146063 -0.08458388 0.08754025
-0.19388406 -0.110379755 -0.11674489 0.11123001 -0.020119486 0.05609723 -0.013871707 -0.057145145

network_body._body_endoder.seq_layers.2.bias f4 [128]
00000000: 75ce c63d 7bd9 983c ea87 233d 026e bf3d
00000010: 4497 36bd a024 253d d592 c33d ff08 5b3d
00000020: 270f e33b aff4 a03d e063 a13c 2442 76bd
00000030: ebb9 80bb bc20 673d 3841 03bd e04c 6e3d
00000040: 5c6e bfbd 6036 a3bd 0526 ab3d f94e 963d
00000050: ca83 ab3d 1af3 693d 3af2 8f3d 3b1c ab3d
00000060: ac6a 913d 3dfd 943d 0a51 b4bd b9db b1bd
00000070: fdfe a13d 4757 aa3d 5bb9 b83d 4246 303d
00000080: f776 b03d d23a 503d 65f0 d13d 9a88 b13d
00000090: ac70 b93d 0314 a73d 509e da3c 4a59 c13d
000000a0: 79a4 673d 688c b73d 9044 b9bd 1ff5 e43c
000000b0: 8cbc 503c 49c3 703c 5fdc b83d 03ea 213d
000000c0: 80ac ca3d fc2b 913d 8c14 553d bfd2 b43d
000000d0: a3ad 27bd 701b cf3d 2e2a 903c af30 ba3d
000000e0: 1767 cebc 1488 fd3c 3bff 28bd b6c8 ad3d
000000f0: d6a1 963d 08f0 a33d ed95 f3bc a7ce b33d
00000100: 8f37 b53d 7086 f8bc 89a9 873d c822 10bd
00000110: de13 abbd a6e1 a13d 4b1a 123c d7d5 9c3d
00000120: 2a2a c83d a6c3 813d b3b9 97bd 8597 a83d
00000130: 4f53 ce3d 5a66 bf3d 42c2 703d b7fd b93d
00000140: 0b64 21bd 69de a93d 6ae6 ce3d 0702 1fbd
00000150: 8ff6 163d b36d d83c 02b7 6b3d 81f9 903c
00000160: f7ea ba3d f74a a7bd e92e b33d 4359 513d
00000170: 74ea 65bc 0b04 453d 628d 763d 318b 56bd
00000180: 33ce 83bd 937e 0d3d 7a8a 863d 4fb4 0dbd
00000190: e268 383d 7d8d 9f3d 11e0 ef3c 89e3 003e
000001a0: 1ecb 94bd b1fc e53d 3ace db3d 60c7 9c3c
000001b0: e1b9 2e3d 497a 893c a986 b4bc 5d4b 5bbc
000001c0: 2459 9b3d 213d 9d3d 5b96 55bd e225 1fbb
000001d0: 8e67 263d 9cf0 b03d e6d1 ddbd a900 493b
000001e0: 8710 db3d f9f8 693d 826e 423d de15 c6bb
000001f0: f4b3 c5bd 712e b43d 11af 44bd 4b18 563d
0.09707347 0.01865839 0.03992454 0.09347154 -0.044577852 0.04031813 0.0954949 0.053475376
0.0069292965 0.0785917 0.019700944 -0.06012167 -0.003928413 0.056427702 -0.03204462 0.058178782
-0.09347221 -0.079693556 0.08356861 0.073392816 0.08374746 0.057116605 0.07028623 0.08354994
0.07100424 0.07274864 -0.088045195 -0.08684487 0.07909963 0.08317428 0.09019729 0.043035753
0.08616441 0.050837345 0.1025093 0.08668633 0.090546936 0.08158114 0.026686817 0.09440859
0.056553338 0.08962327 -0.090462804 0.027948914 0.012740266 0.014694997 0.090264075 0.03952981
0.09896183 0.070884675 0.05202155 0.08829259 -0.040937077 0.10112655 0.017598238 0.09091317
-0.025195641 0.030948676 -0.04125903 0.08485548 0.073550865 0.08004767 -0.029734576 0.0877965
0.088484876 -0.030337542 0.06624133 -0.03518942 -0.08353399 0.07904367 0.008917402 0.07657974
0.09773667 0.06336145 -0.07408466 0.08232025 0.100744836 0.09345694 0.05877901 0.090815954
-0.03940205 0.082943745 0.10102542 -0.038820293 0.03685623 0.026419496 0.057547577 0.017697098
0.09126847 -0.08168595 0.08749182 0.051110517 -0.014032949 0.04809956 0.060193427 -0.052378837
-0.06435814 0.03454454 0.06569381 -0.034595784 0.0450219 0.077906586 0.029281648 0.12586798
-0.07265304 0.11229838 0.10732694 0.019138038 0.042657737 0.016781943 -0.022036867 -0.013384667
0.075853616 0.07677675 -0.052145343 -0.0024284055 0.0406261 0.086396426 -0.108310506 0.003067056
0.10696512 0.057122204 0.04746867 -0.0060450872 -0.09653464 0.087979205 -0.04801852 0.05226926

action_model._continuous_distribution.log_sigma f4 [1, 2]
00000000: 2468 edbe d8eb b6be
-0.46368515 -0.3572681

action_model._continuous_distribution.mu.weight f4 [2, 128]
00000000: 0f0a 343d 6dad b73d 4ffa 49bd fcfe 203d
00000010: 8363 3a3d 908c ac3d 102b 8db9 0b10 ccbd
00000020: 100d 96bd 4778 69bc 4e3f b1bd a18a 2fbc
00000030: ab65 67bd ecb1 c53d f493 303d 2ece 67bd
00000040: c293 8d39 6023 c9bc cc95 453d 6a78 b23d
00000050: 1fa6 2ebd 3092 c0bc 37bc e83d 49c3 433d
00000060: 6da9 00be 1b58 1bbd 3334 4fbd 8d79 edbb
00000070: 2fec 643d 22d0 af3d 2747 073d f982 d33d
00000080: cb23 7d3d 76b8 923c d22f 313c e21e 03bb
00000090: 3a45 09bd 59bd 813d 9367 e03d 4cd0 0fbe
000000a0: ecf4 fd3d c4b5 90bc 5935 8fbc b57f f73d
000000b0: 55ad 863d eb0d 94bd 4dd4 b0bc 325d ca3d
000000c0: 66f6 b8bd 38e4 eb3d 83dc 9f3d 9d18 ff3b
000000d0: d341 f43d adfc c7bd 9712 b4bd e7b0 7bbc
000000e0: e071 90bd b0ce 8b3d dcc3 573d ed66 0f3d
000000f0: fc29 dc3d 3ac4 f2bc 1d49 9ebc 3c6e 77bd
00000100: c7fd ddbc a67d d1bd baff 073e d706 93bc
00000110: f789 b7bc 71c6 7a3d 851d 9a3d 9a36 bdbd
00000120: 54ec 11bd 1da3 913d 15e6 b7bd 1b40 9fbd
00000130: 2674 443c 2278 d03c cb6b 9f3d 0cb7 c23d
00000140: 41e0 b23d ba4f 293d 4645 643d 02b6 f8bd
00000150: 90f6 c03d 3c9e a8bd 711d c43c e858 aa3d
00000160: 4baf d13a 6050 ca3b 0fa6 5ebd f77c bf3c
00000170: 4c84 bf3d f0b8 bcbd c767 cf3d abe7 ab3d
00000180: 34b0 e1bc 5b65 dd3d 57b4 3bbd 7da3 7a3c
00000190: a46f 043e 920d 8a3d 4d98 1d3d 7996 a9bd
000001a0: db55 42bd 9726 9abd db11 c3bc 2b9f eabd
000001b0: 4f37 33bd 3423 003e 1d34 89bd 6acf b7bd
000001c0: 530b 8f3d b642 573d e174 57bd 2125 c43d
000001d0: 30db cb3d 8f65 d7bb 60cb f4bc 7e6f b13d
000001e0: b355 0dbc 5d4b 70bd d70c cbbd 69f8 ddbd
000001f0: 81b4 f5bc a617 cc3d ad11 bcbd 7c20 ac3d
00000200: aaba 853d 3104 b0bd ca85 3c3d 4419 793d
00000210: 4a9e a0bd 10dc d6bc b49b b83d 2c36 493d
00000220: d291 f73c 1b45 a13d fd82 883c 1bdf c2bd
00000230: d9fa 103c 743b 1bbc c508 1abe add1 103d
00000240: 6557 c4bd 62da 63bd c4ad 913d 85e4 a93c
00000250: 6738 8d3d 6548 143d 6495 623c c9e1 a63d
00000260: b982 893d 704e b73d d692 94bd 76b2 14be
00000270: 391e a93c f72f 3a3d aa14 bf3d a16c 843c
00000280: 4253 f33c 6fb6 083d 351c ad3d f83d 813d
00000290: d7c7 b83d ae24 f7bb 6840 48bd 07d9 a33d
000002a0: 9c59 aabd 3b47 843d 470d adbd 4f17 15be
000002b0: c388 9338 e173 2e3d 8bae 003e c3dd e2bc
000002c0: 320b c93d 5f47 86bb 32b0 6fbb bad3 443d
000002d0: 7aef c8bd b367 bf3d c3f7 2b3d f08a 9d3d
000002e0: 77aa fa39 4e21 a4ba 90e2 09be b408 603d
000002f0: 2f9e acbb c467 383d b4d0 10bd b2ba bf3d
00000300: d9aa ac3d a845 9ebc 9707 c13c dd65 1a3c
00000310: bc26 2dbd 21ca 1d3d 059e 4ebd 2fa9 c23d
00000320: 700e a43d 1d85 a93c 5dc6 47bd a75a e73d
00000330: 2ccf 9d3d 704c be3d 161c 0e3d 8f92 4d3d
00000340: e736 f0bd 8cfc 1e3d a639 bd3d 6261 9fbc
00000350: 7479 84bc e4e3 823d da10 4b3d 5307 40bd
00000360: c5ff b43d 1374 19bd 1301 d33d 3f29 163d
00000370: 958e 9dbd e09f 843d 3c4e ca3c 10ea 08be
00000380: 93f9 55bc 069a b3bc bdae 803d 07c8 24bd
00000390: 8e57 96bd 57a5 1f3d b798 3dbc 3b4f f63d
000003a0: 4f2c e4bd 2bd0 003e a9e4 d73d 8f3e 913c
000003b0: 015c 473d 6223 97bd 4d39 893b df2f b5bc
000003c0: 98a9 593c e7cf 7b3d 733e d2bc c043 a8bd
000003d0: 4842 57bd 158a 813d 2d46 e7bd b889 babd
000003e0: 2b33 013e 516b 703d a5f1 df3d a102 66bc
000003f0: c627 31bd 9014 d93c 1eeb 06bd 9883 b1bc
0.043954905 0.08968625 -0.04931098 0.039305672 0.045505058 0.08425248 -0.000269257 -0.099639975
-0.0732671 -0.014249868 -0.086546525 -0.010714204 -0.056493443 0.096530765 0.04310985 -0.056593113
0.00027003704 -0.024553 0.04823856 0.087143734 -0.042638894 -0.023507208 0.11364024 0.04779366
-0.12564631 -0.03792582 -0.05058689 -0.007247156 0.055889305 0.0858462 0.03302684 0.103277154
0.061801713 0.017910223 0.010814624 -0.0020007421 -0.033513285 0.06334943 0.10957255 -0.14044303
0.12400231 -0.017664798 -0.017481493 0.12084905 0.06576029 -0.07229217 -0.021585608 0.09881057
-0.09031372 0.11518139 0.07805731 0.0077849166 0.119266175 -0.09764991 -0.08792608 -0.015362001
-0.0705297 0.06826532 0.05267702 0.035010267 0.107501954 -0.029634584 -0.019321973 -0.060407862
-0.02709855 -0.10229044 0.13281146 -0.017947597 -0.022404654 0.061224405 0.07525162 -0.0923893
-0.03562577 0.071111895 -0.089794315 -0.07775899 0.011990583 0.025447909 0.07784232 0.0950757
0.08734179 0.0413358 0.055730127 -0.1214409 0.09422028 -0.08233306 0.02393982 0.08317739
0.0015997676 0.006174132 -0.054357585 0.023375018 0.093514055 -0.092149615 0.10127216 0.083937965
-0.02754984 0.10810348 -0.045826282 0.015297768 0.12933213 0.067408696 0.038475323 -0.082806535
-0.04744516 -0.07526892 -0.023812225 -0.1145614 -0.04375392 0.12513429 -0.06699393 -0.08975108
0.06984582 0.052553855 -0.0526017 0.09577394 0.09953916 -0.006573386 -0.029882133 0.086638436
-0.008626389 -0.058665622 -0.099145584 -0.10838396 -0.029993298 0.09965448 -0.09183059 0.084046334
0.06529744 -0.085945494 0.04602603 0.06081511 -0.07842691 -0.02622798 0.09014073 0.049123928
0.0302209 0.07874509 0.016664023 -0.0951521 0.008848869 -0.009474624 -0.15042408 0.035356212
-0.09586982 -0.055628188 0.07113221 0.02073885 0.068955235 0.036201853 0.013829563 0.08148534
0.067143865 0.08950508 -0.07254569 -0.14521202 0.020644294 0.0454559 0.09330113 0.01616508
0.029702786 0.033377107 0.08452646 0.06310648 0.090224914 -0.0075422144 -0.048889548 0.08000379
-0.08317873 0.06458899 -0.08449798 -0.14559673 7.03498e-05 0.04259098 0.12566583 -0.027693635
0.098165885 -0.0040978636 -0.0036573526 0.04805348 -0.098113015 0.09345951 0.04198433 0.07692516
0.00047810722 -0.0012522133 -0.13465333 0.0546958 -0.0052678804 0.045020834 -0.035355285 0.09361781
0.08431024 -0.019320324 0.02356319 0.0094237 -0.042273268 0.038522843 -0.050443668 0.095049255
0.08010566 0.020693356 -0.04877316 0.112965874 0.077055305 0.09291923 0.034694754 0.050188597
-0.11729222 0.038815066 0.09239511 -0.019455615 -0.016171195 0.06391123 0.049576618 -0.046881985
0.08837847 -0.037464213 0.10302939 0.03666043 -0.07693211 0.06475806 0.024695508 -0.13370538
-0.013059991 -0.02192403 0.06283329 -0.040229823 -0.073409185 0.03897604 -0.011572055 0.12026831
-0.11141264 0.1257941 0.1054166 0.017730026 0.048671726 -0.073797956 0.004187739 -0.022117553
0.013285063 0.061477568 -0.025664544 -0.08216047 -0.052553445 0.06325165 -0.11292682 -0.09108299
0.12617175 0.058696095 0.10934762 -0.014038713 -0.04325082 0.026499063 -0.03293907 -0.021669194

action_model._continuous_distribution.mu.bias f4 [2]
00000000: 7f87 003d 125b bb3d
0.03137922 0.0914823

onnx::Div_61 f4 [28]
00000000: 43c8 353e 5295 303a df99 fa3e e1af a03e
00000010: b4bb 9d3d 5295 303a 06d5 fd3e 2c75 a43e
00000020: f657 883e 5295 303a 9a69 f53e 07c3 9f3e
00000030: 45cf a13d 5295 303a 53f1 ff3e d770 ae3e
00000040: cc78 aa3e 5295 303a b7f8 ff3e 7d78 ad3e
00000050: 8f55 c83d fb05 0b3d a434 fb3e bd78 b43e
00000060: 2586 aa3e 5295 303a da43 ff3e 9a72 ae3e
0.17752175 0.00067361176 0.4894552 0.31384185 0.07701817 0.00067361176 0.49576586 0.32120645
0.2662961 0.00067361176 0.4793213 0.31203482 0.07900862 0.00067361176 0.49988803 0.34070465
0.33295286 0.00067361176 0.49994442 0.33880988 0.09781944 0.03394125 0.490636 0.35248366
0.3330547 0.00067361176 0.49856454 0.3407181

onnx::Div_64 f4 [5]
00000000: df4f 923f e941 2c3e 7091 853f 15e1 473f
00000010: 354b 453f
1.1430625 0.16822018 1.0435009 0.7807782 0.7706788
