results/ParkingTest_02/CarParking/CarParking-3999996.pt (torch, 532730 bytes, 52 tensors)

network_body.observation_encoder.processors.0.normalizer.running_mean f4 [28]
000000 fd d4 0a 3d 00 00 00 00 e1 a5 b2 3e 8f e6 21 3f
       0.033894528 0.0 0.3489218 0.6324243
000010 ab 48 57 3b 00 00 00 00 de 97 07 3f c0 c6 47 3f
       0.003284971 0.0 0.52966106 0.78037643
000020 f3 22 80 3d 00 00 00 00 fc 69 aa 3e 7e 49 1a 3f
       0.06256666 0.0 0.33283985 0.6026839
000030 f7 b1 b1 3b 00 00 00 00 b6 b5 d5 3e 54 8a 2e 3f
       0.0054228264 0.0 0.41740197 0.6817982
000040 65 e4 e9 3d 00 00 00 00 04 a4 db 3e e7 de 28 3f
       0.11420516 0.0 0.42898571 0.6596512
000050 c3 01 f1 3b 49 a8 26 3a 4b 68 d3 3e 3f ed 24 3f
       0.0073549463 0.0006357474 0.41290507 0.6442451
000060 37 80 ea 3d 00 00 00 00 4a 6b fa 3e 20 a2 31 3f
       0.11450236 0.0 0.4890998 0.6938801

network_body.observation_encoder.processors.0.normalizer.running_variance f4 [28]
000000 e5 db ff 47 00 00 80 3f 34 d7 5d 49 b3 a3 cf 48
       130999.79 1.0 908659.25 425245.6
000010 d4 ba 4c 46 00 00 80 3f 72 4c 73 49 76 57 d2 48
       13102.707 1.0 996551.1 430779.7
000020 10 3c 65 48 00 00 80 3f 63 d8 58 49 08 2a cc 48
       234736.25 1.0 888198.2 418128.25
000030 b0 95 a8 46 00 00 80 3f 11 7d 6d 49 20 aa f1 48
       21578.844 1.0 972753.06 494929.0
000040 86 9f c5 48 00 00 80 3f 41 34 6f 49 41 70 e3 48
       404732.2 1.0 979780.06 465794.03
000050 9b 05 e4 46 89 ad 1e 45 67 bc 6c 49 f3 cf f5 48
       29186.803 2538.846 969670.44 503423.6
000060 8d 12 c6 48 00 00 80 3f 8d 03 74 49 08 ee ea 48
       405652.4 1.0 999480.8 481136.25

network_body.observation_encoder.processors.1.normalizer.running_mean f4 [5]
000000 2c f4 34 40 94 f2 06 3f 91 6c c4 3f 32 f5 ff 3e
       2.827403 0.52713895 1.5345632 0.49991757
000010 c9 be 81 3e
       0.2534087

network_body.observation_encoder.processors.1.normalizer.running_variance f4 [5]
000000 b8 c8 a7 4a ec b3 c8 47 e3 7c 54 4a 1d fc 31 4a
       5.497948e+06 102759.84 3.4814008e+06 2.9161032e+06
000010 08 4a 1e 4a
       2.59341e+06

network_body.processors.0.normalizer.running_mean f4 [28]
000000 fd d4 0a 3d 00 00 00 00 e1 a5 b2 3e 8f e6 21 3f
       0.033894528 0.0 0.3489218 0.6324243
000010 ab 48 57 3b 00 00 00 00 de 97 07 3f c0 c6 47 3f
       0.003284971 0.0 0.52966106 0.78037643
000020 f3 22 80 3d 00 00 00 00 fc 69 aa 3e 7e 49 1a 3f
       0.06256666 0.0 0.33283985 0.6026839
000030 f7 b1 b1 3b 00 00 00 00 b6 b5 d5 3e 54 8a 2e 3f
       0.0054228264 0.0 0.41740197 0.6817982
000040 65 e4 e9 3d 00 00 00 00 04 a4 db 3e e7 de 28 3f
       0.11420516 0.0 0.42898571 0.6596512
000050 c3 01 f1 3b 49 a8 26 3a 4b 68 d3 3e 3f ed 24 3f
       0.0073549463 0.0006357474 0.41290507 0.6442451
000060 37 80 ea 3d 00 00 00 00 4a 6b fa 3e 20 a2 31 3f
       0.11450236 0.0 0.4890998 0.6938801

network_body.processors.0.normalizer.running_variance f4 [28]
000000 e5 db ff 47 00 00 80 3f 34 d7 5d 49 b3 a3 cf 48
       130999.79 1.0 908659.25 425245.6
000010 d4 ba 4c 46 00 00 80 3f 72 4c 73 49 76 57 d2 48
       13102.707 1.0 996551.1 430779.7
000020 10 3c 65 48 00 00 80 3f 63 d8 58 49 08 2a cc 48
       234736.25 1.0 888198.2 418128.25
000030 b0 95 a8 46 00 00 80 3f 11 7d 6d 49 20 aa f1 48
       21578.844 1.0 972753.06 494929.0
000040 86 9f c5 48 00 00 80 3f 41 34 6f 49 41 70 e3 48
       404732.2 1.0 979780.06 465794.03
000050 9b 05 e4 46 89 ad 1e 45 67 bc 6c 49 f3 cf f5 48
       29186.803 2538.846 969670.44 503423.6
000060 8d 12 c6 48 00 00 80 3f 8d 03 74 49 08 ee ea 48
       405652.4 1.0 999480.8 481136.25

network_body.processors.1.normalizer.running_mean f4 [5]
000000 2c f4 34 40 94 f2 06 3f 91 6c c4 3f 32 f5 ff 3e
       2.827403 0.52713895 1.5345632 0.49991757
000010 c9 be 81 3e
       0.2534087

network_body.processors.1.normalizer.running_variance f4 [5]
000000 b8 c8 a7 4a ec b3 c8 47 e3 7c 54 4a 1d fc 31 4a
       5.497948e+06 102759.84 3.4814008e+06 2.9161032e+06
000010 08 4a 1e 4a
       2.59341e+06

network_body._body_endoder.seq_layers.0.weight f4 [128, 33]
000000 32 84 08 3f 5a 9d 61 3d 0e ce 17 bd c9 d2 1c bd
       0.53326714 0.055081703 -0.037061743 -0.038286958
000010 2f 55 34 3e bf 82 bd 3d 9b 29 7c 3e 3b 9c 3a 3e
       0.1761062 0.092534535 0.24625246 0.1822366
000020 15 8e 3f bd 83 78 9d 3c 31 13 39 3d 63 58 0e bb
       -0.04676636 0.019222504 0.045184318 -0.0021720163
000030 0b 3f 9b be 86 29 62 3e f5 2d fa 3d 0d 78 24 3e
       -0.30321535 0.22086152 0.12215797 0.1606142
000040 bd 42 10 3e 1d 7b 3e 3e 87 81 8c 3e f9 be ac bd
       0.14087959 0.18601651 0.27442572 -0.08434863
000050 5f 92 a8 bd 4b 14 34 3e e8 5b 11 3c 39 c7 07 be
       -0.08231043 0.17585866 0.00887201 -0.13259591
000060 01 6d 34 3e b4 73 34 be 5c 9a 0e be 16 46 5f 3e
       0.17619707 -0.17622262 -0.13926071 0.2180408
000070 08 c2 19 be 9c 3b 55 be 07 45 8f 3e 04 b3 c1 be
       -0.15015423 -0.2082352 0.2798235 -0.3783189
000080 a0 49 24 3e 27 33 19 be 71 29 ad bd 40 70 13 be
       0.1604371 -0.1496092 -0.0845517 -0.14398289
000090 36 f7 d4 bd b4 c3 cd be d3 36 1d 3e c0 34 b9 be
       -0.10398714 -0.40188372 0.15352945 -0.36173058
0000a0 e6 89 5b be bb 1d fe bd 4f c7 aa 3c 20 5a d7 bd
       -0.21439323 -0.124080144 0.02084699 -0.10515237
0000b0 50 69 56 3e be 1e 3c 3c a9 22 99 3d 18 94 ce 3e
       0.20938611 0.011481939 0.07477314 0.40347362
0000c0 8a 0d 6b 3e e5 36 7b 3e 98 03 5e 3d 55 2c 80 bb
       0.22954383 0.2453266 0.054202646 -0.003911535
0000d0 a7 18 f7 bc 02 75 ba bc 78 59 8b be 83 47 89 3d
       -0.030163122 -0.022760872 -0.27216697 0.06703093
0000e0 64 33 2c bd 65 b7 ae be 93 04 e9 3e 67 f5 c3 bd
       -0.042041197 -0.34124294 0.45511302 -0.09568291
0000f0 8b 1a 44 3e 74 e5 f5 bd 80 f5 2d 3e b6 75 02 bd
       0.1915075 -0.12006655 0.16988182 -0.03185054
000100 5e ae b5 bd 69 b5 e6 bc 64 02 2c be ef c6 f3 bd
       -0.088711485 -0.028162675 -0.16797787 -0.11903178
000110 a4 a9 b1 3c 3b a1 41 3e af fd aa bd 8c 57 9b be
       0.021687336 0.18909161 -0.083491676 -0.3034023
000120 3f f5 65 3d eb 4d e2 bd af b0 92 3e 84 c2 90 bc
       0.056142088 -0.11050018 0.28650424 -0.017670877
000130 6f f7 8f 3d 35 ed 2a 3e d5 a9 85 bd cb 44 8c 3e
       0.07029616 0.1669205 -0.065265335 0.27396235
000140 80 94 4b 3e e7 1e c8 bd 91 75 7a bd 21 6c 27 be
       0.19880867 -0.09771519 -0.061147276 -0.16349842
000150 68 d7 42 be 60 db ff 3e 83 45 96 3c e1 fa 40 3e
       -0.19027483 0.49972057 0.018343693 0.18845703
000160 dd dc 08 3e 76 31 8e 3e 5d fd 08 be cb db 40 be
       0.13365503 0.2777211 -0.133779 -0.18833844
000170 2c d5 aa 3b d0 66 00 bf 2d b7 00 3e 11 50 c2 3d
       0.0052134003 -0.5015688 0.12569876 0.09487928
000180 76 84 77 be 2b 6a 3b bd 8b fb 35 3e 7c a8 40 3e
       -0.24171624 -0.045755547 0.17771737 0.18814272
000190 d5 f4 61 bc 8c 0f 8a bd 08 73 19 3e ec 34 05 3e
       -0.013791283 -0.067412466 0.14985287 0.1300847
0001a0 87 90 46 3d 75 56 5d be e3 08 73 bc 87 68 8d 3c
       0.048477676 -0.21615012 -0.014833662 0.017261757
0001b0 cc 7e 1c 3e 4d 5a 5c 3e bc 4a 99 3c 35 e6 52 be
       0.15282744 0.21518822 0.018712394 -0.2059563
0001c0 35 f7 03 3e e3 38 89 bd 39 e3 82 3d b7 bf 0c 3e
       0.12887271 -0.067003034 0.063909955 0.13745008
0001d0 be 4f ca be 1d a4 32 be ab ab e0 3d ad fe 4f 3d
       -0.39513963 -0.17445417 0.10970243 0.050779987
0001e0 99 6f e7 3d 89 ec f0 bc af ab 3e 3c 28 20 1a 3d
       0.113005824 -0.029409664 0.011637612 0.037628323
0001f0 45 56 35 be 99 13 9f 3d b2 f9 94 3d e4 97 75 3d
       -0.1770869 0.0776741 0.07274188 0.059959307
000200 36 1b 8e 3d 62 bf af 3c 83 45 85 be 96 b6 39 be
       0.06938784 0.021453563 -0.26029596 -0.18136057
000210 b8 67 70 bd cb 5c d3 3d ff 14 0d bb 3a 70 45 bd
       -0.058692664 0.10320433 -0.0021527407 -0.04820273
000220 3d 0d c3 be ff 0b 89 be fa 11 ab 3e 2f 72 79 be
       -0.38096038 -0.26766965 0.33412153 -0.24359964
000230 8f af 9c bd 93 25 d7 bd c6 76 69 be 41 ab 3a be
       -0.07650673 -0.105052136 -0.22799215 -0.1822939
000240 3e e2 13 bb 2e c2 a7 3d 09 7d 37 be 89 2c fa 3c
       -0.002256527 0.08191334 -0.17918791 0.030538814
000250 f7 db 07 be 50 ef 46 bd 6b 61 68 3d 23 16 a7 3e
       -0.13267504 -0.04856807 0.05673353 0.32634076
000260 9a a8 be bd 58 ce 01 be 34 8a 66 3e 97 d0 57 be
       -0.09309502 -0.1267637 0.22513658 -0.21075664
000270 e8 b7 eb bd da 6a 48 be a1 dd 39 3d 02 fb c3 bc
       -0.11509687 -0.1957201 0.045377377 -0.0239234
000280 bf 73 db be 88 20 2b 3d 62 03 3c 3d 69 1f 9b be
       -0.42861745 0.04177907 0.045901664 -0.30297402
000290 dc 96 7a be 8f bf 6d 3d dd 44 97 bd 50 da b7 bd
       -0.24471611 0.058044013 -0.073861815 -0.08977187
0002a0 b6 a1 f2 bb 67 3e 04 3e 60 ff 63 3e 70 1a 11 be
       -0.0074045314 0.1291443 0.22265387 -0.14170241
0002b0 e5 f7 7b bc 85 3a 48 be fa 82 e6 bb a2 fb 6e be
       -0.015378927 -0.19553573 -0.0070346566 -0.23338178
0002c0 6e 8d e3 3d 31 5f ec 3b 74 fe be 3e 7c 1e aa be
       0.1111096 0.007213496 0.37303507 -0.33226383
0002d0 27 22 1c 3c d4 71 d2 bd 42 40 03 3e 79 19 13 bd
       0.009529627 -0.10275617 0.12817481 -0.035912964
0002e0 13 1b 30 3e c2 7b 1d bc 5c 39 89 bd 38 8d d7 bd
       0.17197828 -0.009612026 -0.067003936 -0.10524982
0002f0 7c 1b 21 3e 6c 13 32 be f4 55 79 bd 51 b5 95 be
       0.1573314 -0.17390221 -0.060872987 -0.29239896
000300 bd 4e aa bd 45 5c 79 3e af fc 00 3d 02 9e a8 bd
       -0.083157994 0.24351604 0.031490978 -0.082332626
000310 df c0 30 3e 15 9a 29 3b 99 b5 9b be 15 c6 58 be
       0.17261074 0.0025879194 -0.30411986 -0.21169312
000320 6d 86 14 3d 42 38 4e 3e e8 1d 00 be 86 2b fa b9
       0.03626101 0.20138648 -0.12511408 -0.00047716143
000330 50 5e 20 bf 36 77 bb bc df 88 6e 3c 5d 15 33 3e
       -0.6264391 -0.022883993 0.014559 0.17488618
000340 32 af 27 3e 0a 06 67 bd e6 3a 3e 3e ec 2c 41 be
       0.16375425 -0.056402244 0.18577155 -0.18864793
000350 cc b8 e8 be 08 a6 8b be 2d 61 2f bd 2d 8a cb bd
       -0.4545349 -0.2727511 -0.042817283 -0.09938464
000360 f9 00 4d bd 9a c9 d0 bd 7d a7 17 b9 e1 bf 01 bf
       -0.050049756 -0.101947024 -0.00014462876 -0.5068341
000370 ad 20 89 3b 83 dc 9d be fe 2f 83 bc 92 eb d9 3d
       0.0041848035 -0.308323 -0.016014095 0.106406346
000380 41 7c 03 be b0 4b 0d bd 54 c5 9f be d3 c9 26 3e
       -0.12840368 -0.03449601 -0.31205237 0.16287927
000390 75 4a 21 be ad e0 81 be 09 87 5d be 66 bd 40 be
       -0.1575106 -0.25366727 -0.21633543 -0.1882225
0003a0 06 f2 3c 3e 54 92 4a be 27 45 af 3d 3c 85 f6 bd
       0.184517 -0.19782382 0.08558112 -0.12037131
0003b0 70 57 64 3c d2 07 8c 3e 1a 7d 99 3e 22 86 fc bd
       0.013936862 0.27349716 0.29978257 -0.12330271
0003c0 96 c0 ce bd 15 4f a8 3e c1 3e 88 3d ee 0e d1 3d
       -0.100953266 0.32872835 0.06652594 0.10207926
0003d0 de 41 93 3d 98 1a 5d 3b 05 80 b1 3e 4b d9 f4 bd
       0.071902975 0.0033737775 0.34667984 -0.11955508
0003e0 f9 81 4f be 57 d1 fd 3d bb 6c 69 3e e7 d5 1d be
       -0.20264424 0.12393444 0.22795384 -0.15413629
0003f0 c9 74 24 be 18 b2 15 3e 66 ee f8 3d 63 11 22 be
       -0.16060175 0.14618719 0.12154846 -0.15826945

network_body._body_endoder.seq_layers.0.bias f4 [128]
000000 c7 bf 7b 3d e7 97 eb 3d 4f 66 90 3d 2e 07 5c 3d
       0.06146219 0.115035824 0.07050764 0.053717785
000010 59 82 24 3d a8 3f c5 3d 68 2a 90 bc db f5 32 3d
       0.04016337 0.09631282 -0.017598346 0.043691497
000020 ab 82 97 3d fd 32 da 3d 10 67 9a 3d 3c 48 7a 3d
       0.0739797 0.106542565 0.07539189 0.061104044
000030 85 4e 43 3d 58 f5 9b 3a 95 1b 36 bd a4 35 cb 3b
       0.047682304 0.001189868 -0.044459898 0.006201463
000040 6f d5 cd bc 9a d4 b6 3d ae 00 6f bd 36 d2 a0 bc
       -0.025126187 0.08927269 -0.058350258 -0.019631486
000050 89 ed 59 3d 10 d2 f9 3d d3 33 83 3d 74 40 88 bd
       0.053205047 0.12198269 0.06406369 -0.066529185
000060 3b 86 8a 3c cc f4 b4 3d 88 f0 0c 3d fd 3c 98 bd
       0.01690971 0.08835754 0.034409076 -0.074335076
000070 a8 0d c3 3d 3d 7f bd 3d c1 04 92 bb 33 7a f3 3d
       0.09524089 0.092527844 -0.004456133 0.11888542
000080 9a 02 03 bd 29 8f a0 3d be cf c1 3b 5f 6e a0 3d
       -0.031984903 0.07839806 0.0059146574 0.078335516
000090 59 c7 0e 3d 56 15 ab 3d d8 65 24 3d f6 1e f6 3c
       0.03485808 0.08353679 0.04013619 0.03004406
0000a0 a8 f3 89 3d 38 ec fe 3d 7c 32 0b 3b 71 28 d3 3d
       0.06735927 0.12447399 0.0021239808 0.10310448
0000b0 95 40 a1 3d 77 84 2c 3b dd 18 b7 3c 32 5b db 3d
       0.07873646 0.0026324072 0.022350723 0.107107535
0000c0 7d 6b 5c bd 24 47 8c bc 7d a6 81 3d da 83 05 3d
       -0.053813446 -0.017123766 0.06330583 0.032596447
0000d0 0b bf 3b ba a4 46 c8 3d 39 97 ea 3d c2 ac 92 3d
       -0.00071619515 0.09779099 0.11454625 0.07161857
0000e0 3d f9 b7 3d 73 cf 27 bd 37 9b 1d 3d 46 ef 7d 3d
       0.08983085 -0.040969323 0.038478103 0.061995767
0000f0 ac 6a ac 3d 9c 12 af 3d a0 3e 15 3d da 15 60 bc
       0.084187835 0.08548471 0.036436677 -0.013677085
000100 ba 04 bd 3d b8 40 a3 3d 1c fc 44 3d 5f 97 d1 3d
       0.09229417 0.079713285 0.048091993 0.1023395
000110 c3 81 cf 3c e8 cd 4a bd 90 d2 d0 3d ad 0d 07 3e
       0.02533043 -0.049512774 0.101964116 0.1318881
000120 f2 58 70 bd 42 d3 1a 3d 5b 3c ba 3c 27 43 e3 3d
       -0.058678575 0.037799127 0.022733858 0.11096793
000130 58 a9 eb 3d aa 67 87 3d 32 ec 0d bc 1c cd 88 bd
       0.11506909 0.06611569 -0.00866227 -0.066797465
000140 fa b3 a9 3d f8 98 a3 3d c4 a0 04 3d 5b 50 8d 3d
       0.08286281 0.07988161 0.03237988 0.06900092
000150 eb fd e8 3d a8 d1 27 3d b9 62 d9 3d 4d 73 c1 3b
       0.11376556 0.04097143 0.10614533 0.0059036375
000160 ee 3b af 3d 43 0b 88 3d 68 b0 d0 3a 94 74 b2 bc
       0.085563526 0.06642773 0.0015921714 -0.021784104
000170 12 f8 14 3d 26 c1 b0 3d e9 16 b3 3d 14 7f c1 3c
       0.03636939 0.0863059 0.08744604 0.023620166
000180 c5 bb b2 3d de 07 89 3d f3 6a 4b 3d 98 b2 dd 3d
       0.087272204 0.06690954 0.04966254 0.1082508
000190 86 93 b6 bd 21 82 18 bc a7 2e 4a bd ea bf a3 3d
       -0.089148566 -0.009308369 -0.049360897 0.07995589
0001a0 a2 01 c3 3d 57 6e 18 bc 72 37 02 3d ed d7 ee 3d
       0.09521796 -0.009303651 0.031791158 0.11662278
0001b0 a6 33 47 3d 16 43 bf 3d e5 88 1c 3d 97 70 3d bd
       0.04863324 0.093389675 0.03821649 -0.046249952
0001c0 74 55 94 3d 2e 47 a9 3d ae c7 8b bc 79 41 08 bc
       0.072428614 0.082655296 -0.017062988 -0.008316391
0001d0 01 d4 40 3d 85 39 1b bc da 79 af 3d 0e 1d a9 3d
       0.047077183 -0.009474163 0.08568163 0.08257495
0001e0 c3 eb 61 3c f3 09 f2 3d 44 c2 79 3d 8a fb cc 3c
       0.01378912 0.11818304 0.06097628 0.025022287
0001f0 b4 8a a7 bc 48 92 8d 3c 07 54 af 3d 52 54 f8 3d
       -0.020451881 0.017281666 0.08560949 0.12125458

network_body._body_endoder.seq_layers.2.weight f4 [128, 128]
000000 98 0c de 3b 78 ea 9b 3d d0 4e 60 3e 00 d4 e6 3d
       0.0067764036 0.07613081 0.21905065 0.112709045
000010 8f 80 16 3d e7 83 62 bd d0 c3 00 3e d5 b8 fb 3d
       0.036743697 -0.055301573 0.12574697 0.12291113
000020 f5 76 cb 3a fa eb 59 3d 58 02 87 3d bf 24 4f 3d
       0.0015523123 0.05320356 0.06592244 0.050572153
000030 7a 8c 85 3d 67 a8 18 be 0f fd 0c 3e 39 cc a3 bd
       0.065209344 -0.1490799 0.13768409 -0.07997937
000040 c7 99 39 3e f6 8a e2 bc 0e 0b b3 bd 09 07 63 bc
       0.18125068 -0.027654152 -0.08742343 -0.013856658
000050 5c 87 b7 bd e2 d3 6f 3d d2 cc 28 3e ad 80 bc bd
       -0.089613646 0.058551677 0.16484383 -0.092042305
000060 51 71 02 3c 03 9d b5 bd f7 ea 29 3c a9 a0 1d bd
       0.007961587 -0.08867838 0.010370961 -0.038483296
000070 8a 7f 1c 3e c7 28 64 3d bc 99 58 3d 9c 03 0e bd
       0.15283027 0.05570295 0.052880988 -0.03467141
000080 68 92 ae 3c 19 53 1a be e5 3b 5b 3d bb 21 cc bd
       0.021310046 -0.15070762 0.053523917 -0.09967371
000090 35 82 5e 3d 7b f0 1c 3c 56 73 73 bd df 5a 17 be
       0.054323394 0.009578819 -0.059436165 -0.14780758
0000a0 07 ff b4 3c 55 8f 56 3e 8a ad db 3d fc ff ca bd
       0.022094263 0.20953114 0.10726459 -0.099121064
0000b0 a1 6c 85 3d 81 08 95 bd a7 0f 98 bc da ec 07 3d
       0.0651486 -0.072770126 -0.018562151 0.033184864
0000c0 68 f7 4f 3e f5 45 a9 3d f2 7d 93 3c c8 c4 80 3c
       0.20309222 0.08265296 0.018004391 0.015718833
0000d0 14 d0 f9 3c 4a 26 d0 3d 4f ea ad 3d ce 40 50 bd
       0.030494727 0.10163553 0.084919564 -0.050843053
0000e0 85 06 e6 3b dc 9f f4 3d 94 37 91 3d 5e ac 86 3d
       0.00701982 0.11944553 0.07090679 0.06575845
0000f0 0b c6 ef 3d 6f 29 35 ba 44 09 85 bd ce 9e c1 3d
       0.117076956 -0.0006910776 -0.06495908 0.09454118
000100 51 35 8c 3d 9b f5 66 3e d6 d8 61 3c 9c b9 08 be
       0.06846107 0.22554629 0.013784608 -0.13352054
000110 82 3f 03 be da 6f b6 bb d0 e2 0a be 1e 32 37 bd
       -0.12817195 -0.005567533 -0.13563085 -0.04472553
000120 2f 77 fb bd 11 7c ed 3a 04 61 a2 3d 5f 51 37 3e
       -0.12278592 0.001811864 0.079286605 0.17902134
000130 eb aa 2c bd 3b c6 ca 3d 30 10 46 3e ba 08 86 bc
       -0.042155188 0.09901091 0.19342113 -0.016361583
000140 2a 5e a7 3d f8 10 6f bd e7 59 e1 bc f0 0a c2 3d
       0.08172257 -0.058365792 -0.02750869 0.094747424
000150 ac f5 b6 bd b4 54 fa 3d a9 53 38 3e 3a 2f 01 be
       -0.08933577 0.12223187 0.18000664 -0.12615672
000160 38 5e 5e bd 37 50 31 3d 7b 98 9a 3d 97 15 94 3d
       -0.054289073 0.04328939 0.075486146 0.072306804
000170 16 d3 c5 bd 79 51 c5 3c 75 d0 28 be 3a 65 86 3d
       -0.09659402 0.0240867 -0.1648577 0.06562276
000180 1f 8f 4f 3d 65 7e b4 3a 57 73 26 3c c1 bc 05 3e
       0.0506736 0.0013770579 0.010159335 0.13060285
000190 10 9b d6 3d 35 9e cb bc e0 38 98 bd bd 03 67 3d
       0.104787946 -0.024855712 -0.07432723 0.05640005
0001a0 c3 03 72 bd 6d 03 bd 3d 65 75 61 be 5a 29 52 3e
       -0.05908562 0.09229169 -0.22017439 0.20523587
0001b0 36 93 89 3e 80 99 fb 3d 87 69 ec bc b5 ab 4b be
       0.26870126 0.12285137 -0.028858913 -0.1988972
0001c0 bd 0b c3 3b 16 6d 21 bd 64 0a f0 3d 6b bd da 3d
       0.005952327 -0.039410673 0.11720732 0.1068066
0001d0 e7 23 ba 3d 81 f2 f3 bc 03 eb bd 3d 8e cf 42 bd
       0.09088879 -0.02977872 0.092733406 -0.04756122
0001e0 80 34 34 bc d8 30 2e 3e 46 71 e4 ba f2 47 67 3d
       -0.010998845 0.1701082 -0.0017428778 0.056465097
0001f0 0c 50 a5 bd bb 10 0d 3d a2 2f 9e bd 04 0a 1b 3e
       -0.08071908 0.034439784 -0.07723929 0.1514054
000200 96 77 60 3e f7 92 29 be ff 6b 22 be eb 00 2a 3d
       0.21920618 -0.16559969 -0.1586151 0.04150478
000210 51 05 7e 3e 5a 85 50 bc ec 97 7e 3c 6b 61 67 3c
       0.24806716 -0.012727106 0.015539151 0.014122347
000220 3e 96 98 3a 32 46 38 bd 6f 0c 35 bd 91 3a 76 bd
       0.0011641455 -0.04498882 -0.04420131 -0.060114447
000230 8c 30 5a bd 2d cd 8b 3c 2a 78 03 bd 7c 29 13 3d
       -0.053268954 0.017065609 -0.03209702 0.035928234
000240 9e 54 c3 bd 03 c9 d2 3d d8 34 4f 3d c8 e5 ab bc
       -0.09537624 0.10292246 0.050587505 -0.020983592
000250 9f 63 7d bd 88 53 e3 bd 23 00 f2 bd a6 fd d1 bd
       -0.061862584 -0.11099917 -0.11816432 -0.10253458
000260 0e 7d 84 ba 7a 29 bc 3c 27 a0 43 bd 38 04 e7 bd
       -0.001010807 0.022968996 -0.047760155 -0.112801015
000270 7b da 52 bc 37 89 71 bd 98 17 00 3e 5d fc 11 3e
       -0.012869473 -0.05896875 0.12509 0.14256425
000280 64 5e f5 3d e4 6c be 3d cd ba d5 bd bf 23 9e 3d
       0.11980894 0.09298113 -0.1043602 0.07721662
000290 4c b8 db 3d ee a3 8d bd be b4 63 3c ef b4 88 bd
       0.10728511 -0.06916033 0.013898073 -0.06675135
0002a0 b4 e8 cb bd ea cb 20 be 07 40 4e 3c e0 29 eb bd
       -0.09956494 -0.15702787 0.0125885075 -0.114825964
0002b0 a0 36 c5 3d 31 cb 8b 3c 69 1c 91 bd da ff 92 bd
       0.096295595 0.017064663 -0.07085497 -0.07177706
0002c0 b6 a0 6a bd b0 ad 29 3e 2d 28 19 be 4c ee 99 3d
       -0.057282172 0.16570163 -0.14956732 0.07516155
0002d0 31 de 53 3e ed ad 8f bc a3 06 78 bd 42 8d 4a bd
       0.20690228 -0.017538989 -0.060553204 -0.04945112
0002e0 6a fe 0d be 43 bc 12 3e ab 1c fd bc 6e 9e 44 bd
       -0.13866583 0.14329629 -0.030897459 -0.048002653
0002f0 e3 10 e6 3d 8b f0 cd 3b 7d 3c e7 3d ea 5b 3f 3d
       0.1123369 0.0062847785 0.11290834 0.046718515
000300 c5 eb 04 bd 3d b9 51 bd c2 c3 fb 3d ee 01 da bc
       -0.03245141 -0.051202048 0.12293197 -0.026612248
000310 41 c1 e2 3c f4 74 8f bc b4 c8 cd bd fe 20 a1 3d
       0.027680041 -0.017511822 -0.10048047 0.07867621
000320 9d 1c 02 bd 88 c8 8c bc 66 f7 cc 3c 86 75 d4 3c
       -0.03176557 -0.017185465 0.025020313 0.025934946
000330 8f e9 a4 3d 79 38 69 3c 8a db 19 be 1b fe 45 3d
       0.0805236 0.014234656 -0.15025154 0.048338037
000340 b1 9a 6a bd 5c 00 81 3d cf a2 9f be 1f 8c 08 be
       -0.05727643 0.06298897 -0.311789 -0.13334702
000350 23 ed 09 bc 24 86 69 bd 2a 64 70 3d c3 b7 12 3d
       -0.008418354 -0.057012692 0.058689274 0.03581978
000360 59 9b d4 bd 29 23 d7 3b f2 96 8e bc fa 42 e1 bc
       -0.10381193 0.0065654707 -0.01740596 -0.027497757
000370 39 cd ab 3d 50 bb 3c be b6 d1 1d bd 94 46 04 3d
       0.083887525 -0.18430829 -0.038530074 0.03229387
000380 cc 0c 2f be 7c 93 98 3d 01 12 2d bc de 81 f0 bd
       -0.17094725 0.074500054 -0.0105633745 -0.1174352
000390 d5 55 82 3e 60 8c a5 bd 37 b9 49 3d 65 b1 27 be
       0.2545611 -0.08083415 0.0492489 -0.16376264
0003a0 5a f5 6c bd 2a e7 ff 3c c2 29 0c be 9e f6 82 bd
       -0.057851173 0.031238157 -0.13687804 -0.06394695
0003b0 41 1d 38 3d 03 1f 21 3d 06 79 d0 3c d9 7c 2e 3e
       0.044949774 0.039336216 0.025448333 0.17039813
0003c0 bf 7d 28 3e d0 2d 4e 3d 9f 34 5d 3e 1b d9 0a be
       0.16454218 0.05033666 0.21602105 -0.13559382
0003d0 88 4f 06 3e 9e 00 0f 3e a0 89 94 bd d7 fc b9 3d
       0.13116276 0.13965079 -0.072528124 0.090814285
0003e0 71 41 4d be 0c f4 eb bd f5 dc f3 bd 6b 35 e3 3d
       -0.20044495 -0.115211576 -0.119073786 0.11094173
0003f0 0f 52 8d bc d0 ca 5a 3d 70 23 bc bc c4 a8 53 bd
       -0.017251043 0.053416073 -0.022966117 -0.05167462

network_body._body_endoder.seq_layers.2.bias f4 [128]
000000 91 df ae 3d 15 1a bb 3b 56 99 1e 3d 18 a9 b3 3d
       0.08538736 0.0057098963 0.03872045 0.087724864
000010 79 db 59 bd 0f 07 a8 3c 5e 86 ca 3d 8f fe 7a 3d
       -0.05318782 0.020511178 0.0988891 0.061277922
000020 a6 47 67 3c 62 cd b4 3d 11 46 99 3c 30 db 76 bd
       0.014116203 0.08828236 0.018710168 -0.060267627
000030 7c c7 d1 3b b7 d1 2c 3d 7c 95 b0 bc 95 0b 7a 3d
       0.006401954 0.042192187 -0.021555655 0.0610462
000040 33 51 6d bd fe ce aa bd 31 a4 b9 3d 80 ae 76 3d
       -0.057938766 -0.08340262 0.0906452 0.06022501
000050 ea 61 ad 3d d6 a5 8c 3d 23 e2 69 3d c9 23 9b 3d
       0.08465941 0.06867568 0.057100426 0.07575185
000060 8c bb a1 3d 06 36 a2 3d 47 d3 a7 bd 0b df a2 bd
       0.078971 0.079204604 -0.08194595 -0.07952698
000070 c9 40 9d 3d 84 ed 83 3d c7 4e a7 3d 01 ab 06 3d
       0.076783724 0.06441787 0.081693225 0.032877926
000080 d6 44 9a 3d a1 48 57 3d 68 06 d3 3d b3 3c bb 3d
       0.07532661 0.0525595 0.10303956 0.09142437
000090 2c 8b bf 3d a9 59 98 3d 9b b1 64 3c a7 af ce 3d
       0.09352717 0.07438976 0.01395836 0.10092097
0000a0 21 3d 42 3d a6 ca c7 3d 2d 13 0e bd fe d7 30 3d
       0.04742158 0.09755449 -0.034686256 0.043174736
0000b0 89 36 82 3c 50 f2 a4 3c 9f da c0 3d 1c aa d3 3c
       0.015895145 0.020135075 0.09416699 0.02583795
0000c0 0f 68 d1 3d 9f 68 80 3d ea 81 2d 3d b7 76 b2 3d
       0.10224926 0.06269955 0.042360224 0.08714049
0000d0 83 f5 42 bd e4 30 d7 3d 07 28 b8 3c 73 fa c7 3d
       -0.04759742 0.10507372 0.022480024 0.09764566
0000e0 d9 ff 83 bc 97 96 90 3c cc c3 2b bd 1b 39 ab 3d
       -0.016113209 0.017649932 -0.041934773 0.083605014
0000f0 91 d9 7e 3d 06 43 ae 3d c1 06 a6 3c ca 04 b5 3d
       0.062219206 0.085088775 0.020266892 0.08838804
000100 03 67 bf 3d f4 3c 99 bc c8 67 5f 3d 62 25 c1 bb
       0.0934582 -0.018705823 0.054542333 -0.005894349
000110 06 35 b2 bd 19 e7 8c 3d 0f d2 0e bc 08 29 9d 3d
       -0.0870152 0.06880016 -0.008717074 0.07673842
000120 1d df ca 3d 60 8a 68 3d 0b 67 8d bd e7 e5 b1 3d
       0.09905837 0.05677259 -0.069044195 0.086864285
000130 51 56 d7 3d 6f 99 cc 3d c4 85 5b 3d 45 b1 a5 3d
       0.105145104 0.09990203 0.053594366 0.08090452
000140 64 5f 24 bd 68 78 9c 3d d3 31 cf 3d 8e 23 00 bd
       -0.040130034 0.07640153 0.10116925 -0.031283908
000150 2b 53 ae 3c dc fa ef 3c 2d 39 5f 3d f0 3c 58 b9
       0.021279892 0.029294424 0.054497886 -0.00020622066
000160 86 33 ac 3d 8d cd cc bd 90 62 bb 3d 5e dc 53 3d
       0.08408265 -0.10000143 0.09149659 0.05172383
000170 1f ad 9d bc 85 b5 4d 3d 41 84 61 3d 73 34 79 bd
       -0.01924759 0.05022194 0.055057768 -0.060841035
000180 71 bf f0 bc 55 63 bb 3c 84 e5 8d 3d 60 96 ef bc
       -0.029388161 0.022874514 0.06928542 -0.02924651
000190 1e c3 32 3d 73 6d 9e 3d 0b 69 b7 3c af 02 03 3e
       0.04364311 0.077357195 0.022388956 0.12793992
0001a0 b8 f2 8a bd ed 9b f0 3d ad ad df 3d a4 87 bf 3c
       -0.06784576 0.117484905 0.10921798 0.023380108
0001b0 5a e6 30 3d dd dc 2d 3b 2f 8d 85 bc d4 7e e3 bb
       0.04318843 0.002652935 -0.016302673 -0.0069426093
0001c0 84 3c 84 3d 90 8f 9e 3d d4 91 e5 bc 98 c3 4a bc
       0.06456855 0.07742226 -0.028023638 -0.012375735
0001d0 67 fc c1 3c 42 a1 ba 3d 3d 1e c6 bd d1 54 4e bc
       0.023679925 0.09112789 -0.09673736 -0.012593464
0001e0 b0 04 de 3d 03 af 7b 3d 5c 24 55 3d 20 c5 a9 ba
       0.10840738 0.0614462 0.052036628 -0.0012952425
0001f0 96 54 8d bd 5f 54 a2 3d e4 16 06 bd 90 ec 10 3d
       -0.06900899 0.07926249 -0.032736674 0.035381854

action_model._continuous_distribution.log_sigma f4 [1, 2]
000000 69 a7 4a bf fe df 04 bf
       -0.791617 -0.51904285

action_model._continuous_distribution.mu.weight f4 [2, 128]
000000 11 cc 3f 3d 9d 21 77 3d 65 19 4d bd 8f 54 19 3d
       0.046825472 0.06033479 -0.050073046 0.037434157
000010 77 6f de 3c 2f 13 9c 3d 52 99 9d b9 70 47 bb bd
       0.02715276 0.076208465 -0.00030059606 -0.09144485
000020 95 01 5b bd 21 30 c1 bb 04 7c ab bd 42 5c 9e bc
       -0.053468306 -0.00589563 -0.083732635 -0.019331101
000030 e6 db 7f bd 97 ce c6 3d b7 df b9 3c fb be 4f bd
       -0.06246557 0.09707373 0.022689683 -0.050719243
000040 2b 28 c4 bb d0 d5 44 bc 9e e0 6d 3d 26 7b b5 3d
       -0.0059862337 -0.0120138675 0.05807554 0.08861379
000050 0e 91 f7 bc 31 bb 35 bc 01 db ec 3d 9a d4 48 3d
       -0.030220535 -0.011091993 0.11565209 0.049030878
000060 3f 71 d8 bd f1 bd cd bc eb a0 50 bd b5 a5 6d 3b
       -0.10568475 -0.025114985 -0.050934713 0.00362621
000070 20 57 6d 3d f4 8f c0 3d e4 ea 10 3d 9f f7 03 3e
       0.057944417 0.09402457 0.03538026 0.12887429
000080 8c 44 8e 3d 9b 54 f1 3c 7d 98 9a 3c 24 6d 7a 3c
       0.06946668 0.029459288 0.01887154 0.01528481
000090 86 e4 da bc 1c 09 93 3d 9c c0 e1 3d af ec 01 be
       -0.026720297 0.07179472 0.110230654 -0.12687944
0000a0 9c d4 ef 3d 84 b0 72 bb 68 5d 28 bc 0b 40 d8 3d
       0.11710474 -0.003703148 -0.010276176 0.1055909
0000b0 dc 37 b4 3d a3 4b 81 bd f9 80 bc bc 7e 14 ca 3d
       0.08799717 -0.06313255 -0.023010718 0.0986719
0000c0 05 a9 ae bd e6 9f ea 3d ff 66 a8 3d 42 e8 5b 3c
       -0.08528332 0.114562795 0.0822277 0.013422074
0000d0 8b 51 0d 3e 2b e4 b5 bd 7c 33 d0 bd 4e 63 4d bc
       0.13800637 -0.0888141 -0.1016607 -0.012535883
0000e0 f2 e7 8a bd 6e 8e 90 3d 99 98 5d 3d e3 4b f9 3c
       -0.06782521 0.07058416 0.054100607 0.030431693
0000f0 cd 71 d7 3d 42 a3 e1 bc fd 93 98 bd b1 27 5e bd
       0.10519753 -0.027543668 -0.074501015 -0.05423707
000100 14 a9 a2 bc c8 be de bd 11 17 06 3e d9 65 5c 3b
       -0.019856013 -0.108762324 0.13094737 0.0033630042
000110 5a 6a 7d bc de eb 82 3d c6 ae 80 3d ed a8 bb bd
       -0.015467251 0.06392644 0.062833354 -0.091630794
000120 2c 0a b5 bc 1b 35 99 3d 42 a8 9c bd 2e 64 88 bd
       -0.022099577 0.07480832 -0.0764928 -0.06659733
000130 a2 fe be ba cf 0a d7 3c fa 31 9e 3d a6 18 bb 3d
       -0.0014571736 0.026250271 0.07724376 0.09135561
000140 07 34 81 3d 8c a8 20 3d 46 7c 59 3d 5a 25 e8 bd
       0.063087516 0.03922324 0.053097032 -0.11335249
000150 ca 77 d0 3d d8 88 a1 bd a3 3c 04 3d 5d 84 93 3d
       0.10179098 -0.07887429 0.03228439 0.07202981
000160 1b 4a 3b bc fb c2 4c bb 4d 0f 63 bd ff 42 06 3d
       -0.011431242 -0.0031244147 -0.055434514 0.032778736
000170 a5 bd b4 3d 90 4c be bd 69 71 e9 3d f9 81 a7 3d
       0.08825234 -0.09291947 0.113985844 0.08179087
000180 d0 df 02 3c aa 79 13 3e e3 2a 1e bd 6e 75 31 bc
       0.007987931 0.1440188 -0.03861512 -0.01083122
000190 87 17 17 3e ae d6 75 3d 9a cf 26 3d 50 be a9 bd
       0.14755069 0.060019188 0.040725328 -0.08288252
0001a0 58 5a 2c bd df d1 7a bd 62 83 33 bc 70 69 d3 bd
       -0.042078346 -0.061235305 -0.010956617 -0.10322845
0001b0 a4 90 07 bd 5c 51 fc 3d 18 3c 88 bd 84 00 a5 bd
       -0.033096924 0.123202056 -0.06652087 -0.08056739
0001c0 52 40 99 3d 9c 88 5a 3d db fe 6c bd c9 55 ca 3d
       0.07482971 0.053352937 -0.057860237 0.098796435
0001d0 1f d4 a6 3d 81 60 69 3b 61 af b5 bc 86 22 98 3d
       0.08145928 0.00356105 -0.022178354 0.0742846
0001e0 0c d0 d1 bb 36 c5 6d bd a2 60 a4 bd c5 38 dc bd
       -0.006402975 -0.058049403 -0.08026244 -0.107530154
0001f0 9b a6 06 bd c8 fe c8 3d 68 0b b1 bd 75 ec a6 3d
       -0.03287373 0.09814221 -0.08644754 0.08150569
000200 65 70 88 3d 68 6e e0 bd 08 0c 57 3d e7 2a 79 3d
       0.066620626 -0.10958558 0.05250171 0.06083193
000210 05 d7 d3 bd 32 bf 0a bd 47 fd bc 3d 03 94 69 3d
       -0.10343746 -0.033873744 0.09227996 0.05702592
000220 d5 7c 5a 3d 4a 46 c1 3d ad 2d 77 3c dc 2f ac bd
       0.053341705 0.09437235 0.015086574 -0.08407566
000230 aa 78 8c 3b 3e e0 e2 bb dd bf 35 be 09 3f 3b 3d
       0.004286845 -0.0069237044 -0.17748971 0.045714412
000240 d5 60 d5 bd 96 86 27 bd 7d ef ae 3d 20 5f b4 3c
       -0.1041886 -0.040899836 0.085417725 0.022018015
000250 ba df ad 3d 1f c9 6c 3d 7e 0a 72 3c 1f 44 b2 3d
       0.08489938 0.05780899 0.014773009 0.08704399
000260 b5 02 bd 3d b4 69 ce 3d a5 3b 6d bd 3b 01 0d be
       0.09229032 0.10078755 -0.05791821 -0.1377
000270 e6 67 fc 3c 81 2e 58 3d 2e 2c b1 3d 69 ec a3 3c
       0.030811261 0.052778725 0.08651005 0.02001019
000280 c0 60 19 3d b7 a8 4b 3d 1f 50 b2 3d 80 68 97 3d
       0.037445784 0.049721446 0.08706688 0.07392979
000290 1a 6d bd 3d 6b 5a 1a 3c c1 3b 70 bd 46 e9 c0 3d
       0.09249325 0.009420971 -0.058650736 0.094194934
0002a0 e2 00 b3 bd 0d 29 8b 3d 64 4d b9 bd 96 ee 13 be
       -0.08740403 0.06794939 -0.09047964 -0.14446482
0002b0 48 7a b4 3c 00 e9 7b 3d e6 5f 00 3e b4 b4 04 bd
       0.022030964 0.061501503 0.12536582 -0.032398894
0002c0 0f 7d c8 3d b3 9d 1e bb 09 0d a9 3b da 75 48 3d
       0.09789478 -0.0024202883 0.0051590246 0.048940517
0002d0 0d b0 ba bd 44 27 c4 3d be 35 1d 3d 49 b3 b8 3d
       -0.0911561 0.09577802 0.03838133 0.09018571
0002e0 a1 72 10 bb e9 61 32 3c 04 a1 15 be e7 2b 65 3d
       -0.002204098 0.010887601 -0.14612204 0.05595007
0002f0 8d 8d 81 3b 10 68 7c 3d e3 cf a5 bd c7 6c d1 3d
       0.0039536417 0.06162268 -0.08096292 0.10225826
000300 2b 0d c1 3d 50 65 1b ba 63 55 db 3c e8 6f 5a 3d
       0.0942634 -0.00059278775 0.026774114 0.05332938
000310 05 a8 2b bd d5 e3 32 3d c0 e5 74 bd 25 ab cc 3d
       -0.041908283 0.04367431 -0.05978942 0.09993581
000320 ee 1c b3 3d 1a 01 ce 3c 3f 65 40 bd ee b2 05 3e
       0.08745752 0.02514701 -0.046971556 0.13056538
000330 b5 9a ad 3d 85 b4 d0 3d d5 f2 38 3d 95 24 63 3d
       0.08476774 0.10190681 0.045153458 0.05545481
000340 90 e6 0f be b4 2c 2b 3d dc d3 cb 3d 7a 41 65 bc
       -0.14052796 0.04179068 0.09952518 -0.013992662
000350 d8 40 6c bc 82 38 8b 3d 82 c4 68 3d 5f e0 60 bd
       -0.014419757 0.067978874 0.05682803 -0.054901477
000360 62 8f 97 3d 40 8e 46 bd 35 1e d8 3d d3 1b 47 3d
       0.07400395 -0.048475504 0.105526365 0.04861052
000370 4a 53 af bd 43 8f 95 3d d2 5b 42 3d dd 48 0e be
       -0.08560808 0.07302716 0.047450848 -0.13894983
000380 81 e8 9f 3b b2 56 32 bc 3f e2 95 3d e7 22 8b bd
       0.0048800115 -0.010884928 0.07318544 -0.067937665
000390 cb 26 96 bd 4d 25 44 3d 39 6c 12 bb b0 fe f8 3d
       -0.07331618 0.047887135 -0.0022342338 0.12157953
0003a0 8e 18 d8 bd 88 5d 15 3e 3e 29 ea 3d 3c 5f 1c 3d
       -0.105515584 0.1458646 0.114336476 0.03817676
0003b0 c9 6d 81 3d c4 ad a3 bd 74 70 56 3c c7 54 bb bc
       0.06319768 -0.079921275 0.013088334 -0.022867573
0003c0 ca b0 99 3c ac 32 99 3d 62 5d 0b bd a0 5a aa bd
       0.018761057 0.07480368 -0.034024604 -0.083180666
0003d0 a2 e5 80 bd d0 63 97 3d d8 94 f7 bd c1 07 c6 bd
       -0.06293799 0.073920846 -0.120889366 -0.09669448
0003e0 96 c0 0a 3e 2c b4 73 3d f8 73 06 3e 36 96 68 bb
       0.13550028 0.059497997 0.13130176 -0.0035489923
0003f0 85 5c 41 bd 3d ac 1a 3d 12 4d a0 bc ab d8 e1 bc
       -0.047207374 0.037761915 -0.019568 -0.027569136

action_model._continuous_distribution.mu.bias f4 [2]
000000 77 65 aa 3c ad 61 bf 3d
       0.020800335 0.09344802

exp_avg f4 [128, 33]
000000 70 3d 16 3a 00 00 00 00 43 0d fd b9 52 c8 d3 b9
       0.0005731201 0.0 -0.000482658 -0.00040394306
000010 9c c2 5f 38 00 00 00 00 e9 34 f1 b9 c7 9c 2b 39
       5.3348587e-05 0.0 -0.00046006523 0.00016366235
000020 bf b5 e4 39 00 00 00 00 fa 3c 17 bb e5 e3 01 bb
       0.0004362296 0.0 -0.0023077116 -0.0019819674
000030 12 d3 b6 38 00 00 00 00 b4 25 35 39 7f 65 34 3a
       8.717751e-05 0.0 0.0001727555 0.0006881579
000040 9d c8 f0 b9 00 00 00 00 e6 81 f2 ba 08 09 08 bb
       -0.00045925836 0.0 -0.0018501848 -0.0020757336
000050 29 e2 a2 38 9c c1 c4 37 4d 5d cf 3a a9 e5 00 3b
       7.7668876e-05 2.3455177e-05 0.0015820652 0.0019668138
000060 0d 0e f0 b9 00 00 00 00 62 9f 99 b8 db 75 9b 36
       -0.00045786836 0.0 -7.325296e-05 4.63308e-06
000070 46 53 2e 3b e6 65 96 37 c6 ed 01 bb 39 91 7d bb
       0.0026599928 1.7928844e-05 -0.0019825562 -0.0038691296
000080 58 25 a9 ba 6b c8 05 39 00 00 00 00 18 97 d3 39
       -0.0012904806 0.0001275853 0.0 0.0004035763
000090 e6 54 05 39 e8 84 6e 37 00 00 00 00 6a f4 01 3a
       0.00012715496 1.421685e-05 0.0 0.000495738
0000a0 e1 f9 6e 39 63 16 33 39 00 00 00 00 6f 55 96 b7
       0.00022790536 0.0001707911 0.0 -1.7921177e-05
0000b0 d2 f0 87 39 15 73 e4 36 00 00 00 00 98 dc 3c ba
       0.00025928632 6.808327e-06 0.0 -0.0007204502
0000c0 fe 6f 0f b9 5b 66 62 38 00 00 00 00 97 b6 db 39
       -0.00013679263 5.3977925e-05 0.0 0.00041906975
0000d0 e4 e1 70 3a 02 e3 05 38 fc bb d1 36 7e ab 17 3a
       0.0009188934 3.192109e-05 6.2505696e-06 0.0005785747
0000e0 b7 4c 17 3a 05 1d 63 38 00 00 00 00 9d 60 e2 3a
       0.0005771624 5.4148044e-05 0.0 0.0017271225
0000f0 27 f6 cb 3a 17 a8 93 b9 e9 ab cb b8 9d e1 d5 b9
       0.001556103 -0.00028163262 -9.711815e-05 -0.0004079462
000100 38 a6 16 3a eb 74 16 ba 3b 53 1d b9 00 00 00 00
       0.00057468144 -0.0005739468 -0.00015003693 0.0
000110 ba 3a 33 b9 2d f7 bb b9 f0 be 6c 36 00 00 00 00
       -0.00017092648 -0.0003585158 3.527788e-06 0.0
000120 7b 66 65 39 14 df 94 b9 43 7a e9 39 00 00 00 00
       0.00021877319 -0.00028394966 0.00044532315 0.0
000130 7d d2 89 3a 72 5c 7e 3a 1f 13 ec 37 00 00 00 00
       0.0010515001 0.00097031065 2.8142296e-05 0.0
000140 6d 7a d0 b9 09 89 01 ba 0d 10 1c 3a 00 00 00 00
       -0.00039764066 -0.00049413793 0.00059533195 0.0
000150 17 ad 9e 3a 0c b2 cc 3a 54 aa 9f 37 d5 2c d0 35
       0.0012106028 0.0015617027 1.9033592e-05 1.5510255e-06
000160 07 2a e6 b9 10 d7 39 ba 89 e6 1b 3a 00 00 00 00
       -0.0004390033 -0.0007089237 0.0005947133 0.0
000170 52 1a f6 39 c8 63 c4 39 73 04 93 ba cb 0a f4 b9
       0.00046940387 0.00037458376 -0.0011216536 -0.00046547348
000180 79 df 10 3a 7d bf 17 3b 4f 28 8c 39 f2 d9 98 b9
       0.0005526464 0.0023154907 0.00026732913 -0.0002915408
000190 00 00 00 00 e2 76 02 3a 3a 9c 93 39 fb 6a ba 37
       0.0 0.00049768214 0.00028154423 2.2222745e-05
0001a0 00 00 00 00 b3 ab 7b b8 4e 7d 25 39 0d 74 c3 38
       0.0 -6.000297e-05 0.00015782306 9.319941e-05
0001b0 00 00 00 00 1b 5f 96 ba b9 e0 6d ba 04 dd 69 37
       0.0 -0.0011472435 -0.0009074319 1.3939341e-05
0001c0 00 00 00 00 35 ab 70 39 7a 40 5b 3a 2f 3a 7e b9
       0.0 0.00022951963 0.0008363795 -0.00024245003
0001d0 00 00 00 00 0e ba 2c ba 1b 47 23 ba b2 c7 61 b7
       0.0 -0.00065890036 -0.0006228552 -1.345754e-05
0001e0 a7 eb 23 37 13 f1 c2 3a 85 34 d7 3a 34 8f 7d b9
       9.770424e-06 0.0014872871 0.001641885 -0.00024181308
0001f0 00 00 00 00 e8 ef fb 38 dd d7 2a 39 b1 b9 b4 3a
       0.0 0.00012013299 0.00016292879 0.001378825
000200 1c 28 c3 38 c3 4d 5d ba 52 17 c7 ba 24 37 83 ba
       9.3057955e-05 -0.00084420684 -0.0015189445 -0.001001094
000210 f4 96 ad 38 00 00 00 00 3c f1 1d 3a 77 71 0d 39
       8.2774e-05 0.0 0.00060250214 0.00013489077
000220 9a b7 ba 37 00 00 00 00 0a 72 90 b9 c4 fe 44 b9
       2.2258424e-05 0.0 -0.00027550786 -0.00018786924
000230 4c 3f 9e 38 00 00 00 00 59 07 03 ba 3a bc 3c ba
       7.545817e-05 0.0 -0.00049983483 -0.0007199679
000240 ca 20 d8 37 00 00 00 00 44 a3 24 b9 81 81 9b 39
       2.5764475e-05 0.0 -0.0001570108 0.00029660392
000250 65 d4 03 39 00 00 00 00 71 e7 1f ba 67 f4 85 ba
       0.00012572257 0.0 -0.0006099856 -0.0010219932
000260 76 0a 0d 38 0b 2f 24 37 f3 74 df 39 0a 50 26 3a
       3.3626762e-05 9.786115e-06 0.00042621008 0.0006344324
000270 55 0f 04 39 00 00 00 00 f3 1e 34 b8 b6 03 c7 b9
       0.00012594213 0.0 -4.2944168e-05 -0.00037959003
000280 8a e5 e8 3a 54 1e 00 b9 11 88 60 ba 07 94 f3 ba
       0.0017768603 -0.0001221833 -0.00085651973 -0.0018583544
000290 a1 ff 51 39 07 3d 75 b9 00 00 00 00 1f 77 80 b8
       0.00020027022 -0.00023387755 0.0 -6.125704e-05
0002a0 d5 7d e8 b8 7a 12 be b7 00 00 00 00 1a 81 11 b8
       -0.0001108606 -2.2658369e-05 0.0 -3.469093e-05
0002b0 da 07 e0 b8 26 fe 0e b9 00 00 00 00 58 87 c4 39
       -0.00010682615 -0.00013636853 0.0 0.00037484872
0002c0 9e 8c 1a 38 80 0c b0 38 00 00 00 00 04 f0 da b9
       3.684742e-05 8.394662e-05 0.0 -0.00041759026
0002d0 dc 00 10 ba 96 33 b3 39 00 00 00 00 e8 5f fb 39
       -0.0005493292 0.00034179975 0.0 0.00047945906
0002e0 2a cf 26 3a f2 1b f3 38 3c 22 27 b7 4d 71 2f 38
       0.00063632673 0.00011592348 -9.9619465e-06 4.182877e-05
0002f0 1a 44 46 b9 fc cd b2 39 00 00 00 00 af ba dc 39
       -0.00018908121 0.00034104276 0.0 0.0004210076
000300 4f c9 26 3a ff 6f 4d ba b1 4d 83 b8 f2 42 60 b8
       0.0006362395 -0.0007836818 -6.261038e-05 -5.346811e-05
000310 53 77 cd 3a b2 f9 98 39 03 8c e7 b8 00 00 00 00
       0.001567582 0.00029177737 -0.000110410176 0.0
000320 84 75 0e 3a fe dd 98 39 43 5f 6b 38 00 00 00 00
       0.00054343813 0.00029157096 5.6117085e-05 0.0
000330 9a 40 e3 b9 d7 5b 60 b9 3b 9a 51 3a 00 00 00 00
       -0.00043344946 -0.00021396518 0.00079956994 0.0
000340 ca 16 51 ba ac 5f 30 ba 42 a0 74 b8 00 00 00 00
       -0.0007976113 -0.00067281234 -5.8323385e-05 0.0
000350 90 c7 2c 39 57 3c 93 3a 1a d5 79 b9 00 00 00 00
       0.00016477541 0.0011233193 -0.00023825877 0.0
000360 20 21 3b ba e5 89 30 ba 6a 97 c0 38 80 f7 ce 37
       -0.000713842 -0.0006734415 9.1834765e-05 2.4672365e-05
000370 ae ff a8 3a f0 0e d8 3a 33 97 78 b9 00 00 00 00
       0.0012893581 0.0016483944 -0.00023707449 0.0
000380 30 04 02 ba 08 2f c4 b9 9d f2 d4 3a 5c 70 19 b9
       -0.00049597304 -0.00037419074 0.0016246621 -0.00014633074
000390 e5 16 36 ba 23 03 88 ba 86 ad 81 ba 53 a4 83 38
       -0.00069461606 -0.0010376911 -0.0009893633 6.2771745e-05
0003a0 00 00 00 00 a1 d5 44 ba 69 dd 31 ba ef 93 a3 37
       0.0 -0.000750864 -0.0006785007 1.9500001e-05
0003b0 00 00 00 00 69 d3 f8 b9 9a 49 8f b9 12 f9 b6 38
       0.0 -0.0004745976 -0.00027329923 8.724829e-05
0003c0 00 00 00 00 ff a5 d0 ba 48 61 9f ba b2 5c 26 38
       0.0 -0.0015918611 -0.0012159729 3.9663813e-05
0003d0 00 00 00 00 bb 09 1d 39 32 8e ac 39 41 86 52 39
       0.0 0.00014976312 0.0003291234 0.00020077174
0003e0 00 00 00 00 cc 7f 93 ba 83 92 8d ba 70 96 47 38
       0.0 -0.0011253296 -0.001080111 4.7585403e-05
0003f0 3f d6 0f 37 9b ea 48 3a d4 51 53 3a 42 9e 52 39
       8.573347e-06 0.00076643535 0.00080612046 0.00020086116

exp_avg_sq f4 [128, 33]
000000 9c 5c ad 38 00 00 00 00 6e 41 19 39 1b 8e fc 38
       8.266533e-05 0.0 0.00014615591 0.000120427656
000010 e5 61 d8 34 00 00 00 00 0f ee ba 38 27 77 94 38
       4.0304363e-07 0.0 8.913513e-05 7.079384e-05
000020 eb 17 72 38 00 00 00 00 aa 2a 1d 39 92 d3 05 39
       5.771957e-05 0.0 0.0001498858 0.00012762684
000030 d5 09 15 35 00 00 00 00 58 a5 e7 38 7d 70 bb 38
       5.5521133e-07 0.0 0.00011045736 8.9378074e-05
000040 10 85 82 38 00 00 00 00 0c a3 e0 38 03 01 c1 38
       6.223668e-05 0.0 0.00010711522 9.2031456e-05
000050 02 1f af 35 05 a2 a4 33 cb f8 b7 38 7e aa be 38
       1.304754e-06 7.666316e-08 8.772461e-05 9.091663e-05
000060 0b 53 82 38 00 00 00 00 08 b7 bb 38 92 d2 b1 38
       6.214351e-05 0.0 8.950947e-05 8.4792395e-05
000070 9a cc c4 38 34 fe 90 38 d6 da e2 38 6e 07 0a 39
       9.384118e-05 6.913804e-05 0.00010817281 0.00013163473
000080 0d ba 6e 38 9e 95 9a 35 00 00 00 00 2d 29 bf 37
       5.6916895e-05 1.1517438e-06 0.0 2.2788148e-05
000090 fa a8 6d 37 2c 8b d5 33 00 00 00 00 b2 73 d6 37
       1.4165644e-05 9.9439006e-08 0.0 2.5564663e-05
0000a0 47 a4 1e 37 57 b6 07 36 00 00 00 00 7b e3 c1 37
       9.455783e-06 2.0222703e-06 0.0 2.3113322e-05
0000b0 79 31 8f 37 f5 76 e3 34 00 00 00 00 b0 32 ea 37
       1.7069966e-05 4.2368598e-07 0.0 2.7918577e-05
0000c0 27 c3 89 37 c8 c9 9f 36 00 00 00 00 a8 61 c5 37
       1.6422548e-05 4.7620597e-06 0.0 2.3529705e-05
0000d0 5d 1e 97 37 1b 19 b1 35 2e a8 a3 32 59 35 d3 37
       1.8014742e-05 1.3194834e-06 1.9052177e-08 2.5178002e-05
0000e0 65 46 ac 37 93 6c a0 36 00 00 00 00 49 61 c6 37
       2.0536778e-05 4.7810113e-06 0.0 2.3648741e-05
0000f0 38 dc a2 37 ec e0 d4 37 1b e6 64 36 dc 07 cc 37
       1.9414452e-05 2.5377107e-05 3.4108587e-06 2.4322355e-05
000100 cf 38 1c 38 28 52 49 37 4f 82 22 36 00 00 00 00
       3.7246205e-05 1.1999662e-05 2.421573e-06 0.0
000110 2b f3 50 38 aa ee 11 38 c3 4c 06 34 00 00 00 00
       4.9817532e-05 3.4792967e-05 1.2507648e-07 0.0
000120 8c 23 f5 37 73 1b 8c 37 c2 bf da 36 00 00 00 00
       2.9222829e-05 1.6702083e-05 6.51923e-06 0.0
000130 65 07 39 38 f0 64 10 38 90 ba 76 34 00 00 00 00
       4.4114324e-05 3.442628e-05 2.2978406e-07 0.0
000140 d8 b1 23 38 33 c0 d8 37 72 f6 19 37 00 00 00 00
       3.902786e-05 2.5838706e-05 9.176891e-06 0.0
000150 94 f9 06 38 77 44 d5 37 2e cd ae 35 73 cb d0 32
       3.2180527e-05 2.542346e-05 1.3023725e-06 2.4306905e-08
000160 13 05 0f 38 a9 7f e7 37 26 ef 19 37 00 00 00 00
       3.4098583e-05 2.7596792e-05 9.175192e-06 0.0
000170 4a 3f f4 37 2a 85 de 37 e2 73 00 38 1f 8d 04 37
       2.9116538e-05 2.6526472e-05 3.0625502e-05 7.90067e-06
000180 24 6a 05 38 64 e1 35 38 a9 36 85 37 3f 71 e4 37
       3.1808522e-05 4.3363674e-05 1.5880289e-05 2.7232452e-05
000190 00 00 00 00 b5 7a cc 37 96 e6 a6 37 d3 34 ba 33
       0.0 2.4375835e-05 1.9896117e-05 8.6709086e-08
0001a0 00 00 00 00 05 3f a8 37 a0 1b 78 37 ad 47 a9 37
       0.0 2.0056506e-05 1.4788384e-05 2.0179747e-05
0001b0 00 00 00 00 56 df e2 37 28 12 bb 37 ea 8e 07 34
       0.0 2.7045298e-05 2.2300592e-05 1.2624847e-07
0001c0 00 00 00 00 5a dd 9a 37 3f be 87 37 45 9e 80 37
       0.0 1.8461305e-05 1.6181844e-05 1.5332489e-05
0001d0 00 00 00 00 38 36 b7 37 37 de a6 37 4c d9 d7 35
       0.0 2.1840548e-05 1.9892219e-05 1.608199e-06
0001e0 0b 8a 87 32 0b 4c 98 37 d3 5a 96 37 f0 57 80 37
       1.5778843e-08 1.8155222e-05 1.7923687e-05 1.5299738e-05
0001f0 00 00 00 00 a7 44 a7 37 8c 94 a2 37 b6 58 94 37
       0.0 1.993992e-05 1.9381077e-05 1.7684284e-05
000200 b3 b0 a6 37 6b c7 98 37 e9 7f b9 37 09 e4 2d 37
       1.9871024e-05 1.8212673e-05 2.2113281e-05 1.0364697e-05
000210 06 4f 63 35 00 00 00 00 f0 7c e5 37 7e c2 a9 37
       8.4679084e-07 0.0 2.7357106e-05 2.0236937e-05
000220 8e 4a c7 33 00 00 00 00 9a c5 b1 37 c5 54 0f 37
       9.280221e-08 0.0 2.119206e-05 8.543201e-06
000230 e4 f3 e6 35 00 00 00 00 85 83 f0 37 63 fe ba 37
       1.7207317e-06 0.0 2.8671473e-05 2.2291386e-05
000240 93 69 0d 34 00 00 00 00 4a ee b2 37 7b 62 82 37
       1.3170056e-07 0.0 2.1330216e-05 1.5543066e-05
000250 fa 2f 55 36 00 00 00 00 69 85 d9 37 0b 62 9a 37
       3.17674e-06 0.0 2.593054e-05 1.8403885e-05
000260 da b5 4f 34 3f 12 9a 32 cc 66 a1 37 e6 27 9e 37
       1.9344535e-07 1.7936257e-08 1.9240564e-05 1.8853647e-05
000270 b1 e7 55 36 00 00 00 00 b2 28 b7 37 fe f3 8b 37
       3.1874335e-06 0.0 2.183425e-05 1.6683709e-05
000280 91 25 17 38 ba 17 2c 36 95 0b a3 37 e0 b3 17 38
       3.6036192e-05 2.5643808e-06 1.9436508e-05 3.6168727e-05
000290 34 0e d8 36 00 f2 e7 35 00 00 00 00 27 82 74 37
       6.438955e-06 1.7281272e-06 0.0 1.4573837e-05
0002a0 b6 8d 21 37 a8 a0 9d 33 00 00 00 00 71 45 a0 37
       9.6293425e-06 7.3401054e-08 0.0 1.9105823e-05
0002b0 5d ec 01 37 13 2f 0c 36 00 00 00 00 dd 68 73 37
       7.744032e-06 2.0889026e-06 0.0 1.4508344e-05
0002c0 bf 94 3c 37 13 eb 3a 35 00 00 00 00 7d ee 7f 37
       1.1240306e-05 6.963248e-07 0.0 1.5254712e-05
0002d0 84 3a 36 37 09 38 fb 36 00 00 00 00 3f 2f 85 37
       1.086167e-05 7.4869063e-06 0.0 1.5876836e-05
0002e0 78 39 50 37 25 aa 6c 35 d1 0a 74 32 7e 55 80 37
       1.2411147e-05 8.8164444e-07 1.4205129e-08 1.52986e-05
0002f0 43 d5 77 37 7e 0e fb 36 00 00 00 00 59 4f 91 37
       1.4772001e-05 7.48207e-06 0.0 1.7322296e-05
000300 9d 2e 88 37 9a d4 a1 37 dd ae 9b 36 90 10 a9 37
       1.623417e-05 1.9291696e-05 4.6397167e-06 2.0154082e-05
000310 cc 3a 3b 38 06 ad 64 37 46 92 dc 36 00 00 00 00
       4.4639033e-05 1.3630144e-05 6.5735394e-06 0.0
000320 10 c7 92 37 33 46 80 37 73 1e 94 33 00 00 00 00
       1.7497252e-05 1.5291478e-05 6.897326e-08 0.0
000330 55 c1 a8 37 bc d5 95 37 c2 36 19 37 00 00 00 00
       2.0117188e-05 1.7861712e-05 9.13226e-06 0.0
000340 1a fb 9e 37 e2 49 8c 37 25 05 ce 35 00 00 00 00
       1.8951996e-05 1.6723705e-05 1.5349693e-06 0.0
000350 93 a8 71 37 22 09 9d 37 aa 47 ac 37 00 00 00 00
       1.4403969e-05 1.8720111e-05 2.0537369e-05 0.0
000360 1f 28 98 37 2d 30 93 37 16 c7 b2 35 c8 75 64 32
       1.8138495e-05 1.75462e-05 1.3319975e-06 1.3298127e-08
000370 cf b2 75 37 b6 ba ab 37 ef e5 ab 37 00 00 00 00
       1.464477e-05 2.0471733e-05 2.049186e-05 0.0
000380 5d 28 95 37 5b 44 9f 37 e7 5c c4 37 0c 5d 6c 37
       1.778098e-05 1.8986108e-05 2.3408282e-05 1.408836e-05
000390 3d 17 7f 37 66 53 f1 37 f1 33 db 37 7a a4 64 35
       1.5204595e-05 2.8768274e-05 2.6131022e-05 8.5175964e-07
0003a0 00 00 00 00 cf ac 09 38 88 98 c1 37 05 95 c6 33
       0.0 3.2824286e-05 2.307842e-05 9.2472e-08
0003b0 00 00 00 00 98 26 a7 37 f4 2f 16 37 45 54 e5 35
       0.0 1.9925923e-05 8.951862e-06 1.7086355e-06
0003c0 00 00 00 00 21 ad 0f 38 f2 30 dd 37 bb 28 15 34
       0.0 3.4255096e-05 2.6368045e-05 1.3891524e-07
0003d0 00 00 00 00 77 59 d9 37 b3 bc 85 37 33 41 5a 36
       0.0 2.5910076e-05 1.5942705e-05 3.2522482e-06
0003e0 00 00 00 00 83 c0 d0 37 40 42 9b 37 bc ab 78 34
       0.0 2.4885177e-05 1.850829e-05 2.3159276e-07
0003f0 44 67 99 32 16 1c b7 37 3d 9f 8f 37 6e 01 5b 36
       1.7858504e-08 2.1828379e-05 1.712108e-05 3.2634375e-06

exp_avg f4 [128]
000000 69 9b 73 ba 2d d9 81 b9 46 d3 80 b8 73 f5 ca b9
       -0.0009292872 -0.00024766606 -6.1428684e-05 -0.00038711316
000010 11 4e cb b9 89 f0 ce 39 ea 1f 80 ba 86 16 b2 b9
       -0.0003877734 0.00039470594 -0.0009775136 -0.00033967587
000020 38 8e a1 3a d1 8f 25 ba 04 8f ca b9 86 fe 05 b9
       0.001232571 -0.0006315681 -0.00038634997 -0.00012778686
000030 d9 7e aa b9 1e 15 d2 39 9a f3 74 38 40 57 09 b7
       -0.00032519436 0.00040070055 5.8401005e-05 -8.186151e-06
000040 f3 41 01 3a 29 8d 7f 39 4a 2a 80 39 46 c0 29 3a
       0.00049307867 0.00024371281 0.0002444557 0.00064754894
000050 f8 4e 3f 3a ac 0b 82 38 8b 14 d5 39 1f f4 2d b8
       0.0007297839 6.201057e-05 0.00040641832 -4.147377e-05
000060 01 61 ca 38 88 c8 ac 37 5b c5 c1 39 eb c6 dc b8
       9.650179e-05 2.0597377e-05 0.0003695887 -0.00010527469
000070 e7 3f b5 b7 93 87 24 3a 79 a2 30 ba f4 0f 42 39
       -2.1606638e-05 0.00062763056 -0.00067380775 0.00018507225
000080 53 83 d3 ba 14 ee d8 b9 51 39 0c 3a fc 11 29 b9
       -0.001613716 -0.00041376112 0.0005349117 -0.00016123796
000090 d4 da df ba 1e 0b 58 b9 be 41 1d b8 95 8b f7 39
       -0.0017078766 -0.00020603507 -3.7492944e-05 0.00047215508
0000a0 ac 31 11 39 e5 42 97 39 c7 5a 01 ba 34 48 a6 39
       0.00013846782 0.00028850805 -0.00049344864 0.00031715783
0000b0 9a a6 0f ba 61 cb 9d b9 64 f2 07 b9 ab da 93 b9
       -0.00054798427 -0.00030096903 -0.00012964901 -0.00028200945
0000c0 cb 88 6a b9 d5 7a b2 38 24 71 95 3a 5c 4a b4 3a
       -0.00022366938 8.510581e-05 0.0011401516 0.0013755071
0000d0 9b bb d7 ba 7f 85 8a ba dc 2b ea 39 e5 98 9d 3a
       -0.0016459109 -0.0010568349 0.00044664636 0.0012023716
0000e0 73 ce 0d ba 8b 96 45 ba 89 8f 48 3a 91 d8 b0 ba
       -0.00054094865 -0.0007537386 0.0007650783 -0.0013492276
0000f0 a0 82 dc b9 d1 67 08 38 8d a2 31 b6 ef 7a d4 b9
       -0.00042058993 3.2521613e-05 -2.6469672e-06 -0.00040527384
000100 58 58 bf 39 f1 cd 5b 3a 02 54 bc b9 1a 64 8e 39
       0.0003649618 0.00083848747 -0.00035920745 0.00027158932
000110 87 df 10 ba bc 82 eb b9 ff 14 e3 39 c0 be 58 38
       -0.0005526472 -0.00044920098 0.00043312457 5.1676063e-05
000120 c0 90 04 ba ac 19 eb 39 31 b1 65 ba 41 6d 2f ba
       -0.000505697 0.0004484182 -0.00087620603 -0.00066920003
000130 1f 28 13 b9 e7 bd 62 39 4a ff 07 b9 95 bb 0c 3a
       -0.00014033959 0.00021623784 -0.00012969706 0.0005368528
000140 2f 33 86 3a 9e 4e bc b8 1b 79 a5 39 37 52 00 39
       0.0010238643 -8.979182e-05 0.00031561483 0.00012237659
000150 89 8e 52 39 50 2e 5f 38 c6 85 23 b9 8f fe 9a b6
       0.00020080259 5.3210475e-05 -0.00015594726 -4.619192e-06
000160 85 18 f1 3a 5d a4 4b 3a 83 c3 9a ba 3f 5d 0c 3a
       0.0018394148 0.00077683275 -0.0011807535 0.0005354471
000170 37 81 ce b8 9a 95 6a b9 20 91 4d 3a 57 5f db b9
       -9.8469136e-05 -0.0002237171 0.00078417547 -0.0004184197
000180 77 5c 2b 3a 16 d7 34 b9 34 e6 e5 3a d4 e8 68 b9
       0.00065369107 -0.00017246263 0.0017539919 -0.0002221198
000190 a7 3e 97 ba 6c 84 ec 3a 32 7b 8f 39 4a 2e 57 ba
       -0.0011539058 0.0018044836 0.00027366873 -0.0008208497
0001a0 58 8e f0 b9 cd 43 07 3a ab 96 b9 3a 6a 21 4b 39
       -0.00045882422 0.00051599444 0.0014159282 0.00019372036
0001b0 0c a0 98 b9 62 e8 f5 b8 41 5b 20 3b ba 00 12 bb
       -0.00029110943 -0.00011725795 0.0024468454 -0.0022278265
0001c0 6b 41 e0 ba e5 3a cf b8 07 a2 d8 39 9e ff dd 37
       -0.001710934 -9.881499e-05 0.0004131945 2.6464284e-05
0001d0 26 fb 86 39 ff c1 84 b9 aa bd a1 39 70 0f cc ba
       0.00025745592 -0.0002532154 0.00030849624 -0.0015568566
0001e0 a2 7c 17 3a 38 ba cc 39 67 ab 81 39 a2 03 ea ba
       0.00057787646 0.00039048656 0.00024732502 -0.0017853866
0001f0 99 f4 2e 39 b5 7a 79 ba 6b b3 ca b8 02 2a 01 39
       0.00016685053 -0.0009516881 -9.66553e-05 0.00012318048
