results/ParkingTest_02/CarParking/CarParking-3999996.onnx (onnx, 90958 bytes, 11 tensors)

network_body.observation_encoder.processors.0.normalizer.running_mean f4 [28]
0.033894528 0.0 0.3489218 0.6324243 0.003284971 0.0 0.52966106 0.78037643
0.06256666 0.0 0.33283985 0.6026839 0.0054228264 0.0 0.41740197 0.6817982
0.11420516 0.0 0.42898571 0.6596512 0.0073549463 0.0006357474 0.41290507 0.6442451
0.11450236 0.0 0.4890998 0.6938801
00000000: fdd4 0a3d 0000 0000 e1a5 b23e 8fe6 213f
00000010: ab48 573b 0000 0000 de97 073f c0c6 473f
00000020: f322 803d 0000 0000 fc69 aa3e 7e49 1a3f
00000030: f7b1 b13b 0000 0000 b6b5 d53e 548a 2e3f
00000040: 65e4 e93d 0000 0000 04a4 db3e e7de 283f
00000050: c301 f13b 49a8 263a 4b68 d33e 3fed 243f
00000060: 3780 ea3d 0000 0000 4a6b fa3e 20a2 313f

network_body.observation_encoder.processors.1.normalizer.running_mean f4 [5]
2.827403 0.52713895 1.5345632 0.49991757 0.2534087
00000000: 2cf4 3440 94f2 063f 916c c43f 32f5 ff3e
00000010: c9be 813e

network_body._body_endoder.seq_layers.0.weight f4 [128, 33]
0.53326714 0.055081703 -0.037061743 -0.038286958 0.1761062 0.092534535 0.24625246 0.1822366
-0.04676636 0.019222504 0.045184318 -0.0021720163 -0.30321535 0.22086152 0.12215797 0.1606142
0.14087959 0.18601651 0.27442572 -0.08434863 -0.08231043 0.17585866 0.00887201 -0.13259591
0.17619707 -0.17622262 -0.13926071 0.2180408 -0.15015423 -0.2082352 0.2798235 -0.3783189
0.1604371 -0.1496092 -0.0845517 -0.14398289 -0.10398714 -0.40188372 0.15352945 -0.36173058
-0.21439323 -0.124080144 0.02084699 -0.10515237 0.20938611 0.011481939 0.07477314 0.40347362
0.22954383 0.2453266 0.054202646 -0.003911535 -0.030163122 -0.022760872 -0.27216697 0.06703093
-0.042041197 -0.34124294 0.45511302 -0.09568291 0.1915075 -0.12006655 0.16988182 -0.03185054
-0.088711485 -0.028162675 -0.16797787 -0.11903178 0.021687336 0.18909161 -0.083491676 -0.3034023
0.056142088 -0.11050018 0.28650424 -0.017670877 0.07029616 0.1669205 -0.065265335 0.27396235
0.19880867 -0.09771519 -0.061147276 -0.16349842 -0.19027483 0.49972057 0.018343693 0.18845703
0.13365503 0.2777211 -0.133779 -0.18833844 0.0052134003 -0.5015688 0.12569876 0.09487928
-0.24171624 -0.045755547 0.17771737 0.18814272 -0.013791283 -0.067412466 0.14985287 0.1300847
0.048477676 -0.21615012 -0.014833662 0.017261757 0.15282744 0.21518822 0.018712394 -0.2059563
0.12887271 -0.067003034 0.063909955 0.13745008 -0.39513963 -0.17445417 0.10970243 0.050779987
0.113005824 -0.029409664 0.011637612 0.037628323 -0.1770869 0.0776741 0.07274188 0.059959307
0.06938784 0.021453563 -0.26029596 -0.18136057 -0.058692664 0.10320433 -0.0021527407 -0.04820273
-0.38096038 -0.26766965 0.33412153 -0.24359964 -0.07650673 -0.105052136 -0.22799215 -0.1822939
-0.002256527 0.08191334 -0.17918791 0.030538814 -0.13267504 -0.04856807 0.05673353 0.32634076
-0.09309502 -0.1267637 0.22513658 -0.21075664 -0.11509687 -0.1957201 0.045377377 -0.0239234
-0.42861745 0.04177907 0.045901664 -0.30297402 -0.24471611 0.058044013 -0.073861815 -0.08977187
-0.0074045314 0.1291443 0.22265387 -0.14170241 -0.015378927 -0.19553573 -0.0070346566 -0.23338178
0.1111096 0.007213496 0.37303507 -0.33226383 0.009529627 -0.10275617 0.12817481 -0.035912964
0.17197828 -0.009612026 -0.067003936 -0.10524982 0.1573314 -0.17390221 -0.060872987 -0.29239896
-0.083157994 0.24351604 0.031490978 -0.082332626 0.17261074 0.0025879194 -0.30411986 -0.21169312
0.03626101 0.20138648 -0.12511408 -0.00047716143 -0.6264391 -0.022883993 0.014559 0.17488618
0.16375425 -0.056402244 0.18577155 -0.18864793 -0.4545349 -0.2727511 -0.042817283 -0.09938464
-0.050049756 -0.101947024 -0.00014462876 -0.5068341 0.0041848035 -0.308323 -0.016014095 0.106406346
-0.12840368 -0.03449601 -0.31205237 0.16287927 -0.1575106 -0.25366727 -0.21633543 -0.1882225
0.184517 -0.19782382 0.08558112 -0.12037131 0.013936862 0.27349716 0.29978257 -0.12330271
-0.100953266 0.32872835 0.06652594 0.10207926 0.071902975 0.0033737775 0.34667984 -0.11955508
-0.20264424 0.12393444 0.22795384 -0.15413629 -0.16060175 0.14618719 0.12154846 -0.15826945
00000000: 3284 083f 5a9d 613d 0ece 17bd c9d2 1cbd
00000010: 2f55 343e bf82 bd3d 9b29 7c3e 3b9c 3a3e
00000020: 158e 3fbd 8378 9d3c 3113 393d 6358 0ebb
00000030: 0b3f 9bbe 8629 623e f52d fa3d 0d78 243e
00000040: bd42 103e 1d7b 3e3e 8781 8c3e f9be acbd
00000050: 5f92 a8bd 4b14 343e e85b 113c 39c7 07be
00000060: 016d 343e b473 34be 5c9a 0ebe 1646 5f3e
00000070: 08c2 19be 9c3b 55be 0745 8f3e 04b3 c1be
00000080: a049 243e 2733 19be 7129 adbd 4070 13be
00000090: 36f7 d4bd b4c3 cdbe d336 1d3e c034 b9be
000000a0: e689 5bbe bb1d febd 4fc7 aa3c 205a d7bd
000000b0: 5069 563e be1e 3c3c a922 993d 1894 ce3e
000000c0: 8a0d 6b3e e536 7b3e 9803 5e3d 552c 80bb
000000d0: a718 f7bc 0275 babc 7859 8bbe 8347 893d
000000e0: 6433 2cbd 65b7 aebe 9304 e93e 67f5 c3bd
000000f0: 8b1a 443e 74e5 f5bd 80f5 2d3e b675 02bd
00000100: 5eae b5bd 69b5 e6bc 6402 2cbe efc6 f3bd
00000110: a4a9 b13c 3ba1 413e affd aabd 8c57 9bbe
00000120: 3ff5 653d eb4d e2bd afb0 923e 84c2 90bc
00000130: 6ff7 8f3d 35ed 2a3e d5a9 85bd cb44 8c3e
00000140: 8094 4b3e e71e c8bd 9175 7abd 216c 27be
00000150: 68d7 42be 60db ff3e 8345 963c e1fa 403e
00000160: dddc 083e 7631 8e3e 5dfd 08be cbdb 40be
00000170: 2cd5 aa3b d066 00bf 2db7 003e 1150 c23d
00000180: 7684 77be 2b6a 3bbd 8bfb 353e 7ca8 403e
00000190: d5f4 61bc 8c0f 8abd 0873 193e ec34 053e
000001a0: 8790 463d 7556 5dbe e308 73bc 8768 8d3c
000001b0: cc7e 1c3e 4d5a 5c3e bc4a 993c 35e6 52be
000001c0: 35f7 033e e338 89bd 39e3 823d b7bf 0c3e
000001d0: be4f cabe 1da4 32be abab e03d adfe 4f3d
000001e0: 996f e73d 89ec f0bc afab 3e3c 2820 1a3d
000001f0: 4556 35be 9913 9f3d b2f9 943d e497 753d
00000200: 361b 8e3d 62bf af3c 8345 85be 96b6 39be
00000210: b867 70bd cb5c d33d ff14 0dbb 3a70 45bd
00000220: 3d0d c3be ff0b 89be fa11 ab3e 2f72 79be
00000230: 8faf 9cbd 9325 d7bd c676 69be 41ab 3abe
00000240: 3ee2 13bb 2ec2 a73d 097d 37be 892c fa3c
00000250: f7db 07be 50ef 46bd 6b61 683d 2316 a73e
00000260: 9aa8 bebd 58ce 01be 348a 663e 97d0 57be
00000270: e8b7 ebbd da6a 48be a1dd 393d 02fb c3bc
00000280: bf73 dbbe 8820 2b3d 6203 3c3d 691f 9bbe
00000290: dc96 7abe 8fbf 6d3d dd44 97bd 50da b7bd
000002a0: b6a1 f2bb 673e 043e 60ff 633e 701a 11be
000002b0: e5f7 7bbc 853a 48be fa82 e6bb a2fb 6ebe
000002c0: 6e8d e33d 315f ec3b 74fe be3e 7c1e aabe
000002d0: 2722 1c3c d471 d2bd 4240 033e 7919 13bd
000002e0: 131b 303e c27b 1dbc 5c39 89bd 388d d7bd
000002f0: 7c1b 213e 6c13 32be f455 79bd 51b5 95be
00000300: bd4e aabd 455c 793e affc 003d 029e a8bd
00000310: dfc0 303e 159a 293b 99b5 9bbe 15c6 58be
00000320: 6d86 143d 4238 4e3e e81d 00be 862b fab9
00000330: 505e 20bf 3677 bbbc df88 6e3c 5d15 333e
00000340: 32af 273e 0a06 67bd e63a 3e3e ec2c 41be
00000350: ccb8 e8be 08a6 8bbe 2d61 2fbd 2d8a cbbd
00000360: f900 4dbd 9ac9 d0bd 7da7 17b9 e1bf 01bf
00000370: ad20 893b 83dc 9dbe fe2f 83bc 92eb d93d
00000380: 417c 03be b04b 0dbd 54c5 9fbe d3c9 263e
00000390: 754a 21be ade0 81be 0987 5dbe 66bd 40be
000003a0: 06f2 3c3e 5492 4abe 2745 af3d 3c85 f6bd
000003b0: 7057 643c d207 8c3e 1a7d 993e 2286 fcbd
000003c0: 96c0 cebd 154f a83e c13e 883d ee0e d13d
000003d0: de41 933d 981a 5d3b 0580 b13e 4bd9 f4bd
000003e0: f981 4fbe 57d1 fd3d bb6c 693e e7d5 1dbe
000003f0: c974 24be 18b2 153e 66ee f83d 6311 22be

network_body._body_endoder.seq_layers.0.bias f4 [128]
0.06146219 0.115035824 0.07050764 0.053717785 0.04016337 0.09631282 -0.017598346 0.043691497
0.0739797 0.106542565 0.07539189 0.061104044 0.047682304 0.001189868 -0.044459898 0.006201463
-0.025126187 0.08927269 -0.058350258 -0.019631486 0.053205047 0.12198269 0.06406369 -0.066529185
0.01690971 0.08835754 0.034409076 -0.074335076 0.09524089 0.092527844 -0.004456133 0.11888542
-0.031984903 0.07839806 0.0059146574 0.078335516 0.03485808 0.08353679 0.04013619 0.03004406
0.06735927 0.12447399 0.0021239808 0.10310448 0.07873646 0.0026324072 0.022350723 0.107107535
-0.053813446 -0.017123766 0.06330583 0.032596447 -0.00071619515 0.09779099 0.11454625 0.07161857
0.08983085 -0.040969323 0.038478103 0.061995767 0.084187835 0.08548471 0.036436677 -0.013677085
0.09229417 0.079713285 0.048091993 0.1023395 0.02533043 -0.049512774 0.101964116 0.1318881
-0.058678575 0.037799127 0.022733858 0.11096793 0.11506909 0.06611569 -0.00866227 -0.066797465
0.08286281 0.07988161 0.03237988 0.06900092 0.11376556 0.04097143 0.10614533 0.0059036375
0.085563526 0.06642773 0.0015921714 -0.021784104 0.03636939 0.0863059 0.08744604 0.023620166
0.087272204 0.06690954 0.04966254 0.1082508 -0.089148566 -0.009308369 -0.049360897 0.07995589
0.09521796 -0.009303651 0.031791158 0.11662278 0.04863324 0.093389675 0.03821649 -0.046249952
0.072428614 0.082655296 -0.017062988 -0.008316391 0.047077183 -0.009474163 0.08568163 0.08257495
0.01378912 0.11818304 0.06097628 0.025022287 -0.020451881 0.017281666 0.08560949 0.12125458
00000000: c7bf 7b3d e797 eb3d 4f66 903d 2e07 5c3d
00000010: 5982 243d a83f c53d 682a 90bc dbf5 323d
00000020: ab82 973d fd32 da3d 1067 9a3d 3c48 7a3d
00000030: 854e 433d 58f5 9b3a 951b 36bd a435 cb3b
00000040: 6fd5 cdbc 9ad4 b63d ae00 6fbd 36d2 a0bc
00000050: 89ed 593d 10d2 f93d d333 833d 7440 88bd
00000060: 3b86 8a3c ccf4 b43d 88f0 0c3d fd3c 98bd
00000070: a80d c33d 3d7f bd3d c104 92bb 337a f33d
00000080: 9a02 03bd 298f a03d becf c13b 5f6e a03d
00000090: 59c7 0e3d 5615 ab3d d865 243d f61e f63c
000000a0: a8f3 893d 38ec fe3d 7c32 0b3b 7128 d33d
000000b0: 9540 a13d 7784 2c3b dd18 b73c 325b db3d
000000c0: 7d6b 5cbd 2447 8cbc 7da6 813d da83 053d
000000d0: 0bbf 3bba a446 c83d 3997 ea3d c2ac 923d
000000e0: 3df9 b73d 73cf 27bd 379b 1d3d 46ef 7d3d
000000f0: ac6a ac3d 9c12 af3d a03e 153d da15 60bc
00000100: ba04 bd3d b840 a33d 1cfc 443d 5f97 d13d
00000110: c381 cf3c e8cd 4abd 90d2 d03d ad0d 073e
00000120: f258 70bd 42d3 1a3d 5b3c ba3c 2743 e33d
00000130: 58a9 eb3d aa67 873d 32ec 0dbc 1ccd 88bd
00000140: fab3 a93d f898 a33d c4a0 043d 5b50 8d3d
00000150: ebfd e83d a8d1 273d b962 d93d 4d73 c13b
00000160: ee3b af3d 430b 883d 68b0 d03a 9474 b2bc
00000170: 12f8 143d 26c1 b03d e916 b33d 147f c13c
00000180: c5bb b23d de07 893d f36a 4b3d 98b2 dd3d
00000190: 8693 b6bd 2182 18bc a72e 4abd eabf a33d
000001a0: a201 c33d 576e 18bc 7237 023d edd7 ee3d
000001b0: a633 473d 1643 bf3d e588 1c3d 9770 3dbd
000001c0: 7455 943d 2e47 a93d aec7 8bbc 7941 08bc
000001d0: 01d4 403d 8539 1bbc da79 af3d 0e1d a93d
000001e0: c3eb 613c f309 f23d 44c2 793d 8afb cc3c
000001f0: b48a a7bc 4892 8d3c 0754 af3d 5254 f83d

network_body._body_endoder.seq_layers.2.weight f4 [128, 128]
0.0067764036 0.07613081 0.21905065 0.112709045 0.036743697 -0.055301573 0.12574697 0.12291113
0.0015523123 0.05320356 0.06592244 0.050572153 0.065209344 -0.1490799 0.13768409 -0.07997937
0.18125068 -0.027654152 -0.08742343 -0.013856658 -0.089613646 0.058551677 0.16484383 -0.092042305
0.007961587 -0.08867838 0.010370961 -0.038483296 0.15283027 0.05570295 0.052880988 -0.03467141
0.021310046 -0.15070762 0.053523917 -0.09967371 0.054323394 0.009578819 -0.059436165 -0.14780758
0.022094263 0.20953114 0.10726459 -0.099121064 0.0651486 -0.072770126 -0.018562151 0.033184864
0.20309222 0.08265296 0.018004391 0.015718833 0.030494727 0.10163553 0.084919564 -0.050843053
0.00701982 0.11944553 0.07090679 0.06575845 0.117076956 -0.0006910776 -0.06495908 0.09454118
0.06846107 0.22554629 0.013784608 -0.13352054 -0.12817195 -0.005567533 -0.13563085 -0.04472553
-0.12278592 0.001811864 0.079286605 0.17902134 -0.042155188 0.09901091 0.19342113 -0.016361583
0.08172257 -0.058365792 -0.02750869 0.094747424 -0.08933577 0.12223187 0.18000664 -0.12615672
-0.054289073 0.04328939 0.075486146 0.072306804 -0.09659402 0.0240867 -0.1648577 0.06562276
0.0506736 0.0013770579 0.010159335 0.13060285 0.104787946 -0.024855712 -0.07432723 0.05640005
-0.05908562 0.09229169 -0.22017439 0.20523587 0.26870126 0.12285137 -0.028858913 -0.1988972
0.005952327 -0.039410673 0.11720732 0.1068066 0.09088879 -0.02977872 0.092733406 -0.04756122
-0.010998845 0.1701082 -0.0017428778 0.056465097 -0.08071908 0.034439784 -0.07723929 0.1514054
0.21920618 -0.16559969 -0.1586151 0.04150478 0.24806716 -0.012727106 0.015539151 0.014122347
0.0011641455 -0.04498882 -0.04420131 -0.060114447 -0.053268954 0.017065609 -0.03209702 0.035928234
-0.09537624 0.10292246 0.050587505 -0.020983592 -0.061862584 -0.11099917 -0.11816432 -0.10253458
-0.001010807 0.022968996 -0.047760155 -0.112801015 -0.012869473 -0.05896875 0.12509 0.14256425
0.11980894 0.09298113 -0.1043602 0.07721662 0.10728511 -0.06916033 0.013898073 -0.06675135
-0.09956494 -0.15702787 0.0125885075 -0.114825964 0.096295595 0.017064663 -0.07085497 -0.07177706
-0.057282172 0.16570163 -0.14956732 0.07516155 0.20690228 -0.017538989 -0.060553204 -0.04945112
-0.13866583 0.14329629 -0.030897459 -0.048002653 0.1123369 0.0062847785 0.11290834 0.046718515
-0.03245141 -0.051202048 0.12293197 -0.026612248 0.027680041 -0.017511822 -0.10048047 0.07867621
-0.03176557 -0.017185465 0.025020313 0.025934946 0.0805236 0.014234656 -0.15025154 0.048338037
-0.05727643 0.06298897 -0.311789 -0.13334702 -0.008418354 -0.057012692 0.058689274 0.03581978
-0.10381193 0.0065654707 -0.01740596 -0.027497757 0.083887525 -0.18430829 -0.038530074 0.03229387
-0.17094725 0.074500054 -0.0105633745 -0.1174352 0.2545611 -0.08083415 0.0492489 -0.16376264
-0.057851173 0.031238157 -0.13687804 -0.06394695 0.044949774 0.039336216 0.025448333 0.17039813
0.16454218 0.05033666 0.21602105 -0.13559382 0.13116276 0.13965079 -0.072528124 0.090814285
-0.20044495 -0.115211576 -0.119073786 0.11094173 -0.017251043 0.053416073 -0.022966117 -0.05167462
00000000: 980c de3b 78ea 9b3d d04e 603e 00d4 e63d
00000010: 8f80 163d e783 62bd d0c3 003e d5b8 fb3d
00000020: f576 cb3a faeb 593d 5802 873d bf24 4f3d
00000030: 7a8c 853d 67a8 18be 0ffd 0c3e 39cc a3bd
00000040: c799 393e f68a e2bc 0e0b b3bd 0907 63bc
00000050: 5c87 b7bd e2d3 6f3d d2cc 283e ad80 bcbd
00000060: 5171 023c 039d b5bd f7ea 293c a9a0 1dbd
00000070: 8a7f 1c3e c728 643d bc99 583d 9c03 0ebd
00000080: 6892 ae3c 1953 1abe e53b 5b3d bb21 ccbd
00000090: 3582 5e3d 7bf0 1c3c 5673 73bd df5a 17be
000000a0: 07ff b43c 558f 563e 8aad db3d fcff cabd
000000b0: a16c 853d 8108 95bd a70f 98bc daec 073d
000000c0: 68f7 4f3e f545 a93d f27d 933c c8c4 803c
000000d0: 14d0 f93c 4a26 d03d 4fea ad3d ce40 50bd
000000e0: 8506 e63b dc9f f43d 9437 913d 5eac 863d
000000f0: 0bc6 ef3d 6f29 35ba 4409 85bd ce9e c13d
00000100: 5135 8c3d 9bf5 663e d6d8 613c 9cb9 08be
00000110: 823f 03be da6f b6bb d0e2 0abe 1e32 37bd
00000120: 2f77 fbbd 117c ed3a 0461 a23d 5f51 373e
00000130: ebaa 2cbd 3bc6 ca3d 3010 463e ba08 86bc
00000140: 2a5e a73d f810 6fbd e759 e1bc f00a c23d
00000150: acf5 b6bd b454 fa3d a953 383e 3a2f 01be
00000160: 385e 5ebd 3750 313d 7b98 9a3d 9715 943d
00000170: 16d3 c5bd 7951 c53c 75d0 28be 3a65 863d
00000180: 1f8f 4f3d 657e b43a 5773 263c c1bc 053e
00000190: 109b d63d 359e cbbc e038 98bd bd03 673d
000001a0: c303 72bd 6d03 bd3d 6575 61be 5a29 523e
000001b0: 3693 893e 8099 fb3d 8769 ecbc b5ab 4bbe
000001c0: bd0b c33b 166d 21bd 640a f03d 6bbd da3d
000001d0: e723 ba3d 81f2 f3bc 03eb bd3d 8ecf 42bd
000001e0: 8034 34bc d830 2e3e 4671 e4ba f247 673d
000001f0: 0c50 a5bd bb10 0d3d a22f 9ebd 040a 1b3e
00000200: 9677 603e f792 29be ff6b 22be eb00 2a3d
00000210: 5105 7e3e 5a85 50bc ec97 7e3c 6b61 673c
00000220: 3e96 983a 3246 38bd 6f0c 35bd 913a 76bd
00000230: 8c30 5abd 2dcd 8b3c 2a78 03bd 7c29 133d
00000240: 9e54 c3bd 03c9 d23d d834 4f3d c8e5 abbc
00000250: 9f63 7dbd 8853 e3bd 2300 f2bd a6fd d1bd
00000260: 0e7d 84ba 7a29 bc3c 27a0 43bd 3804 e7bd
00000270: 7bda 52bc 3789 71bd 9817 003e 5dfc 113e
00000280: 645e f53d e46c be3d cdba d5bd bf23 9e3d
00000290: 4cb8 db3d eea3 8dbd beb4 633c efb4 88bd
000002a0: b4e8 cbbd eacb 20be 0740 4e3c e029 ebbd
000002b0: a036 c53d 31cb 8b3c 691c 91bd daff 92bd
000002c0: b6a0 6abd b0ad 293e 2d28 19be 4cee 993d
000002d0: 31de 533e edad 8fbc a306 78bd 428d 4abd
000002e0: 6afe 0dbe 43bc 123e ab1c fdbc 6e9e 44bd
000002f0: e310 e63d 8bf0 cd3b 7d3c e73d ea5b 3f3d
00000300: c5eb 04bd 3db9 51bd c2c3 fb3d ee01 dabc
00000310: 41c1 e23c f474 8fbc b4c8 cdbd fe20 a13d
00000320: 9d1c 02bd 88c8 8cbc 66f7 cc3c 8675 d43c
00000330: 8fe9 a43d 7938 693c 8adb 19be 1bfe 453d
00000340: b19a 6abd 5c00 813d cfa2 9fbe 1f8c 08be
00000350: 23ed 09bc 2486 69bd 2a64 703d c3b7 123d
00000360: 599b d4bd 2923 d73b f296 8ebc fa42 e1bc
00000370: 39cd ab3d 50bb 3cbe b6d1 1dbd 9446 043d
00000380: cc0c 2fbe 7c93 983d 0112 2dbc de81 f0bd
00000390: d555 823e 608c a5bd 37b9 493d 65b1 27be
000003a0: 5af5 6cbd 2ae7 ff3c c229 0cbe 9ef6 82bd
000003b0: 411d 383d 031f 213d 0679 d03c d97c 2e3e
000003c0: bf7d 283e d02d 4e3d 9f34 5d3e 1bd9 0abe
000003d0: 884f 063e 9e00 0f3e a089 94bd d7fc b93d
000003e0: 7141 4dbe 0cf4 ebbd f5dc f3bd 6b35 e33d
000003f0: 0f52 8dbc d0ca 5a3d 7023 bcbc c4a8 53bd

network_body._body_endoder.seq_layers.2.bias f4 [128]
0.08538736 0.0057098963 0.03872045 0.087724864 -0.05318782 0.020511178 0.0988891 0.061277922
0.014116203 0.08828236 0.018710168 -0.060267627 0.006401954 0.042192187 -0.021555655 0.0610462
-0.057938766 -0.08340262 0.0906452 0.06022501 0.08465941 0.06867568 0.057100426 0.07575185
0.078971 0.079204604 -0.08194595 -0.07952698 0.076783724 0.06441787 0.081693225 0.032877926
0.07532661 0.0525595 0.10303956 0.09142437 0.09352717 0.07438976 0.01395836 0.10092097
0.04742158 0.09755449 -0.034686256 0.043174736 0.015895145 0.020135075 0.09416699 0.02583795
0.10224926 0.06269955 0.042360224 0.08714049 -0.04759742 0.10507372 0.022480024 0.09764566
-0.016113209 0.017649932 -0.041934773 0.083605014 0.062219206 0.085088775 0.020266892 0.08838804
0.0934582 -0.018705823 0.054542333 -0.005894349 -0.0870152 0.06880016 -0.008717074 0.07673842
0.09905837 0.05677259 -0.069044195 0.086864285 0.105145104 0.09990203 0.053594366 0.08090452
-0.040130034 0.07640153 0.10116925 -0.031283908 0.021279892 0.029294424 0.054497886 -0.00020622066
0.08408265 -0.10000143 0.09149659 0.05172383 -0.01924759 0.05022194 0.055057768 -0.060841035
-0.029388161 0.022874514 0.06928542 -0.02924651 0.04364311 0.077357195 0.022388956 0.12793992
-0.06784576 0.117484905 0.10921798 0.023380108 0.04318843 0.002652935 -0.016302673 -0.0069426093
0.06456855 0.07742226 -0.028023638 -0.012375735 0.023679925 0.09112789 -0.09673736 -0.012593464
0.10840738 0.0614462 0.052036628 -0.0012952425 -0.06900899 0.07926249 -0.032736674 0.035381854
00000000: 91df ae3d 151a bb3b 5699 1e3d 18a9 b33d
00000010: 79db 59bd 0f07 a83c 5e86 ca3d 8ffe 7a3d
00000020: a647 673c 62cd b43d 1146 993c 30db 76bd
00000030: 7cc7 d13b b7d1 2c3d 7c95 b0bc 950b 7a3d
00000040: 3351 6dbd fece aabd 31a4 b93d 80ae 763d
00000050: ea61 ad3d d6a5 8c3d 23e2 693d c923 9b3d
00000060: 8cbb a13d 0636 a23d 47d3 a7bd 0bdf a2bd
00000070: c940 9d3d 84ed 833d c74e a73d 01ab 063d
00000080: d644 9a3d a148 573d 6806 d33d b33c bb3d
00000090: 2c8b bf3d a959 983d 9bb1 643c a7af ce3d
000000a0: 213d 423d a6ca c73d 2d13 0ebd fed7 303d
000000b0: 8936 823c 50f2 a43c 9fda c03d 1caa d33c
000000c0: 0f68 d13d 9f68 803d ea81 2d3d b776 b23d
000000d0: 83f5 42bd e430 d73d 0728 b83c 73fa c73d
000000e0: d9ff 83bc 9796 903c ccc3 2bbd 1b39 ab3d
000000f0: 91d9 7e3d 0643 ae3d c106 a63c ca04 b53d
00000100: 0367 bf3d f43c 99bc c867 5f3d 6225 c1bb
00000110: 0635 b2bd 19e7 8c3d 0fd2 0ebc 0829 9d3d
00000120: 1ddf ca3d 608a 683d 0b67 8dbd e7e5 b13d
00000130: 5156 d73d 6f99 cc3d c485 5b3d 45b1 a53d
00000140: 645f 24bd 6878 9c3d d331 cf3d 8e23 00bd
00000150: 2b53 ae3c dcfa ef3c 2d39 5f3d f03c 58b9
00000160: 8633 ac3d 8dcd ccbd 9062 bb3d 5edc 533d
00000170: 1fad 9dbc 85b5 4d3d 4184 613d 7334 79bd
00000180: 71bf f0bc 5563 bb3c 84e5 8d3d 6096 efbc
00000190: 1ec3 323d 736d 9e3d 0b69 b73c af02 033e
000001a0: b8f2 8abd ed9b f03d adad df3d a487 bf3c
000001b0: 5ae6 303d dddc 2d3b 2f8d 85bc d47e e3bb
000001c0: 843c 843d 908f 9e3d d491 e5bc 98c3 4abc
000001d0: 67fc c13c 42a1 ba3d 3d1e c6bd d154 4ebc
000001e0: b004 de3d 03af 7b3d 5c24 553d 20c5 a9ba
000001f0: 9654 8dbd 5f54 a23d e416 06bd 90ec 103d

action_model._continuous_distribution.log_sigma f4 [1, 2]
-0.791617 -0.51904285
00000000: 69a7 4abf fedf 04bf

action_model._continuous_distribution.mu.weight f4 [2, 128]
0.046825472 0.06033479 -0.050073046 0.037434157 0.02715276 0.076208465 -0.00030059606 -0.09144485
-0.053468306 -0.00589563 -0.083732635 -0.019331101 -0.06246557 0.09707373 0.022689683 -0.050719243
-0.0059862337 -0.0120138675 0.05807554 0.08861379 -0.030220535 -0.011091993 0.11565209 0.049030878
-0.10568475 -0.025114985 -0.050934713 0.00362621 0.057944417 0.09402457 0.03538026 0.12887429
0.06946668 0.029459288 0.01887154 0.01528481 -0.026720297 0.07179472 0.110230654 -0.12687944
0.11710474 -0.003703148 -0.010276176 0.1055909 0.08799717 -0.06313255 -0.023010718 0.0986719
-0.08528332 0.114562795 0.0822277 0.013422074 0.13800637 -0.0888141 -0.1016607 -0.012535883
-0.06782521 0.07058416 0.054100607 0.030431693 0.10519753 -0.027543668 -0.074501015 -0.05423707
-0.019856013 -0.108762324 0.13094737 0.0033630042 -0.015467251 0.06392644 0.062833354 -0.091630794
-0.022099577 0.07480832 -0.0764928 -0.06659733 -0.0014571736 0.026250271 0.07724376 0.09135561
0.063087516 0.03922324 0.053097032 -0.11335249 0.10179098 -0.07887429 0.03228439 0.07202981
-0.011431242 -0.0031244147 -0.055434514 0.032778736 0.08825234 -0.09291947 0.113985844 0.08179087
0.007987931 0.1440188 -0.03861512 -0.01083122 0.14755069 0.060019188 0.040725328 -0.08288252
-0.042078346 -0.061235305 -0.010956617 -0.10322845 -0.033096924 0.123202056 -0.06652087 -0.08056739
0.07482971 0.053352937 -0.057860237 0.098796435 0.08145928 0.00356105 -0.022178354 0.0742846
-0.006402975 -0.058049403 -0.08026244 -0.107530154 -0.03287373 0.09814221 -0.08644754 0.08150569
0.066620626 -0.10958558 0.05250171 0.06083193 -0.10343746 -0.033873744 0.09227996 0.05702592
0.053341705 0.09437235 0.015086574 -0.08407566 0.004286845 -0.0069237044 -0.17748971 0.045714412
-0.1041886 -0.040899836 0.085417725 0.022018015 0.08489938 0.05780899 0.014773009 0.08704399
0.09229032 0.10078755 -0.05791821 -0.1377 0.030811261 0.052778725 0.08651005 0.02001019
0.037445784 0.049721446 0.08706688 0.07392979 0.09249325 0.009420971 -0.058650736 0.094194934
-0.08740403 0.06794939 -0.09047964 -0.14446482 0.022030964 0.061501503 0.12536582 -0.032398894
0.09789478 -0.0024202883 0.0051590246 0.048940517 -0.0911561 0.09577802 0.03838133 0.09018571
-0.002204098 0.010887601 -0.14612204 0.05595007 0.0039536417 0.06162268 -0.08096292 0.10225826
0.0942634 -0.00059278775 0.026774114 0.05332938 -0.041908283 0.04367431 -0.05978942 0.09993581
0.08745752 0.02514701 -0.046971556 0.13056538 0.08476774 0.10190681 0.045153458 0.05545481
-0.14052796 0.04179068 0.09952518 -0.013992662 -0.014419757 0.067978874 0.05682803 -0.054901477
0.07400395 -0.048475504 0.105526365 0.04861052 -0.08560808 0.07302716 0.047450848 -0.13894983
0.0048800115 -0.010884928 0.07318544 -0.067937665 -0.07331618 0.047887135 -0.0022342338 0.12157953
-0.105515584 0.1458646 0.114336476 0.03817676 0.06319768 -0.079921275 0.013088334 -0.022867573
0.018761057 0.07480368 -0.034024604 -0.083180666 -0.06293799 0.073920846 -0.120889366 -0.09669448
0.13550028 0.059497997 0.13130176 -0.0035489923 -0.047207374 0.037761915 -0.019568 -0.027569136
00000000: 11cc 3f3d 9d21 773d 6519 4dbd 8f54 193d
00000010: 776f de3c 2f13 9c3d 5299 9db9 7047 bbbd
00000020: 9501 5bbd 2130 c1bb 047c abbd 425c 9ebc
00000030: e6db 7fbd 97ce c63d b7df b93c fbbe 4fbd
00000040: 2b28 c4bb d0d5 44bc 9ee0 6d3d 267b b53d
00000050: 0e91 f7bc 31bb 35bc 01db ec3d 9ad4 483d
00000060: 3f71 d8bd f1bd cdbc eba0 50bd b5a5 6d3b
00000070: 2057 6d3d f48f c03d e4ea 103d 9ff7 033e
00000080: 8c44 8e3d 9b54 f13c 7d98 9a3c 246d 7a3c
00000090: 86e4 dabc 1c09 933d 9cc0 e13d afec 01be
000000a0: 9cd4 ef3d 84b0 72bb 685d 28bc 0b40 d83d
000000b0: dc37 b43d a34b 81bd f980 bcbc 7e14 ca3d
000000c0: 05a9 aebd e69f ea3d ff66 a83d 42e8 5b3c
000000d0: 8b51 0d3e 2be4 b5bd 7c33 d0bd 4e63 4dbc
000000e0: f2e7 8abd 6e8e 903d 9998 5d3d e34b f93c
000000f0: cd71 d73d 42a3 e1bc fd93 98bd b127 5ebd
00000100: 14a9 a2bc c8be debd 1117 063e d965 5c3b
00000110: 5a6a 7dbc deeb 823d c6ae 803d eda8 bbbd
00000120: 2c0a b5bc 1b35 993d 42a8 9cbd 2e64 88bd
00000130: a2fe beba cf0a d73c fa31 9e3d a618 bb3d
00000140: 0734 813d 8ca8 203d 467c 593d 5a25 e8bd
00000150: ca77 d03d d888 a1bd a33c 043d 5d84 933d
00000160: 1b4a 3bbc fbc2 4cbb 4d0f 63bd ff42 063d
00000170: a5bd b43d 904c bebd 6971 e93d f981 a73d
00000180: d0df 023c aa79 133e e32a 1ebd 6e75 31bc
00000190: 8717 173e aed6 753d 9acf 263d 50be a9bd
000001a0: 585a 2cbd dfd1 7abd 6283 33bc 7069 d3bd
000001b0: a490 07bd 5c51 fc3d 183c 88bd 8400 a5bd
000001c0: 5240 993d 9c88 5a3d dbfe 6cbd c955 ca3d
000001d0: 1fd4 a63d 8160 693b 61af b5bc 8622 983d
000001e0: 0cd0 d1bb 36c5 6dbd a260 a4bd c538 dcbd
000001f0: 9ba6 06bd c8fe c83d 680b b1bd 75ec a63d
00000200: 6570 883d 686e e0bd 080c 573d e72a 793d
00000210: 05d7 d3bd 32bf 0abd 47fd bc3d 0394 693d
00000220: d57c 5a3d 4a46 c13d ad2d 773c dc2f acbd
00000230: aa78 8c3b 3ee0 e2bb ddbf 35be 093f 3b3d
00000240: d560 d5bd 9686 27bd 7def ae3d 205f b43c
00000250: badf ad3d 1fc9 6c3d 7e0a 723c 1f44 b23d
00000260: b502 bd3d b469 ce3d a53b 6dbd 3b01 0dbe
00000270: e667 fc3c 812e 583d 2e2c b13d 69ec a33c
00000280: c060 193d b7a8 4b3d 1f50 b23d 8068 973d
00000290: 1a6d bd3d 6b5a 1a3c c13b 70bd 46e9 c03d
000002a0: e200 b3bd 0d29 8b3d 644d b9bd 96ee 13be
000002b0: 487a b43c 00e9 7b3d e65f 003e b4b4 04bd
000002c0: 0f7d c83d b39d 1ebb 090d a93b da75 483d
000002d0: 0db0 babd 4427 c43d be35 1d3d 49b3 b83d
000002e0: a172 10bb e961 323c 04a1 15be e72b 653d
000002f0: 8d8d 813b 1068 7c3d e3cf a5bd c76c d13d
00000300: 2b0d c13d 5065 1bba 6355 db3c e86f 5a3d
00000310: 05a8 2bbd d5e3 323d c0e5 74bd 25ab cc3d
00000320: ee1c b33d 1a01 ce3c 3f65 40bd eeb2 053e
00000330: b59a ad3d 85b4 d03d d5f2 383d 9524 633d
00000340: 90e6 0fbe b42c 2b3d dcd3 cb3d 7a41 65bc
00000350: d840 6cbc 8238 8b3d 82c4 683d 5fe0 60bd
00000360: 628f 973d 408e 46bd 351e d83d d31b 473d
00000370: 4a53 afbd 438f 953d d25b 423d dd48 0ebe
00000380: 81e8 9f3b b256 32bc 3fe2 953d e722 8bbd
00000390: cb26 96bd 4d25 443d 396c 12bb b0fe f83d
000003a0: 8e18 d8bd 885d 153e 3e29 ea3d 3c5f 1c3d
000003b0: c96d 813d c4ad a3bd 7470 563c c754 bbbc
000003c0: cab0 993c ac32 993d 625d 0bbd a05a aabd
000003d0: a2e5 80bd d063 973d d894 f7bd c107 c6bd
000003e0: 96c0 0a3e 2cb4 733d f873 063e 3696 68bb
000003f0: 855c 41bd 3dac 1a3d 124d a0bc abd8 e1bc

action_model._continuous_distribution.mu.bias f4 [2]
0.020800335 0.09344802
00000000: 7765 aa3c ad61 bf3d

onnx::Div_61 f4 [28]
0.18096954 0.0005000002 0.4766183 0.3260544 0.05723355 0.0005000002 0.49913722 0.32816917
0.24224803 0.0005000002 0.4712215 0.3233143 0.073448725 0.0005000002 0.4931414 0.3517561
0.31809294 0.0005000002 0.4949194 0.34124565 0.08542076 0.02519349 0.49235943 0.3547619
0.31845436 0.0005000002 0.49987036 0.34682006
00000000: 1450 393e 7212 033a 5007 f43e 9af0 a63e
00000010: ba6d 6a3d 7212 033a ea8e ff3e ca05 a83e
00000020: de0f 783e 7212 033a f243 f13e 7489 a53e
00000030: 496c 963d 7212 033a 087d fc3e 6019 b43e
00000040: 14dd a23e 7212 033a 1366 fd3e c0b7 ae3e
00000050: 14f1 ae3d 9462 ce3c 8916 fc3e 5aa3 b53e
00000060: 730c a33e 7212 033a 02ef ff3e 6692 b13e

onnx::Div_64 f4 [5]
1.1723856 0.16028094 0.93292594 0.8538304 0.8052037
00000000: bb10 963f b020 243e 3cd4 6e3f a194 5a3f
00000010: d421 4e3f
