results/ParkingTest_02/CarParking/CarParking-4499985.onnx (onnx, 90958 bytes, 11 tensors)

network_body.observation_encoder.processors.0.normalizer.running_mean f4 [28]
0.03624828 0.0 0.36047694 0.64122695 0.0029199864 0.0 0.52673244 0.7782116
0.06327467 0.0 0.33649173 0.6062971 0.0059345346 0.0 0.4182265 0.6799319
0.11818604 0.0 0.42422432 0.6555856 0.007624886 0.0005650997 0.40305924 0.63451415
0.1184477 0.0 0.48169392 0.68658036
00000000: 1479 143d 0000 0000 6f90 b83e 7327 243f
00000010: 3e5d 3f3b 0000 0000 f0d7 063f e038 473f
00000020: 2696 813d 0000 0000 a548 ac3e 4936 1b3f
00000030: 7c76 c23b 0000 0000 c921 d63e 0410 2e3f
00000040: 860b f23d 0000 0000 ee33 d93e 75d4 273f
00000050: 2eda f93b 3323 143a c85d ce3e 856f 223f
00000060: b594 f23d 0000 0000 96a0 f63e bbc3 2f3f

network_body.observation_encoder.processors.1.normalizer.running_mean f4 [5]
2.797093 0.52530855 1.5582105 0.5403052 0.27516288
00000000: 9203 3340 9f7a 063f 7173 c73f 7151 0a3f
00000010: 26e2 8c3e

network_body._body_endoder.seq_layers.0.weight f4 [128, 33]
0.52645534 0.055081703 -0.037860796 -0.03762915 0.17491452 0.092534535 0.24376208 0.18276513
-0.048819724 0.019222504 0.04670308 -0.002613433 -0.30493322 0.22086152 0.12572697 0.1631797
0.13724507 0.18601651 0.27919295 -0.08105123 -0.08055806 0.17466234 0.010425301 -0.13225172
0.17256142 -0.17622262 -0.12981497 0.22365777 -0.1526556 -0.20388842 0.2813364 -0.3694569
0.16222486 -0.15157422 -0.0845517 -0.14725672 -0.102096215 -0.40403077 0.15352945 -0.36094707
-0.21618427 -0.124953344 0.02084699 -0.10107685 0.21290277 0.012324423 0.07477314 0.40381622
0.2269696 0.23834592 0.054202646 -0.004520237 -0.03506341 -0.02916117 -0.27431977 0.07103204
-0.036993094 -0.34823093 0.45511302 -0.0992177 0.18933485 -0.11911955 0.17341003 -0.0320497
-0.09049996 -0.02957183 -0.16453575 -0.11903178 0.027358906 0.19648609 -0.08378027 -0.3034023
0.06332187 -0.10331077 0.27608687 -0.017670877 0.075957224 0.17434943 -0.06494853 0.27396235
0.19803898 -0.09680483 -0.07029966 -0.16349842 -0.18482858 0.50593454 0.012918782 0.18817069
0.13373111 0.28193447 -0.1428859 -0.18833844 0.0031218766 -0.49831814 0.12550229 0.102927566
-0.2405821 -0.048630208 0.17271149 0.1842692 -0.013791283 -0.074882425 0.14584666 0.12917347
0.048477676 -0.21117638 -0.0122447815 0.020766597 0.15282744 0.21848187 0.016451607 -0.20547344
0.12887271 -0.061375402 0.06452512 0.13792452 -0.39513963 -0.17091905 0.11116053 0.051160503
0.11208704 -0.017565051 0.01634221 0.03811003 -0.1770869 0.07285576 0.07232195 0.05334273
0.06803391 0.019266188 -0.25515148 -0.17364523 -0.060669 0.10320433 -0.009542441 -0.050814766
-0.38140854 -0.26766965 0.33110303 -0.24612252 -0.07292461 -0.105052136 -0.23345843 -0.18848206
-0.0041454225 0.08191334 -0.17710488 0.026392672 -0.13123721 -0.04856807 0.05269858 0.31971058
-0.09463651 -0.12721224 0.22868082 -0.21012658 -0.11366684 -0.1957201 0.036621008 -0.033514947
-0.43327206 0.039428633 0.040445436 -0.30525923 -0.24363233 0.059667975 -0.073861815 -0.084610224
0.0036902654 0.12376358 0.22265387 -0.13879485 -0.016410774 -0.19963582 -0.0070346566 -0.23198992
0.12008168 0.009029784 0.37303507 -0.3328532 0.007045957 -0.10739643 0.12817481 -0.03377009
0.17133747 -0.021401802 -0.07238282 -0.1066479 0.15836093 -0.17851655 -0.060872987 -0.2863622
-0.07976523 0.24890323 0.03277833 -0.07888946 0.17478675 0.0008947307 -0.3087913 -0.21169312
0.025222115 0.2000451 -0.12903549 -0.00047716143 -0.61817557 -0.015816163 0.0237039 0.17488618
0.17323768 -0.050738037 0.18535715 -0.18864793 -0.45782956 -0.28061393 -0.046796415 -0.09938464
-0.05116649 -0.10371827 -0.004657878 -0.51075876 0.0035834704 -0.31026205 -0.019970223 0.106406346
-0.14213689 -0.03302529 -0.32742283 0.16188377 -0.16506948 -0.24909528 -0.21655926 -0.19057769
0.184517 -0.19636106 0.08533137 -0.12288553 0.013936862 0.2719081 0.3009428 -0.1268393
-0.100953266 0.3350565 0.06633022 0.10051381 0.071902975 0.005556978 0.35038435 -0.122021824
-0.20264424 0.13066809 0.23052941 -0.15428688 -0.1631164 0.14655171 0.121273644 -0.16074398
00000000: c7c5 063f 5a9d 613d ec13 1bbd 0621 1abd
00000010: cb1c 333e bf82 bd3d c49c 793e c826 3b3e
00000020: 31f7 47bd 8378 9d3c bb4b 3f3d 2146 2bbb
00000030: 3520 9cbe 8629 623e 92be 003e 9418 273e
00000040: f989 0c3e 1d7b 3e3e 61f2 8e3e 30fe a5bd
00000050: a0fb a4bd afda 323e e2ce 2a3c ff6c 07be
00000060: f1b3 303e b473 34be 37ee 04be 8b06 653e
00000070: c051 1cbe 20c8 50be 530b 903e 7429 bdbe
00000080: 461e 263e 4636 1bbe 7129 adbd 77ca 16be
00000090: d217 d1bd 1fdd cebe d336 1d3e 0ece b8be
000000a0: 695f 5dbe 8ae7 ffbd 4fc7 aa3c 6101 cfbd
000000b0: 2f03 5a3e 60ec 493c a922 993d 00c1 ce3e
000000c0: b86a 683e f410 743e 9803 5e3d 7f1e 94bb
000000d0: a69e 0fbd 68e3 eebc a473 8cbe 3f79 913d
000000e0: 1286 17bd 534b b2be 9304 e93e a632 cbbd
000000f0: ffe0 413e f3f4 f3bd 6692 313e 8c46 03bd
00000100: 0b58 b9bd 9f40 f2bc 0f7c 28be efc6 f3bd
00000110: c91f e03c a633 493e fd94 abbd 8c57 9bbe
00000120: e6ae 813d 9994 d3bd 425b 8d3e 84c2 90bc
00000130: 768f 9b3d a888 323e bc03 85bd cb44 8c3e
00000140: bbca 4a3e 9c41 c6bd 45f9 8fbd 216c 27be
00000150: b443 3dbe ed84 013f 4da9 533c d1af 403e
00000160: cff0 083e b759 903e ae50 12be cbdb 40be
00000170: 6698 4c3b 8e23 ffbe ac83 003e b0cb d23d
00000180: 275b 76be 7830 47bd 48db 303e 11b1 3c3e
00000190: d5f4 61bc f55b 99bd d458 153e 0d46 043e
000001a0: 8790 463d 9f3e 58be 569e 48bc b61e aa3c
000001b0: cc7e 1c3e b6b9 5f3e 85c5 863c a167 52be
000001c0: 35f7 033e c664 7bbd bf25 843d 163c 0d3e
000001d0: be4f cabe 6705 2fbe 22a8 e33d ad8d 513d
000001e0: e48d e53d 95e4 8fbc 19e0 853c 4319 1c3d
000001f0: 4556 35be 6735 953d 881d 943d e87d 5a3d
00000200: 5d55 8b3d 20d4 9d3c 37a3 82be 0ed0 31be
00000210: 0f80 78bd cb5c d33d e657 1cbc 2523 50bd
00000220: fb47 c3be ff0b 89be 5686 a93e 8b07 7cbe
00000230: 7f59 95bd 9325 d7bd ba0f 6fbe 7101 41be
00000240: 53d6 87bb 2ec2 a73d fb5a 35be 7235 d83c
00000250: 0c63 06be 50ef 46bd 77da 573d 1bb1 a33e
00000260: c9d0 c1bd ed43 02be 4e2b 6a3e 6c2b 57be
00000270: 29ca e8bd da6a 48be e9ff 153d f846 09bd
00000280: d6d5 ddbe eb7f 213d 1daa 253d f04a 9cbe
00000290: c17a 79be 6866 743d dd44 97bd 2048 adbd
000002a0: 61d8 713b c377 fd3d 60ff 633e 3d20 0ebe
000002b0: e36f 86bc 556d 4cbe fa82 e6bb c48e 6dbe
000002c0: 62ed f53d a9f1 133c 74fe be3e bc6b aabe
000002d0: c5e1 e63b a9f2 dbbd 4240 033e 8252 0abd
000002e0: 1773 2f3e d552 afbc 723d 94bd 376a dabd
000002f0: 5e29 223e 0bcd 36be f455 79bd 119e 92be
00000300: f45b a3bd 7de0 7e3e 9242 063d cc90 a1bd
00000310: 4cfb 323e 5c8c 6a3a e519 9ebe 15c6 58be
00000320: 9c9e ce3c 9fd8 4c3e e121 04be 862b fab9
00000330: c140 1ebf e690 81bc ae2e c23c 5d15 333e
00000340: 3865 313e b0d2 4fbd 44ce 3d3e ec2c 41be
00000350: a368 eabe a1ac 8fbe 99ad 3fbd 2d8a cbbd
00000360: f493 51bd 3f6a d4bd 1da1 98bb 16c1 02bf
00000370: a8d8 6a3b abda 9ebe 9898 a3bc 92eb d93d
00000380: 558c 11be 8745 07bd f7a3 a7be dcc4 253e
00000390: f907 29be d512 7fbe b6c1 5dbe cc26 43be
000003a0: 06f2 3c3e e012 49be 37c2 ae3d 69ab fbbd
000003b0: 7057 643c 8a37 8b3e 2d15 9a3e 29e2 01be
000003c0: 96c0 cebd 878c ab3e 23d8 873d 2fda cd3d
000003d0: de41 933d 4f17 b63b 9465 b33e 94e6 f9bd
000003e0: f981 4fbe dbcd 053e e70f 6c3e 61fd 1dbe
000003f0: fc07 27be a711 163e 515e f83d 129a 24be

network_body._body_endoder.seq_layers.0.bias f4 [128]
0.062712915 0.117286496 0.07082043 0.0546764 0.04062721 0.10190456 -0.01352491 0.04631105
0.07256808 0.11282035 0.080963284 0.06281716 0.05260176 0.0042171925 -0.044054653 0.009399769
-0.026460707 0.0884286 -0.06149139 -0.023022871 0.049991287 0.1239718 0.06551396 -0.06823505
0.019403858 0.08943283 0.035092063 -0.06458172 0.10070146 0.09666661 -0.0040874374 0.12363983
-0.033940807 0.087292045 0.0044604563 0.083033435 0.034117375 0.08484413 0.04546448 0.03381992
0.06802072 0.12828709 0.010423664 0.10675377 0.08105412 0.005940056 0.023658399 0.11038467
-0.054402567 -0.018746095 0.06485932 0.03238632 -0.0013567158 0.10267126 0.11589295 0.07114587
0.09842332 -0.039936874 0.04024626 0.0649583 0.08537914 0.08905181 0.039527953 -0.012982557
0.09491161 0.0825594 0.045489077 0.10638831 0.024754498 -0.037078273 0.105740674 0.13925333
-0.063086204 0.039385274 0.025388476 0.117029086 0.12038068 0.06741284 0.0010130461 -0.068694234
0.08140299 0.08443795 0.036398992 0.072172046 0.11480068 0.04601882 0.11287841 -0.0014138797
0.08531877 0.06504938 5.0374812e-05 -0.023605539 0.036136776 0.090985075 0.087844834 0.019980887
0.091886275 0.07145754 0.050791595 0.11396705 -0.09027205 -0.00824433 -0.051454358 0.08466085
0.10169072 -0.008033304 0.029726798 0.12033003 0.05612737 0.091374576 0.036967635 -0.04806521
0.07161254 0.08411542 -0.01832911 -0.0014566372 0.04743989 -0.0118906 0.09240005 0.08475251
0.011983135 0.123195685 0.06337746 0.025672982 -0.026845146 0.018224744 0.09014239 0.12640679
00000000: a16f 803d e733 f03d 4d0a 913d 5cf4 5f3d
00000010: b868 263d 57b3 d03d 9697 5dbc a8b0 3d3d
00000020: 939e 943d 5b0e e73d 14d0 a53d 48a6 803d
00000030: f174 573d 6030 8a3b a772 34bd 7d01 1a3c
00000040: 20c4 d8bc 0e1a b53d 65de 7bbd 769a bcbc
00000050: aac3 4c3d ede4 fd3d 2f2c 863d d1be 8bbd
00000060: d7f4 9e3c 8f28 b73d b2bc 0f3d 6c43 84bd
00000070: 913c ce3d 25f9 c53d e9ef 85bb e136 fd3d
00000080: 8405 0bbd 2cc6 b23d 0529 923b 6f0d aa3d
00000090: a9be 0b3d c2c2 ad3d f638 3a3d c286 0a3d
000000a0: 724e 8b3d b15d 033e 04c8 2a3c b8a1 da3d
000000b0: b4ff a53d cda4 c23b 42cf c13c 5c11 e23d
000000c0: 3ad5 5ebd 6991 99bc f7d4 843d 85a7 043d
000000d0: d4d3 b1ba 4f45 d23d 4859 ed3d edb4 913d
000000e0: 2a92 c93d d994 23bd 43d9 243d db08 853d
000000f0: 42db ae3d cc60 b63d 10e8 213d cab4 54bc
00000100: 0561 c23d e714 a93d c152 3a3d 1de2 d93d
00000110: f2c9 ca3c 63df 17bd 918e d83d 6d98 0e3e
00000120: 5733 81bd 7452 213d 7efb cf3c f2ac ef3d
00000130: 258a f63d be0f 8a3d 30c8 843a 90af 8cbd
00000140: 9cb6 a63d ceed ac3d 1c17 153d f0ce 933d
00000150: 9e1c eb3d 3b7e 3c3d cc2c e73d ee51 b9ba
00000160: 9bbb ae3d 9c38 853d 8b49 5338 6760 c1bc
00000170: 2804 143d 6256 ba3d fee7 b33d f5ae a33c
00000180: df2e bc3d 5558 923d d90a 503d 8f67 e93d
00000190: 8de0 b8bd 3a13 07bc cec1 52bd ab62 ad3d
000001a0: 3943 d03d 1e9e 03bc 9d85 f33c 976f f63d
000001b0: d0e5 653d 9822 bb3d 606b 173d 07e0 44bd
000001c0: 98a9 923d b544 ac3d ee26 96bc a2ec beba
000001d0: 5550 423d cbd0 42bc 3d3c bd3d b992 ad3d
000001e0: e954 443c 054e fc3d 0bcc 813d 2550 d23c
000001f0: 5aea dbbc 0f4c 953c 939c b83d c870 013e

network_body._body_endoder.seq_layers.2.weight f4 [128, 128]
0.0029984438 0.07879891 0.21767274 0.10857566 0.04165459 -0.056932528 0.13192402 0.12893596
-0.003912365 0.057692397 0.07828513 0.044281714 0.06906538 -0.13754307 0.14217278 -0.085653275
0.18718778 -0.03435101 -0.09256773 -0.013148142 -0.08841292 0.056861363 0.16607942 -0.09511294
0.013889832 -0.09225391 0.006321707 -0.029243719 0.15785654 0.056929953 0.052405845 -0.03690739
0.028738692 -0.1464395 0.057939567 -0.09700306 0.052757367 0.007971848 -0.056541543 -0.14336641
0.018176345 0.20873818 0.10384273 -0.09726487 0.0642618 -0.07005381 -0.017028717 0.029656878
0.19734047 0.08328361 0.019451298 0.012914502 0.041542914 0.10419851 0.08880887 -0.04540868
0.017364787 0.11905457 0.06394769 0.06981992 0.11586017 -0.006587071 -0.060433652 0.1038186
0.07320988 0.23166113 0.0143190455 -0.12281981 -0.13647915 0.0129959155 -0.13722456 -0.051250357
-0.129729 0.008145741 0.08151509 0.18036224 -0.03631805 0.10347157 0.19843231 -0.0205737
0.08360916 -0.060749855 -0.026735133 0.09494618 -0.08904393 0.123772405 0.18959084 -0.124367796
-0.056609225 0.043282565 0.07634704 0.06925208 -0.08936152 0.02054257 -0.16631429 0.06078617
0.05385634 0.0063639698 0.009686347 0.13875625 0.106696576 -0.024316667 -0.08111911 0.049676925
-0.06439353 0.095915355 -0.22672164 0.20363377 0.27061924 0.12178701 -0.026848018 -0.19191344
0.009728494 -0.042933445 0.11086945 0.0964303 0.08948481 -0.030494697 0.09947868 -0.042801656
-0.014766332 0.17637932 -0.0018124327 0.05925926 -0.07927865 0.034897137 -0.07343881 0.14859203
0.2165019 -0.15989995 -0.16295011 0.03694387 0.25034398 -0.010696839 0.015370036 0.011030312
-0.0041098967 -0.04894673 -0.03878672 -0.064056806 -0.05463221 0.011167698 -0.03302273 0.041781545
-0.09682493 0.10745931 0.050470404 -0.025666118 -0.064224824 -0.10839635 -0.116830036 -0.1038993
-0.0042685973 0.029978652 -0.053002197 -0.115783304 -0.008110623 -0.06294832 0.12128962 0.14527272
0.12320653 0.0916132 -0.11181826 0.07097896 0.112456046 -0.06523321 0.0133921085 -0.07420934
-0.0992499 -0.15958813 -0.0011765689 -0.11357151 0.09624528 0.011676802 -0.073892675 -0.074742675
-0.060962755 0.16167133 -0.15294705 0.069056965 0.20869766 -0.014401738 -0.06354734 -0.050703675
-0.14283322 0.14407916 -0.03772157 -0.049130637 0.11881129 0.0015380592 0.111500636 0.048666947
-0.029566618 -0.05594715 0.12771662 -0.023739986 0.030255724 -0.013779714 -0.1006807 0.07480732
-0.03248342 -0.016436389 0.02594609 0.025688116 0.078511655 0.011471708 -0.1561885 0.04470307
-0.052370004 0.05930313 -0.3186035 -0.13018553 -0.009051678 -0.06125284 0.063422725 0.03542701
-0.105673306 -0.0033767535 -0.0113275675 -0.032072283 0.07792019 -0.1827455 -0.036997337 0.03020235
-0.17634666 0.07220258 -0.008301728 -0.114862725 0.2569885 -0.07932693 0.04985527 -0.16821814
-0.06151628 0.029902482 -0.13984685 -0.06596108 0.039999984 0.043070916 0.026047252 0.17648588
0.1611912 0.048881125 0.21771426 -0.14876676 0.13748239 0.14036156 -0.07326234 0.09262769
-0.206182 -0.11853079 -0.12152168 0.11344122 -0.016921675 0.052009404 -0.023283096 -0.054751065
00000000: 8a81 443b 5361 a13d 9ae5 5e3e ea5c de3d
00000010: 019e 2a3d 1532 69bd 1717 073e ca07 043e
00000020: 4c33 80bb dd4e 6c3d f453 a03d be60 353d
00000030: 2672 8d3d 17d8 0cbe be95 113e fc6a afbd
00000040: 27ae 3f3e a5b3 0cbd 2694 bdbd 4e6b 57bc
00000050: d511 b5bd 76e7 683d b910 2a3e 93ca c2bd
00000060: 2e92 633c 9eef bcbd 5226 cf3b 8690 efbc
00000070: 25a5 213e 622f 693d 83a7 563d 342c 17bd
00000080: 686d eb3c 3cf4 15be 0a52 6d3d 8aa9 c6bd
00000090: 1c18 583d 5b9c 023c 1b98 67bd a5ce 12be
000000a0: 8fe6 943c 76bf 553e 7fab d43d ce32 c7bd
000000b0: b19b 833d 5f78 8fbd cf7f 8bbc fbf2 f23c
000000c0: 9f13 4a3e 9990 aa3d 5458 9f3c 5997 533c
000000d0: e728 2a3d 0766 d53d 6de1 b53d 74fe 39bd
000000e0: 9940 8e3c e2d2 f33d 02f7 823d bffd 8e3d
000000f0: 1948 ed3d 5bd8 d7bb 4789 77bd d99e d43d
00000100: 10ef 953d 9338 6d3e 6e9a 6a3c f488 fbbd
00000110: 31c1 0bbe d2ec 543c 9884 0cbe e5eb 51bd
00000120: aed7 04be b775 053c 62f1 a63d e1b0 383e
00000130: 3cc2 14bd e7e8 d33d d731 4b3e 2d8a a8bc
00000140: 473b ab3d d7d4 78bd a303 dbbc 2573 c23d
00000150: aa5c b6bd 637c fd3d 1a24 423e 8bb4 febd
00000160: 13df 67bd 0f49 313d d65b 9c3d 09d4 8d3d
00000170: 2c03 b7bd e448 a83c 4b4e 2abe ebfa 783d
00000180: 7798 5c3d d988 d03b 7cb3 1e3c 1e16 0e3e
00000190: bc83 da3d bf33 c7bc c721 a6bd 087a 4b3d
000001a0: c1e0 83bd 456f c43d b829 68be 5f85 503e
000001b0: 9b8e 8a3e 786b f93d 60f0 dbbc f584 44be
000001c0: 4364 1f3c fbda 2fbd 860f e33d 407d c53d
000001d0: d043 b73d 04d0 f9bc 7abb cb3d ca50 2fbd
000001e0: 7cee 71bc c89c 343e 268f edba d6b9 723d
000001f0: d85c a2bd 4df0 0e3d 1667 96bd 8228 183e
00000200: adb2 5d3e d0bc 23be 65dc 26be 7552 173d
00000210: 162d 803e cb41 2fbc 9ad2 7b3c 7bb8 343c
00000220: 50ac 86bb 5e7c 48bd d3de 1ebd 3730 83bd
00000230: 06c6 5fbd b8f8 363c d842 07bd 2023 2b3d
00000240: 264c c6bd a013 dc3d 0eba 4e3d c041 d2bc
00000250: 4e88 83bd e8fe ddbd 9644 efbd 28c9 d4bd
00000260: 97df 8bbb ca95 f53c d518 59bd cc1f edbd
00000270: 6be2 04bc 0ceb 80bd b166 f83d 5fc2 143e
00000280: b553 fc3d b49f bb3d f900 e5bd 6b5d 913d
00000290: 5b4f e63d fd98 85bd 936a 5b3c 11fb 97bd
000002a0: 8843 cbbd 126b 23be 1a37 9aba 2e98 e8bd
000002b0: 3f1c c53d 0f50 3f3c 0b55 97bd b012 99bd
000002c0: 15b4 79bd 2b8d 253e 279e 1cbe bd6d 8d3d
000002d0: d7b4 553e 44f5 6bbc 1c25 82bd a8ae 4fbd
000002e0: df42 12be 7d89 133e ef81 1abd 353d 49bd
000002f0: 5553 f33d b498 c93a 725a e43d fe56 473d
00000300: b135 f2bc d728 65bd 25c8 023e 5c7a c2bc
00000310: dada f73c 4fc4 61bc af31 cebd 9534 993d
00000320: 560d 05bd 9ba5 86bc e58c d43c e26f d23c
00000330: b8ca a03d d5f3 3b3c e1ef 1fbe 911a 373d
00000340: ee81 56bd d7e7 723d ff1f a3be 5b4f 05be
00000350: 7d4d 14bc 42e4 7abd c6e3 813d ea1b 113d
00000360: 3f6b d8bd 864c 5dbb 4397 39bc 3a5e 03bd
00000370: 9f94 9f3d a321 3bbe 858a 17bd eb6a f73c
00000380: 3894 34be f2de 933d f903 08bc 263d ebbd
00000390: ff93 833e 2876 a2bd 0a35 4c3d 6041 2cbe
000003a0: 7ff8 7bbd 0df6 f43c 0334 0fbe 9a16 87bd
000003b0: 06d7 233d 216b 303d 0c61 d53c b7b8 343e
000003c0: 4e0f 253e 9337 483d 7df0 5e3e 5056 18be
000003d0: 2fc8 0c3e f1ba 0f3e 910a 96bd 96b3 bd3d
000003e0: 6021 53be 45c0 f2bd 5ce0 f8bd df53 e83d
000003f0: 539f 8abc d007 553d 31bc bebc a742 60bd

network_body._body_endoder.seq_layers.2.bias f4 [128]
0.09138721 0.0027042043 0.040685683 0.0925761 -0.057285573 0.020796357 0.10412605 0.061994087
0.01890447 0.09431241 0.019565383 -0.06462278 0.0059981532 0.044371083 -0.0245537 0.060865954
-0.061575484 -0.09162224 0.09342888 0.06490304 0.0886222 0.072273694 0.059733678 0.08033006
0.08125638 0.082273446 -0.082012236 -0.084052235 0.08068911 0.07078965 0.085792735 0.034599956
0.078747414 0.05972451 0.10881357 0.0953792 0.09828286 0.07378998 0.01365686 0.10181028
0.044937193 0.10345186 -0.037929103 0.04545414 0.019475648 0.021101298 0.0990465 0.026185352
0.10703295 0.06453108 0.04508763 0.090435505 -0.05070855 0.10841374 0.022620384 0.10281414
-0.018245194 0.021828083 -0.04433987 0.08971773 0.06445199 0.090962745 0.016190544 0.09116844
0.097383864 -0.01847138 0.05685179 -0.0027504817 -0.088304624 0.07236928 -0.011454227 0.07863862
0.105198964 0.060203772 -0.07661149 0.0893775 0.112390906 0.10608857 0.055115014 0.086989775
-0.04258206 0.0777292 0.10391402 -0.03457181 0.021688635 0.03282046 0.06143196 -0.0017872867
0.08910952 -0.10636132 0.095188886 0.059453808 -0.01934294 0.05135735 0.05427645 -0.06348654
-0.027660087 0.021740494 0.07029269 -0.034158595 0.04223532 0.07823857 0.024863431 0.13060158
-0.06686955 0.1206614 0.11377875 0.027551224 0.04499735 0.0019865271 -0.019718157 -0.008564862
0.06839469 0.085786946 -0.03093779 -0.014917512 0.02173586 0.096285895 -0.09628704 -0.016821595
0.1140027 0.06548131 0.05515628 0.001011066 -0.08082417 0.079683945 -0.032286637 0.035691366
00000000: 3829 bb3d 0539 313b 08a6 263d 8a98 bd3d
00000010: 47a4 6abd 1f5d aa3c 0a40 d53d 83ed 7d3d
00000020: 8cdd 9a3c dd26 c13d 9547 a03c f358 84bd
00000030: 288c c43b 74be 353d d724 c9bc 944e 793d
00000040: 9336 7cbd 71a4 bbbd a457 bf3d e3eb 843d
00000050: 8e7f b53d 3b04 943d 4dab 743d 1684 a43d
00000060: bf69 a63d fb7e a83d 08f6 a7bd 9423 acbd
00000070: 5540 a53d 2afa 903d 1ab4 af3d afb8 0d3d
00000080: 5346 a13d b0a1 743d a6d9 de3d 2c56 c33d
00000090: 8648 c93d 331f 973d 06c1 5f3c e881 d03d
000000a0: 1010 383d 92de d33d 8c5b 1bbd 1f2e 3a3d
000000b0: 658b 9f3c a1dc ac3c e4d8 ca3d aa82 d63c
000000c0: 1734 db3d df28 843d cfad 383d 4036 b93d
000000d0: c5b3 4fbd 0608 de3d 624e b93c 3890 d23d
000000e0: f276 95bc cfd0 b23c b99d 35bd eebd b73d
000000f0: 68ff 833d ad4a ba3d 08a2 843c 85b6 ba3d
00000100: 3171 c73d 4b51 97bc 6cdd 683d 6d41 34bb
00000110: 0ed9 b4bd 5836 943d 83aa 3bbc 490d a13d
00000120: 8e72 d73d 3b98 763d 7ce6 9cbd 8d0b b73d
00000130: 342d e63d f744 d93d 48c0 613d b227 b23d
00000140: 876a 2ebd 7d30 9f3d e0d0 d43d 2c9b 0dbd
00000150: 5dac b13c bf6e 063d 14a0 7b3d 6443 eaba
00000160: 0d7f b63d f7d3 d9bd 64f2 c23d d685 733d
00000170: 1675 9ebc 165c 523d fc50 5e3d 3b05 82bd
00000180: 6897 e2bc 1f19 b23c 9df5 8f3d e2e9 0bbd
00000190: f1fe 2c3d 8b3b a03d 65ae cb3c 6cbc 053e
000001a0: e7f2 88bd 531d f73d d504 e93d 1bb3 e13c
000001b0: 244f 383d 6530 023b f987 a1bc a353 0cbc
000001c0: 8412 8c3d 11b1 af3d 4071 fdbc 9568 74bc
000001d0: 670f b23c 8a31 c53d 2432 c5bd 71cd 89bc
000001e0: 3f7a e93d 111b 863d 8deb 613d bf85 843a
000001f0: 2487 a5bd 5631 a33d fe3e 04bd 1c31 123d

action_model._continuous_distribution.log_sigma f4 [1, 2]
-0.85917366 -0.5277508
00000000: cef2 5bbf ad1a 07bf

action_model._continuous_distribution.mu.weight f4 [2, 128]
0.04865115 0.060152434 -0.051338527 0.040536582 0.030045157 0.077603675 -0.0013011508 -0.09408563
-0.057267275 -0.0068773236 -0.09479287 -0.020945208 -0.06678401 0.098280445 0.0140073 -0.04692498
-0.000874536 -0.009969923 0.0552987 0.08885463 -0.03288559 -0.0117322365 0.118601725 0.04764862
-0.11145848 -0.02398679 -0.05194358 0.006083151 0.05542167 0.09233199 0.038494892 0.12633394
0.06964762 0.02773647 0.022981938 0.010387316 -0.027999032 0.073402844 0.114455014 -0.13157254
0.11939199 -0.0014323537 -0.008899245 0.10810903 0.086964935 -0.06615567 -0.025747482 0.101302154
-0.08812764 0.118489996 0.08429236 0.01941711 0.13702524 -0.09300468 -0.09965404 -0.012985935
-0.06236755 0.071727574 0.054050677 0.036367256 0.10558707 -0.030939974 -0.07426053 -0.056150608
-0.01934821 -0.10889215 0.13093296 -0.0035504997 -0.018008905 0.0642837 0.06635413 -0.09384258
-0.026818449 0.073673226 -0.076149985 -0.07047145 0.0010021515 0.026946032 0.07657392 0.091570295
0.06329338 0.040222928 0.05575863 -0.112037346 0.101741515 -0.0784659 0.034893293 0.07372361
-0.013157912 0.0016400121 -0.054959252 0.030797273 0.08790272 -0.091671534 0.110980205 0.086229526
0.0028199728 0.13758777 -0.043848015 -0.009292885 0.14687409 0.057283487 0.03716148 -0.08691092
-0.041005787 -0.06611661 -0.011669302 -0.116876885 -0.034637664 0.12269705 -0.058335315 -0.08913597
0.07455567 0.053307388 -0.059023812 0.09669532 0.07499759 0.0009664004 -0.023738893 0.06658878
-0.010441094 -0.058714252 -0.07436513 -0.116400145 -0.032372855 0.09746705 -0.08969967 0.07952701
0.07058125 -0.1159119 0.049619738 0.06295948 -0.1113964 -0.037121102 0.09490599 0.053703867
0.059922405 0.09908734 0.003240212 -0.091126226 0.0025130773 -0.0024694405 -0.18905888 0.04729667
-0.10993268 -0.046033267 0.088064216 0.02593479 0.09052122 0.056611322 0.018720767 0.08890864
0.09277884 0.10568821 -0.0659507 -0.14452992 0.03394001 0.061453708 0.087694824 0.022417031
0.040467612 0.05343488 0.089659125 0.07467352 0.09686902 0.01375918 -0.058870763 0.095174484
-0.08574268 0.070794426 -0.096276164 -0.14340581 0.026161857 0.05329257 0.13049547 -0.032124605
0.10232524 0.0011175703 0.008638663 0.049197298 -0.09769501 0.10106302 0.03461066 0.09454781
0.001613872 0.015362689 -0.1537867 0.061414156 0.008885949 0.06814399 -0.0841419 0.102763996
0.095002085 -0.003733533 0.031265188 0.0503563 -0.048504543 0.046114884 -0.05873979 0.09611534
0.09588698 0.02661921 -0.05441221 0.13228513 0.09118288 0.10698026 0.04933151 0.06207986
-0.15057373 0.042183097 0.1013457 -0.013617854 -0.012310977 0.069010444 0.06444329 -0.058534082
0.07933973 -0.053757492 0.107895575 0.05361467 -0.09394277 0.07210184 0.054365467 -0.1475723
0.005849559 -0.008301166 0.06755365 -0.07788716 -0.07241714 0.050865952 0.001698169 0.12405958
-0.11770051 0.14821385 0.11718761 0.03635175 0.06423881 -0.07964049 0.01493913 -0.031460084
0.021627737 0.08285477 -0.04019429 -0.0835552 -0.06365412 0.07814025 -0.12974088 -0.100496784
0.136886 0.06083638 0.1381963 -0.016528536 -0.04989314 0.04028049 -0.024061501 -0.024792645
00000000: 6e46 473d 6662 763d 5948 52bd b009 263d
00000010: 4321 f63c adee 9e3d 608b aaba f7af c0bd
00000020: 1791 6abd 2c5b e1bb c422 c2bd 4995 abbc
00000030: 0ec6 88bd 4247 c93d e07e 653c 6834 40bd
00000040: 1e41 65ba e358 23bc e480 623d 6bf9 b53d
00000050: 0ab3 06bd 9138 40bc 76e5 f23d 332b 433d
00000060: 5844 e4bd f27f c4bc cbc2 54bd 2b55 c73b
00000070: d501 633d 8e18 bd3d d2ac 1d3d af5d 013e
00000080: 69a3 8e3d 9837 e33c 9e44 bc3c 902f 2a3c
00000090: 3a5e e5bc 3b54 963d 6467 ea3d f4ba 06be
000000a0: ca83 f43d d1bd bbba 24ce 11bc 4468 dd3d
000000b0: ac1a b23d a07c 87bd 62ec d2bc 8177 cf3d
000000c0: 447c b4bd e2aa f23d 79a1 ac3d a210 9f3c
000000d0: 5850 0c3e 3d79 bebd 6b17 ccbd f6c2 54bc
000000e0: 1e75 7fbd e8e5 923d 3e64 5d3d d5f5 143d
000000f0: 093e d83d d475 fdbc e815 98bd 2efe 65bd
00000100: 2380 9ebc d902 dfbd 4a13 063e 80af 68bb
00000110: 6987 93bc 2ca7 833d ade4 873d 8a30 c0bd
00000120: 5db2 dbbc fde1 963d 86f4 9bbd 5653 90bd
00000130: a05a 833a edbd dc3c cad2 9c3d 3589 bb3d
00000140: f69f 813d ccc0 243d 2963 643d d673 e5bd
00000150: db5d d03d bbb2 a0bd 45ec 0e3d 67fc 963d
00000160: 4894 57bc adf5 d63a f41c 61bd 904a fc3c
00000170: 5706 b43d 49be bbbd 9749 e33d 1b99 b03d
00000180: 4bcf 383b cfe3 0c3e fa99 33bd 2f41 18bc
00000190: 2966 163e 17a2 6a3d a336 183d 5afe b1bd
000001a0: aff5 27bd 2568 87bd 9a30 3fbc 265d efbd
000001b0: 39e0 0dbd 9748 fb3d 03f1 6ebd eb8c b6bd
000001c0: a5b0 983d d958 5a3d f4c2 71bd 3208 c63d
000001d0: 5698 993d 0856 7d3a 1178 c2bc b35f 883d
000001e0: 1f11 2bbc 5b7e 70bd bf4c 98bd 3363 eebd
000001f0: 6699 04bd ce9c c73d 76b4 b7bd 0fdf a23d
00000200: e78c 903d 3863 edbd 113e 4b3d e6f0 803d
00000210: cc23 e4bd 4c0c 18bd 125e c23d 96f8 5b3d
00000220: 3271 753d 4eee ca3d bd59 543b 63a0 babd
00000230: 71b2 243b 56d6 21bb a798 41be 27ba 413d
00000240: 6324 e1bd 618d 3cbd 035b b43d 3275 d43c
00000250: 3063 b93d 46e1 673d 4b5c 993c bc15 b63d
00000260: d502 be3d 0f73 d83d 2911 87bd a7ff 13be
00000270: ae04 0b3d e2b6 7b3d 5899 b33d eca3 b73c
00000280: 5ec1 253d 88de 5a3d 349f b73d 6eee 983d
00000290: 4463 c63d 2f6e 613c 7822 71bd d7ea c23d
000002a0: dc99 afbd abfc 903d 702c c5bd f9d8 12be
000002b0: 6451 d63c 4f49 5a3d 9ba0 053e 1795 03bd
000002c0: e58f d13d 707b 923a 2e89 0d3c 1b83 493d
000002d0: 5214 c8bd 21fa ce3d e8c3 0d3d 48a2 c13d
000002e0: 8f88 d33a cab3 7b3c 437a 1dbe 698d 7b3d
000002f0: 5f96 113c 148f 8b3d 9752 acbd ee75 d23d
00000300: 7490 c23d 4aae 74bb ed0f 003d 6842 4e3d
00000310: b3ac 46bd f6e2 3c3d 2299 70bd 1fd8 c43d
00000320: 6560 c43d 8810 da3c 56df 5ebd c175 073e
00000330: 17be ba3d 7718 db3d d60f 4a3d 7447 7e3d
00000340: 0030 1abe 2fc8 2c3d 568e cf3d 6b1d 5fbc
00000350: fbb3 49bc 5955 8d3d d8fa 833d 6fc1 6fbd
00000360: de7c a23d d130 5cbd 5bf8 dc3d 0e9b 5b3d
00000370: 1165 c0bd 21aa 933d 53ae 5e3d 311d 17be
00000380: a8ad bf3b 9d01 08bc 9159 8a3d 4e83 9fbd
00000390: 704f 94bd d158 503d 1995 de3a f312 fe3d
000003a0: f70c f1bd 5fc5 173e 0f00 f03d 93e5 143d
000003b0: a38f 833d 8e1a a3bd 41c3 743c 4adc 00bd
000003c0: a72c b13c c3af a93d c5a2 24bd fd1e abbd
000003d0: 175d 82bd ff07 a03d cbda 04be 42d1 cdbd
000003e0: d82b 0c3e 912f 793d 5583 0d3e da66 87bc
000003f0: c05c 4cbd 28fd 243d a01c c5bc f219 cbbc

action_model._continuous_distribution.mu.bias f4 [2]
0.02163923 0.09920254
00000000: c144 b13c b42a cb3d

onnx::Div_61 f4 [28]
0.1869945 0.00047140525 0.48010677 0.32658693 0.05396037 0.00047140525 0.4993252 0.32899135
0.2434415 0.00047140525 0.47246468 0.32333595 0.07680198 0.00047140525 0.4932871 0.35353738
0.32288936 0.00047140525 0.49414745 0.34143052 0.086935 0.023752678 0.49053478 0.35700008
0.3232051 0.00047140525 0.49955475 0.3488215
00000000: 7c7b 3f3e f126 f739 8ed0 f53e 6736 a73e
00000010: 8d05 5d3d f126 f739 8da7 ff3e 8e71 a83e
00000020: bb48 793e f126 f739 e4e6 f13e 4a8c a53e
00000030: 5b4a 9d3d f126 f739 2090 fc3e da02 b53e
00000040: c151 a53e f126 f739 e500 fd3e fbcf ae3e
00000050: fa0a b23d fa94 c23c 6027 fb3e b7c8 b63e
00000060: 247b a53e f126 f739 a4c5 ff3e bb98 b23e

onnx::Div_64 f4 [5]
1.1724545 0.16275163 0.9319356 0.8777318 0.82670283
00000000: fd12 963f 5da8 263e 5593 6e3f 08b3 603f
00000010: cca2 533f
