results/ParkingTest_02/CarParking/CarParking-4999988.onnx (onnx, 90958 bytes, 11 tensors)

network_body.observation_encoder.processors.0.normalizer.running_mean f4 [28]
000000 42 a7 1c 3d 00 00 00 00 72 49 bd 3e 76 f1 25 3f
       0.038245447 0.0 0.36970097 0.64821565
000010 e5 39 2c 3b 00 00 00 00 19 2f 06 3f 57 ba 46 3f
       0.0026279625 0.0 0.52415615 0.7762808
000020 a2 dc 82 3d 00 00 00 00 9f 9d ad 3e 8e db 1b 3f
       0.063897386 0.0 0.33909318 0.6088189
000030 b6 5a d1 3b 00 00 00 00 50 77 d6 3e 05 b1 2d 3f
       0.0063889874 0.0 0.41887903 0.67848235
000040 0c 0d f9 3d 00 00 00 00 2d 1c d7 3e 1d e4 26 3f
       0.121606916 0.0 0.42013684 0.65191823
000050 2e 6a ff 3b 95 51 05 3a f9 4a ca 3e 0d 72 20 3f
       0.00779464 0.0005085704 0.39510325 0.6267403
000060 ba 88 f9 3d 00 00 00 00 e8 76 f3 3e 32 2e 2e 3f
       0.12184282 0.0 0.47551656 0.6803924

network_body.observation_encoder.processors.1.normalizer.running_mean f4 [5]
000000 7a 7f 31 40 b1 0d 06 3f 10 dd c9 3f 4e f5 12 3f
       2.7734056 0.5236464 1.5770588 0.57405555
000010 44 33 96 3e
       0.29335988

network_body._body_endoder.seq_layers.0.weight f4 [128, 33]
000000 84 fa 06 3f 5a 9d 61 3d 79 52 1c bd 8e ac 1d bd
       0.52726007 0.055081703 -0.03816459 -0.03849464
000010 13 05 37 3e bf 82 bd 3d 57 0b 78 3e c7 56 39 3e
       0.1787303 0.092534535 0.24223076 0.18099509
000020 83 3d 39 bd 83 78 9d 3c c4 cb 35 3d 2d a7 dd bb
       -0.045224678 0.019222504 0.04438378 -0.0067643137
000030 a9 08 9a be 86 29 62 3e 5d 09 ff 3d c7 78 28 3e
       -0.30084732 0.22086152 0.12452958 0.16452323
000040 2c af 0d 3e 1d 7b 3e 3e 71 86 8f 3e ab 96 a3 bd
       0.13836354 0.18601651 0.28032258 -0.07987722
000050 11 cb a2 bd 15 c4 36 3e af 11 f6 3b 47 4f 07 be
       -0.07948888 0.17848237 0.0075094323 -0.13213836
000060 51 da 31 3e b4 73 34 be b4 98 04 be d1 a3 62 3e
       0.17368437 -0.17622262 -0.12948877 0.22132803
000070 88 15 1e be 0e ae 51 be 24 b3 8d 3e c8 5c bb be
       -0.15437901 -0.20476553 0.27675736 -0.36594224
000080 82 77 20 3e ad fd 1b be 71 29 ad bd 43 7d 18 be
       0.15670589 -0.15233488 -0.0845517 -0.14891534
000090 f0 e7 cc bd 0c 20 cf be d3 36 1d 3e 95 20 b8 be
       -0.10005176 -0.40454137 0.15352945 -0.35962358
0000a0 04 c1 53 be fb 1c 00 be 4f c7 aa 3c 08 25 c5 bd
       -0.20679098 -0.12511055 0.02084699 -0.09626204
0000b0 79 e5 58 3e 15 05 42 3c a9 22 99 3d c5 af cd 3e
       0.21181287 0.011842032 0.07477314 0.40173164
0000c0 56 06 68 3e 0c 1f 74 3e 98 03 5e 3d d0 72 da bb
       0.22658667 0.23839968 0.054202646 -0.0066665187
0000d0 c7 b5 0b bd 4d a6 d7 bc a9 b6 8c be e6 1e 8e 3d
       -0.034108903 -0.026324416 -0.2748311 0.06939487
0000e0 3c 73 21 bd 1b 42 b2 be 93 04 e9 3e 15 b1 cf bd
       -0.039416537 -0.3481606 0.45511302 -0.101411976
0000f0 cc 89 40 3e 87 54 f1 bd ca 7f 32 3e 21 ee 0b bd
       0.18802565 -0.117837004 0.1743156 -0.034162644
000100 c9 f5 a9 bd a4 b2 00 bd e1 c6 28 be ef c6 f3 bd
       -0.08298833 -0.031420365 -0.16482116 -0.11903178
000110 0a 2d df 3c a6 18 49 3e 34 b0 ab bd 8c 57 9b be
       0.027243156 0.19638309 -0.083832175 -0.3034023
000120 59 56 81 3d 4d 90 ce bd 02 e9 8a 3e 84 c2 90 bc
       0.06315298 -0.10086117 0.27130896 -0.017670877
000130 16 de a8 3d d7 b1 38 3e c3 6b 81 bd cb 44 8c 3e
       0.082454845 0.1803659 -0.06319382 0.27396235
000140 c0 52 51 3e 4c 10 bb bd 82 4e 93 bd 21 6c 27 be
       0.20441723 -0.09133968 -0.071927086 -0.16349842
000150 20 6b 3c be 77 44 01 3f a7 ed 84 3c 51 a2 40 3e
       -0.1840024 0.50495094 0.016226603 0.18811919
000160 4c 88 0b 3e 39 b1 90 3e 07 f9 13 be cb db 40 be
       0.13626212 0.2826021 -0.14450465 -0.18833844
000170 8c 96 af 3b 02 88 fe be 57 3f 06 3e 39 69 d8 3d
       0.0053585228 -0.4971314 0.131101 0.10566945
000180 53 8d 72 be 91 10 4a bd 9a 8a 36 3e 85 af 3c 3e
       -0.23686723 -0.049332205 0.1782631 0.1842633
000190 d5 f4 61 bc 6b 7c 96 bd 86 68 1a 3e 84 bf 03 3e
       -0.013791283 -0.073479496 0.15078935 0.12866026
0001a0 87 90 46 3d 90 26 5d be ba 93 74 bc ea 65 cb 3c
       0.048477676 -0.21596742 -0.014927799 0.02482887
0001b0 cc 7e 1c 3e 7f a3 62 3e ff 69 55 3c 1b c0 52 be
       0.15282744 0.22132681 0.01302576 -0.20581095
0001c0 35 f7 03 3e e3 b0 8c bd 93 58 71 3d 1a 77 0f 3e
       0.12887271 -0.06869676 0.05892236 0.14010277
0001d0 be 4f ca be 30 d5 2d be 0d 36 e4 3d f9 71 46 3d
       -0.39513963 -0.16975856 0.11143122 0.048448537
0001e0 c2 7e e4 3d fe 6b a6 bc ff ee 88 3c 42 08 25 3d
       0.1115699 -0.020315167 0.016715525 0.04029108
0001f0 45 56 35 be 34 39 9b 3d 20 9f 97 3d 32 c2 52 3d
       -0.1770869 0.0757927 0.074033976 0.05145473
000200 78 02 87 3d 7e b4 4c 3c f5 06 7d be 74 de 36 be
       0.06592268 0.012494205 -0.24709685 -0.17858297
000210 db e8 72 bd cb 5c d3 3d 88 88 67 bb 23 ba 39 bd
       -0.0593041 0.10320433 -0.0035329182 -0.04534353
000220 0d 9b c2 be ff 0b 89 be 46 94 ab 3e 34 9f 7a be
       -0.3800892 -0.26766965 0.3351156 -0.24474794
000230 e3 05 8d bd 93 25 d7 bd f4 49 6c be 54 e8 42 be
       -0.068858884 -0.105052136 -0.23075086 -0.19033939
000240 e7 03 55 bb 2e c2 a7 3d bf 42 31 be 55 98 eb 3c
       -0.0032503547 0.08191334 -0.17310618 0.028759161
000250 fc 4e 03 be 50 ef 46 bd 13 fa 5d 3d c4 a8 a4 3e
       -0.12823099 -0.04856807 0.054193567 0.32160008
000260 aa 99 be bd 2f ea 00 be 29 69 6a 3e cb 95 54 be
       -0.09306653 -0.12589334 0.22891678 -0.20760266
000270 92 a3 e2 bd da 6a 48 be 64 c4 16 3d b3 79 1e bd
       -0.11066355 -0.1957201 0.036808386 -0.03869028
000280 87 52 e0 be 8d f6 12 3d ff 6e 05 3d d1 bd 98 be
       -0.43812963 0.03587966 0.032576557 -0.29832318
000290 a2 d4 82 be f0 68 6d 3d dd 44 97 bd e7 20 b5 bd
       -0.2555285 0.057961404 -0.073861815 -0.08844166
0002a0 19 de 3d 38 35 f3 f8 3d 60 ff 63 3e 91 2e 11 be
       4.5267956e-05 0.12155763 0.22265387 -0.1417792
0002b0 2b 60 7d bc 6e 21 50 be fa 82 e6 bb 1e db 71 be
       -0.015464823 -0.20325252 -0.0070346566 -0.23618743
0002c0 e5 18 f2 3d d8 74 30 3c 74 fe be 3e 8b 6f aa be
       0.118211545 0.010770045 0.37303507 -0.33288226
0002d0 56 94 f2 3b 99 03 d9 bd 42 40 03 3e d1 2b 18 bd
       0.007402937 -0.10596389 0.12817481 -0.03715116
0002e0 f8 5b 2d 3e e9 2a 9a bc 0c c2 98 bd d0 33 e3 bd
       0.16929615 -0.01881929 -0.074588865 -0.11093867
0002f0 66 e6 1a 3e 2c 56 35 be f4 55 79 bd 61 79 92 be
       0.15126953 -0.17708653 -0.060872987 -0.2860823
000300 5e 76 9a bd be a7 80 3e 39 12 ff 3c 5f f7 9b bd
       -0.07542108 0.25127977 0.031136619 -0.07615542
000310 08 96 31 3e cb 7c 4f 3b 35 aa 9e be 15 c6 58 be
       0.17342389 0.0031660076 -0.30989233 -0.21169312
000320 00 71 eb 3c 56 38 56 3e 86 f5 07 be 86 2b fa b9
       0.028740406 0.20919928 -0.13277254 -0.00047716143
000330 0f bc 1e bf 21 ce 24 bc 68 56 f6 3c 5d 15 33 3e
       -0.62005705 -0.010058911 0.030070499 0.17488618
000340 5d 3e 36 3e 82 f6 58 bd 76 fe 3b 3e ec 2c 41 be
       0.17797227 -0.052969463 0.18358788 -0.18864793
000350 5e 25 eb be 12 76 8f be 15 f7 40 bd 2d 8a cb bd
       -0.45926946 -0.28019768 -0.047110636 -0.09938464
000360 23 10 4a bd 85 51 d5 bd a2 95 04 bb f7 b5 03 bf
       -0.049331795 -0.10415939 -0.002023079 -0.5144953
000370 e1 66 bc 3a cf bb 9e be af 32 a6 bc 92 eb d9 3d
       0.0014373922 -0.31002662 -0.02028784 0.106406346
000380 5f 8d 0b be 4e 89 df bc 17 c5 a7 be 97 93 26 3e
       -0.13628148 -0.027287152 -0.32767555 0.16267239
000390 17 6b 2f be e0 42 7f be 1a 41 63 be 7c d7 42 be
       -0.17130695 -0.24927855 -0.22192803 -0.19027513
0003a0 06 f2 3c 3e 99 f7 4a be f0 e9 ad 3d c1 0a fb bd
       0.184517 -0.19821014 0.08491886 -0.122579105
0003b0 70 57 64 3c 95 09 8a 3e b2 d1 98 3e a4 16 02 be
       0.013936862 0.26960436 0.29847485 -0.12703949
0003c0 96 c0 ce bd a3 3a ab 3e b4 bf 80 3d ab b7 d0 3d
       -0.100953266 0.33443174 0.062865645 0.10191282
0003d0 de 41 93 3d 78 f2 88 3b 96 03 b5 3e 0a 9e f8 bd
       0.071902975 0.004179295 0.35354298 -0.121395186
0003e0 f9 81 4f be 0f c4 05 3e 34 b2 6c 3e 8d 85 1d be
       -0.20264424 0.13063072 0.23114854 -0.15382977
0003f0 aa b7 26 be e5 30 14 3e 33 48 fb 3d 4a f5 23 be
       -0.16281 0.14471777 0.1226963 -0.16011539

network_body._body_endoder.seq_layers.0.bias f4 [128]
000000 7f 8c 70 3d cc 4c f1 3d b9 27 91 3d c9 2e 62 3d
       0.058727738 0.11782226 0.070876546 0.0552204
000010 bf cc 20 3d 6c 68 d5 3d b5 41 1e bc 79 60 3c 3d
       0.03925776 0.104203075 -0.00965922 0.04599044
000020 f6 28 96 3d 8b c3 ef 3d 70 a9 a8 3d ee 0e 79 3d
       0.073320314 0.11707219 0.08235443 0.060805254
000030 64 5f 5d 3d 6f d1 a9 3b 3d 9f 3a bd c5 a5 1e 3c
       0.05404605 0.005182437 -0.045562018 0.009683077
000040 95 e1 cb bc f2 d0 ae 3d 43 9e 80 bd 5a a3 b6 bc
       -0.02488784 0.08535947 -0.06280186 -0.022294689
000050 1f c3 3b 3d 3e aa 00 3e 27 4d 7d 3d af 29 84 bd
       0.04584038 0.12564942 0.061841156 -0.06453263
000060 7c 75 97 3c ea 76 b5 3d d6 a0 11 3d c1 95 80 bd
       0.018488638 0.08860572 0.035553776 -0.06278563
000070 f2 10 d2 3d dd c0 c9 3d cf 9f bd bb 1a c4 fd 3d
       0.10257138 0.09851239 -0.005786873 0.12390919
000080 81 67 0e bd 2f 58 b9 3d c5 4e 90 39 25 8e ae 3d
       -0.034766678 0.09050023 0.00027524508 0.08523206
000090 8e c7 0a 3d 70 44 af 3d 16 b1 47 3d 18 70 15 3d
       0.033881716 0.08557975 0.048752867 0.036483854
0000a0 93 3a 8f 3d 1a ab 06 3e bf 52 47 3c c7 ce dd 3d
       0.06993594 0.13151208 0.012165724 0.10830455
0000b0 9f b8 a5 3d 3b 51 9f 3b 33 f1 c7 3c 4a 98 e7 3d
       0.08091854 0.0048619783 0.024407005 0.11308344
0000c0 0c 9f 6a bd 0b bc be bc bc 0f 8d 3d a2 f9 00 3d
       -0.057280585 -0.023283025 0.06887767 0.03148807
0000d0 4d 28 c1 ba 2b d8 dd 3d 06 de ee 3d 03 ec 93 3d
       -0.0014736742 0.108322464 0.11663441 0.0722275
0000e0 c6 fa cf 3d 5f 65 2f bd 68 ae 1a 3d fe 4b 87 3d
       0.10155253 -0.042821284 0.037763983 0.06606291
0000f0 91 2a b1 3d 14 7a bb 3d 4f f7 24 3d 91 a2 3b bc
       0.08650697 0.09154144 0.040274914 -0.011452333
000100 87 d0 c8 3d 48 82 af 3d 2b 1b 2a 3d 2d 3e e0 3d
       0.098053984 0.08569771 0.041529816 0.10949359
000110 e5 02 c1 3c fe 0a 06 bd 1e be d9 3d 4f 5a 10 3e
       0.02356095 -0.032725327 0.10631965 0.1409695
000120 db 5d 88 bd 20 77 25 3d d4 fa cb 3c f7 87 f7 3d
       -0.066585265 0.04039681 0.024899878 0.1208648
000130 6c 34 ff 3d 5a 27 87 3d 1e 2a a7 3b ad 31 86 bd
       0.124611706 0.065993026 0.0051014563 -0.06552444
000140 c6 6c a8 3d b6 38 b0 3d 66 d4 15 3d 86 d9 8d 3d
       0.08223872 0.08604567 0.036579512 0.06926255
000150 2a f8 ec 3d 1a 3d 3f 3d e4 ed e8 3d 80 04 d4 ba
       0.11570771 0.04668913 0.11373499 -0.0016175658
000160 8c 3b b2 3d 82 ab 80 3d cf 7e e7 ba bd 9d c6 bc
       0.08702764 0.062827125 -0.0017661693 -0.024245137
000170 1a 95 15 3d eb 09 be 3d f0 2c ba 3d 4c 7c 90 3c
       0.036519147 0.092792355 0.090906024 0.017637394
000180 0d 6c be 3d d2 27 94 3d 83 09 5a 3d 38 02 f0 3d
       0.09297953 0.072341576 0.053231727 0.11719173
000190 d3 74 b8 bd 43 32 08 bc f5 7b 5b bd b5 e5 b1 3d
       -0.090066575 -0.008312765 -0.05358501 0.08686391
0001a0 1d bd d1 3d 3d bb c9 bb 45 c9 ed 3c 55 16 01 3e
       0.102411486 -0.0061563537 0.029026637 0.12606175
0001b0 3f 6a 70 3d 46 44 b6 3d 62 e0 10 3d fe b5 49 bd
       0.058695074 0.08899741 0.035370238 -0.049245827
0001c0 5b 16 8d 3d 54 fe b2 3d 30 2e aa bc 49 97 9e 38
       0.068890296 0.087399155 -0.020773977 7.562206e-05
0001d0 f2 8f 4f 3d 53 2b 6e bc 37 d0 c5 3d 28 27 a9 3d
       0.050674386 -0.0145366965 0.096588545 0.082594216
0001e0 d8 f3 45 3c e1 c6 ff 3d f6 4a 76 3d b7 b6 bf 3c
       0.012082063 0.12489105 0.060130082 0.023402555
0001f0 f2 03 fa bc bf d8 90 3c 28 a8 bc 3d 30 26 02 3e
       -0.03051946 0.017681478 0.09211761 0.1270988

network_body._body_endoder.seq_layers.2.weight f4 [128, 128]
000000 b5 d8 27 bb 7d 2c 95 3d e3 f3 5d 3e d0 29 e4 3d
       -0.0025611345 0.07283876 0.21675067 0.111407876
000010 d9 cd 11 3d c2 09 72 bd 3e cd 09 3e a2 e0 01 3e
       0.035596702 -0.059091337 0.134572 0.12683347
000020 1c cd 97 bb 38 37 6d 3d 48 34 a5 3d 73 67 2f 3d
       -0.0046326052 0.05791399 0.080666125 0.042823266
000030 6c d5 8d 3d 67 85 fe bd ec 19 13 3e 95 3e b2 bd
       0.069254726 -0.12427788 0.14365357 -0.08703343
000040 2d a1 41 3e 23 2a 18 bd 24 68 c6 bd a8 49 39 bc
       0.1890914 -0.03714956 -0.09687832 -0.011309065
000050 a2 76 c5 bd 51 cd 75 3d 5c 0f 2a 3e e7 5a bb bd
       -0.09641768 0.060010258 0.16607422 -0.091481976
000060 b8 ce 84 3c 80 cc bd bd 42 cb b1 3b f1 9e d6 bc
       0.016211852 -0.09267521 0.0054258415 -0.026198836
000070 c6 28 1f 3e 2e be 76 3d 9b a9 3e 3d 2d 89 26 bd
       0.15542898 0.060239963 0.046548467 -0.040658165
000080 4c d7 c7 3c a1 af 12 be 93 1b 75 3d 98 50 c7 bd
       0.024394654 -0.1432481 0.05984075 -0.09732169
000090 19 bb 54 3d 09 0a 62 3b a7 31 47 bd f5 98 0c be
       0.051936243 0.0034490845 -0.048631337 -0.13730223
0000a0 92 e5 ba 3c 84 fc 55 3e 48 64 d4 3d f3 83 c0 bd
       0.022814546 0.20897108 0.1037069 -0.09400167
0000b0 79 01 87 3d 84 99 95 bd c9 99 95 bc 3b 0e ec 3c
       0.06592078 -0.073046714 -0.018261807 0.02881538
0000c0 13 a7 46 3e 37 4a a2 3d 9f 1b b2 3c 20 13 17 3c
       0.19399671 0.079243116 0.021741686 0.009220868
0000d0 02 db 3b 3d e2 d3 e8 3d 25 a1 b9 3d b1 68 3c bd
       0.04586316 0.113685384 0.09063939 -0.04599828
0000e0 c3 5f a6 3c 94 b1 ef 3d 23 63 84 3d f2 a0 98 3d
       0.020309335 0.11703792 0.06464221 0.07452573
0000f0 05 23 f0 3d 94 5c 2e bb 92 6e 6f bd 09 dc de 3d
       0.117254294 -0.0026605474 -0.058455057 0.10881812
000100 9b 94 96 3d c3 92 70 3e e8 72 60 3c 4f 9e f7 bd
       0.07352563 0.23493485 0.013699271 -0.12090742
000110 41 34 0e be b8 93 a9 3c e7 dd 0c be 15 65 5d bd
       -0.13887121 0.02070032 -0.13756524 -0.054051477
000120 4a b7 03 be 4c 1e 1b 3c 38 ea a7 3d 9d 5c 39 3e
       -0.12862888 0.009467673 0.081989706 0.18101735
000130 e0 dc 18 bd e8 82 d2 3d ab 70 4e 3e e1 52 b0 bc
       -0.037320018 0.10278875 0.20160167 -0.021523895
000140 69 bd ba 3d 36 9a 7c bd b0 6e a6 bc 20 0e a5 3d
       0.09118158 -0.061670505 -0.020316452 0.08059335
000150 7e 8b b8 bd 1d e7 fd 3d 40 61 42 3e 50 f3 fd bd
       -0.09010981 0.12397597 0.1898241 -0.12399924
000160 51 30 6b bd 28 55 25 3d 98 51 9c 3d 6b 4b 96 3d
       -0.057419125 0.040364414 0.0763275 0.073386036
000170 20 52 b7 bd 5b 7a a8 3c fb df 25 be 83 c7 82 3d
       -0.08951211 0.020566156 -0.16198723 0.0638571
000180 08 c9 4d 3d 88 79 c5 3b 85 2e 23 3c 68 f8 0f 3e
       0.050240546 0.0060264505 0.009959822 0.14059603
000190 1c 18 d9 3d a5 65 bd bc 74 69 a5 bd b1 6f 6b 3d
       0.106003016 -0.023119757 -0.08076754 0.057479564
0001a0 fb 68 7f bd af 97 c2 3d f2 45 67 be e2 a3 55 3e
       -0.062355977 0.095015876 -0.22585276 0.20863298
0001b0 9b 4f 8b 3e 29 8a 00 3e 80 33 ea bc 22 28 45 be
       0.27209172 0.12552704 -0.02858901 -0.1925359
0001c0 3b b5 7f 3b 14 d6 44 bd b1 eb de 3d 14 7f c3 3d
       0.0039017934 -0.048055723 0.10884798 0.095457226
0001d0 9e 9c ba 3d a1 1f 20 bd ec c9 de 3d 51 b6 5b bd
       0.091119036 -0.039092664 0.10878357 -0.053640667
0001e0 ae eb 57 bc 4a 45 35 3e ea 0c 83 bb c4 92 6c 3d
       -0.013178749 0.17702213 -0.003999342 0.057757154
0001f0 54 05 99 bd d4 90 15 3d 1e 82 99 bd cc 15 1a 3e
       -0.074717194 0.036515072 -0.07495521 0.15047377
000200 10 18 5f 3e e1 1a 24 be 91 52 24 be f9 84 15 3d
       0.21786523 -0.16025878 -0.16047122 0.036503766
000210 1b 05 83 3e 44 24 76 bc e2 8b 5d 3c 6f 2e 17 3c
       0.25589833 -0.015023295 0.01352212 0.009227379
000220 fc 9b 39 ba 54 81 5b bd 9e cb 23 bd 31 bd 7a bd
       -0.00070804334 -0.053590134 -0.039989106 -0.061215583
000230 62 8b 5e bd fd 17 82 3c bd 9a 0c bd 26 47 50 3d
       -0.054332145 0.01588058 -0.034327257 0.050849102
000240 ac 5f cb bd db cf da 3d 2c 9b 48 3d 91 e3 e1 bc
       -0.09930357 0.106841765 0.04897611 -0.027574332
000250 52 d1 78 bd ad b5 d6 bd 8d cb f3 bd 03 70 da bd
       -0.0607465 -0.10483871 -0.119040586 -0.10665896
000260 68 18 87 ba 36 95 f0 3c 2b ec 46 bd ff 37 d5 bd
       -0.0010306956 0.029368024 -0.04856507 -0.10411071
000270 dc 4c 83 bc d8 af 81 bd 72 5c fc 3d eb 1e 15 3e
       -0.01602786 -0.06332368 0.1232232 0.14562576
000280 9b 2d fe 3d 53 da be 3d 99 a3 ed bd 29 90 95 3d
       0.12411042 0.09318986 -0.116034694 0.07302887
000290 e4 16 ed 3d 8c 78 8a bd 36 87 a4 3c 88 33 99 bd
       0.11576632 -0.06761274 0.020084005 -0.07480532
0002a0 95 dc d0 bd 37 4e 25 be 60 ec 38 3a 45 79 e9 bd
       -0.10198323 -0.16143118 0.00070542656 -0.114000835
0002b0 c1 73 c9 3d ab 74 88 3c a2 9c 9c bd 2b 95 a0 bd
       0.098365314 0.016657194 -0.07647063 -0.078409515
0002c0 f2 82 86 bd ef d5 25 3e 9f ad 21 be c6 56 85 3d
       -0.065679446 0.1619489 -0.15788887 0.06510691
0002d0 3f 34 56 3e 23 c3 4a bc 12 74 84 bd 55 56 4b bd
       0.20918368 -0.012375626 -0.06467451 -0.04964288
0002e0 43 fc 0f be 07 13 12 3e 70 11 1d bd 51 9f 3f bd
       -0.14061074 0.14265071 -0.038346708 -0.046782795
0002f0 86 61 ef 3d aa f4 74 3b f5 07 e5 3d 26 fd 56 3d
       0.11688523 0.0037377276 0.11183158 0.052487515
000300 47 b3 0d bd a7 24 84 bd 20 98 01 3e cd 93 be bc
       -0.0345948 -0.064523034 0.12655687 -0.023263836
000310 a5 64 0a 3d 76 18 e3 bb 0d 7e d1 bd 31 57 a6 3d
       0.03378739 -0.006930406 -0.102291204 0.08122099
000320 9d d0 0a bd f1 b9 94 bc a4 a9 c4 3c 52 b1 cb 3c
       -0.033890355 -0.01815507 0.024006672 0.024864826
000330 09 80 94 3d 99 12 15 3c 33 ee 1e be ed ab 2c 3d
       0.07250983 0.009098672 -0.15520553 0.04215615
000340 e3 e5 5e bd 27 7f 81 3d f5 18 a1 be 62 59 02 be
       -0.054418456 0.063230805 -0.31464353 -0.1272941
000350 bb 4e b1 bb 78 ca 52 bd 75 0c 77 3d 68 3d 23 3d
       -0.0054109967 -0.05146262 0.060314614 0.039853483
000360 ca b6 db bd 45 d8 9f 3b df 7a 27 bc 5d ea c8 bc
       -0.107282236 0.0048780763 -0.010222166 -0.024525816
000370 29 bf 9a 3d 32 c0 3c be 03 3e 1c bd 58 84 c7 3c
       0.07555992 -0.18432692 -0.038145076 0.024355099
000380 fe 4b 34 be b3 a9 8e 3d 99 7f 45 bc 8f d4 f8 bd
       -0.17607114 0.06965961 -0.012054347 -0.12149917
000390 4c 0e 86 3e ae e9 a0 bd 6d 8a 4f 3d 5d 07 2c be
       0.26182783 -0.07857071 0.050669122 -0.16799684
0003a0 97 2a 74 bd c8 92 f6 3c 9f 78 0d be 17 c9 95 bd
       -0.05961093 0.030099288 -0.13815545 -0.073137455
0003b0 ff 5f 1c 3d dd 59 18 3d c3 2f c8 3c 43 78 36 3e
       0.038177487 0.037195075 0.024436837 0.17819314
0003c0 8d 30 1f 3e 1d 62 31 3d 98 79 60 3e 03 2a 14 be
       0.15545864 0.04330646 0.21921384 -0.14469151
0003d0 38 90 0c 3e d3 17 12 3e 97 c8 88 bd 25 fe ba 3d
       0.1372689 0.142669 -0.066788845 0.091305055
0003e0 59 bf 51 be 9e a2 f5 bd ce 78 f4 bd 38 dc e7 3d
       -0.2048315 -0.119939074 -0.11937104 0.113213
0003f0 b0 c9 9a bc ef 74 60 3d 90 8a c3 bc ae 16 62 bd
       -0.018895 0.054799017 -0.023869783 -0.05519741

network_body._body_endoder.seq_layers.2.bias f4 [128]
000000 52 34 be 3d c4 db b9 39 cd dc 2e 3d 20 90 c1 3d
       0.09287323 0.00035449688 0.04269104 0.09451318
000010 5f 65 76 bd 1a d3 a1 3c f5 5e dc 3d 3f f8 7f 3d
       -0.06015527 0.019753981 0.10760299 0.062492605
000020 34 74 a3 3c 1a 54 c6 3d d5 96 98 3c de 72 7f bd
       0.01995287 0.0968401 0.01862661 -0.062365405
000030 e7 7f c5 3b 7e 8d 32 3d a5 e7 e3 bc b1 99 7e 3d
       0.00602721 0.04359197 -0.027820418 0.06215829
000040 60 d2 85 bd 89 2c c4 bd d7 93 c2 3d 68 4c 85 3d
       -0.065342665 -0.09578807 0.095008545 0.06508714
000050 f5 61 ba 3d ae 9f 97 3d 26 bf 73 3d 39 c4 a7 3d
       0.09100715 0.07403503 0.059508465 0.081917234
000060 12 18 a8 3d 7b 08 b1 3d fc 94 a4 bd 14 f0 b8 bd
       0.08207716 0.08644196 -0.08036229 -0.09030166
000070 c6 87 a3 3d d7 4a 8f 3d 60 75 b4 3d ec 11 fd 3c
       0.07984881 0.069966964 0.0881145 0.030892335
000080 4f 76 9f 3d 3a ce 7d 3d 44 85 e4 3d 12 06 ca 3d
       0.077862374 0.06196425 0.11158231 0.09864439
000090 1b ce d0 3d 04 ea 90 3d 9d 72 51 3c c3 9c d1 3d
       0.101955615 0.07075885 0.012783674 0.10234978
0000a0 31 f6 24 3d 95 d1 d8 3d 08 48 35 bd 8c 1b 42 3d
       0.04027385 0.105868496 -0.044258147 0.047389552
0000b0 1d 16 a3 3c a5 c5 ac 3c ca b8 d2 3d 8d a1 cd 3c
       0.019908005 0.021090338 0.10289152 0.025101447
0000c0 f7 88 dd 3d 40 50 83 3d 90 34 37 3d a7 07 bf 3d
       0.108171396 0.06411791 0.044727862 0.093276314
0000d0 24 05 5a bd 9a 15 e3 3d 5f 90 bf 3c fd 31 d8 3d
       -0.05322756 0.110881045 0.023384271 0.105564095
0000e0 b3 62 af bc ac 10 b0 3c fe bc 3f bd 6e 6d ba 3d
       -0.021409368 0.021492325 -0.046811096 0.09102903
0000f0 da 12 85 3d 09 fc c0 3d da 16 5a 3c c9 b2 bf 3d
       0.06497736 0.09423072 0.013311112 0.093602724
000100 ec f1 cd 3d 40 52 94 bc f9 52 69 3d d2 3d 55 3a
       0.100559086 -0.018105626 0.056963895 0.0008134517
000110 b3 c4 bd bd b2 96 94 3d c0 48 64 bc 97 76 a2 3d
       -0.09266033 0.07255305 -0.013933361 0.079327755
000120 d2 7d df 3d 91 9f 72 3d 1d 71 a4 bd 47 d3 bb 3d
       0.1091267 0.059234206 -0.08029387 0.09171157
000130 af 3c ed 3d b9 77 de 3d 21 ed 65 3d 18 aa b3 3d
       0.1158384 0.10862679 0.056134347 0.08772677
000140 72 11 38 bd 29 5c 9c 3d 28 f0 d9 3d 9f 24 10 bd
       -0.044938512 0.07634766 0.10641509 -0.035191175
000150 42 60 ad 3c e6 61 0b 3d 54 33 82 3d 15 fb 34 bb
       0.021164063 0.03402891 0.06357446 -0.0027615477
000160 93 b9 bd 3d 5e b8 e3 bd 83 6d c8 3d 1c 40 76 3d
       0.09263911 -0.111191496 0.09786513 0.060119733
000170 ab 83 b0 bc 0c 75 55 3d c6 e4 53 3d fb 09 87 bd
       -0.02154716 0.052113578 0.051731847 -0.065937005
000180 6d 1e cf bc 7f 2a 82 3c a1 44 93 3d 0f 8c 1a bd
       -0.025283063 0.015889404 0.07190824 -0.037731227
000190 b4 b2 15 3d c0 fd a2 3d 54 25 cc 3c 57 62 09 3e
       0.036547378 0.07958555 0.024920143 0.1341642
0001a0 04 68 8f bd e0 cf fd 3d 27 41 f0 3d 24 54 db 3c
       -0.07002261 0.12393165 0.11731177 0.02677352
0001b0 89 11 3f 3d 6e 21 90 b9 a1 a6 9a bc 3e c0 3a bc
       0.046647582 -0.00027490727 -0.018878283 -0.011398373
0001c0 52 45 8a 3d fc a7 b1 3d 1b bc 0a bd 3a 4b 95 bc
       0.06751503 0.086746186 -0.033870798 -0.018224347
0001d0 50 94 ab 3c d3 a2 ca 3d 16 3b c7 bd a1 51 96 bc
       0.020944744 0.098943375 -0.097280666 -0.01834947
0001e0 86 2b f0 3d 2a 70 88 3d bb a5 69 3d a7 b4 83 3a
       0.117270514 0.066620186 0.05704282 0.0010048345
0001f0 55 0e ad bd e8 75 a0 3d d8 3b 0d bd 93 fb 08 3d
       -0.08449999 0.07834989 -0.0344809 0.033443045

action_model._continuous_distribution.log_sigma f4 [1, 2]
000000 45 0c 68 bf eb df 06 bf
       -0.9064372 -0.5268542

action_model._continuous_distribution.mu.weight f4 [2, 128]
000000 ad d2 4a 3d 90 f9 62 3d ca 60 5b bd 3e 74 25 3d
       0.049517322 0.055413783 -0.053559102 0.04039406
000010 ad 88 f2 3c dd 6a a1 3d 41 d6 f2 3a 79 18 c0 bd
       0.029606188 0.07881711 0.0018526987 -0.09379668
000020 60 c1 61 bd 30 b5 3c bb ed 5b c2 bd a6 92 ba bc
       -0.055116057 -0.002879452 -0.0949019 -0.022775006
000030 a6 0d 8e bd 74 a2 ca 3d d5 35 fd 3b 2f b6 46 bd
       -0.06936197 0.09894267 0.0077273645 -0.048513588
000040 97 80 64 3b 77 2f 1d bc e7 fe 5f 3d 90 1c b9 3d
       0.0034866685 -0.009593836 0.054686453 0.09038651
000050 01 c8 01 bd 63 27 57 bc 15 4c e5 3d 1f c7 42 3d
       -0.03168488 -0.013131949 0.11196152 0.047553178
000060 4c 8f e0 bd a4 8e ae bc 9e b7 58 bd f2 ec 11 3c
       -0.10964832 -0.02130825 -0.052909486 0.00890659
000070 e1 53 5d 3d d9 b6 bb 3d 1c 68 2c 3d 26 fc 00 3e
       0.05403507 0.09165735 0.042091474 0.12596187
000080 6c 0f 95 3d 50 93 f9 3c 97 a5 dc 3c 51 b3 4c 3c
       0.07278332 0.030465752 0.026934428 0.012493924
000090 1b 7b d9 bc aa a8 8b 3d 37 07 f0 3d ed 9b 03 be
       -0.02654796 0.068192795 0.11720126 -0.1285245
0000a0 95 ce f0 3d ea 43 97 ba db bf e8 bb b0 83 da 3d
       0.117581524 -0.0011540626 -0.007102949 0.10669649
0000b0 c5 a6 b6 3d 4e f6 80 bd 7d 5b d4 bc 07 6c d4 3d
       0.089185275 -0.06296979 -0.025922531 0.10372167
0000c0 b8 ed b1 bd 4a 4d f2 3d 52 12 ac 3d d6 9c 94 3c
       -0.086879194 0.11831148 0.08401932 0.018141191
0000d0 10 8c 0f 3e f1 52 bf bd a6 ee cb bd 6a cb 3d bc
       0.14018273 -0.09341992 -0.09957628 -0.011584142
0000e0 25 38 73 bd 75 11 96 3d e8 67 43 3d 5c 4b 16 3d
       -0.059379715 0.073275484 0.047706515 0.036692962
0000f0 53 c6 d4 3d 44 9f ed bc 3f 73 9a bd a0 47 59 bd
       0.1038939 -0.029006608 -0.07541513 -0.053046823
000100 25 a6 8a bc 89 1d eb bd 99 2c 02 3e aa 31 c1 ba
       -0.016924927 -0.11480243 0.12712325 -0.0014739532
000110 8d 0b 9d bc e2 cd 84 3d 3c 6e 7f 3d 29 12 c1 bd
       -0.019170547 0.064845815 0.062360987 -0.09427292
000120 3f ca c1 bc 56 b2 91 3d 7f a8 9a bd a8 4c 87 bd
       -0.023656009 0.07114093 -0.07551669 -0.06606418
000130 e5 36 47 3a 38 fc cf 3c 40 14 9f 3d 65 13 bb 3d
       0.00075994275 0.025388822 0.07767534 0.091345586
000140 7c a5 82 3d 2d e3 20 3d 25 33 64 3d a7 cd e9 bd
       0.0637922 0.03927915 0.055712838 -0.11416178
000150 b5 f3 d5 3d ea 10 a2 bd d5 3a 1a 3d 41 a5 99 3d
       0.10446874 -0.07913382 0.037653763 0.07502223
000160 0d 50 65 bc f7 d9 0e ba 5a fa 5f bd ef 99 ed 3c
       -0.013996136 -0.00054493494 -0.054682113 0.029004065
000170 d3 d4 b6 3d 4f 0c c1 bd 24 95 d7 3d cf 4f b0 3d
       0.08927312 -0.09426176 0.10526493 0.08608972
000180 14 f6 2d 3c fa f5 06 3e d9 9c 3e bd b2 5c 16 bc
       0.010617752 0.1317977 -0.0465363 -0.009177374
000190 6d f5 10 3e b5 82 69 3d 5a e0 16 3d c5 70 b0 bd
       0.14156123 0.057009418 0.036835052 -0.08615259
0001a0 96 95 25 bd ea fd 83 bd de c9 f3 bb 11 1b ec bd
       -0.04042586 -0.06444915 -0.007439836 -0.115286
0001b0 5c a7 08 bd 8e 69 f5 3d d8 dd 80 bd a5 7f c6 bd
       -0.03336273 0.119830236 -0.06292313 -0.09692315
0001c0 68 e8 98 3d 96 51 49 3d a2 82 71 bd 02 89 b7 3d
       0.07466203 0.049150072 -0.05896247 0.08961679
0001d0 dd 13 98 3d 69 41 48 3b 30 e6 b3 bc e3 ef 7f 3d
       0.074256636 0.0030556566 -0.021960348 0.062484633
0001e0 22 72 19 bc 5b 08 72 bd d9 3b 8b bd 7d 27 f2 bd
       -0.00936559 -0.05909 -0.067985244 -0.11823938
0001f0 ba bf 05 bd e8 90 c4 3d f1 a6 b6 bd 5d 80 97 3d
       -0.032653548 0.09597951 -0.0891856 0.0739753
000200 df 95 92 3d 06 48 f8 bd 8e 1b 4b 3d fc a5 83 3d
       0.07157492 -0.121231124 0.049586825 0.064281434
000210 7c c9 ec bd ca 60 28 bd 1b 61 c8 3d 2f fd 66 3d
       -0.115618676 -0.04110793 0.097841464 0.0563938
000220 71 17 86 3d a1 e3 cb 3d 27 3f 23 3a 5e 24 c3 bd
       0.0654744 0.09955526 0.0006227367 -0.09528421
000230 93 cd 8c 3b 90 ef c0 bb 17 55 44 be c0 98 3a 3d
       0.0042969673 -0.005887933 -0.19173084 0.04555583
000240 6a 6b e6 bd f7 da 44 bd 04 9d b4 3d 56 50 c9 3c
       -0.11250956 -0.048060384 0.08819011 0.02457444
000250 bc 7c bb 3d 1f cc 63 3d 6a 57 47 3c e3 be b9 3d
       0.091546506 0.055614587 0.012166837 0.09069612
000260 ea 5b c3 3d 3d 57 de 3d d8 9c 8d bd fa 81 14 be
       0.095390156 0.10856483 -0.06914681 -0.14502707
000270 d8 5d f9 3c bd 43 73 3d 61 e7 b5 3d e7 4c 91 3c
       0.030440256 0.059390772 0.08882023 0.017736865
000280 b7 26 27 3d d6 c9 61 3d 7a aa b9 3d 4b c6 9b 3d
       0.040808406 0.055124126 0.09065719 0.07606181
000290 52 8a ce 3d 15 5f f8 3b 5e 78 74 bd 06 81 cc 3d
       0.10084976 0.007579694 -0.059685104 0.09985547
0002a0 de 91 b8 bd ea 94 92 3d 83 81 cc bd 23 5e 15 be
       -0.09012197 0.07157309 -0.0998564 -0.14586692
0002b0 0a f4 9f 3c 24 e7 59 3d 3b 7b 09 3e 3e 83 13 bd
       0.019525547 0.05319895 0.13425915 -0.036013834
0002c0 95 b8 d9 3d 60 30 f2 ba c0 da 6c 3b 8b 1f 4d 3d
       0.10630909 -0.0018477552 0.0036141127 0.05007891
0002d0 8d da cc bd 6f 3c d5 3d 27 f4 1d 3d c0 cc c7 3d
       -0.10002623 0.104119174 0.03856292 0.0975585
0002e0 9c ea a8 3b 7f eb 21 3c 2a 44 22 be f5 bf 80 3d
       0.0051549207 0.009882807 -0.15846315 0.06286613
0002f0 d4 e1 bc 3b 5e c6 94 3d d1 e6 a6 bd ed dd d8 3d
       0.0057642255 0.07264398 -0.081494935 0.10589204
000300 91 d9 c6 3d 00 05 a8 bb 6a c8 dc 3c e9 df 42 3d
       0.09709466 -0.005127549 0.026951034 0.04757682
000310 6f 96 52 bd 38 85 40 3d 82 37 7e bd a9 44 c7 3d
       -0.051412996 0.047002047 -0.062064655 0.09729893
000320 6c 4c cb 3d c0 95 cc 3c da 7a 6c bd 07 bd 0a 3e
       0.09926686 0.02497375 -0.057734348 0.1354867
000330 0f a1 ba 3d 8c 96 dc 3d e6 18 3c 3d 6e 2e 78 3d
       0.09112751 0.10770902 0.045922183 0.060591154
000340 83 fb 1b be 61 7e 22 3d 18 47 d2 3d b9 c2 80 bc
       -0.15232663 0.039671306 0.10267466 -0.015717851
000350 00 6f 8b bc e8 e1 92 3d 7e 5c 84 3d a6 b2 6b bd
       -0.017020702 0.071719944 0.06462954 -0.05754342
000360 80 2b a8 3d 9c 41 66 bd a7 00 e5 3d 94 9c 4c 3d
       0.08211422 -0.056214914 0.11181765 0.049954012
000370 d1 9e c5 bd b0 ac 94 3d e1 bb 49 3d b6 44 19 be
       -0.096494325 0.072595 0.04925144 -0.14967617
000380 f0 24 8e 3b 10 77 8b bc 67 7b 8c 3d ca b9 a3 bd
       0.0043378994 -0.017024547 0.06859475 -0.07994421
000390 d7 d2 9b bd 84 f8 49 3d 02 9f c4 bb 54 a3 03 3e
       -0.07608574 0.04930927 -0.0060004005 0.12855273
0003a0 8b bb fa bd c9 6e 1b 3e 68 bd f7 3d 04 a7 22 3d
       -0.12242802 0.1517898 0.12096673 0.03971006
0003b0 9f 19 85 3d dc f4 ac bd 96 54 32 3c df 3e 18 bd
       0.064990275 -0.08445141 0.010884425 -0.037169334
0003c0 28 bc 98 3c c4 69 a4 3d b9 4f 1a bd ed c4 bc bd
       0.018644407 0.08027986 -0.037673686 -0.09217248
0003d0 4d a3 8d bd ba 33 a2 3d 08 48 09 be 15 65 d8 bd
       -0.06915913 0.07920022 -0.13406384 -0.10566155
0003e0 10 c9 0e 3e f4 4a 84 3d 99 bb 0f 3e 05 c1 4c bc
       0.13943887 0.06459609 0.14036407 -0.012497191
0003f0 56 60 51 bd 11 14 17 3d 65 eb d8 bc 14 e2 05 bd
       -0.051117264 0.03688437 -0.026479432 -0.032686308

action_model._continuous_distribution.mu.bias f4 [2]
000000 14 4c ac 3c 6a 7c d2 3d
       0.02103237 0.10277636

onnx::Div_61 f4 [28]
000000 02 75 44 3e 0f 78 ea 39 80 20 f7 3e 95 64 a7 3e
       0.1918526 0.0004472141 0.48266983 0.32693925
000010 f2 ad 51 3d 0f 78 ea 39 58 b9 ff 3e 2c e9 a8 3e
       0.051191278 0.0004472141 0.49946094 0.32990396
000020 1d 96 7a 3e 0f 78 ea 39 94 5b f2 3e ef 8b a5 3e
       0.24471326 0.0004472141 0.47335494 0.32333323
000030 d2 1f a3 3d 0f 78 ea 39 58 9c fc 3e 06 c9 b5 3e
       0.079650536 0.0004472141 0.4933803 0.3550493
000040 f3 63 a7 3e 0f 78 ea 39 9c 9c fc 3e 10 e7 ae 3e
       0.32693443 0.0004472141 0.49338233 0.34160662
000050 77 f0 b3 3d b8 98 b8 3c 74 52 fa 3e 88 9f b7 3e
       0.087860994 0.02253376 0.48891032 0.358639
000060 c3 88 a7 3e 0f 78 ea 39 d4 a7 ff 3e f0 64 b3 3e
       0.32721528 0.0004472141 0.4993273 0.35037947

onnx::Div_64 f4 [5]
000000 49 04 96 3f b0 c9 28 3e ef 56 6e 3f 1f 78 65 3f
       1.1720058 0.16483188 0.931014 0.89636415
000010 fd 9d 57 3f
       0.84225446
