results/ParkingTest_02/CarParking/CarParking-4999988.pt (torch, 532730 bytes, 52 tensors)

network_body.observation_encoder.processors.0.normalizer.running_mean f4 [28]
00000000: 42a7 1c3d 0000 0000 7249 bd3e 76f1 253f
00000010: e539 2c3b 0000 0000 192f 063f 57ba 463f
00000020: a2dc 823d 0000 0000 9f9d ad3e 8edb 1b3f
00000030: b65a d13b 0000 0000 5077 d63e 05b1 2d3f
00000040: 0c0d f93d 0000 0000 2d1c d73e 1de4 263f
00000050: 2e6a ff3b 9551 053a f94a ca3e 0d72 203f
00000060: ba88 f93d 0000 0000 e876 f33e 322e 2e3f
0.038245447 0.0 0.36970097 0.64821565 0.0026279625 0.0 0.52415615 0.7762808
0.063897386 0.0 0.33909318 0.6088189 0.0063889874 0.0 0.41887903 0.67848235
0.121606916 0.0 0.42013684 0.65191823 0.00779464 0.0005085704 0.39510325 0.6267403
0.12184282 0.0 0.47551656 0.6803924

network_body.observation_encoder.processors.0.normalizer.running_variance f4 [28]
00000000: 2cb9 3348 0000 803f 8231 8e49 d47a 0249
00000010: d4ba 4c46 0000 803f 3b42 9849 5edb 0449
00000020: c833 9248 0000 803f 10c2 8849 193c ff48
00000030: f0d1 f746 0000 803f f092 9449 aae1 1949
00000040: d679 0249 0000 803f 3f93 9449 2273 0e49
00000050: b0c5 1647 89ad 1e45 dfe4 9149 4402 1d49
00000060: 41b3 0249 0000 803f 602d 9849 38dc 1549
184036.69 1.0 1.1648482e+06 534445.25 13102.707 1.0 1.2473034e+06 544181.9
299422.25 1.0 1.120322e+06 522720.78 31720.969 1.0 1.217118e+06 630298.6
534429.4 1.0 1.2171279e+06 583474.1 38597.688 2538.846 1.1951639e+06 643108.25
535348.06 1.0 1.246636e+06 613827.5

network_body.observation_encoder.processors.1.normalizer.running_mean f4 [5]
00000000: 7a7f 3140 b10d 063f 10dd c93f 4ef5 123f
00000010: 4433 963e
2.7734056 0.5236464 1.5770588 0.57405555 0.29335988

network_body.observation_encoder.processors.1.normalizer.running_variance f4 [5]
00000000: 0998 d14a dca9 0448 cb42 844a d932 754a
00000010: 2c7d 584a
6.8679725e+06 135847.44 4.3339255e+06 4.0173342e+06 3.546955e+06

network_body.processors.0.normalizer.running_mean f4 [28]
00000000: 42a7 1c3d 0000 0000 7249 bd3e 76f1 253f
00000010: e539 2c3b 0000 0000 192f 063f 57ba 463f
00000020: a2dc 823d 0000 0000 9f9d ad3e 8edb 1b3f
00000030: b65a d13b 0000 0000 5077 d63e 05b1 2d3f
00000040: 0c0d f93d 0000 0000 2d1c d73e 1de4 263f
00000050: 2e6a ff3b 9551 053a f94a ca3e 0d72 203f
00000060: ba88 f93d 0000 0000 e876 f33e 322e 2e3f
0.038245447 0.0 0.36970097 0.64821565 0.0026279625 0.0 0.52415615 0.7762808
0.063897386 0.0 0.33909318 0.6088189 0.0063889874 0.0 0.41887903 0.67848235
0.121606916 0.0 0.42013684 0.65191823 0.00779464 0.0005085704 0.39510325 0.6267403
0.12184282 0.0 0.47551656 0.6803924

network_body.processors.0.normalizer.running_variance f4 [28]
00000000: 2cb9 3348 0000 803f 8231 8e49 d47a 0249
00000010: d4ba 4c46 0000 803f 3b42 9849 5edb 0449
00000020: c833 9248 0000 803f 10c2 8849 193c ff48
00000030: f0d1 f746 0000 803f f092 9449 aae1 1949
00000040: d679 0249 0000 803f 3f93 9449 2273 0e49
00000050: b0c5 1647 89ad 1e45 dfe4 9149 4402 1d49
00000060: 41b3 0249 0000 803f 602d 9849 38dc 1549
184036.69 1.0 1.1648482e+06 534445.25 13102.707 1.0 1.2473034e+06 544181.9
299422.25 1.0 1.120322e+06 522720.78 31720.969 1.0 1.217118e+06 630298.6
534429.4 1.0 1.2171279e+06 583474.1 38597.688 2538.846 1.1951639e+06 643108.25
535348.06 1.0 1.246636e+06 613827.5

network_body.processors.1.normalizer.running_mean f4 [5]
00000000: 7a7f 3140 b10d 063f 10dd c93f 4ef5 123f
00000010: 4433 963e
2.7734056 0.5236464 1.5770588 0.57405555 0.29335988

network_body.processors.1.normalizer.running_variance f4 [5]
00000000: 0998 d14a dca9 0448 cb42 844a d932 754a
00000010: 2c7d 584a
6.8679725e+06 135847.44 4.3339255e+06 4.0173342e+06 3.546955e+06

network_body._body_endoder.seq_layers.0.weight f4 [128, 33]
00000000: 84fa 063f 5a9d 613d 7952 1cbd 8eac 1dbd
00000010: 1305 373e bf82 bd3d 570b 783e c756 393e
00000020: 833d 39bd 8378 9d3c c4cb 353d 2da7 ddbb
00000030: a908 9abe 8629 623e 5d09 ff3d c778 283e
00000040: 2caf 0d3e 1d7b 3e3e 7186 8f3e ab96 a3bd
00000050: 11cb a2bd 15c4 363e af11 f63b 474f 07be
00000060: 51da 313e b473 34be b498 04be d1a3 623e
00000070: 8815 1ebe 0eae 51be 24b3 8d3e c85c bbbe
00000080: 8277 203e adfd 1bbe 7129 adbd 437d 18be
00000090: f0e7 ccbd 0c20 cfbe d336 1d3e 9520 b8be
000000a0: 04c1 53be fb1c 00be 4fc7 aa3c 0825 c5bd
000000b0: 79e5 583e 1505 423c a922 993d c5af cd3e
000000c0: 5606 683e 0c1f 743e 9803 5e3d d072 dabb
000000d0: c7b5 0bbd 4da6 d7bc a9b6 8cbe e61e 8e3d
000000e0: 3c73 21bd 1b42 b2be 9304 e93e 15b1 cfbd
000000f0: cc89 403e 8754 f1bd ca7f 323e 21ee 0bbd
00000100: c9f5 a9bd a4b2 00bd e1c6 28be efc6 f3bd
00000110: 0a2d df3c a618 493e 34b0 abbd 8c57 9bbe
00000120: 5956 813d 4d90 cebd 02e9 8a3e 84c2 90bc
00000130: 16de a83d d7b1 383e c36b 81bd cb44 8c3e
00000140: c052 513e 4c10 bbbd 824e 93bd 216c 27be
00000150: 206b 3cbe 7744 013f a7ed 843c 51a2 403e
00000160: 4c88 0b3e 39b1 903e 07f9 13be cbdb 40be
00000170: 8c96 af3b 0288 febe 573f 063e 3969 d83d
00000180: 538d 72be 9110 4abd 9a8a 363e 85af 3c3e
00000190: d5f4 61bc 6b7c 96bd 8668 1a3e 84bf 033e
000001a0: 8790 463d 9026 5dbe ba93 74bc ea65 cb3c
000001b0: cc7e 1c3e 7fa3 623e ff69 553c 1bc0 52be
000001c0: 35f7 033e e3b0 8cbd 9358 713d 1a77 0f3e
000001d0: be4f cabe 30d5 2dbe 0d36 e43d f971 463d
000001e0: c27e e43d fe6b a6bc ffee 883c 4208 253d
000001f0: 4556 35be 3439 9b3d 209f 973d 32c2 523d
00000200: 7802 873d 7eb4 4c3c f506 7dbe 74de 36be
00000210: dbe8 72bd cb5c d33d 8888 67bb 23ba 39bd
00000220: 0d9b c2be ff0b 89be 4694 ab3e 349f 7abe
00000230: e305 8dbd 9325 d7bd f449 6cbe 54e8 42be
00000240: e703 55bb 2ec2 a73d bf42 31be 5598 eb3c
00000250: fc4e 03be 50ef 46bd 13fa 5d3d c4a8 a43e
00000260: aa99 bebd 2fea 00be 2969 6a3e cb95 54be
00000270: 92a3 e2bd da6a 48be 64c4 163d b379 1ebd
00000280: 8752 e0be 8df6 123d ff6e 053d d1bd 98be
00000290: a2d4 82be f068 6d3d dd44 97bd e720 b5bd
000002a0: 19de 3d38 35f3 f83d 60ff 633e 912e 11be
000002b0: 2b60 7dbc 6e21 50be fa82 e6bb 1edb 71be
000002c0: e518 f23d d874 303c 74fe be3e 8b6f aabe
000002d0: 5694 f23b 9903 d9bd 4240 033e d12b 18bd
000002e0: f85b 2d3e e92a 9abc 0cc2 98bd d033 e3bd
000002f0: 66e6 1a3e 2c56 35be f455 79bd 6179 92be
00000300: 5e76 9abd bea7 803e 3912 ff3c 5ff7 9bbd
00000310: 0896 313e cb7c 4f3b 35aa 9ebe 15c6 58be
00000320: 0071 eb3c 5638 563e 86f5 07be 862b fab9
00000330: 0fbc 1ebf 21ce 24bc 6856 f63c 5d15 333e
00000340: 5d3e 363e 82f6 58bd 76fe 3b3e ec2c 41be
00000350: 5e25 ebbe 1276 8fbe 15f7 40bd 2d8a cbbd
00000360: 2310 4abd 8551 d5bd a295 04bb f7b5 03bf
00000370: e166 bc3a cfbb 9ebe af32 a6bc 92eb d93d
00000380: 5f8d 0bbe 4e89 dfbc 17c5 a7be 9793 263e
00000390: 176b 2fbe e042 7fbe 1a41 63be 7cd7 42be
000003a0: 06f2 3c3e 99f7 4abe f0e9 ad3d c10a fbbd
000003b0: 7057 643c 9509 8a3e b2d1 983e a416 02be
000003c0: 96c0 cebd a33a ab3e b4bf 803d abb7 d03d
000003d0: de41 933d 78f2 883b 9603 b53e 0a9e f8bd
000003e0: f981 4fbe 0fc4 053e 34b2 6c3e 8d85 1dbe
000003f0: aab7 26be e530 143e 3348 fb3d 4af5 23be
0.52726007 0.055081703 -0.03816459 -0.03849464 0.1787303 0.092534535 0.24223076 0.18099509
-0.045224678 0.019222504 0.04438378 -0.0067643137 -0.30084732 0.22086152 0.12452958 0.16452323
0.13836354 0.18601651 0.28032258 -0.07987722 -0.07948888 0.17848237 0.0075094323 -0.13213836
0.17368437 -0.17622262 -0.12948877 0.22132803 -0.15437901 -0.20476553 0.27675736 -0.36594224
0.15670589 -0.15233488 -0.0845517 -0.14891534 -0.10005176 -0.40454137 0.15352945 -0.35962358
-0.20679098 -0.12511055 0.02084699 -0.09626204 0.21181287 0.011842032 0.07477314 0.40173164
0.22658667 0.23839968 0.054202646 -0.0066665187 -0.034108903 -0.026324416 -0.2748311 0.06939487
-0.039416537 -0.3481606 0.45511302 -0.101411976 0.18802565 -0.117837004 0.1743156 -0.034162644
-0.08298833 -0.031420365 -0.16482116 -0.11903178 0.027243156 0.19638309 -0.083832175 -0.3034023
0.06315298 -0.10086117 0.27130896 -0.017670877 0.082454845 0.1803659 -0.06319382 0.27396235
0.20441723 -0.09133968 -0.071927086 -0.16349842 -0.1840024 0.50495094 0.016226603 0.18811919
0.13626212 0.2826021 -0.14450465 -0.18833844 0.0053585228 -0.4971314 0.131101 0.10566945
-0.23686723 -0.049332205 0.1782631 0.1842633 -0.013791283 -0.073479496 0.15078935 0.12866026
0.048477676 -0.21596742 -0.014927799 0.02482887 0.15282744 0.22132681 0.01302576 -0.20581095
0.12887271 -0.06869676 0.05892236 0.14010277 -0.39513963 -0.16975856 0.11143122 0.048448537
0.1115699 -0.020315167 0.016715525 0.04029108 -0.1770869 0.0757927 0.074033976 0.05145473
0.06592268 0.012494205 -0.24709685 -0.17858297 -0.0593041 0.10320433 -0.0035329182 -0.04534353
-0.3800892 -0.26766965 0.3351156 -0.24474794 -0.068858884 -0.105052136 -0.23075086 -0.19033939
-0.0032503547 0.08191334 -0.17310618 0.028759161 -0.12823099 -0.04856807 0.054193567 0.32160008
-0.09306653 -0.12589334 0.22891678 -0.20760266 -0.11066355 -0.1957201 0.036808386 -0.03869028
-0.43812963 0.03587966 0.032576557 -0.29832318 -0.2555285 0.057961404 -0.073861815 -0.08844166
4.5267956e-05 0.12155763 0.22265387 -0.1417792 -0.015464823 -0.20325252 -0.0070346566 -0.23618743
0.118211545 0.010770045 0.37303507 -0.33288226 0.007402937 -0.10596389 0.12817481 -0.03715116
0.16929615 -0.01881929 -0.074588865 -0.11093867 0.15126953 -0.17708653 -0.060872987 -0.2860823
-0.07542108 0.25127977 0.031136619 -0.07615542 0.17342389 0.0031660076 -0.30989233 -0.21169312
0.028740406 0.20919928 -0.13277254 -0.00047716143 -0.62005705 -0.010058911 0.030070499 0.17488618
0.17797227 -0.052969463 0.18358788 -0.18864793 -0.45926946 -0.28019768 -0.047110636 -0.09938464
-0.049331795 -0.10415939 -0.002023079 -0.5144953 0.0014373922 -0.31002662 -0.02028784 0.106406346
-0.13628148 -0.027287152 -0.32767555 0.16267239 -0.17130695 -0.24927855 -0.22192803 -0.19027513
0.184517 -0.19821014 0.08491886 -0.122579105 0.013936862 0.26960436 0.29847485 -0.12703949
-0.100953266 0.33443174 0.062865645 0.10191282 0.071902975 0.004179295 0.35354298 -0.121395186
-0.20264424 0.13063072 0.23114854 -0.15382977 -0.16281 0.14471777 0.1226963 -0.16011539

network_body._body_endoder.seq_layers.0.bias f4 [128]
00000000: 7f8c 703d cc4c f13d b927 913d c92e 623d
00000010: bfcc 203d 6c68 d53d b541 1ebc 7960 3c3d
00000020: f628 963d 8bc3 ef3d 70a9 a83d ee0e 793d
00000030: 645f 5d3d 6fd1 a93b 3d9f 3abd c5a5 1e3c
00000040: 95e1 cbbc f2d0 ae3d 439e 80bd 5aa3 b6bc
00000050: 1fc3 3b3d 3eaa 003e 274d 7d3d af29 84bd
00000060: 7c75 973c ea76 b53d d6a0 113d c195 80bd
00000070: f210 d23d ddc0 c93d cf9f bdbb 1ac4 fd3d
00000080: 8167 0ebd 2f58 b93d c54e 9039 258e ae3d
00000090: 8ec7 0a3d 7044 af3d 16b1 473d 1870 153d
000000a0: 933a 8f3d 1aab 063e bf52 473c c7ce dd3d
000000b0: 9fb8 a53d 3b51 9f3b 33f1 c73c 4a98 e73d
000000c0: 0c9f 6abd 0bbc bebc bc0f 8d3d a2f9 003d
000000d0: 4d28 c1ba 2bd8 dd3d 06de ee3d 03ec 933d
000000e0: c6fa cf3d 5f65 2fbd 68ae 1a3d fe4b 873d
000000f0: 912a b13d 147a bb3d 4ff7 243d 91a2 3bbc
00000100: 87d0 c83d 4882 af3d 2b1b 2a3d 2d3e e03d
00000110: e502 c13c fe0a 06bd 1ebe d93d 4f5a 103e
00000120: db5d 88bd 2077 253d d4fa cb3c f787 f73d
00000130: 6c34 ff3d 5a27 873d 1e2a a73b ad31 86bd
00000140: c66c a83d b638 b03d 66d4 153d 86d9 8d3d
00000150: 2af8 ec3d 1a3d 3f3d e4ed e83d 8004 d4ba
00000160: 8c3b b23d 82ab 803d cf7e e7ba bd9d c6bc
00000170: 1a95 153d eb09 be3d f02c ba3d 4c7c 903c
00000180: 0d6c be3d d227 943d 8309 5a3d 3802 f03d
00000190: d374 b8bd 4332 08bc f57b 5bbd b5e5 b13d
000001a0: 1dbd d13d 3dbb c9bb 45c9 ed3c 5516 013e
000001b0: 3f6a 703d 4644 b63d 62e0 103d feb5 49bd
000001c0: 5b16 8d3d 54fe b23d 302e aabc 4997 9e38
000001d0: f28f 4f3d 532b 6ebc 37d0 c53d 2827 a93d
000001e0: d8f3 453c e1c6 ff3d f64a 763d b7b6 bf3c
000001f0: f203 fabc bfd8 903c 28a8 bc3d 3026 023e
0.058727738 0.11782226 0.070876546 0.0552204 0.03925776 0.104203075 -0.00965922 0.04599044
0.073320314 0.11707219 0.08235443 0.060805254 0.05404605 0.005182437 -0.045562018 0.009683077
-0.02488784 0.08535947 -0.06280186 -0.022294689 0.04584038 0.12564942 0.061841156 -0.06453263
0.018488638 0.08860572 0.035553776 -0.06278563 0.10257138 0.09851239 -0.005786873 0.12390919
-0.034766678 0.09050023 0.00027524508 0.08523206 0.033881716 0.08557975 0.048752867 0.036483854
0.06993594 0.13151208 0.012165724 0.10830455 0.08091854 0.0048619783 0.024407005 0.11308344
-0.057280585 -0.023283025 0.06887767 0.03148807 -0.0014736742 0.108322464 0.11663441 0.0722275
0.10155253 -0.042821284 0.037763983 0.06606291 0.08650697 0.09154144 0.040274914 -0.011452333
0.098053984 0.08569771 0.041529816 0.10949359 0.02356095 -0.032725327 0.10631965 0.1409695
-0.066585265 0.04039681 0.024899878 0.1208648 0.124611706 0.065993026 0.0051014563 -0.06552444
0.08223872 0.08604567 0.036579512 0.06926255 0.11570771 0.04668913 0.11373499 -0.0016175658
0.08702764 0.062827125 -0.0017661693 -0.024245137 0.036519147 0.092792355 0.090906024 0.017637394
0.09297953 0.072341576 0.053231727 0.11719173 -0.090066575 -0.008312765 -0.05358501 0.08686391
0.102411486 -0.0061563537 0.029026637 0.12606175 0.058695074 0.08899741 0.035370238 -0.049245827
0.068890296 0.087399155 -0.020773977 7.562206e-05 0.050674386 -0.0145366965 0.096588545 0.082594216
0.012082063 0.12489105 0.060130082 0.023402555 -0.03051946 0.017681478 0.09211761 0.1270988

network_body._body_endoder.seq_layers.2.weight f4 [128, 128]
00000000: b5d8 27bb 7d2c 953d e3f3 5d3e d029 e43d
00000010: d9cd 113d c209 72bd 3ecd 093e a2e0 013e
00000020: 1ccd 97bb 3837 6d3d 4834 a53d 7367 2f3d
00000030: 6cd5 8d3d 6785 febd ec19 133e 953e b2bd
00000040: 2da1 413e 232a 18bd 2468 c6bd a849 39bc
00000050: a276 c5bd 51cd 753d 5c0f 2a3e e75a bbbd
00000060: b8ce 843c 80cc bdbd 42cb b13b f19e d6bc
00000070: c628 1f3e 2ebe 763d 9ba9 3e3d 2d89 26bd
00000080: 4cd7 c73c a1af 12be 931b 753d 9850 c7bd
00000090: 19bb 543d 090a 623b a731 47bd f598 0cbe
000000a0: 92e5 ba3c 84fc 553e 4864 d43d f383 c0bd
000000b0: 7901 873d 8499 95bd c999 95bc 3b0e ec3c
000000c0: 13a7 463e 374a a23d 9f1b b23c 2013 173c
000000d0: 02db 3b3d e2d3 e83d 25a1 b93d b168 3cbd
000000e0: c35f a63c 94b1 ef3d 2363 843d f2a0 983d
000000f0: 0523 f03d 945c 2ebb 926e 6fbd 09dc de3d
00000100: 9b94 963d c392 703e e872 603c 4f9e f7bd
00000110: 4134 0ebe b893 a93c e7dd 0cbe 1565 5dbd
00000120: 4ab7 03be 4c1e 1b3c 38ea a73d 9d5c 393e
00000130: e0dc 18bd e882 d23d ab70 4e3e e152 b0bc
00000140: 69bd ba3d 369a 7cbd b06e a6bc 200e a53d
00000150: 7e8b b8bd 1de7 fd3d 4061 423e 50f3 fdbd
00000160: 5130 6bbd 2855 253d 9851 9c3d 6b4b 963d
00000170: 2052 b7bd 5b7a a83c fbdf 25be 83c7 823d
00000180: 08c9 4d3d 8879 c53b 852e 233c 68f8 0f3e
00000190: 1c18 d93d a565 bdbc 7469 a5bd b16f 6b3d
000001a0: fb68 7fbd af97 c23d f245 67be e2a3 553e
000001b0: 9b4f 8b3e 298a 003e 8033 eabc 2228 45be
000001c0: 3bb5 7f3b 14d6 44bd b1eb de3d 147f c33d
000001d0: 9e9c ba3d a11f 20bd ecc9 de3d 51b6 5bbd
000001e0: aeeb 57bc 4a45 353e ea0c 83bb c492 6c3d
000001f0: 5405 99bd d490 153d 1e82 99bd cc15 1a3e
00000200: 1018 5f3e e11a 24be 9152 24be f984 153d
00000210: 1b05 833e 4424 76bc e28b 5d3c 6f2e 173c
00000220: fc9b 39ba 5481 5bbd 9ecb 23bd 31bd 7abd
00000230: 628b 5ebd fd17 823c bd9a 0cbd 2647 503d
00000240: ac5f cbbd dbcf da3d 2c9b 483d 91e3 e1bc
00000250: 52d1 78bd adb5 d6bd 8dcb f3bd 0370 dabd
00000260: 6818 87ba 3695 f03c 2bec 46bd ff37 d5bd
00000270: dc4c 83bc d8af 81bd 725c fc3d eb1e 153e
00000280: 9b2d fe3d 53da be3d 99a3 edbd 2990 953d
00000290: e416 ed3d 8c78 8abd 3687 a43c 8833 99bd
000002a0: 95dc d0bd 374e 25be 60ec 383a 4579 e9bd
000002b0: c173 c93d ab74 883c a29c 9cbd 2b95 a0bd
000002c0: f282 86bd efd5 253e 9fad 21be c656 853d
000002d0: 3f34 563e 23c3 4abc 1274 84bd 5556 4bbd
000002e0: 43fc 0fbe 0713 123e 7011 1dbd 519f 3fbd
000002f0: 8661 ef3d aaf4 743b f507 e53d 26fd 563d
00000300: 47b3 0dbd a724 84bd 2098 013e cd93 bebc
00000310: a564 0a3d 7618 e3bb 0d7e d1bd 3157 a63d
00000320: 9dd0 0abd f1b9 94bc a4a9 c43c 52b1 cb3c
00000330: 0980 943d 9912 153c 33ee 1ebe edab 2c3d
00000340: e3e5 5ebd 277f 813d f518 a1be 6259 02be
00000350: bb4e b1bb 78ca 52bd 750c 773d 683d 233d
00000360: cab6 dbbd 45d8 9f3b df7a 27bc 5dea c8bc
00000370: 29bf 9a3d 32c0 3cbe 033e 1cbd 5884 c73c
00000380: fe4b 34be b3a9 8e3d 997f 45bc 8fd4 f8bd
00000390: 4c0e 863e aee9 a0bd 6d8a 4f3d 5d07 2cbe
000003a0: 972a 74bd c892 f63c 9f78 0dbe 17c9 95bd
000003b0: ff5f 1c3d dd59 183d c32f c83c 4378 363e
000003c0: 8d30 1f3e 1d62 313d 9879 603e 032a 14be
000003d0: 3890 0c3e d317 123e 97c8 88bd 25fe ba3d
000003e0: 59bf 51be 9ea2 f5bd ce78 f4bd 38dc e73d
000003f0: b0c9 9abc ef74 603d 908a c3bc ae16 62bd
-0.0025611345 0.07283876 0.21675067 0.111407876 0.035596702 -0.059091337 0.134572 0.12683347
-0.0046326052 0.05791399 0.080666125 0.042823266 0.069254726 -0.12427788 0.14365357 -0.08703343
0.1890914 -0.03714956 -0.09687832 -0.011309065 -0.09641768 0.060010258 0.16607422 -0.091481976
0.016211852 -0.09267521 0.0054258415 -0.026198836 0.15542898 0.060239963 0.046548467 -0.040658165
0.024394654 -0.1432481 0.05984075 -0.09732169 0.051936243 0.0034490845 -0.048631337 -0.13730223
0.022814546 0.20897108 0.1037069 -0.09400167 0.06592078 -0.073046714 -0.018261807 0.02881538
0.19399671 0.079243116 0.021741686 0.009220868 0.04586316 0.113685384 0.09063939 -0.04599828
0.020309335 0.11703792 0.06464221 0.07452573 0.117254294 -0.0026605474 -0.058455057 0.10881812
0.07352563 0.23493485 0.013699271 -0.12090742 -0.13887121 0.02070032 -0.13756524 -0.054051477
-0.12862888 0.009467673 0.081989706 0.18101735 -0.037320018 0.10278875 0.20160167 -0.021523895
0.09118158 -0.061670505 -0.020316452 0.08059335 -0.09010981 0.12397597 0.1898241 -0.12399924
-0.057419125 0.040364414 0.0763275 0.073386036 -0.08951211 0.020566156 -0.16198723 0.0638571
0.050240546 0.0060264505 0.009959822 0.14059603 0.106003016 -0.023119757 -0.08076754 0.057479564
-0.062355977 0.095015876 -0.22585276 0.20863298 0.27209172 0.12552704 -0.02858901 -0.1925359
0.0039017934 -0.048055723 0.10884798 0.095457226 0.091119036 -0.039092664 0.10878357 -0.053640667
-0.013178749 0.17702213 -0.003999342 0.057757154 -0.074717194 0.036515072 -0.07495521 0.15047377
0.21786523 -0.16025878 -0.16047122 0.036503766 0.25589833 -0.015023295 0.01352212 0.009227379
-0.00070804334 -0.053590134 -0.039989106 -0.061215583 -0.054332145 0.01588058 -0.034327257 0.050849102
-0.09930357 0.106841765 0.04897611 -0.027574332 -0.0607465 -0.10483871 -0.119040586 -0.10665896
-0.0010306956 0.029368024 -0.04856507 -0.10411071 -0.01602786 -0.06332368 0.1232232 0.14562576
0.12411042 0.09318986 -0.116034694 0.07302887 0.11576632 -0.06761274 0.020084005 -0.07480532
-0.10198323 -0.16143118 0.00070542656 -0.114000835 0.098365314 0.016657194 -0.07647063 -0.078409515
-0.065679446 0.1619489 -0.15788887 0.06510691 0.20918368 -0.012375626 -0.06467451 -0.04964288
-0.14061074 0.14265071 -0.038346708 -0.046782795 0.11688523 0.0037377276 0.11183158 0.052487515
-0.0345948 -0.064523034 0.12655687 -0.023263836 0.03378739 -0.006930406 -0.102291204 0.08122099
-0.033890355 -0.01815507 0.024006672 0.024864826 0.07250983 0.009098672 -0.15520553 0.04215615
-0.054418456 0.063230805 -0.31464353 -0.1272941 -0.0054109967 -0.05146262 0.060314614 0.039853483
-0.107282236 0.0048780763 -0.010222166 -0.024525816 0.07555992 -0.18432692 -0.038145076 0.024355099
-0.17607114 0.06965961 -0.012054347 -0.12149917 0.26182783 -0.07857071 0.050669122 -0.16799684
-0.05961093 0.030099288 -0.13815545 -0.073137455 0.038177487 0.037195075 0.024436837 0.17819314
0.15545864 0.04330646 0.21921384 -0.14469151 0.1372689 0.142669 -0.066788845 0.091305055
-0.2048315 -0.119939074 -0.11937104 0.113213 -0.018895 0.054799017 -0.023869783 -0.05519741

network_body._body_endoder.seq_layers.2.bias f4 [128]
00000000: 5234 be3d c4db b939 cddc 2e3d 2090 c13d
00000010: 5f65 76bd 1ad3 a13c f55e dc3d 3ff8 7f3d
00000020: 3474 a33c 1a54 c63d d596 983c de72 7fbd
00000030: e77f c53b 7e8d 323d a5e7 e3bc b199 7e3d
00000040: 60d2 85bd 892c c4bd d793 c23d 684c 853d
00000050: f561 ba3d ae9f 973d 26bf 733d 39c4 a73d
00000060: 1218 a83d 7b08 b13d fc94 a4bd 14f0 b8bd
00000070: c687 a33d d74a 8f3d 6075 b43d ec11 fd3c
00000080: 4f76 9f3d 3ace 7d3d 4485 e43d 1206 ca3d
00000090: 1bce d03d 04ea 903d 9d72 513c c39c d13d
000000a0: 31f6 243d 95d1 d83d 0848 35bd 8c1b 423d
000000b0: 1d16 a33c a5c5 ac3c cab8 d23d 8da1 cd3c
000000c0: f788 dd3d 4050 833d 9034 373d a707 bf3d
000000d0: 2405 5abd 9a15 e33d 5f90 bf3c fd31 d83d
000000e0: b362 afbc ac10 b03c febc 3fbd 6e6d ba3d
000000f0: da12 853d 09fc c03d da16 5a3c c9b2 bf3d
00000100: ecf1 cd3d 4052 94bc f952 693d d23d 553a
00000110: b3c4 bdbd b296 943d c048 64bc 9776 a23d
00000120: d27d df3d 919f 723d 1d71 a4bd 47d3 bb3d
00000130: af3c ed3d b977 de3d 21ed 653d 18aa b33d
00000140: 7211 38bd 295c 9c3d 28f0 d93d 9f24 10bd
00000150: 4260 ad3c e661 0b3d 5433 823d 15fb 34bb
00000160: 93b9 bd3d 5eb8 e3bd 836d c83d 1c40 763d
00000170: ab83 b0bc 0c75 553d c6e4 533d fb09 87bd
00000180: 6d1e cfbc 7f2a 823c a144 933d 0f8c 1abd
00000190: b4b2 153d c0fd a23d 5425 cc3c 5762 093e
000001a0: 0468 8fbd e0cf fd3d 2741 f03d 2454 db3c
000001b0: 8911 3f3d 6e21 90b9 a1a6 9abc 3ec0 3abc
000001c0: 5245 8a3d fca7 b13d 1bbc 0abd 3a4b 95bc
000001d0: 5094 ab3c d3a2 ca3d 163b c7bd a151 96bc
000001e0: 862b f03d 2a70 883d bba5 693d a7b4 833a
000001f0: 550e adbd e875 a03d d83b 0dbd 93fb 083d
0.09287323 0.00035449688 0.04269104 0.09451318 -0.06015527 0.019753981 0.10760299 0.062492605
0.01995287 0.0968401 0.01862661 -0.062365405 0.00602721 0.04359197 -0.027820418 0.06215829
-0.065342665 -0.09578807 0.095008545 0.06508714 0.09100715 0.07403503 0.059508465 0.081917234
0.08207716 0.08644196 -0.08036229 -0.09030166 0.07984881 0.069966964 0.0881145 0.030892335
0.077862374 0.06196425 0.11158231 0.09864439 0.101955615 0.07075885 0.012783674 0.10234978
0.04027385 0.105868496 -0.044258147 0.047389552 0.019908005 0.021090338 0.10289152 0.025101447
0.108171396 0.06411791 0.044727862 0.093276314 -0.05322756 0.110881045 0.023384271 0.105564095
-0.021409368 0.021492325 -0.046811096 0.09102903 0.06497736 0.09423072 0.013311112 0.093602724
0.100559086 -0.018105626 0.056963895 0.0008134517 -0.09266033 0.07255305 -0.013933361 0.079327755
0.1091267 0.059234206 -0.08029387 0.09171157 0.1158384 0.10862679 0.056134347 0.08772677
-0.044938512 0.07634766 0.10641509 -0.035191175 0.021164063 0.03402891 0.06357446 -0.0027615477
0.09263911 -0.111191496 0.09786513 0.060119733 -0.02154716 0.052113578 0.051731847 -0.065937005
-0.025283063 0.015889404 0.07190824 -0.037731227 0.036547378 0.07958555 0.024920143 0.1341642
-0.07002261 0.12393165 0.11731177 0.02677352 0.046647582 -0.00027490727 -0.018878283 -0.011398373
0.06751503 0.086746186 -0.033870798 -0.018224347 0.020944744 0.098943375 -0.097280666 -0.01834947
0.117270514 0.066620186 0.05704282 0.0010048345 -0.08449999 0.07834989 -0.0344809 0.033443045

action_model._continuous_distribution.log_sigma f4 [1, 2]
00000000: 450c 68bf ebdf 06bf
-0.9064372 -0.5268542

action_model._continuous_distribution.mu.weight f4 [2, 128]
00000000: add2 4a3d 90f9 623d ca60 5bbd 3e74 253d
00000010: ad88 f23c dd6a a13d 41d6 f23a 7918 c0bd
00000020: 60c1 61bd 30b5 3cbb ed5b c2bd a692 babc
00000030: a60d 8ebd 74a2 ca3d d535 fd3b 2fb6 46bd
00000040: 9780 643b 772f 1dbc e7fe 5f3d 901c b93d
00000050: 01c8 01bd 6327 57bc 154c e53d 1fc7 423d
00000060: 4c8f e0bd a48e aebc 9eb7 58bd f2ec 113c
00000070: e153 5d3d d9b6 bb3d 1c68 2c3d 26fc 003e
00000080: 6c0f 953d 5093 f93c 97a5 dc3c 51b3 4c3c
00000090: 1b7b d9bc aaa8 8b3d 3707 f03d ed9b 03be
000000a0: 95ce f03d ea43 97ba dbbf e8bb b083 da3d
000000b0: c5a6 b63d 4ef6 80bd 7d5b d4bc 076c d43d
000000c0: b8ed b1bd 4a4d f23d 5212 ac3d d69c 943c
000000d0: 108c 0f3e f152 bfbd a6ee cbbd 6acb 3dbc
000000e0: 2538 73bd 7511 963d e867 433d 5c4b 163d
000000f0: 53c6 d43d 449f edbc 3f73 9abd a047 59bd
00000100: 25a6 8abc 891d ebbd 992c 023e aa31 c1ba
00000110: 8d0b 9dbc e2cd 843d 3c6e 7f3d 2912 c1bd
00000120: 3fca c1bc 56b2 913d 7fa8 9abd a84c 87bd
00000130: e536 473a 38fc cf3c 4014 9f3d 6513 bb3d
00000140: 7ca5 823d 2de3 203d 2533 643d a7cd e9bd
00000150: b5f3 d53d ea10 a2bd d53a 1a3d 41a5 993d
00000160: 0d50 65bc f7d9 0eba 5afa 5fbd ef99 ed3c
00000170: d3d4 b63d 4f0c c1bd 2495 d73d cf4f b03d
00000180: 14f6 2d3c faf5 063e d99c 3ebd b25c 16bc
00000190: 6df5 103e b582 693d 5ae0 163d c570 b0bd
000001a0: 9695 25bd eafd 83bd dec9 f3bb 111b ecbd
000001b0: 5ca7 08bd 8e69 f53d d8dd 80bd a57f c6bd
000001c0: 68e8 983d 9651 493d a282 71bd 0289 b73d
000001d0: dd13 983d 6941 483b 30e6 b3bc e3ef 7f3d
000001e0: 2272 19bc 5b08 72bd d93b 8bbd 7d27 f2bd
000001f0: babf 05bd e890 c43d f1a6 b6bd 5d80 973d
00000200: df95 923d 0648 f8bd 8e1b 4b3d fca5 833d
00000210: 7cc9 ecbd ca60 28bd 1b61 c83d 2ffd 663d
00000220: 7117 863d a1e3 cb3d 273f 233a 5e24 c3bd
00000230: 93cd 8c3b 90ef c0bb 1755 44be c098 3a3d
00000240: 6a6b e6bd f7da 44bd 049d b43d 5650 c93c
00000250: bc7c bb3d 1fcc 633d 6a57 473c e3be b93d
00000260: ea5b c33d 3d57 de3d d89c 8dbd fa81 14be
00000270: d85d f93c bd43 733d 61e7 b53d e74c 913c
00000280: b726 273d d6c9 613d 7aaa b93d 4bc6 9b3d
00000290: 528a ce3d 155f f83b 5e78 74bd 0681 cc3d
000002a0: de91 b8bd ea94 923d 8381 ccbd 235e 15be
000002b0: 0af4 9f3c 24e7 593d 3b7b 093e 3e83 13bd
000002c0: 95b8 d93d 6030 f2ba c0da 6c3b 8b1f 4d3d
000002d0: 8dda ccbd 6f3c d53d 27f4 1d3d c0cc c73d
000002e0: 9cea a83b 7feb 213c 2a44 22be f5bf 803d
000002f0: d4e1 bc3b 5ec6 943d d1e6 a6bd eddd d83d
00000300: 91d9 c63d 0005 a8bb 6ac8 dc3c e9df 423d
00000310: 6f96 52bd 3885 403d 8237 7ebd a944 c73d
00000320: 6c4c cb3d c095 cc3c da7a 6cbd 07bd 0a3e
00000330: 0fa1 ba3d 8c96 dc3d e618 3c3d 6e2e 783d
00000340: 83fb 1bbe 617e 223d 1847 d23d b9c2 80bc
00000350: 006f 8bbc e8e1 923d 7e5c 843d a6b2 6bbd
00000360: 802b a83d 9c41 66bd a700 e53d 949c 4c3d
00000370: d19e c5bd b0ac 943d e1bb 493d b644 19be
00000380: f024 8e3b 1077 8bbc 677b 8c3d cab9 a3bd
00000390: d7d2 9bbd 84f8 493d 029f c4bb 54a3 033e
000003a0: 8bbb fabd c96e 1b3e 68bd f73d 04a7 223d
000003b0: 9f19 853d dcf4 acbd 9654 323c df3e 18bd
000003c0: 28bc 983c c469 a43d b94f 1abd edc4 bcbd
000003d0: 4da3 8dbd ba33 a23d 0848 09be 1565 d8bd
000003e0: 10c9 0e3e f44a 843d 99bb 0f3e 05c1 4cbc
000003f0: 5660 51bd 1114 173d 65eb d8bc 14e2 05bd
0.049517322 0.055413783 -0.053559102 0.04039406 0.029606188 0.07881711 0.0018526987 -0.09379668
-0.055116057 -0.002879452 -0.0949019 -0.022775006 -0.06936197 0.09894267 0.0077273645 -0.048513588
0.0034866685 -0.009593836 0.054686453 0.09038651 -0.03168488 -0.013131949 0.11196152 0.047553178
-0.10964832 -0.02130825 -0.052909486 0.00890659 0.05403507 0.09165735 0.042091474 0.12596187
0.07278332 0.030465752 0.026934428 0.012493924 -0.02654796 0.068192795 0.11720126 -0.1285245
0.117581524 -0.0011540626 -0.007102949 0.10669649 0.089185275 -0.06296979 -0.025922531 0.10372167
-0.086879194 0.11831148 0.08401932 0.018141191 0.14018273 -0.09341992 -0.09957628 -0.011584142
-0.059379715 0.073275484 0.047706515 0.036692962 0.1038939 -0.029006608 -0.07541513 -0.053046823
-0.016924927 -0.11480243 0.12712325 -0.0014739532 -0.019170547 0.064845815 0.062360987 -0.09427292
-0.023656009 0.07114093 -0.07551669 -0.06606418 0.00075994275 0.025388822 0.07767534 0.091345586
0.0637922 0.03927915 0.055712838 -0.11416178 0.10446874 -0.07913382 0.037653763 0.07502223
-0.013996136 -0.00054493494 -0.054682113 0.029004065 0.08927312 -0.09426176 0.10526493 0.08608972
0.010617752 0.1317977 -0.0465363 -0.009177374 0.14156123 0.057009418 0.036835052 -0.08615259
-0.04042586 -0.06444915 -0.007439836 -0.115286 -0.03336273 0.119830236 -0.06292313 -0.09692315
0.07466203 0.049150072 -0.05896247 0.08961679 0.074256636 0.0030556566 -0.021960348 0.062484633
-0.00936559 -0.05909 -0.067985244 -0.11823938 -0.032653548 0.09597951 -0.0891856 0.0739753
0.07157492 -0.121231124 0.049586825 0.064281434 -0.115618676 -0.04110793 0.097841464 0.0563938
0.0654744 0.09955526 0.0006227367 -0.09528421 0.0042969673 -0.005887933 -0.19173084 0.04555583
-0.11250956 -0.048060384 0.08819011 0.02457444 0.091546506 0.055614587 0.012166837 0.09069612
0.095390156 0.10856483 -0.06914681 -0.14502707 0.030440256 0.059390772 0.08882023 0.017736865
0.040808406 0.055124126 0.09065719 0.07606181 0.10084976 0.007579694 -0.059685104 0.09985547
-0.09012197 0.07157309 -0.0998564 -0.14586692 0.019525547 0.05319895 0.13425915 -0.036013834
0.10630909 -0.0018477552 0.0036141127 0.05007891 -0.10002623 0.104119174 0.03856292 0.0975585
0.0051549207 0.009882807 -0.15846315 0.06286613 0.0057642255 0.07264398 -0.081494935 0.10589204
0.09709466 -0.005127549 0.026951034 0.04757682 -0.051412996 0.047002047 -0.062064655 0.09729893
0.09926686 0.02497375 -0.057734348 0.1354867 0.09112751 0.10770902 0.045922183 0.060591154
-0.15232663 0.039671306 0.10267466 -0.015717851 -0.017020702 0.071719944 0.06462954 -0.05754342
0.08211422 -0.056214914 0.11181765 0.049954012 -0.096494325 0.072595 0.04925144 -0.14967617
0.0043378994 -0.017024547 0.06859475 -0.07994421 -0.07608574 0.04930927 -0.0060004005 0.12855273
-0.12242802 0.1517898 0.12096673 0.03971006 0.064990275 -0.08445141 0.010884425 -0.037169334
0.018644407 0.08027986 -0.037673686 -0.09217248 -0.06915913 0.07920022 -0.13406384 -0.10566155
0.13943887 0.06459609 0.14036407 -0.012497191 -0.051117264 0.03688437 -0.026479432 -0.032686308

action_model._continuous_distribution.mu.bias f4 [2]
00000000: 144c ac3c 6a7c d23d
0.02103237 0.10277636

exp_avg f4 [128, 33]
00000000: 7406 8d3a 0000 0000 12a7 e639 fd18 ee39
00000010: 5d0b 0bb8 0000 0000 d2aa 483b 48a6 463a
00000020: d913 233a 0000 0000 4006 14bb 7a71 b7ba
00000030: 9e3d 34b8 0000 0000 8917 013b 66c1 f338
00000040: 24c4 5739 0000 0000 6218 1bbb ab67 c0ba
00000050: 6014 0fba 4083 74b7 ad3d 273b 2dc2 063b
00000060: bc17 5739 0000 0000 9154 b3b9 d547 2a3a
00000070: 580b dd3a 217c eab9 bcc5 5cba 4a35 1abb
00000080: e2a6 edb9 5abc ec39 0000 0000 442d a1ba
00000090: 7939 07ba 5fce 4838 0000 0000 da45 daba
000000a0: 54ce 51ba aa08 e639 0000 0000 bf24 28ba
000000b0: 9716 edb8 735e a139 0000 0000 d409 3cba
000000c0: f982 11ba 3b1d 8939 0000 0000 2fd8 273a
000000d0: 05e6 9b3a b02c 4a39 ab8f b037 f37e 78ba
000000e0: b380 91ba 4259 8939 0000 0000 3f8e cd38
000000f0: 731d feb9 1dd2 feba 6b14 a9b9 6e19 813a
00000100: 6639 143b 6799 af39 d5f6 03b9 0000 0000
00000110: fda8 c7b8 eb51 c1b8 0cff da37 0000 0000
00000120: 0deb c0ba 3956 ccb9 cfec 6c38 0000 0000
00000130: 01f5 7b3a 0d71 ff39 23db 5d39 0000 0000
00000140: 4b57 2fbb fe2d e1ba f703 c136 0000 0000
00000150: 2865 913a e2e6 653a 79dc 8139 208e 4037
00000160: e581 abba 0032 9fba ca22 cd36 0000 0000
00000170: 4ae1 37b7 eda0 62ba 9041 c1ba 0d88 b037
00000180: dae8 823a a17d 383b 3c04 d639 0047 a5ba
00000190: 0000 0000 a728 2cb9 d773 493a 87c0 7038
000001a0: 0000 0000 d198 943a 891c 9f3a f476 90ba
000001b0: 0000 0000 c41d 85ba b8b9 8ab9 e3b5 d338
000001c0: 0000 0000 7f74 8539 f099 fc39 29b1 b4ba
000001d0: 0000 0000 3ad2 9cb9 aaa6 d638 29bc 49ba
000001e0: 24af d337 bfbe 4a3a d244 9f3a 556e b4ba
000001f0: 0000 0000 fb3c 0d3a e0ee 573a c776 5139
00000200: d5fe a23a 56c9 033a e483 9cb9 4875 32ba
00000210: ef55 cf38 0000 0000 25bc 3eb9 7954 4938
00000220: 941f 3bb7 0000 0000 b2eb b33a 7c9b 003a
00000230: 9cb6 3337 0000 0000 ec9b ddba 1ef4 9dba
00000240: d9e0 29b8 0000 0000 e07f 5b3a 43e6 9e39
00000250: 059a 45b8 0000 0000 d9a5 5dba 1051 05ba
00000260: 80e3 afb6 d487 a4b6 8558 543a c125 683a
00000270: b516 46b8 0000 0000 1ab6 0839 6278 2b3a
00000280: 9ccb be39 b713 ec37 ceed d2b9 7b39 0dba
00000290: 4411 3bb9 39a7 19ba 0000 0000 1926 003a
000002a0: 6824 e939 459c 52b7 0000 0000 cd08 c8ba
000002b0: b945 3437 48cc f1b9 0000 0000 17ee bc3a
000002c0: 7d48 983a c801 a639 0000 0000 6be5 6aba
000002d0: 7f8c e338 9e5f 70b9 0000 0000 a4cd 813a
000002e0: 62d9 b73a fbf4 363a 8b2e b9b6 b09f a2ba
000002f0: 17eb a0ba f259 70b9 0000 0000 f571 1bba
00000300: 28d5 4dba 5d33 a5ba c09c 193a bbd6 c33a
00000310: 940b e53a fbf5 c93a e1f6 2bba 0000 0000
00000320: e645 50ba c82a 423a 77d1 7638 0000 0000
00000330: 5b60 9c3a 53a4 bb3a 8052 57ba 0000 0000
00000340: a0b8 9bba 8a46 b5b9 0b0d 3d3a 0000 0000
00000350: df20 603a f5cc 653a 066c d5ba 0000 0000
00000360: 1a11 443a 64e6 213a 7640 ca37 9904 d937
00000370: 060e 223a ca9c 593a 4f21 d5ba 0000 0000
00000380: c10e 04b9 8f33 9c39 871e 17ba e945 c33a
00000390: 3dde 1b3a eddb a639 c538 8fba 46df a838
000003a0: 0000 0000 4518 10b9 a7cb 0638 cb67 b737
000003b0: 0000 0000 e471 c03a 99f6 8139 a709 f538
000003c0: 0000 0000 2324 caba 225c 79ba f603 5c38
000003d0: 0000 0000 e245 f239 4489 dab9 6d28 6339
000003e0: 0000 0000 ea9f b3ba c4ce 4dba 76e4 bc38
000003f0: ea42 2137 4655 123b a958 ec3a cc48 6339
0.001075937 0.0 0.00043993496 0.00045413515 -3.3150765e-05 0.0 0.0030619395 0.00075778784
0.0006220914 0.0 -0.0022586733 -0.0013995611 -4.297273e-05 0.0 0.0019697866 0.00011623166
0.00020577066 0.0 -0.0023665656 -0.0014679333 -0.0005458053 -1.4574092e-05 0.002551894 0.0020562515
0.0002051284 0.0 -0.00034204547 0.0006495689 0.0016864343 -0.0004472444 -0.00084217987 -0.0023530298
-0.000453285 0.0004515376 0.0 -0.0012296815 -0.00051584054 4.7875914e-05 0.0 -0.0016652897
-0.00080034626 0.00043875474 0.0 -0.0006414167 -0.00011305248 0.00030778683 0.0 -0.00071730954
-0.00055508275 0.00026152455 0.0 0.00064027583 0.0011894113 0.00019280869 2.1047736e-05 -0.0009479366
-0.0011100977 0.00026197179 0.0 9.801657e-05 -0.00048468597 -0.0019441281 -0.00032249404 0.0009849498
0.002261722 0.00033492895 -0.00012585086 0.0 -9.520536e-05 -9.2182156e-05 2.610639e-05 0.0
-0.0014718488 -0.00038974153 5.648733e-05 0.0 0.00096113986 0.0004872162 0.00021157837 0.0
-0.0026754912 -0.0017179844 5.75231e-06 0.0 0.0011092769 0.0008770061 0.00024769062 1.1477183e-05
-0.0013084976 -0.0012145638 6.113526e-06 0.0 -1.0960104e-05 -0.00086451956 -0.0014744271 2.1044189e-05
0.0009987608 0.0028151053 0.00040820416 -0.0012609661 0.0 -0.00016418342 0.0007684803 5.7399764e-05
0.0 0.0011337047 0.0012139241 -0.0011021779 0.0 -0.0010155966 -0.00026459782 0.00010095143
0.0 0.00025454533 0.00048179878 -0.0013785708 0.0 -0.0002991127 0.00010235359 -0.00076955796
2.5234716e-05 0.0007734112 0.0012151247 -0.0013765792 0.0 0.000538781 0.0008237194 0.00019976041
0.0012435565 0.0005027255 -0.00029852905 -0.00068076374 9.8865356e-05 0.0 -0.00018189901 4.8000806e-05
-1.1153421e-05 0.0 0.0013726859 0.00049059815 1.07117485e-05 0.0 -0.001690743 -0.0012050902
-4.0502146e-05 0.0 0.0008373242 0.00030307667 -4.7111902e-05 0.0 -0.0008455194 -0.00050856266
-5.241891e-06 -4.9033933e-06 0.00081003486 0.00088557234 -4.7228026e-05 0.0 0.00013037809 0.0006541071
0.00036391325 2.8142573e-05 -0.000402315 -0.00053872884 -0.00017840142 -0.0005861405 0.0 0.00048884895
0.00044468348 -1.255336e-05 0.0 -0.0015261412 1.074507e-05 -0.00046119303 0.0 0.0014414218
0.0011618283 0.00031663314 0.0 -0.00089605775 0.00010850373 -0.00022923804 0.0 0.0009903205
0.0014026577 0.0006979254 -5.518848e-06 -0.001240721 -0.0012277093 -0.00022921691 0.0 -0.00059297617
-0.0007851892 -0.0012603808 0.00058598444 0.0014941314 0.0017474764 0.0015408391 -0.000655992 0.0
-0.0007944986 0.00074068876 5.884605e-05 0.0 0.0011930572 0.001431594 -0.00082138926 0.0
-0.0011880584 -0.00034575566 0.00072117214 0.0 0.000854982 0.0008766198 -0.0016282804 0.0
0.0007479355 0.00061759935 2.4110293e-05 2.5870557e-05 0.0006181899 0.00083012565 -0.0016260537 0.0
-0.00012593997 0.00029793053 -0.0005764742 0.0014898154 0.0005945897 0.00031825845 -0.0010926953 8.052452e-05
0.0 -0.00013741951 3.2137756e-05 2.1863632e-05 0.0 0.001468238 0.00024788527 0.00011684308
0.0 -0.0015422147 -0.0009512325 5.2455776e-05 0.0 0.00046209904 -0.0004168247 0.00021663467
0.0 -0.0013704274 -0.000785094 9.007093e-05 9.611927e-06 0.002232866 0.0018031794 0.00021675526

exp_avg_sq f4 [128, 33]
00000000: 73e4 8a38 0000 0000 9057 3339 117d 0039
00000010: a199 bf34 0000 0000 c255 e538 0632 9538
00000020: eaaf 4438 0000 0000 1cd9 3a39 036c 1339
00000030: 53d0 5d35 0000 0000 6df5 0439 d436 c638
00000040: 7bf7 4b38 0000 0000 5b50 f838 a820 cc38
00000050: 088b 9c35 4efe 9333 3225 de38 0d4b ce38
00000060: e4ca 4b38 0000 0000 5acb c938 bc97 b338
00000070: 7b1d e338 4295 5f38 eb7c 0639 869f 0e39
00000080: 338f 4f38 ea0d dc35 0000 0000 df0b 0638
00000090: d9f6 8d37 c2ce d433 0000 0000 bacb 0a38
000000a0: c5e2 1637 9f0f 2c36 0000 0000 4450 0238
000000b0: 8fbf b037 8d5f 4e35 0000 0000 de31 1c38
000000c0: 49ed ba37 3a54 c536 0000 0000 fe1c 0238
000000d0: 6d23 b837 fd7c 2f35 f974 a432 a8d5 0538
000000e0: 4867 d137 1ea3 c536 0000 0000 b15f 0338
000000f0: f75e d637 77f6 f337 d127 9236 1cca 1138
00000100: cd16 4638 caf4 5037 30cf 2f36 0000 0000
00000110: f7e8 a238 a02d 5738 c3c0 3234 0000 0000
00000120: de0b 5d38 d9de d637 6ae9 f536 0000 0000
00000130: 7f6c 9538 d14c 6638 2954 e434 0000 0000
00000140: 6b42 8c38 ae94 3238 19fc 3d37 0000 0000
00000150: 290f 5138 efd3 2038 fcf3 3635 533c 0a33
00000160: 2f88 8338 c61a 4b38 2f28 3e37 0000 0000
00000170: 1ee0 3638 82e7 1a38 2544 5438 c763 2137
00000180: 06f6 6638 21c2 9638 49a2 9c37 2159 c537
00000190: 0000 0000 c150 f337 e2d4 ab37 47b0 9f33
000001a0: 0000 0000 d10b bf37 d866 6c37 d81e 9537
000001b0: 0000 0000 1a79 0238 4bda cf37 c32d 4734
000001c0: 0000 0000 492e af37 ed5f 8a37 4849 6337
000001d0: 0000 0000 ec7a cc37 43b1 b237 99f1 1035
000001e0: 9d03 7632 ff4f ad37 88cd a037 a2f9 6237
000001f0: 0000 0000 3e73 c337 b87f ba37 3019 b037
00000200: a84e 8e37 d22e ba37 38af d437 68b5 4437
00000210: 9b33 c735 0000 0000 555a 2d38 5367 c737
00000220: fe5e df33 0000 0000 8347 0938 ed59 4d37
00000230: c1c2 3436 0000 0000 41ee 2e38 d388 f137
00000240: 183e 8034 0000 0000 21ea f337 b636 bd37
00000250: 4055 aa36 0000 0000 2f84 1338 76eb ca37
00000260: 7e12 9a34 c6b3 ac32 ffe8 ed37 c4be e137
00000270: 18b8 aa36 0000 0000 2a0f f137 7a6e b737
00000280: 761e 6038 e406 8c36 052b 1238 bfec 6238
00000290: 8d22 0637 f88d 3f36 0000 0000 aaab f737
000002a0: 922c 6d37 0ace fb33 0000 0000 970e 2838
000002b0: d62d 5b37 3db5 7236 0000 0000 386c e637
000002c0: d506 9d37 75f3 0736 0000 0000 d57c 0138
000002d0: 6fda c237 422b 5337 0000 0000 c029 0538
000002e0: f77d be37 b576 bf35 eab1 c232 c254 0038
000002f0: 5431 fd37 7611 5337 0000 0000 8138 0938
00000300: e660 e337 1704 3b38 9a93 0237 72f9 2738
00000310: 60af c938 4229 b937 3a61 3237 0000 0000
00000320: ab62 1c38 eb20 ef37 5acc f233 0000 0000
00000330: 4970 2638 0f33 f837 50b7 8537 0000 0000
00000340: 8fc5 2738 d91b 0e38 b00e b936 0000 0000
00000350: e503 ee37 e505 0a38 7446 1338 0000 0000
00000360: 5ef6 1d38 280f 0838 310c 9536 e1b4 bb32
00000370: ba54 ea37 82f8 1338 e102 1338 0000 0000
00000380: 6090 1b38 7bdf 2038 8ae9 5438 ec4c c237
00000390: a31d 1d38 616a 8638 3820 3038 5f43 bd35
000003a0: 0000 0000 7624 4338 4291 fb37 2d24 de33
000003b0: 0000 0000 d208 0338 4b9d 6137 a67f 2736
000003c0: 0000 0000 f325 4638 adf2 1538 25aa 8534
000003d0: 0000 0000 add0 1738 dac9 c037 7ef1 aa36
000003e0: 0000 0000 5811 0e38 b550 d237 dd62 a834
000003f0: 86be ab32 dbf5 0938 e2dc dc37 8455 ab36
6.622905e-05 0.0 0.0001710339 0.00012253622 3.5688302e-07 0.0 0.000109355446 7.114191e-05
4.6893874e-05 0.0 0.00017819222 0.0001405925 8.263207e-07 0.0 0.00012679929 9.451588e-05
4.8629456e-05 0.0 0.00011840529 9.733561e-05 1.1663369e-06 6.891479e-08 0.00010592713 9.836825e-05
4.8587928e-05 0.0 9.622304e-05 8.563648e-05 0.00010829695 5.330635e-05 0.00012825771 0.00013601602
4.948601e-05 1.6395327e-06 0.0 3.1959145e-05 1.6923457e-05 9.909628e-08 0.0 3.30915e-05
8.993496e-06 2.563909e-06 0.0 3.106917e-05 2.1070036e-05 7.6880025e-07 0.0 3.723974e-05
2.2283422e-05 5.880863e-06 0.0 3.1021416e-05 2.1951006e-05 6.537446e-07 1.9145306e-08 3.1908654e-05
2.4962836e-05 5.890047e-06 0.0 3.1321953e-05 2.555501e-05 2.9082626e-05 4.3557743e-06 3.4758923e-05
4.7228114e-05 1.24547605e-05 2.619763e-06 0.0 7.768155e-05 5.1302486e-05 1.6647668e-07 0.0
5.2701558e-05 2.561456e-05 7.328742e-06 0.0 7.1250826e-05 5.4907814e-05 4.2529544e-07 0.0
6.6880915e-05 4.2576976e-05 1.1323974e-05 0.0 4.9843602e-05 3.834435e-05 6.815533e-07 3.2185493e-08
6.271933e-05 4.8423906e-05 1.13342385e-05 0.0 4.3600907e-05 3.693207e-05 5.0608203e-05 9.619579e-06
5.50654e-05 7.188717e-05 1.8672219e-05 2.3525734e-05 0.0 2.9005461e-05 2.048392e-05 7.436079e-08
0.0 2.2774477e-05 1.4090641e-05 1.7776547e-05 0.0 3.11072e-05 2.4777974e-05 1.8549967e-07
0.0 2.0883179e-05 1.649555e-05 1.35473165e-05 0.0 2.4375935e-05 2.1301797e-05 5.399575e-07
1.4319906e-08 2.0660458e-05 1.9169194e-05 1.3528772e-05 0.0 2.3299475e-05 2.2232402e-05 2.0992564e-05
1.6964346e-05 2.219473e-05 2.5353962e-05 1.1724747e-05 1.4841675e-06 0.0 4.1330542e-05 2.3770763e-05
1.0401526e-07 0.0 3.2729946e-05 1.223989e-05 2.6935452e-06 0.0 4.1706724e-05 2.8793153e-05
2.3887037e-07 0.0 2.9076882e-05 2.2556032e-05 5.076319e-06 0.0 3.5170637e-05 2.4189922e-05
2.869819e-07 2.0105187e-08 2.8361099e-05 2.6910922e-05 5.087826e-06 0.0 2.87365e-05 2.1866745e-05
5.343413e-05 4.1731273e-06 3.4849178e-05 5.4103086e-05 7.995067e-06 2.8543855e-06 0.0 2.9524632e-05
1.4136678e-05 1.17255766e-07 0.0 4.006791e-05 1.3064089e-05 3.6166305e-06 0.0 2.746853e-05
1.871904e-05 2.0258278e-06 0.0 3.0872256e-05 2.3228318e-05 1.2586652e-05 0.0 3.1748554e-05
2.2708422e-05 1.4265157e-06 2.2665478e-08 3.0596515e-05 3.018292e-05 1.25806455e-05 0.0 3.271597e-05
2.710563e-05 4.4588083e-05 7.78297e-06 4.0048217e-05 9.617093e-05 2.207293e-05 1.0632264e-05 0.0
3.728519e-05 2.8506349e-05 1.13061745e-07 0.0 3.9682058e-05 2.958768e-05 1.5940197e-05 0.0
3.9999893e-05 3.3881373e-05 5.5151395e-06 0.0 2.8373624e-05 3.2907254e-05 3.5113146e-05 0.0
3.7661164e-05 3.2439042e-05 4.4419653e-06 2.185192e-08 2.7934428e-05 3.5278972e-05 3.5050212e-05 0.0
3.708934e-05 3.8355105e-05 5.076224e-05 2.3162422e-05 3.745932e-05 6.4094325e-05 4.1991676e-05 1.4101205e-06
0.0 4.652558e-05 2.9989173e-05 1.0344261e-07 0.0 3.124105e-05 1.3447668e-05 2.495924e-06
0.0 4.724222e-05 3.5750378e-05 2.4896977e-07 0.0 3.619555e-05 2.2982178e-05 5.094508e-06
0.0 3.387159e-05 2.5071533e-05 3.136437e-07 1.999366e-08 3.2892316e-05 2.63289e-05 5.1061525e-06

exp_avg f4 [128]
00000000: 641e 293a 344a 74ba 6732 05ba 5973 92ba
00000010: 6790 6339 c81d 8039 be23 96ba 542c dfb9
00000020: a725 ecb9 efa8 b8ba eb67 c3b9 6669 82ba
00000030: 897c 40b9 0a5d c7ba 943a eb39 e14d 21b9
00000040: 9ecd 51b9 fcfd 0e3a 2d20 5839 5925 ac39
00000050: 1025 003a 66d6 72ba 395d 2fba 1fab 0cb9
00000060: fe05 4a38 0929 32b9 dc34 eab9 7548 ecb9
00000070: 57a3 89ba 5964 8739 74f8 4c39 12a2 c4b9
00000080: 9714 9bba 45a5 86b9 e06a 78b9 8ce1 5aba
00000090: 8d97 3aba 2bf0 2cba ec36 94ba 4116 a539
000000a0: 04b1 1bba 51a9 e8ba e556 71ba 27d4 053a
000000b0: 9f6b a3b9 4150 5fb9 f900 96b8 9791 eab9
000000c0: 230d abb9 b56e 0c39 186d 993a 5f09 9539
000000d0: d0cc bcba 7d75 89ba 8cb4 afb7 c648 08ba
000000e0: a03f 16ba 5981 1cba 2be5 b9b9 e16f 18bb
000000f0: 924c 84ba 293f 4cba 138f 88b9 f715 12ba
00000100: e2a2 cc38 9557 bfb9 568e b6b9 a1e5 80ba
00000110: bcf3 9cb8 921e 8aba cb5d 3239 d4d1 bbb9
00000120: ac43 2db8 fbfd cf39 bb7f bbba 8d72 19bb
00000130: 63ff c2b9 ee2e bf39 0818 5cba cdd9 8439
00000140: 89fa c839 dfb7 87ba 5e06 8039 3b79 a9b8
00000150: fadc 9fba 7a14 bdba fca9 9cba 654c 4db9
00000160: 3f6a 353a 8a03 413a 896c 5aba 5227 933a
00000170: f3c9 363a 221e 75ba 5b3a a038 1e22 0fb9
00000180: 3b74 7938 3d01 0c39 8c90 933a 423c e2ba
00000190: 6867 81ba 9c96 aa3a dc26 13b9 b0f4 03bb
000001a0: c88a 94ba 1143 083a 4d56 04b9 0713 d7b9
000001b0: 091d 93b9 7251 7db9 578d 023a a303 f6ba
000001c0: cf51 beb9 5ff3 dfb9 6a4f 2a3b ddf9 cfb9
000001d0: e6a9 8437 143b 7137 59aa dcba 9934 10ba
000001e0: 1d8c 5fba c5c7 393a 49ab a6b9 dcf7 e1ba
000001f0: ccba a2b8 051b 2bba 7042 1db6 6713 4236
0.0006451367 -0.00093189185 -0.0005081058 -0.0011173292 0.00021702201 0.0002443625 -0.0011454744 -0.00042566902
-0.0004504148 -0.0014088432 -0.00037270723 -0.0009949624 -0.0001835694 -0.0015210223 0.00044866337 -0.00015383169
-0.00020008392 0.0005454717 0.00020611352 0.00032834223 0.0004888335 -0.0009263515 -0.00066896115 -0.00013415188
4.8166134e-05 -0.0001699069 -0.0004467134 -0.00045067412 -0.001050095 0.0002582397 0.00019547512 -0.00037504785
-0.0011831698 -0.00025681607 -0.00023690937 -0.0008349649 -0.000711792 -0.0006597067 -0.0011307872 0.00031487833
-0.0005939158 -0.0017750656 -0.00092063687 0.00051051605 -0.00031169967 -0.00021296834 -7.1527385e-05 -0.0004474043
-0.0003262545 0.00013392682 0.0011705486 0.00028426477 -0.0014404301 -0.0010487285 -2.09457e-05 -0.00051988324
-0.0005731527 -0.0005970202 -0.00035456693 -0.0023260044 -0.001009362 -0.0007791394 -0.0002604654 -0.0005572731
9.757817e-05 -0.00036495613 -0.00034819794 -0.000983406 -7.484059e-05 -0.0010537675 0.00017010343 -0.00035823754
-4.130944e-05 0.00039671347 -0.0014305034 -0.0023414225 -0.0003719284 0.00036465324 -0.0008395915 0.00025339276
0.00038333636 -0.001035448 0.00024418806 -8.081129e-05 -0.0012196593 -0.0014425658 -0.0011952515 -0.00019578783
0.0006920434 0.0007362893 -0.0008332213 0.0011226928 0.0006972842 -0.00093504984 7.640264e-05 -0.00013650252
5.9474474e-05 0.00013351902 0.0011258288 -0.001726039 -0.0009872736 0.0013014856 -0.00014033489 -0.0020134859
-0.0011332864 0.0005197982 -0.0001262065 -0.00041022172 -0.00028059658 -0.00024158301 0.0004980168 -0.0018769394
-0.00036300576 -0.000427152 0.0025987276 -0.0003966828 1.5814741e-05 1.4378475e-05 -0.0016835436 -0.0005501002
-0.00085276534 0.0007086958 -0.00031789605 -0.0017240006 -7.7595556e-05 -0.00065271585 -2.3433495e-06 2.8919546e-06

exp_avg_sq f4 [128]
00000000: 2e7c 0339 b415 1338 eddf 7738 a518 db37
00000010: 0e5c 1a38 f8cd 2f38 9dd7 2938 1479 1938
00000020: c4d1 9538 193a c637 c1e7 2237 4f51 8d37
00000030: c4fa eb37 5cee 0238 6a8c 4337 633d f936
00000040: a613 3637 9b79 bc38 9538 bb37 35b3 2b37
00000050: 2413 3238 60ce 8a37 647b 2837 c679 2d35
00000060: 4e8d a336 6a0d e936 b87d a337 c9a7 1937
00000070: 7040 3638 1ea8 3738 9581 df38 b233 0538
00000080: 808d 2e39 4399 0a37 60b8 a236 8379 f137
00000090: 6a9c 5839 2a42 fc37 36f0 5637 acd3 d037
000000a0: 0399 ec37 b60c fd37 fc98 1737 41d6 bb38
000000b0: 8a89 0938 da96 9e37 b99e 0036 43df dc36
000000c0: c2b7 9a37 0087 e036 2d3c 9338 72fe 3038
000000d0: cc54 1439 3d2b 1438 3315 8438 bfa4 0938
000000e0: 0960 9a37 a838 ab37 fa47 2038 48b9 7338
000000f0: 712c ad37 6d2c 0037 5a7c 4736 e536 3437
00000100: 2855 2d38 0758 2d38 e171 8037 9c3a 0238
00000110: 1975 e637 c2f0 a437 ae76 a836 db0a 9d36
00000120: 15bc 4337 eea5 2837 1c89 1b38 1179 fd38
00000130: 05f1 0639 f62b 6737 c7ab 1137 e49c b336
00000140: 187b 9338 9100 8b37 043e 8138 b9e0 8037
00000150: 8611 4538 156e 6738 332d de37 ad2a 8935
00000160: 25a0 2539 2535 e537 ca43 9238 15ea e537
00000170: 5b63 2138 6273 7137 0e7d 8f38 081e 7137
00000180: f915 a637 20a9 e437 724c 1a39 12c9 5738
00000190: 9284 8038 4177 c538 c774 7f37 881e 4938
000001a0: 295f 9b38 571e 2838 d467 c638 8456 2338
000001b0: 7afa 0537 27ef 1f38 bb2b 2839 267e bb39
000001c0: 704f bb39 4aa3 c836 43d5 7838 2ffc 0638
000001d0: 5665 1437 295b b037 7739 c737 7708 c338
000001e0: b054 df37 9ae9 5139 e787 1c38 5758 db38
000001f0: 566f 3636 49b1 6438 e82f a236 36fe 5238
0.00012539394 3.5067744e-05 5.9097936e-05 2.611831e-05 3.6802194e-05 4.1915075e-05 4.0493545e-05 3.6590805e-05
7.1439455e-05 2.3630493e-05 9.709912e-06 1.6846372e-05 2.8130955e-05 3.1216405e-05 1.1655598e-05 7.4279246e-06
1.085262e-05 8.987189e-05 2.2318485e-05 1.0234119e-05 4.2456333e-05 1.6546983e-05 1.0042309e-05 6.4624726e-07
4.8742286e-06 6.9455027e-06 1.9489657e-05 9.158576e-06 4.3452193e-05 4.378717e-05 0.00010657605 3.1757816e-05
0.00016646646 8.261125e-06 4.8494403e-06 2.8786022e-05 0.00020657634 3.0071551e-05 1.2811322e-05 2.48941e-05
2.8204644e-05 3.016587e-05 9.035921e-06 8.956763e-05 3.279144e-05 1.8905313e-05 1.9165875e-06 6.582502e-06
1.84438e-05 6.6914363e-06 7.020715e-05 4.219864e-05 0.00014145969 3.532622e-05 6.298199e-05 3.2816777e-05
1.840295e-05 2.0411171e-05 3.8214006e-05 5.810827e-05 2.0643902e-05 7.639738e-06 2.9725693e-06 1.0741617e-05
4.1325722e-05 4.1328396e-05 1.5311818e-05 3.1049e-05 2.7472664e-05 1.9662435e-05 5.0206063e-06 4.6802284e-06
1.1666697e-05 1.0052214e-05 3.7082573e-05 0.000120865305 0.00012869023 1.3778908e-05 8.6826685e-06 5.35288e-06
7.032434e-05 1.6570355e-05 6.162751e-05 1.5363434e-05 4.698478e-05 5.5177214e-05 2.648551e-05 1.0219716e-06
0.00015795285 2.7323675e-05 6.974449e-05 2.740793e-05 3.8477923e-05 1.4391584e-05 6.8420646e-05 1.4371712e-05
1.9798974e-05 2.7258473e-05 0.00014715063 5.1447256e-05 6.128209e-05 9.415905e-05 1.5226374e-05 4.795057e-05
7.408701e-05 4.0082577e-05 9.460715e-05 3.8942802e-05 7.985736e-06 3.8131282e-05 0.0001603802 0.00035761407
0.00035726605 5.979474e-06 5.9326423e-05 3.2182954e-05 8.8450815e-06 2.1023285e-05 2.3749408e-05 9.299901e-05
2.6623107e-05 0.00020018817 3.7319867e-05 0.00010459188 2.718492e-06 5.4524546e-05 4.8335532e-06 5.0304654e-05
