results/ParkingTest_02/CarParking/CarParking-6309124.pt (torch, 532730 bytes, 52 tensors)

network_body.observation_encoder.processors.0.normalizer.running_mean f4 [28]
000000 7a 94 2c 3d 00 00 00 00 65 3d c6 3e 66 50 29 3f
       0.042133786 0.0 0.38718715 0.66138303
000010 cc 7e 08 3b 00 00 00 00 71 f4 04 3f aa cb 45 3f
       0.002082753 0.0 0.5193549 0.7726389
000020 c6 d3 85 3d 00 00 00 00 84 e8 af 3e 87 fc 1c 3f
       0.06534533 0.0 0.34357083 0.61322826
000030 f1 8e ed 3b 00 00 00 00 08 01 d7 3e 6f 02 2d 3f
       0.007249706 0.0 0.41992974 0.6758184
000040 5b 53 03 3e 00 00 00 00 2a fe d2 3e ca ff 24 3f
       0.12824766 0.0 0.41209537 0.64452803
000050 ab 9c 01 3c 53 7a d3 39 b6 dd c2 3e 7b c6 1c 3f
       0.007910888 0.00040336195 0.38059777 0.6124036
000060 c5 83 03 3e 00 00 00 00 72 03 ed 3e 3d 09 2b 3f
       0.12843235 0.0 0.4629169 0.6681097

network_body.observation_encoder.processors.0.normalizer.running_variance f4 [28]
000000 40 6a 78 48 00 00 80 3f d7 c0 b6 49 bc 10 25 49
       254377.0 1.0 1.4971149e+06 676107.75
000010 d4 ba 4c 46 00 00 80 3f 31 2e c0 49 4d 9f 29 49
       13102.707 1.0 1.5743421e+06 694772.8
000020 e4 af bc 48 00 00 80 3f 37 a6 ad 49 d9 02 21 49
       386431.12 1.0 1.4225349e+06 659501.56
000030 69 26 31 47 00 00 80 3f 33 9d bb 49 63 4b 45 49
       45350.41 1.0 1.5369344e+06 808118.2
000040 dc 46 2c 49 00 00 80 3f fa 56 ba 49 7f 26 34 49
       705645.75 1.0 1.5264952e+06 737895.94
000050 c4 d5 40 47 81 cd 1e 45 60 a2 b5 49 2e 2c 49 49
       49365.766 2540.844 1.487948e+06 824002.9
000060 6e 77 2c 49 00 00 80 3f c7 7d bf 49 96 0d 40 49
       706422.9 1.0 1.5686969e+06 786649.4

network_body.observation_encoder.processors.1.normalizer.running_mean f4 [5]
000000 84 ed 2e 40 e9 3e 05 3f bf 36 ce 3f 08 f6 23 3f
       2.7332468 0.5204912 1.6110457 0.6404729
000010 d0 02 a8 3e
       0.32814646

network_body.observation_encoder.processors.1.normalizer.running_variance f4 [5]
000000 71 4d 03 4b 3b 9f 2f 48 f5 e7 a5 4a 38 28 a9 4a
       8.605041e+06 179836.92 5.4364105e+06 5.54294e+06
000010 27 53 92 4a
       4.7947715e+06

network_body.processors.0.normalizer.running_mean f4 [28]
000000 7a 94 2c 3d 00 00 00 00 65 3d c6 3e 66 50 29 3f
       0.042133786 0.0 0.38718715 0.66138303
000010 cc 7e 08 3b 00 00 00 00 71 f4 04 3f aa cb 45 3f
       0.002082753 0.0 0.5193549 0.7726389
000020 c6 d3 85 3d 00 00 00 00 84 e8 af 3e 87 fc 1c 3f
       0.06534533 0.0 0.34357083 0.61322826
000030 f1 8e ed 3b 00 00 00 00 08 01 d7 3e 6f 02 2d 3f
       0.007249706 0.0 0.41992974 0.6758184
000040 5b 53 03 3e 00 00 00 00 2a fe d2 3e ca ff 24 3f
       0.12824766 0.0 0.41209537 0.64452803
000050 ab 9c 01 3c 53 7a d3 39 b6 dd c2 3e 7b c6 1c 3f
       0.007910888 0.00040336195 0.38059777 0.6124036
000060 c5 83 03 3e 00 00 00 00 72 03 ed 3e 3d 09 2b 3f
       0.12843235 0.0 0.4629169 0.6681097

network_body.processors.0.normalizer.running_variance f4 [28]
000000 40 6a 78 48 00 00 80 3f d7 c0 b6 49 bc 10 25 49
       254377.0 1.0 1.4971149e+06 676107.75
000010 d4 ba 4c 46 00 00 80 3f 31 2e c0 49 4d 9f 29 49
       13102.707 1.0 1.5743421e+06 694772.8
000020 e4 af bc 48 00 00 80 3f 37 a6 ad 49 d9 02 21 49
       386431.12 1.0 1.4225349e+06 659501.56
000030 69 26 31 47 00 00 80 3f 33 9d bb 49 63 4b 45 49
       45350.41 1.0 1.5369344e+06 808118.2
000040 dc 46 2c 49 00 00 80 3f fa 56 ba 49 7f 26 34 49
       705645.75 1.0 1.5264952e+06 737895.94
000050 c4 d5 40 47 81 cd 1e 45 60 a2 b5 49 2e 2c 49 49
       49365.766 2540.844 1.487948e+06 824002.9
000060 6e 77 2c 49 00 00 80 3f c7 7d bf 49 96 0d 40 49
       706422.9 1.0 1.5686969e+06 786649.4

network_body.processors.1.normalizer.running_mean f4 [5]
000000 84 ed 2e 40 e9 3e 05 3f bf 36 ce 3f 08 f6 23 3f
       2.7332468 0.5204912 1.6110457 0.6404729
000010 d0 02 a8 3e
       0.32814646

network_body.processors.1.normalizer.running_variance f4 [5]
000000 71 4d 03 4b 3b 9f 2f 48 f5 e7 a5 4a 38 28 a9 4a
       8.605041e+06 179836.92 5.4364105e+06 5.54294e+06
000010 27 53 92 4a
       4.7947715e+06

network_body._body_endoder.seq_layers.0.weight f4 [128, 33]
000000 25 fb 07 3f 5a 9d 61 3d 1a af 16 bd 7f 0f 22 bd
       0.5311759 0.055081703 -0.036788084 -0.03956556
000010 47 b1 39 3e bf 82 bd 3d 57 fb 77 3e 1a 96 36 3e
       0.18134032 0.092534535 0.24216972 0.17830697
000020 9d fa 2f bd 83 78 9d 3c 7b 19 2c 3d 1f 76 58 bc
       -0.042963613 0.019222504 0.042016488 -0.013211756
000030 2d ed 96 be 86 29 62 3e 9a 54 fd 3d c3 46 23 3e
       -0.29477826 0.22086152 0.12369652 0.15944962
000040 6c e2 11 3e 1d 7b 3e 3e 5c 62 8c 3e ac 6f b1 bd
       0.1424653 0.18601651 0.27418792 -0.08663878
000050 30 cb 97 bd 97 9d 38 3e 84 ad f1 3b 02 c8 06 be
       -0.07411802 0.18028866 0.007375421 -0.13162234
000060 23 10 36 3e b4 73 34 be 54 5e 02 be 1a e6 61 3e
       0.17779593 -0.17622262 -0.12731296 0.22060433
000070 de 30 22 be df bc 53 be 6a 6c 8a 3e 27 43 b8 be
       -0.15838954 -0.20677517 0.27035838 -0.35988733
000080 c2 31 1d 3e af 53 22 be 71 29 ad bd 68 1a 26 be
       0.15351012 -0.15852235 -0.0845517 -0.1622101
000090 86 88 e3 bd e3 2f d1 be d3 36 1d 3e 76 f8 b8 be
       -0.11110024 -0.40856847 0.15352945 -0.3612706
0000a0 b6 9d 4d be ab 10 06 be 4f c7 aa 3c 16 79 cd bd
       -0.20079693 -0.13092296 0.02084699 -0.10032861
0000b0 57 a7 5d 3e 9c 0e 85 3b a9 22 99 3d 99 de cf 3e
       0.21645866 0.0040605795 0.07477314 0.40599516
0000c0 af 39 71 3e dc fe 6f 3e 98 03 5e 3d 68 74 df bb
       0.23557161 0.23437065 0.054202646 -0.0068192966
0000d0 79 01 d7 bc a3 41 a5 bc 2a b7 8e be 0a 21 9e 3d
       -0.02624582 -0.0201729 -0.27874118 0.077211455
0000e0 9e 37 ff bc 47 54 b4 be 93 04 e9 3e 83 dc e8 bd
       -0.03115445 -0.3522055 0.45511302 -0.11370184
0000f0 c7 bf 39 3e a0 e3 f1 bd 02 89 39 3e 2b c9 fc bc
       0.18139564 -0.11810994 0.1811867 -0.030857643
000100 ec 75 b0 bd 9c 8d 8e bc 0f a2 2a be ef c6 f3 bd
       -0.08616242 -0.017401509 -0.16663383 -0.11903178
000110 62 fc a9 3c af 01 43 3e d1 93 af bd 8c 57 9b be
       0.020750228 0.19043611 -0.085731156 -0.3034023
000120 56 d9 80 3d ca 20 c8 bd 0b c8 8c 3e 84 c2 90 bc
       0.062914535 -0.09771879 0.2749637 -0.017670877
000130 35 f4 a2 3d b8 b2 3a 3e 02 9f 84 bd cb 44 8c 3e
       0.07956735 0.18232238 -0.06475641 0.27396235
000140 09 b3 54 3e 1d 7d b3 bd 33 a3 94 bd 21 6c 27 be
       0.20771421 -0.08764098 -0.0725769 -0.16349842
000150 08 90 39 be 35 ba 02 3f c7 01 9b 3c fa f0 3f 3e
       -0.1812135 0.5106538 0.018921746 0.18744269
000160 98 24 0f 3e fa c4 91 3e 6d a7 14 be cb db 40 be
       0.13978803 0.28470594 -0.14516993 -0.18833844
000170 c6 f4 1d 3c c1 f2 fb be 1f 4f 0e 3e c4 f3 d6 3d
       0.009640878 -0.49208644 0.1389737 0.10495713
000180 29 55 73 be 50 aa 57 bd fe fc 3c 3e a7 6c 41 3e
       -0.23762955 -0.052652657 0.18455884 0.18889104
000190 d5 f4 61 bc 9a 12 9b bd fb c6 18 3e ba fc 01 3e
       -0.013791283 -0.07571907 0.14919655 0.12694064
0001a0 87 90 46 3d f2 d7 59 be 60 d8 7d bc 47 05 d8 3c
       0.048477676 -0.21273783 -0.015493482 0.026369704
0001b0 cc 7e 1c 3e 29 2b 60 3e 5b 9a 22 3c cc 46 5c be
       0.15282744 0.21891464 0.0099244965 -0.21511382
0001c0 35 f7 03 3e 9f 45 92 bd 82 87 58 3d a9 aa 12 3e
       0.12887271 -0.071421854 0.052863605 0.14322914
0001d0 be 4f ca be 92 28 2c be 7b 2a e9 3d e4 fa 58 3d
       -0.39513963 -0.16812351 0.11385056 0.052973643
0001e0 73 6a dc 3d 84 81 72 bc 2c e2 b6 3c 79 d7 31 3d
       0.10762491 -0.014801387 0.022324644 0.04341838
0001f0 45 56 35 be de ae 94 3d b8 07 91 3d c9 14 1a 3d
       -0.1770869 0.07259916 0.0708155 0.03761748
000200 15 89 84 3d 80 4d d7 3b f6 a6 72 be 03 34 33 be
       0.06471459 0.006570518 -0.23696503 -0.1750031
000210 dc cd 7b bd cb 5c d3 3d 77 9d af 39 af a1 1f bd
       -0.06147562 0.10320433 0.00033495922 -0.038972553
000220 4a 07 c4 be ff 0b 89 be 60 71 ae 3e 07 b1 76 be
       -0.3828681 -0.26766965 0.34070873 -0.24090968
000230 d4 d0 97 bd 93 25 d7 bd 6d bd 6e be 4c 7f 47 be
       -0.07412878 -0.105052136 -0.23314448 -0.19482154
000240 d5 ea 02 bc 2e c2 a7 3d 05 01 33 be 77 1c a0 3c
       -0.007990559 0.08191334 -0.17480858 0.019544823
000250 22 cf 07 be 50 ef 46 bd a7 60 6d 3d 55 12 a6 3e
       -0.13262609 -0.04856807 0.057953503 0.3243586
000260 cd fb c0 bd 45 8a 03 be c4 eb 68 3e 8f ca 55 be
       -0.09423027 -0.12845714 0.22746187 -0.20878051
000270 dc a1 eb bd da 6a 48 be 0b d8 25 3d 29 9e 23 bd
       -0.115054816 -0.1957201 0.040489238 -0.039945755
000280 3d fc e7 be e3 2b 23 3d 6e f0 bb 3c 1d 17 95 be
       -0.4530963 0.039836776 0.022941794 -0.29119197
000290 41 db 8d be bf 64 5f 3d dd 44 97 bd cb 8b bf bd
       -0.2770634 0.05453944 -0.073861815 -0.09352835
0002a0 b4 26 a8 bb 54 1d f4 3d 60 ff 63 3e 61 9e 10 be
       -0.005131567 0.119196564 0.22265387 -0.14122917
0002b0 be 33 c4 bb d0 f7 51 be fa 82 e6 bb 55 94 74 be
       -0.0059876135 -0.20504689 -0.0070346566 -0.23884709
0002c0 68 5e fa 3d 35 bd b0 3c 74 fe be 3e 03 1f a6 be
       0.12225038 0.021574596 0.37303507 -0.32445535
0002d0 79 77 4a 3c d7 c5 de bd 42 40 03 3e 11 78 29 bd
       0.012357586 -0.10877579 0.12817481 -0.04137427
0002e0 f7 0a 36 3e 2b 50 ee bb 3e 6c 99 bd 6e e2 e4 bd
       0.1777762 -0.0072727404 -0.07491349 -0.111760005
0002f0 f4 f9 14 3e 8c 39 38 be f4 55 79 bd da 56 95 be
       0.14548475 -0.17990702 -0.060872987 -0.29167825
000300 ac 43 92 bd 88 01 83 3e 6f 9b 08 3d 37 a0 93 bd
       -0.07141814 0.25587106 0.033351358 -0.07208293
000310 5c 34 30 3e 38 f9 4d 3b cc a7 9c be 15 c6 58 be
       0.17207474 0.0031429064 -0.3059677 -0.21169312
000320 de 5f f8 3c be 9f 5c 3e 31 e7 0a be 86 2b fa b9
       0.03031915 0.21545312 -0.13564755 -0.00047716143
000330 86 47 1c bf bc 8f c6 ba 0b b2 e1 3c 5d 15 33 3e
       -0.61046636 -0.0015149037 0.027550718 0.17488618
000340 30 0a 3b 3e aa 80 36 bd 58 70 2b 3e ec 2c 41 be
       0.18265605 -0.044556297 0.16742074 -0.18864793
000350 88 9f ed be 32 c2 91 be 8e dd 4b bd 2d 8a cb bd
       -0.46410775 -0.28468472 -0.049771838 -0.09938464
000360 c4 fd 15 bd 6a ab b9 bd ea c6 ef bb d7 cc 04 bf
       -0.036618963 -0.09065898 -0.0073174136 -0.5187506
000370 ac d2 c6 bb 11 21 a1 be bb 03 bc bc 92 eb d9 3d
       -0.0060675945 -0.3147054 -0.022950998 0.106406346
000380 8c 84 0e be 34 70 d7 bc af c2 b0 be 82 c9 2c 3e
       -0.1391775 -0.02629862 -0.34523532 0.16873744
000390 85 0d 35 be 3a a0 80 be b1 a5 5f be 0b 0e 43 be
       -0.17680939 -0.25122243 -0.2184055 -0.19048326
0003a0 06 f2 3c 3e 8a f1 4e be 57 33 a3 3d 37 f9 fa bd
       0.184517 -0.20209327 0.07968777 -0.12254565
0003b0 70 57 64 3c 2e a6 87 3e 27 49 97 3e b4 c4 01 be
       0.013936862 0.26493973 0.29547998 -0.12672693
0003c0 96 c0 ce bd 13 a1 a9 3e 12 b1 69 3d f1 d9 db 3d
       -0.100953266 0.33130702 0.057053633 0.107349284
0003d0 de 41 93 3d 24 a5 d7 ba 2d 8c b4 3e 93 b6 f8 bd
       0.071902975 -0.0016452414 0.35263196 -0.12144198
0003e0 f9 81 4f be ac 20 fe 3d aa ff 65 3e 3f d7 1a be
       -0.20264424 0.124085754 0.2246081 -0.15121172
0003f0 d5 34 26 be 74 16 17 3e a2 e8 04 3e 71 fe 23 be
       -0.16231091 0.14754659 0.12979367 -0.1601503

network_body._body_endoder.seq_layers.0.bias f4 [128]
000000 4e 81 65 3d 65 d0 f9 3d dd 2c 95 3d 8e 76 69 3d
       0.056031518 0.12197951 0.072839476 0.05699783
000010 91 8a 2c 3d 97 67 da 3d 2c 4e db bb cf 36 3c 3d
       0.042124335 0.106642894 -0.0066926684 0.045950707
000020 17 9f 93 3d 46 7d ef 3d a1 b8 af 3d d9 3c 7e 3d
       0.07208078 0.11693816 0.08580137 0.062069748
000030 35 d0 69 3d f1 55 d3 3b 6e 83 45 bd 8c 99 91 3c
       0.057083327 0.006449454 -0.048221044 0.017773412
000040 9b 48 c9 bc 40 18 b0 3d 09 8d 88 bd 93 26 bf bc
       -0.024570754 0.08598375 -0.06667525 -0.023333823
000050 58 69 2e 3d 5e 3b 03 3e 6f af 6d 3d 0e 00 80 bd
       0.042580932 0.12815616 0.058028635 -0.062500104
000060 af df 8e 3c 14 9f b6 3d ec d0 10 3d a0 be 63 bd
       0.017440645 0.089170605 0.035355493 -0.055601716
000070 05 24 da 3d 61 f0 ca 3d fa 3a bf bb 2a 8a 02 3e
       0.106514014 0.0990913 -0.005835888 0.12748018
000080 90 71 0f bd bd 46 c1 3d 62 b1 59 bb 20 77 b0 3d
       -0.03502041 0.094373204 -0.00332173 0.08616471
000090 fe 43 12 3d 5b 91 b9 3d 74 98 40 3d d5 4f 2a 3d
       0.035709374 0.090609275 0.04702039 0.04158004
0000a0 29 c2 90 3d bf 17 09 3e a6 a0 4f 3c 80 ab e0 3d
       0.07068283 0.13387965 0.012672579 0.10970211
0000b0 10 43 a9 3d dc 8f 13 3c fb d3 a8 3c 37 8a ed 3d
       0.08264744 0.009006467 0.020608893 0.11598628
0000c0 f1 3b 70 bd 5a 5c d7 bc 25 87 91 3d 03 36 f0 3c
       -0.058650915 -0.026289154 0.07105855 0.02932263
0000d0 cf 64 81 ba 54 80 e2 3d 00 6d f1 3d 72 7d 94 3d
       -0.0009871962 0.11059633 0.11788368 0.07250489
0000e0 4b 3d dc 3d 56 85 34 bd 2c 82 03 3d 21 f7 85 3d
       0.10753878 -0.04407247 0.032106563 0.06541277
0000f0 78 85 b5 3d 3a fd bf 3d f3 95 2c 3d dd 58 1f bc
       0.08863348 0.09374471 0.04213519 -0.0097257765
000100 f7 49 d1 3d 76 b5 b2 3d 74 fa 1d 3d ba 29 e4 3d
       0.10219186 0.08726017 0.03856893 0.11140771
000110 4e c6 c0 3c ba 84 be bc 63 36 dc 3d 0c 2d 0c 3e
       0.023532059 -0.023256648 0.10752561 0.13689059
000120 c0 4a 8d bd 00 0b 27 3d 43 13 e0 3c 72 47 f9 3d
       -0.06899023 0.040781975 0.027352935 0.1217183
000130 24 ec 01 3e d6 07 87 3d 71 15 ec 3b f1 5c 80 bd
       0.12687737 0.065932915 0.0072047045 -0.06267727
000140 9e ea ac 3d 2e a8 af 3d 2b 9b 18 3d 49 de 92 3d
       0.08443187 0.085769996 0.037257355 0.07171304
000150 69 76 f0 3d 88 fd 45 3d 3b 24 f4 3d 59 1c f8 ba
       0.11741335 0.04833749 0.11920973 -0.0018929347
000160 66 2e b5 3d ab ea 7e 3d d1 b9 6f bb cc d7 c2 bc
       0.088467404 0.062235516 -0.003657926 -0.02378454
000170 9d 9b 15 3d 9a be bf 3d b1 05 c2 3d 8a 1b 9a 3c
       0.036525358 0.09362526 0.09473742 0.01881196
000180 d1 b3 c9 3d 06 f4 95 3d 78 2e 66 3d 58 6d f8 3d
       0.098487504 0.073219344 0.05619666 0.12130231
000190 a2 02 b3 bd 62 de cc bb e7 1a 6b bd 4a 4e ab 3d
       -0.087407365 -0.006252096 -0.057398703 0.08364542
0001a0 16 47 d1 3d 7b bd 54 bb 3e b0 df 3c 44 8b 03 3e
       0.10218637 -0.0032461572 0.027305719 0.12846094
0001b0 ef 87 6e 3d 24 7a b7 3d e4 2f 0f 3d 3d 66 50 bd
       0.058235105 0.08958843 0.03495778 -0.050878752
0001c0 62 54 8b 3d 30 06 bc 3d 5c 6a ca bc f8 e2 36 3a
       0.06803204 0.09180868 -0.02470892 0.000697657
0001d0 27 91 4f 3d 9e d4 7d bc 4a d9 d3 3d 81 b6 ab 3d
       0.050675537 -0.015492586 0.10344179 0.08384419
0001e0 4a 5e 43 3c f2 09 04 3e 3d 95 80 3d 4e 1b be 3c
       0.011924336 0.12894419 0.06278465 0.02320638
0001f0 50 f4 04 bd 24 9c 9d 3c 52 09 c3 3d 8b d0 03 3e
       -0.032459557 0.019239493 0.09523262 0.12872522

network_body._body_endoder.seq_layers.2.weight f4 [128, 128]
000000 6c b6 da bb e3 b5 9d 3d 68 b9 5b 3e cf 11 d7 3d
       -0.0066745784 0.07700708 0.21457446 0.105014436
000010 79 75 57 3d b9 86 6e bd 32 37 0b 3e 91 18 01 3e
       0.052602265 -0.05823395 0.13595274 0.12607028
000020 0e 2c 36 3a f7 cb 62 3d eb 08 b7 3d 35 74 13 3d
       0.00069493137 0.055370297 0.08937248 0.035999496
000030 64 44 9b 3d d8 f0 e8 bd e7 ca 14 3e 3c 01 9e bd
       0.07581404 -0.11374062 0.14530526 -0.07715079
000040 2c da 46 3e 57 f6 33 bd 4f 31 c1 bd d3 76 42 bc
       0.19419163 -0.0439361 -0.09433233 -0.01186915
000050 3e 70 df bd a5 55 6e 3d 4f fa 29 3e 42 6b c6 bd
       -0.109100804 0.058187146 0.16599391 -0.096884266
000060 5d 1e ab 3c 05 f6 b9 bd e0 f7 b4 3b f2 72 a9 bc
       0.020888502 -0.090801276 0.005522713 -0.020684693
000070 8f 45 27 3e 01 ed 7c 3d c8 59 21 3d 70 c6 1e bd
       0.16335128 0.061749462 0.039392263 -0.038763463
000080 de af d7 3c db 92 16 be b8 f4 68 3d c2 16 c3 bd
       0.026328977 -0.14704458 0.056874007 -0.09525825
000090 85 86 62 3d 0c b1 7d 3c 22 06 50 bd a1 15 09 be
       0.05530407 0.015484106 -0.0507871 -0.13387157
0000a0 63 90 87 3c 7d df 4c 3e 1b f4 cb 3d f4 7a c2 bd
       0.016548341 0.20007129 0.09958669 -0.09496108
0000b0 b9 ab 88 3d 94 b1 88 bd 54 4f 9f bc f5 5e d1 3c
       0.066733785 -0.06674495 -0.019447006 0.025557974
0000c0 0b 12 3f 3e 3d 34 96 3d 4a 62 f5 3c 93 e6 7c 3c
       0.18659227 0.073341824 0.029954094 0.015435833
0000d0 9e 1a 4d 3d f4 87 eb 3d a6 2c bb 3d 84 75 21 bd
       0.050074212 0.115005404 0.091393754 -0.039418712
0000e0 e9 e3 eb 3c a3 f8 ec 3d a6 1e 6a 3d 81 b6 9d 3d
       0.0287952 0.11570861 0.057158135 0.077008255
0000f0 24 4b f4 3d 65 1a 44 bb 57 e5 6b bd 81 b3 e9 3d
       0.119283944 -0.002992296 -0.057591762 0.11411191
000100 86 01 9a 3d 09 16 78 3e 08 50 97 3c 9b 4f f2 bd
       0.07519822 0.24227156 0.018470779 -0.1183159
000110 76 5e 16 be 37 b9 52 3d b3 aa 0b be 68 91 88 bd
       -0.14684471 0.051446166 -0.13639335 -0.06668359
000120 14 d6 0b be 66 32 cf 3b be b9 a9 3d 10 82 35 3e
       -0.13655883 0.0063231466 0.08287381 0.17725396
000130 7b d1 15 bd 3b 13 dc 3d f5 6f 4b 3e e7 aa 04 bd
       -0.03657673 0.107458554 0.19866927 -0.032389548
000140 43 e9 b3 3d 61 08 6c bd a0 8e 92 bc 30 af af 3d
       0.087847255 -0.05762518 -0.017890275 0.08578336
000150 2c dd b6 bd 78 2f 00 3e 39 24 49 3e ea f7 ea bd
       -0.08928904 0.12518108 0.19642724 -0.11473067
000160 93 31 71 bd d2 47 2e 3d 49 f1 93 3d 8b cb 8d 3d
       -0.05888517 0.042548962 0.07223756 0.06923588
000170 b4 0e ad bd 4d af a7 3c 54 36 2a be a1 12 76 3d
       -0.0845007 0.020469332 -0.16622287 0.06007636
000180 6a cb 5a 3d 4d 82 0f 3c 3b a8 13 3c 50 19 15 3e
       0.053416647 0.0087590935 0.009012277 0.14560437
000190 d3 ac df 3d 49 85 e2 bc a5 50 ac bd ff 73 3b 3d
       0.109216355 -0.027651446 -0.08413819 0.04576492
0001a0 f6 fa 95 bd 9a e4 c2 3d ac 5f 6a be ec c4 4e 3e
       -0.073232576 0.095162585 -0.22888058 0.20192307
0001b0 bf cd 88 3e c2 ac ff 3d a6 e0 fc bc 7a 11 40 be
       0.26719472 0.12484123 -0.03086884 -0.18756667
0001c0 e9 ec 2a 3c fb a8 4a bd b1 ed d6 3d 14 95 9f 3d
       0.01043246 -0.04947756 0.10494555 0.07792106
0001d0 93 11 b8 3d a1 fd 00 bd c2 65 e9 3d f3 4f 33 bd
       0.08987727 -0.03149188 0.11396362 -0.043777417
0001e0 04 d8 71 bc 1b 3d 38 3e a2 ee 20 bc a6 e5 77 3d
       -0.014760975 0.1799206 -0.0098225195 0.060521744
0001f0 5a e5 a3 bd 08 35 12 3d e8 2c 96 bd ea 38 1b 3e
       -0.0800273 0.035695106 -0.07332784 0.1515843
000200 f2 f5 5e 3e cd eb 2e be 09 53 23 be fb 0b f5 3c
       0.21773508 -0.17082138 -0.15949644 0.02991294
000210 cf b5 86 3e 89 cc 94 bc da 5f 68 3c 06 cd fa 3b
       0.26310584 -0.018163936 0.014183009 0.007653835
000220 48 1e 49 3b 93 a1 75 bd 94 42 2b bd 69 64 64 bd
       0.0030688215 -0.059968542 -0.04181154 -0.05575982
000230 4d c1 59 bd c1 bf cc 3c bf 00 1c bd 6e 22 53 3d
       -0.05316286 0.02499378 -0.03808665 0.051546507
000240 ba c5 d4 bd 54 e1 d7 3d e0 ad 64 3d 90 ef aa bc
       -0.10389276 0.10541025 0.055829883 -0.020866185
000250 ef cb 87 bd 35 78 c7 bd 9b 0d fe bd 6d 51 d0 bd
       -0.06630694 -0.097397245 -0.12404939 -0.10171781
000260 41 99 3a 3b 92 88 e8 3c 5e 8b 42 bd a5 79 c1 bd
       0.0028472694 0.028385434 -0.047496192 -0.0944703
000270 32 07 a4 bc 5b a9 7d bd a7 df 00 3e 67 c5 11 3e
       -0.020022962 -0.061929088 0.12585317 0.1423546
000280 a9 9a 05 3e 03 9e cb 3d a0 99 e1 bd 65 90 97 3d
       0.1304728 0.09942248 -0.1101563 0.07400588
000290 36 35 02 3e 81 07 9e bd 6d f2 11 3d 77 14 a5 bd
       0.12715611 -0.07716275 0.035631586 -0.08060544
0002a0 f9 de c9 bd 11 0c 25 be e5 26 0f 38 4e d7 e2 bd
       -0.09856982 -0.16117884 3.413008e-05 -0.11076222
0002b0 f7 58 d5 3d 9c c1 94 3c 2a 19 9c bd 83 5c a0 bd
       0.10417359 0.018158726 -0.07621987 -0.07830145
0002c0 33 4c 97 bd d3 cb 1d 3e e7 22 26 be f4 2c 8a 3d
       -0.07387581 0.15409784 -0.16224252 0.067468554
0002d0 cd 68 5e 3e 4e 9e 57 bb 72 5a 7b bd af 30 40 bd
       0.21719666 -0.0032900753 -0.061365552 -0.04692143
0002e0 e8 6c 0d be 93 2d 19 3e 11 62 bb bc 50 bc 25 bd
       -0.13811076 0.14958791 -0.02287391 -0.040462792
0002f0 4f b9 e9 3d 91 cc 2c 3c b9 69 f4 3d aa 69 78 3d
       0.11412298 0.010546819 0.119342275 0.060647644
000300 04 68 35 bd d6 e0 8c bd b2 ee 05 3e a5 84 c1 bc
       -0.04428865 -0.068788216 0.13079336 -0.02362282
000310 c0 aa 22 3d f5 34 38 3b f9 28 dd bd 4d 50 b0 3d
       0.03971362 0.0028107737 -0.107988305 0.08609066
000320 35 98 dd bc 41 ad 89 bc b6 11 f2 3c fa 20 b1 3c
       -0.027050117 -0.016806247 0.02954946 0.02162217
000330 81 87 88 3d 4c 93 1e 3c eb 7b 1a be fc b0 46 3d
       0.0666647 0.009678673 -0.15086333 0.04850863
000340 24 fb 4e bd 42 c8 86 3d dc 02 9f be 6f 9a 09 be
       -0.050532475 0.06581165 -0.3105687 -0.13437818
000350 ff 3b 2a bb d3 a7 34 bd 2b 5c 50 3d 54 1b 32 3d
       -0.0025975702 -0.044105362 0.05086915 0.043483093
000360 a5 d8 d3 bd 5f b8 34 3b fb 46 ce bb 3a 2f c0 bc
       -0.10344056 0.0027575714 -0.0062950826 -0.02346002
000370 81 0c 96 3d e9 af 36 be 64 81 2f bd 6f 34 02 3d
       0.07326604 -0.17840542 -0.042848006 0.031788286
000380 96 2d 38 be 64 92 8a 3d a5 10 51 bc ec cf 02 be
       -0.1798614 0.06766203 -0.012760316 -0.12774628
000390 cf f7 8b 3e 46 2c 9b bd 90 32 6e 3d 23 9e 2a be
       0.273375 -0.07576804 0.05815369 -0.16661887
0003a0 21 7a 66 bd 25 09 e1 3c ad 6a 0a be d9 a7 9f bd
       -0.056268815 0.02747018 -0.13517256 -0.07795686
0003b0 5d 6b 29 3d c3 cc 19 3d 32 6b e5 3c 40 76 3d 3e
       0.041362155 0.03754879 0.028005216 0.1850214
0003c0 3b 41 13 3e bf 2c 19 3d 48 2f 67 3e c4 e7 10 be
       0.14380352 0.03739619 0.2257663 -0.14150912
0003d0 e7 48 1b 3e 5a b1 10 3e 00 ea 5f bd 94 b4 b8 3d
       0.15164529 0.14130154 -0.05466652 0.090188175
0003e0 99 8d 4c be 2c 1f f6 bd 55 97 f9 bd 03 fc f4 3d
       -0.1997589 -0.12017664 -0.121870674 0.1196213
0003f0 1f 19 9c bc 8d 0c 77 3d f5 b1 b0 bc 89 3d 5c bd
       -0.019054947 0.060314704 -0.021569232 -0.053769622

network_body._body_endoder.seq_layers.2.bias f4 [128]
000000 3d 42 c5 3d ee f5 19 b9 73 f7 37 3d 3a 66 ca 3d
       0.096317746 -0.00014682833 0.04491372 0.098827794
000010 c3 c3 81 bd 38 ca a6 3c 90 22 e3 3d 0c fd 7f 3d
       -0.06336167 0.020360097 0.11090577 0.062497184
000020 ea 4f 98 3c ea 83 cb 3d b6 95 9f 3c fb 2b 81 bd
       0.018592793 0.0993727 0.019480567 -0.06307217
000030 61 ca b7 3b 19 5d 39 3d fb 29 05 bd 33 f0 81 3d
       0.0056088422 0.0452548 -0.03251074 0.063446425
000040 c8 b0 80 bd 85 22 c9 bd 98 ea c6 3d 44 ff 8a 3d
       -0.06283718 -0.09821037 0.09712714 0.06786969
000050 ab 6d c0 3d 64 8b a3 3d 3f 4d 82 3d 2a 4f ac 3d
       0.093959175 0.07985571 0.0636239 0.08413537
000060 fe 0e ab 3d c8 0d ba 3d 48 1c aa bd c5 cb c5 bd
       0.08352469 0.0908466 -0.083061755 -0.096580066
000070 ff 57 ad 3d 87 48 96 3d 05 c5 b9 3d 5c a3 03 3d
       0.084640495 0.07338052 0.090707816 0.032138214
000080 8b 09 a3 3d 86 02 81 3d 72 b3 e9 3d 0e 04 d3 3d
       0.079608046 0.062993094 0.114111796 0.10303508
000090 47 56 d6 3d f4 5e 91 3d 6c 43 49 3c f3 24 d3 3d
       0.10465675 0.07098189 0.012284141 0.10309782
0000a0 70 ca 14 3d 19 a5 e0 3d 02 df 2e bd 84 07 40 3d
       0.036325872 0.1096899 -0.042693146 0.046882167
0000b0 b5 49 be 3c 1e ad a6 3c 07 27 d9 3d 93 a3 ce 3c
       0.023228506 0.02034622 0.10603147 0.025224483
0000c0 f4 08 e1 3d c3 6a 86 3d ca 63 3b 3d 0f 71 c6 3d
       0.10988036 0.06563332 0.045749463 0.09689533
0000d0 62 69 5a bd a7 cc e6 3d 0a 0c cd 3c 1c 06 df 3d
       -0.053323157 0.11269503 0.025030155 0.10889837
0000e0 69 1f b7 bc 1a d4 c1 3c 99 6e 4f bd 89 b0 c4 3d
       -0.022353845 0.023660708 -0.050642584 0.09603984
0000f0 9b 87 8a 3d 6f cd c1 3d 44 9b 2e 3c 88 b9 c4 3d
       0.06764146 0.094630115 0.010657135 0.096057
000100 e3 16 d5 3d 98 0b 95 bc 11 f5 72 3d 49 73 fc 3b
       0.10404756 -0.018194005 0.059315745 0.0077041727
000110 71 d4 af bd c5 15 9b 3d c2 66 82 bc a3 e8 a6 3d
       -0.08585442 0.075725116 -0.01591814 0.08149841
000120 f2 8e e5 3d 14 5d 7f 3d 1c 3f a1 bd 4c e4 c0 3d
       0.11208905 0.062344626 -0.07873365 0.09418544
000130 41 0f f6 3d 0d 17 e9 3d 95 d5 67 3d 37 62 bd 3d
       0.12014628 0.1138135 0.056600172 0.092472486
000140 0f b4 40 bd c6 ab a2 3d ab f5 de 3d 1f da 1a bd
       -0.047046717 0.079429194 0.10886701 -0.037805673
000150 90 54 b7 3c c3 27 11 3d e7 51 8a 3d 00 d2 c3 ba
       0.02237919 0.03543831 0.06753903 -0.0014939904
000160 04 b5 c6 3d 41 af f1 bd 26 a0 ce 3d ff d8 84 3d
       0.09702495 -0.11801005 0.1008914 0.06486701
000170 b6 17 aa bc f7 e1 5b 3d d6 13 57 3d 84 f9 8a bd
       -0.02076326 0.053682294 0.05250915 -0.067858726
000180 06 de be bc 27 7c 25 3c 95 c2 96 3d d1 c2 28 bd
       -0.023299228 0.010100401 0.07361332 -0.041201416
000190 b0 39 05 3d e5 58 a3 3d 6b 7c d8 3c 70 94 0b 3e
       0.03252572 0.0797594 0.026426515 0.13630843
0001a0 5d 72 82 bd 0a 16 03 3e 73 48 f4 3d 92 8b e2 3c
       -0.06369469 0.12801376 0.11927881 0.027654443
0001b0 08 b1 46 3d 30 82 94 3a 42 88 91 bc fc 88 70 bc
       0.048508674 0.0011330303 -0.017765168 -0.014681097
0001c0 65 29 8f 3d 09 ac bc 3d 8e d4 11 bd 93 4b b8 bc
       0.06990317 0.092125006 -0.0356031 -0.022496974
0001d0 ba a6 ae 3c 94 38 d1 3d cc d5 c4 bd 29 af 9c bc
       0.021319736 0.102158695 -0.09611091 -0.019126492
0001e0 7b d6 f5 3d 85 7f 8a 3d 0c fd 78 3d c4 95 e4 3a
       0.120037995 0.06762604 0.0607882 0.0017439653
0001f0 82 38 c2 bd 8c 91 a3 3d c7 d6 fd bc b8 06 0c 3d
       -0.09483434 0.07986745 -0.030986203 0.034186095

action_model._continuous_distribution.log_sigma f4 [1, 2]
000000 9c 15 7f bf fd 21 08 bf
       -0.9964235 -0.5317686

action_model._continuous_distribution.mu.weight f4 [2, 128]
000000 8d 17 45 3d bb 0e 75 3d 04 9b 65 bd 44 3e 26 3d
       0.048118163 0.0598285 -0.056056038 0.040586725
000010 94 e9 f6 3c da 4e a7 3d fa a3 6d 3a f0 40 c2 bd
       0.030140676 0.081693366 0.0009065267 -0.09485042
000020 a2 76 6a bd 4f bf 74 bb 06 7b e2 bd c4 a5 aa bc
       -0.057242043 -0.0037345474 -0.11058621 -0.020830996
000030 16 80 91 bd d5 70 cd 3d 4a c8 b4 ba 4a 09 43 bd
       -0.071045086 0.100312866 -0.0013792601 -0.04761628
000040 f7 5b 7b 3b de b0 4f bc 52 23 5a 3d d5 91 bc 3d
       0.0038354376 -0.012676446 0.05325634 0.09207503
000050 fa ca e0 bc 7d 87 43 bc f0 6c ef 3d 44 9c 3d 3d
       -0.027440537 -0.011934158 0.116907 0.046291605
000060 cd 3c e9 bd 5e 1d b1 bc c2 3a 55 bd fb 95 26 3c
       -0.1138855 -0.021620449 -0.05205799 0.010167594
000070 58 82 78 3d b3 06 bb 3d c9 91 28 3d 25 93 fb 3d
       0.06067118 0.09132137 0.041154657 0.12283925
000080 59 f1 99 3d 08 54 e4 3c 0f 67 ea 3c d5 52 22 3c
       0.075167365 0.0278721 0.028613595 0.009907444
000090 d0 62 d2 bc 0d c3 89 3d 3b 22 f2 3d 2b 11 08 be
       -0.025681883 0.06726656 0.11822935 -0.13287799
0000a0 32 e5 eb 3d bf c0 a8 bb 6a 98 09 bc 62 71 d7 3d
       0.11518325 -0.0051499302 -0.008398155 0.10519673
0000b0 4c 1d c2 3d ec e6 87 bd c8 49 e7 bc 3c fa d5 3d
       0.09478244 -0.06635842 -0.028233424 0.10448119
0000c0 13 21 b2 bd a1 bc f8 3d 91 b8 aa 3d 6c a7 80 3c
       -0.08697715 0.12145353 0.083359845 0.015704833
0000d0 ca 43 13 3e 90 31 c5 bd ea 64 d2 bd cd d3 57 bc
       0.14381328 -0.09628594 -0.10273154 -0.013173056
0000e0 ef e3 7d bd 42 33 9c 3d f9 c2 3c 3d 00 5a 1d 3d
       -0.061984953 0.07626964 0.046084378 0.03841591
0000f0 75 2d dc 3d 51 b7 fc bc fd 64 a3 bd 17 53 4f bd
       0.10750858 -0.03084913 -0.07978246 -0.05061635
000100 40 92 8a bc aa b8 ed bd e9 09 06 3e 00 ef da bb
       -0.01691544 -0.116074875 0.13089718 -0.006681323
000110 fe 86 09 bd ea 85 81 3d 27 c4 80 3d c4 b0 c4 bd
       -0.033576004 0.0632437 0.06287413 -0.09604028
000120 2d 61 c8 bc fc fe 92 3d 01 e5 a4 bd 72 c4 81 bd
       -0.0244604 0.07177541 -0.080514915 -0.06336297
000130 ba aa 9a 3b ed 17 df 3c 3d 5a 9f 3d 8b f0 bf 3d
       0.004720059 0.027233088 0.077808835 0.09372052
000140 0b 42 87 3d ef 83 30 3d 63 64 66 3d 42 74 f6 bd
       0.066043936 0.04309457 0.05624808 -0.12033893
000150 d0 57 d5 3d e1 85 a4 bd 44 c4 25 3d 5f ab 9f 3d
       0.104171395 -0.08033348 0.040470377 0.07796358
000160 a0 1e 84 bc 20 75 c9 bb 3a 0e 5b bd 4e dd fd 3c
       -0.016127884 -0.0061479956 -0.053480364 0.030989315
000170 89 4b be 3d a4 53 be bd 7f 3a d5 3d fc be b7 3d
       0.09291751 -0.09293297 0.10411548 0.08971974
000180 59 0f 9f 3c 32 53 f9 3d fa c2 55 bd 10 e6 75 bc
       0.019416498 0.12174071 -0.052187897 -0.015008464
000190 f5 22 0c 3e d3 10 67 3d a9 d3 19 3d 54 6a b3 bd
       0.1368521 0.05641253 0.03755537 -0.08760515
0001a0 d6 28 37 bd 57 31 86 bd ae 10 20 bc 74 41 04 be
       -0.04471668 -0.065523796 -0.009769602 -0.12915593
0001b0 52 1c 0c bd e1 4b fe 3d 8f 2f 87 bd 5e ff e6 bd
       -0.034206696 0.124168165 -0.06600868 -0.11279176
0001c0 e6 c3 9a 3d 58 65 50 3d 08 f6 93 bd b9 68 aa 3d
       0.07556896 0.0508779 -0.07224661 0.083207555
0001d0 b0 82 9c 3d 52 94 82 3b a0 3e c1 bc c7 96 85 3d
       0.07642114 0.0039849663 -0.023589432 0.06522899
0001e0 a6 74 4b bc df 5b 72 bd 23 27 6c bd a9 02 02 be
       -0.012417948 -0.059169646 -0.05765451 -0.12696327
0001f0 62 a0 0c bd 1c 7b c1 3d 82 88 c1 bd 10 c2 a0 3d
       -0.03433264 0.094473094 -0.09449865 0.078495145
000200 f6 60 99 3d 82 30 05 be 7c 47 61 3d 8d 17 8d 3d
       0.07489197 -0.13006786 0.054999813 0.068892576
000210 d0 13 01 be 7c 19 2d bd 33 4b ca 3d e0 a2 66 3d
       -0.12605214 -0.042260632 0.09877624 0.056307673
000220 f2 21 6b 3d 4e e2 c8 3d a3 f7 e4 bb 8b a6 db bd
       0.05740542 0.09808789 -0.0069875284 -0.10725125
000230 ff 7c 34 bb cf b2 c1 bb 91 ab 53 be 1d 45 5a 3d
       -0.0027540324 -0.005911208 -0.20670916 0.053288568
000240 18 bf f7 bd 45 79 61 bd c4 d4 b9 3d 44 63 c4 3c
       -0.12096995 -0.055047292 0.09073785 0.023973115
000250 d1 23 bf 3d e0 f3 81 3d ea e7 b8 3c 70 ce bc 3d
       0.09333003 0.063453436 0.022571523 0.09219062
000260 29 24 c9 3d 00 a3 e5 3d 5a a0 9b bd e5 a7 18 be
       0.0982135 0.112127304 -0.07598944 -0.14907797
000270 54 e0 03 3d e1 5d 7c 3d e9 79 bb 3d f7 c7 7f 3c
       0.032196358 0.061612967 0.09154112 0.01561164
000280 a9 1d 37 3d 9b 82 67 3d f8 7d b9 3d 4a 48 9f 3d
       0.04470602 0.05652104 0.0905723 0.0777746
000290 93 d1 d0 3d 81 8e 6b 3c 2c 42 6b bd 12 e9 c8 3d
       0.10196223 0.014377237 -0.057436153 0.0981008
0002a0 9a 7a b2 bd cb 19 9c 3d 00 59 de bd 73 b9 18 be
       -0.08714791 0.07622107 -0.10856819 -0.14914493
0002b0 52 10 8c 3c 00 dd 38 3d 04 3e 0c 3e 30 fd 15 bd
       0.017097626 0.045132637 0.13695532 -0.03661841
0002c0 12 8c e4 3d 08 42 4f ba 30 a0 dc 3b e8 41 5a 3d
       0.11159529 -0.0007906263 0.006732963 0.05328551
0002d0 44 0d ea bd 76 3d db 3d c3 0b 24 3d 97 20 c8 3d
       -0.114283115 0.10705082 0.04005028 0.09771841
0002e0 4e b5 a1 3b 34 c9 1a 3c 51 ab 25 be eb 61 93 3d
       0.0049349433 0.009447385 -0.16178633 0.07196411
0002f0 d8 61 f2 3b f3 6c 95 3d ec 6e b1 bd fb b6 d9 3d
       0.007396918 0.07296171 -0.08663735 0.10630604
000300 3e 00 c8 3d b2 cc b8 bb f2 a8 f6 3c ab a7 5f 3d
       0.09765671 -0.005639636 0.030109856 0.05460326
000310 35 7f 8f bd 9e 73 4a 3d fc c7 64 bd bc da cc 3d
       -0.07006685 0.049426667 -0.055854782 0.10002658
000320 ca 8d cd 3d 09 f1 cb 3c a3 c6 8c bd 89 58 0c 3e
       0.1003681 0.024895208 -0.068738244 0.13705648
000330 db b0 bc 3d ff 44 e6 3d 49 d5 3d 3d 62 ae 7d 3d
       0.0921342 0.11243629 0.046345983 0.061933883
000340 1b c7 24 be b9 62 25 3d f6 f2 d8 3d e5 74 b0 bc
       -0.16091578 0.040377352 0.10593216 -0.021540115
000350 d9 b6 91 bc b4 d2 99 3d d7 aa 8e 3d 3f ae 7c bd
       -0.017787384 0.075108916 0.06966179 -0.06168961
000360 1d d4 a9 3d 74 48 6c bd 99 7f ee 3d 4c ae 4f 3d
       0.082924105 -0.057686284 0.11645431 0.05070333
000370 67 20 e0 bd dd 36 96 3d d5 a3 57 3d 5f f6 20 be
       -0.1094368 0.07334683 0.052646477 -0.15718983
000380 0b 86 8e bb 3f d4 db bc 9f 08 8c 3d fd 2f bc bd
       -0.0043494753 -0.026834605 0.06837582 -0.091888405
000390 a2 7f 9a bd e5 fe 51 3d 2f 9f 50 bc cd ba 06 3e
       -0.07543875 0.051268477 -0.012733265 0.13157196
0003a0 c7 72 09 be ed 81 1c 3e 2c b1 f2 3d 8b 7a fd 3c
       -0.1342269 0.15283938 0.11850199 0.030942222
0003b0 6e dc 83 3d 1d 95 a1 bd ff 36 a0 3c 06 35 2f bd
       0.06438528 -0.07889769 0.019557474 -0.042775176
0003c0 2c ea a0 3c bd 5c a8 3d 93 a1 31 bd f2 e7 be bd
       0.019642912 0.082208134 -0.04336698 -0.09321584
0003d0 fe 5a 97 bd e3 0c a0 3d 55 28 11 be ce c9 e2 bd
       -0.07390402 0.07814958 -0.14175542 -0.110736474
0003e0 de b0 0c 3e 9e b1 88 3d b4 9c 11 3e 52 5b 85 bc
       0.13739344 0.06674503 0.14219934 -0.016278896
0003f0 2c 1e 62 bd d2 de 27 3d 5b 1c 29 bd b5 b0 ef bc
       -0.055204555 0.040983982 -0.041286808 -0.029259065

action_model._continuous_distribution.mu.bias f4 [2]
000000 9e 8f b2 3c 5a 58 dc 3d
       0.021796998 0.10759039

exp_avg f4 [128, 33]
000000 8c b5 92 3a 00 00 00 00 9f 66 87 b9 17 f8 63 ba
       0.0011193021 0.0 -0.00025825665 -0.0008696331
000010 1d 8e 6a b8 00 00 00 00 4b d1 93 ba 63 7d 1a bb
       -5.59223e-05 0.0 -0.0011277584 -0.0023573271
000020 72 20 6e 3a 00 00 00 00 85 43 6a b9 5a b6 39 ba
       0.0009083814 0.0 -0.00022341132 -0.00070843624
000030 89 6b 9e b8 00 00 00 00 c4 26 5d 3a d3 52 ed b9
       -7.554057e-05 0.0 0.00084362575 -0.0004526587
000040 cc ff 26 3b 00 00 00 00 41 58 2d bb f6 30 3a bb
       0.0025482057 0.0 -0.0026450309 -0.002841053
000050 49 33 c2 b8 ff 4f ce b7 a3 c4 78 ba 43 01 fa ba
       -9.2601935e-05 -2.4594365e-05 -0.00094897504 -0.0019073862
000060 ef dc 26 3b 00 00 00 00 f8 d5 94 bb 9b 70 a2 bb
       0.0025461277 0.0 -0.0045421086 -0.0049572713
000070 78 08 11 39 8c db bb ba 8a 6f 61 39 5e b8 a1 39
       0.00013831432 -0.0014332398 0.00021499224 0.00030845677
000080 81 6b 57 3a 92 44 98 39 00 00 00 00 d3 d1 17 3a
       0.00082176185 0.00029042788 0.0 0.0005791459
000090 3c 37 8c b7 dd 62 aa 38 00 00 00 00 b1 a9 92 b9
       -1.6715021e-05 8.1246464e-05 0.0 -0.0002797372
0000a0 56 82 19 ba a5 06 d7 39 00 00 00 00 05 54 30 3a
       -0.00058559084 0.00041012946 0.0 0.0006726387
0000b0 82 9c 1d 3a e0 f9 04 3a 00 00 00 00 b4 f2 d2 ba
       0.0006012396 0.00050726347 0.0 -0.001609406
0000c0 39 80 ae ba 6c e4 42 3a 00 00 00 00 99 4e a6 39
       -0.001331336 0.000743455 0.0 0.00031720547
0000d0 10 25 17 39 e4 56 30 39 c6 de 15 38 28 7b a7 ba
       0.00014414289 0.00016817037 3.5731842e-05 -0.0012777792
0000e0 36 d2 8f ba c6 0a 43 3a 00 00 00 00 64 a2 de 39
       -0.0010972682 0.0007440265 0.0 0.0004246413
0000f0 2c 55 73 39 e1 98 00 3a 08 98 fb b9 94 72 7e ba
       0.00023206015 0.0004905593 -0.00047987723 -0.00097064045
000100 60 1c 58 3a 09 1a a6 3a 34 2f 96 39 00 00 00 00
       0.00082439743 0.0012672554 0.000286454 0.0
000110 5a 03 04 ba e4 6f b2 b9 e5 a9 9e 38 00 00 00 00
       -0.00050359 -0.0003403417 7.5656724e-05 0.0
000120 96 8b d7 b9 a8 52 3d 39 6c 78 a6 39 00 00 00 00
       -0.00041111995 0.00018055236 0.0003175171 0.0
000130 44 21 0a ba 2b 81 4c b9 13 84 3c 39 00 00 00 00
       -0.0005269239 -0.00019503075 0.00017978279 0.0
000140 ac f8 f3 ba fe 7b 88 ba b0 19 c6 b9 00 00 00 00
       -0.0018613539 -0.0010412929 -0.00037784642 0.0
000150 99 2b 72 3a 5b 55 49 3a 8a 7d 1d 39 25 8f 0b 38
       0.0009238064 0.00076802605 0.00015019454 3.3273496e-05
000160 03 ad a4 38 ed 70 fc 39 24 83 c5 b9 00 00 00 00
       7.852355e-05 0.00048149322 -0.00037672475 0.0
000170 e0 cf 5d 3b b1 ad 50 3b 17 17 ab 3a 2e d1 e2 37
       0.0033845827 0.003184181 0.0013053146 2.7038706e-05
000180 c7 4d c5 ba 57 25 e4 b9 d0 50 49 3a 9e 8b 7d 3a
       -0.0015053087 -0.0004351537 0.00076795835 0.00096719887
000190 00 00 00 00 19 4e 69 ba c6 f2 9f ba 8d 5f c1 37
       0.0 -0.0008899882 -0.001220309 2.3051887e-05
0001a0 00 00 00 00 c6 29 b9 b9 49 e7 cc ba 26 49 83 3a
       0.0 -0.00035317073 -0.0015632893 0.0010016307
0001b0 00 00 00 00 c1 e6 ba b9 a5 37 0f ba 2d fd 8c 38
       0.0 -0.0003564861 -0.0005463309 6.722878e-05
0001c0 00 00 00 00 ed 1c 17 b6 76 77 60 ba 20 84 e9 3a
       0.0 -2.251759e-06 -0.0008562723 0.0017815866
0001d0 00 00 00 00 46 e6 7c ba 18 b3 92 ba b8 61 fd 37
       0.0 -0.00096473505 -0.001119229 3.0205454e-05
0001e0 e7 16 2a 37 c8 dd 58 ba 77 62 b5 ba 8c 6c e9 3a
       1.0138122e-05 -0.0008272794 -0.0013838549 0.0017808839
0001f0 00 00 00 00 27 b3 12 bb a7 f2 20 bb 44 74 f3 39
       0.0 -0.0022384615 -0.0024558695 0.00046435196
000200 e2 84 ac ba e5 a6 20 ba f2 1a 42 39 c7 93 ab 3a
       -0.0013162161 -0.0006128385 0.0001851132 0.0013090306
000210 83 e7 34 39 00 00 00 00 e9 3c 20 ba 60 77 82 b9
       0.00017252383 0.0 -0.0006112592 -0.00024884474
000220 95 28 b1 37 00 00 00 00 98 bf fd b9 df 7f 0e ba
       2.1118942e-05 0.0 -0.0004839867 -0.00054359244
000230 a2 d4 6f 39 00 00 00 00 9c 6e ef b9 a0 80 86 38
       0.00022872028 0.0 -0.00045668043 6.413576e-05
000240 f6 b3 d7 37 00 00 00 00 69 bc 82 3a da 46 60 3a
       2.5713798e-05 0.0 0.0009974363 0.00085554796
000250 fb 80 8f 39 00 00 00 00 e8 cd b4 ba 8e 6c 5b ba
       0.00027371183 0.0 -0.0013794275 -0.0008370363
000260 32 4e 35 38 c2 d3 1b 37 18 a2 77 b9 00 27 4c b9
       4.3226588e-05 9.288024e-06 -0.0002361614 -0.00019469485
000270 f5 8e 8f 39 00 00 00 00 ac 93 46 bb 26 11 25 bb
       0.00027381597 0.0 -0.0030300422 -0.0025187223
000280 e0 ba 59 b9 af 24 90 b9 a3 d5 21 3a a2 1b 9a 39
       -0.00020764349 -0.00027493152 0.0006173497 0.00029393757
000290 42 aa dd b9 e3 8d c8 38 00 00 00 00 c2 5e 0b 3a
       -0.00042279257 9.5631716e-05 0.0 0.0005316549
0002a0 e9 7d 53 3a b0 37 6b 38 00 00 00 00 7c a7 05 3a
       0.00080677733 5.608023e-05 0.0 0.00050985045
0002b0 88 74 9e 3a 0e e9 39 39 00 00 00 00 10 42 f0 39
       0.0012089172 0.00017729794 0.0 0.00045825588
0002c0 76 7f 1d 3a 5a 33 21 3a 00 00 00 00 d8 8f c5 b9
       0.0006008068 0.00061493146 0.0 -0.0003768194
0002d0 2a 53 5c 39 87 a8 a5 ba 00 00 00 00 21 50 7e 3a
       0.00021011816 -0.0012638726 0.0 0.0009701271
0002e0 bf e4 59 3a e8 a4 48 39 30 e5 ce 37 b1 62 30 3a
       0.0008311979 0.00019134919 2.4663837e-05 0.00067285734
0002f0 8b 59 95 3a 78 7a a5 ba 00 00 00 00 19 07 03 3b
       0.0011394484 -0.0012625 0.0 0.0019993244
000300 c1 ad 09 3b d2 db 73 39 93 0d 07 3a 99 ab b6 b9
       0.0021008106 0.00023256175 0.0005151864 -0.00034841595
000310 04 ea 2b b9 aa 70 9a ba d2 5f 33 3a 00 00 00 00
       -0.00016395008 -0.0011782844 0.00068425864 0.0
000320 61 7e f9 ba b4 3a 24 bb 1c 60 28 36 00 00 00 00
       -0.0019034856 -0.0025059404 2.5089894e-06 0.0
000330 a4 b2 81 ba e6 e0 34 bb f3 68 72 3a 00 00 00 00
       -0.0009895158 -0.002759987 0.0009247206 0.0
000340 a8 ba ce ba 15 fd 01 bb 2a 0f e5 39 00 00 00 00
       -0.0015772181 -0.0019834687 0.00043689582 0.0
000350 ec 25 fd 37 6a 1d 92 ba 11 b4 50 3b 00 00 00 00
       3.0177609e-05 -0.0011147682 0.003184561 0.0
000360 91 c2 01 bb 1c 3c 1b bb ce 9b a9 b8 43 1a 94 35
       -0.0019799809 -0.002368695 -8.087569e-05 1.1034502e-06
000370 3d 4e 2e ba d1 82 d6 ba 28 97 50 3b 00 00 00 00
       -0.00066492317 -0.0016365891 0.0031828377 0.0
000380 79 dc 54 bb 10 02 74 bb 08 a0 e3 3a 4d 1f c2 ba
       -0.0032480045 -0.0037232675 0.0017366419 -0.0014810354
000390 e9 01 b7 ba 9b 3c b3 ba 25 cc 23 3b e1 8c fa 38
       -0.0013962361 -0.0013674678 0.0024993506 0.0001194717
0003a0 00 00 00 00 99 96 48 39 79 12 80 39 0d 19 f0 37
       0.0 0.00019129588 0.00024427826 2.8621895e-05
0003b0 00 00 00 00 3e 61 ca b9 06 17 81 b9 fe 87 1b 39
       0.0 -0.00038600893 -0.0002462195 0.00014832613
0003c0 00 00 00 00 b3 b5 56 39 30 17 c4 39 a8 94 87 38
       0.0 0.00020476319 0.0003740131 6.464991e-05
0003d0 00 00 00 00 ba 3d a0 39 58 b9 f1 39 0b ea 02 38
       0.0 0.00030563568 0.00046105194 3.1212385e-05
0003e0 00 00 00 00 c0 6a 8c ba 20 d6 2c ba 40 5f 83 38
       0.0 -0.0010712966 -0.00065931864 6.2643085e-05
0003f0 1e 30 53 37 79 b3 3e ba ec bd 01 ba 9d 4a 04 38
       1.2587783e-05 -0.00072746683 -0.000494926 3.154074e-05

exp_avg_sq f4 [128, 33]
000000 cd c6 86 38 00 00 00 00 66 5e 34 39 af ae 04 39
       6.4266475e-05 0.0 0.00017201304 0.00012653576
000010 d7 1e a6 34 00 00 00 00 18 51 f2 38 ff 8b a2 38
       3.0942348e-07 0.0 0.00011554564 7.750838e-05
000020 bf 4f 48 38 00 00 00 00 77 f5 56 39 90 f9 29 39
       4.7757985e-05 0.0 0.00020500073 0.00016210065
000030 f9 ee 8d 35 00 00 00 00 4f 07 0f 39 59 80 d4 38
       1.0574869e-06 0.0 0.00013640265 0.000101328544
000040 71 fb 63 38 00 00 00 00 9e d4 10 39 48 1c ef 38
       5.435519e-05 0.0 0.00013812116 0.00011401676
000050 09 f9 de 35 42 e4 80 33 0b cc e0 38 57 08 cb 38
       1.6612768e-06 6.001984e-08 0.00010719158 9.681348e-05
000060 e6 e0 63 38 00 00 00 00 f1 9b f4 38 8d 4d d6 38
       5.433047e-05 0.0 0.00011663873 0.0001021876
000070 c3 1f d3 38 1f 87 72 38 0c da 1f 39 60 b0 17 39
       0.0001006718 5.7823137e-05 0.0001524465 0.00014466187
000080 29 99 53 38 73 99 0b 36 00 00 00 00 37 9e 14 38
       5.044896e-05 2.0801933e-06 0.0 3.54333e-05
000090 f8 c1 99 37 2d 10 bc 33 00 00 00 00 81 be 23 38
       1.8329345e-05 8.7573746e-08 0.0 3.903965e-05
0000a0 3a 66 2e 37 51 44 48 36 00 00 00 00 66 67 13 38
       1.039501e-05 2.9842088e-06 0.0 3.514383e-05
0000b0 e9 50 d6 37 3d d2 cd 35 00 00 00 00 12 21 21 38
       2.5548465e-05 1.5334878e-06 0.0 3.841619e-05
0000c0 fe 3a c3 37 02 74 f5 36 00 00 00 00 b4 e8 1e 38
       2.3273282e-05 7.315074e-06 0.0 3.7886857e-05
0000d0 c9 d3 ee 37 df 31 2a 36 63 70 91 32 4f 2e 17 38
       2.8470431e-05 2.5361003e-06 1.693133e-08 3.6044334e-05
0000e0 f2 33 ef 37 bb b3 f5 36 00 00 00 00 4a d6 15 38
       2.851521e-05 7.3224924e-06 0.0 3.572394e-05
0000f0 f9 97 f2 37 61 93 14 38 68 48 b4 36 b0 30 28 38
       2.8919416e-05 3.5423207e-05 5.372847e-06 4.0099665e-05
000100 1c 66 72 38 74 92 76 37 b8 fb 65 36 00 00 00 00
       5.7792393e-05 1.4696841e-05 3.4270179e-06 0.0
000110 eb fe be 38 2c 75 81 38 bd 80 2f 34 00 00 00 00
       9.107388e-05 6.173024e-05 1.634498e-07 0.0
000120 e7 38 82 38 bf 9d 02 38 e7 c6 f4 36 00 00 00 00
       6.209482e-05 3.1141328e-05 7.294922e-06 0.0
000130 01 32 c1 38 b3 bc 92 38 37 01 3a 35 00 00 00 00
       9.212271e-05 6.9969705e-05 6.929217e-07 0.0
000140 a9 1e b1 38 3c d4 60 38 e5 87 5e 37 00 00 00 00
       8.4457286e-05 5.360342e-05 1.3263872e-05 0.0
000150 ba 75 86 38 f0 11 4e 38 0c ac 9f 35 11 10 11 33
       6.411546e-05 4.9130933e-05 1.1896495e-06 3.3775056e-08
000160 25 12 a7 38 75 a6 7a 38 cc bf 5e 37 00 00 00 00
       7.96656e-05 5.975967e-05 1.3276887e-05 0.0
000170 03 49 6b 38 4b 3e 3d 38 bf c5 5b 38 da e4 38 37
       5.6096364e-05 4.5119126e-05 5.2397834e-05 1.1020538e-05
000180 d8 11 90 38 35 f6 9d 38 d2 7d c9 37 bc 89 ca 37
       6.869779e-05 7.532203e-05 2.4019657e-05 2.4144414e-05
000190 00 00 00 00 c4 7c e0 37 97 a9 aa 37 1a c9 81 33
       0.0 2.676098e-05 2.034455e-05 6.043611e-08
0001a0 00 00 00 00 f5 5c be 37 89 3e 73 37 dd 58 97 37
       0.0 2.2693052e-05 1.4498489e-05 1.8041983e-05
0001b0 00 00 00 00 db 25 10 38 b8 bd ea 37 4f 65 a0 34
       0.0 3.436753e-05 2.7983318e-05 2.9876034e-07
0001c0 00 00 00 00 ab eb aa 37 df cd 8c 37 93 a7 80 37
       0.0 2.037532e-05 1.6785167e-05 1.5336822e-05
0001d0 00 00 00 00 d0 fd e9 37 7f 33 ce 37 02 ae 99 35
       0.0 2.7893955e-05 2.4581093e-05 1.1450031e-06
0001e0 d0 08 49 32 da 50 a4 37 07 27 9a 37 8b 8d 80 37
       1.1701744e-08 1.9587973e-05 1.8376404e-05 1.53247e-05
0001f0 00 00 00 00 e5 4c d9 37 e5 9b c7 37 9e ff ab 37
       0.0 2.5904223e-05 2.3795243e-05 2.050382e-05
000200 86 34 99 37 73 02 cf 37 59 6f 04 38 ab 03 51 37
       1.826348e-05 2.4677463e-05 3.1574953e-05 1.2458225e-05
000210 da 2c 3c 36 00 00 00 00 86 b6 85 38 56 5c 1e 38
       2.804029e-06 0.0 6.375932e-05 3.775613e-05
000220 a5 24 11 34 00 00 00 00 ef ad 54 38 e4 f7 a0 37
       1.3517509e-07 0.0 5.0706727e-05 1.918892e-05
000230 63 a9 9a 36 00 00 00 00 6f 00 97 38 6c 43 53 38
       4.609277e-06 0.0 7.200322e-05 5.036911e-05
000240 41 d6 ff 34 00 00 00 00 ec 58 51 38 8b 8f 1c 38
       4.7653342e-07 0.0 4.9912298e-05 3.7326983e-05
000250 6b 8f 19 37 00 00 00 00 a6 c8 85 38 8d 26 3d 38
       9.152903e-06 0.0 6.379308e-05 4.5097015e-05
000260 cb f5 16 35 c4 d6 e0 32 f6 38 3a 38 1c 1d 2a 38
       5.623703e-07 2.6174696e-08 4.4398905e-05 4.055827e-05
000270 1e d6 19 37 00 00 00 00 0b 75 61 38 8d e6 24 38
       9.169364e-06 0.0 5.3753185e-05 3.9315364e-05
000280 e5 2e ab 38 6c fe fd 36 7b 80 62 38 9f f6 d5 38
       8.16265e-05 7.569606e-06 5.4002256e-05 0.00010202568
000290 4c 0b 84 37 6e 02 58 36 00 00 00 00 fb e9 ff 37
       1.5740887e-05 3.2187922e-06 0.0 3.0507324e-05
0002a0 0c b0 92 37 87 fb cb 33 00 00 00 00 22 d1 18 38
       1.7486534e-05 9.498677e-08 0.0 3.6434394e-05
0002b0 16 56 78 37 81 26 82 36 00 00 00 00 9f 6d 03 38
       1.4801995e-05 3.8787844e-06 0.0 3.1334926e-05
0002c0 ce 45 c2 37 24 9d 62 36 00 00 00 00 bc 2c 06 38
       2.3159108e-05 3.3768092e-06 0.0 3.198975e-05
0002d0 e6 50 c8 37 da 82 7c 37 00 00 00 00 5a 3b 10 38
       2.387953e-05 1.5050837e-05 0.0 3.438755e-05
0002e0 3a 08 d8 37 83 42 94 36 c6 eb ab 32 fe 72 05 38
       2.5753037e-05 4.4184867e-06 2.0014237e-08 3.1816766e-05
0002f0 15 0b f9 37 43 62 7c 37 00 00 00 00 bf e7 12 38
       2.9688274e-05 1.5043249e-05 0.0 3.5024943e-05
000300 2c 7b fc 37 25 2b 26 38 4a 1c 1c 37 55 ae 14 38
       3.0098097e-05 3.9617666e-05 9.304911e-06 3.544831e-05
000310 e6 ec 9f 38 98 ae d6 37 b3 ec 7a 37 00 00 00 00
       7.6258366e-05 2.559209e-05 1.4956272e-05 0.0
000320 ae 12 2d 38 69 13 16 38 12 49 f8 33 00 00 00 00
       4.126381e-05 3.5780864e-05 1.1561691e-07 0.0
000330 c8 f2 45 38 ab 57 25 38 92 62 95 37 00 00 00 00
       4.7194568e-05 3.9420713e-05 1.7808085e-05 0.0
000340 86 1d 4e 38 57 c5 40 38 86 aa 54 37 00 00 00 00
       4.9141723e-05 4.5960154e-05 1.2675888e-05 0.0
000350 1a d8 19 38 cf 2b 3e 38 59 3d 57 38 00 00 00 00
       3.6679303e-05 4.534033e-05 5.131713e-05 0.0
000360 ad 3b 51 38 95 46 40 38 b3 a4 0c 37 7e 8a be 32
       4.988506e-05 4.5842102e-05 8.382997e-06 2.218189e-08
000370 7f 3f 0b 38 f0 17 3b 38 3f fd 56 38 00 00 00 00
       3.3199318e-05 4.4606568e-05 5.125743e-05 0.0
000380 b9 9f 4f 38 c7 5a 55 38 00 7c 8b 38 6e f3 09 38
       4.95014e-05 5.08677e-05 6.651133e-05 3.2890057e-05
000390 d4 1f 4e 38 28 f1 c1 38 26 37 7a 38 ec fb dc 35
       4.914387e-05 9.247876e-05 5.9656006e-05 1.6464596e-06
0003a0 00 00 00 00 5f a3 34 38 d2 bb ea 37 62 13 b5 33
       0.0 4.3067495e-05 2.7982434e-05 8.431995e-08
0003b0 00 00 00 00 be 48 00 38 7a b6 5b 37 e7 39 31 36
       0.0 3.0585325e-05 1.3095903e-05 2.640876e-06
0003c0 00 00 00 00 1d 72 55 38 01 16 1e 38 c3 28 a2 34
       0.0 5.0889434e-05 3.769063e-05 3.020451e-07
0003d0 00 00 00 00 b9 25 11 38 7a 03 b9 37 f5 dc be 36
       0.0 3.4605826e-05 2.2055337e-05 5.688164e-06
0003e0 00 00 00 00 98 02 21 38 f6 c7 f3 37 35 64 ca 34
       0.0 3.8387807e-05 2.9060971e-05 3.7698342e-07
0003f0 8e 00 8d 32 d4 97 04 38 e2 6c d0 37 a6 33 bf 36
       1.6414813e-08 3.1612653e-05 2.4846235e-05 5.6982562e-06

exp_avg f4 [128]
000000 11 54 a0 3a f7 ea e8 ba 96 e5 d8 ba 56 29 04 ba
       0.0012232085 -0.001777022 -0.0016547914 -0.000504156
000010 1e 25 f2 b9 a9 c5 a0 ba e1 14 66 b8 4c 17 24 ba
       -0.0004618549 -0.0012265939 -5.485572e-05 -0.0006259575
000020 07 71 c0 b9 cd a3 65 ba cb cc 43 b9 d0 fe 71 ba
       -0.00036705306 -0.0008760065 -0.0001867294 -0.00092313904
000030 26 b9 3b ba ed a7 96 b9 d8 75 2e 3a af 2e e9 b9
       -0.0007161073 -0.00028735344 0.00066551333 -0.00044476005
000040 50 ac 85 b8 17 15 71 3a 72 ae c2 38 8d 96 5a ba
       -6.37403e-05 0.0009196563 9.283134e-05 -0.0008338474
000050 f4 df 10 ba 88 e0 92 38 4d 11 b9 b8 29 64 6c b9
       -0.00055265357 7.003645e-05 -8.82471e-05 -0.00022544026
000060 41 9e 2b b9 46 88 94 39 e2 31 81 ba c6 8c be b9
       -0.00016366785 0.0002833029 -0.0009856785 -0.00036344508
000070 c6 42 c7 ba 70 58 72 ba 95 c5 1f b9 d4 36 b6 ba
       -0.0015202395 -0.00092447456 -0.00015237027 -0.0013901838
000080 cc 66 1a 3b 09 d9 76 b9 4b 00 8f b7 76 09 db ba
       0.0023559807 -0.0002354124 -1.7047065e-05 -0.0016711194
000090 f5 fc 1b 3b 0e 65 e2 ba 5e e0 15 39 3a bf 8c 38
       0.0023801897 -0.0017272548 0.0001429333 6.711339e-05
0000a0 97 c9 0c bb 9f c3 68 ba a1 25 0d ba 38 e0 04 ba
       -0.0021482462 -0.00088792475 -0.000538433 -0.00050688116
0000b0 ed 7d 38 ba f3 cd 98 ba 60 f5 16 39 e0 95 01 ba
       -0.00070378074 -0.0011658057 0.00014396524 -0.00049432926
0000c0 0d 15 4f 3a 45 5d dd b9 2a 71 a2 ba e9 0d e1 b9
       0.000789956 -0.00042221896 -0.0012393345 -0.00042925708
0000d0 9b 3b 1c 3b 24 02 68 ba 6f 81 7a ba 74 97 41 38
       0.0023839239 -0.00088504166 -0.000955603 4.6155837e-05
0000e0 2b 13 a9 ba b1 20 bf 3a e3 9f b1 39 db f3 cd 3a
       -0.0012899389 0.0014581886 0.00033879196 0.0015712933
0000f0 77 ea dc ba 44 67 b5 b9 b7 b1 4f b9 20 b6 97 39
       -0.0016854544 -0.0003459995 -0.00019807262 0.00028936658
000100 e0 a3 97 ba 7e f9 a5 39 c6 b6 22 3a 00 68 bc b9
       -0.0011569224 0.0003165714 0.0006207045 -0.0003593564
000110 1f 7c 97 38 15 9c de b9 10 c1 7b b9 50 05 8f ba
       7.2233604e-05 -0.0004245943 -0.00024009147 -0.0010911617
000120 f3 b6 23 3a 8d 16 a6 b8 c3 cd 04 3b b7 ee 24 bb
       0.0006245218 -7.919697e-05 0.0020264245 -0.00251667
000130 da 7f 01 bb a1 38 49 ba 5d 62 3f b8 fb 7d 95 ba
       -0.0019760043 -0.000767598 -4.5629557e-05 -0.0011405343
000140 c3 46 94 ba f8 9f e5 ba 70 74 87 ba 1c 22 19 3a
       -0.0011312593 -0.0017518988 -0.0010334384 0.00058415695
000150 7d 28 3e ba 71 59 22 bb c1 64 03 3a b4 40 f1 38
       -0.0007253958 -0.002477255 0.0005012267 0.000115038274
000160 b4 3f 8e ba a5 db 14 bb ad 07 c1 3a 21 54 b6 ba
       -0.0010852725 -0.0022713926 0.0014727019 -0.001391057
000170 97 61 85 ba d6 76 37 b9 e1 b2 bc ba 28 d9 73 3a
       -0.0010176179 -0.0001749651 -0.0014396572 0.0009302073
000180 56 61 fc ba 9c cc 98 ba c3 56 ed ba 21 58 9c ba
       -0.0019255083 -0.0011657658 -0.0018107522 -0.001192812
000190 4d 37 d3 3a 98 39 0e ba 57 52 7c ba e4 6e 2c ba
       0.0016114503 -0.0005425452 -0.00096253067 -0.0006577803
0001a0 4f 36 f7 ba d3 a8 8b b9 d2 56 48 ba 2c 25 b2 ba
       -0.001886079 -0.0002663793 -0.0007642332 -0.00135914
0001b0 6b f9 78 38 8b 29 42 39 91 de b3 3a 6f d8 19 3b
       5.9360096e-05 0.00018516758 0.0013722946 0.0023474952
0001c0 3e 17 ac 38 59 d4 78 ba 46 53 9b 3a 27 1d d2 ba
       8.205928e-05 -0.00094920915 0.0011850379 -0.0016030417
0001d0 c1 51 48 ba 23 d4 8c b7 ed fc 82 ba 49 0e aa 3a
       -0.0007641577 -1.6788084e-05 -0.0009993591 0.0012974228
0001e0 e0 4b bf ba 7a 49 81 ba c2 96 03 bb a5 b6 25 3b
       -0.0014594756 -0.0009863817 -0.0020078872 0.0025285867
0001f0 85 e1 c7 39 b6 b7 c9 b9 99 7d 24 ba 44 b9 e2 ba
       0.00038124263 -0.00038474583 -0.0006274819 -0.0017297645
