results/ParkingTest_02/CarParking/CarParking-5999990.pt (torch, 532730 bytes, 52 tensors)

network_body.observation_encoder.processors.0.normalizer.running_mean f4 [28]
0	0x3d2974ad	0.041371036
1	0x00000000	0.0
2	0x3ec48303	0.38381204
3	0x3f28ad9e	0.6588992
4	0x3b0f875d	0.002190075
5	0x00000000	0.0
6	0x3f052fa1	0.520258
7	0x3f46038b	0.77349156
8	0x3d852a58	0.06502217
9	0x00000000	0.0
10	0x3eaf828a	0.3427928
11	0x3f1cc843	0.61243075
12	0x3be81522	0.0070825974
13	0x00000000	0.0
14	0x3ed6fa81	0.41987994
15	0x3f2d2e73	0.67649
16	0x3e01fc51	0.12693907
17	0x00000000	0.0
18	0x3ed3d7c7	0.41375563
19	0x3f2568b7	0.6461291
20	0x3c013e46	0.007888382
21	0x39de6002	0.0004241467
22	0x3ec44f50	0.3834176
23	0x3f1d80a6	0.61524427
24	0x3e022d46	0.12712583
25	0x00000000	0.0
26	0x3eee62bc	0.46559703
27	0x3f2bacee	0.67060745

network_body.observation_encoder.processors.0.normalizer.running_variance f4 [28]
0	0x48683052	237761.28
1	0x3f800000	1.0
2	0x49ad3730	1.418982e+06
3	0x491ce73d	642675.8
4	0x464cbad4	13102.707
5	0x3f800000	1.0
6	0x49b6c5b1	1.4972701e+06
7	0x4920eeb9	659179.56
8	0x48b28fb0	365693.5
9	0x3f800000	1.0
10	0x49a4f8d3	1.3514504e+06
11	0x49191ceb	627150.7
12	0x4724a550	42149.312
13	0x3f800000	1.0
14	0x49b2684c	1.4615135e+06
15	0x493b0c30	766147.0
16	0x49227718	665457.5
17	0x3f800000	1.0
18	0x49b1740c	1.4536975e+06
19	0x492b3638	701283.5
20	0x4736eb10	46827.062
21	0x451ecd81	2540.844
22	0x49ad3cca	1.4191612e+06
23	0x493ec204	781344.25
24	0x4922a7b6	666235.4
25	0x3f800000	1.0
26	0x49b65229	1.4935731e+06
27	0x493619b6	745883.4

network_body.observation_encoder.processors.1.normalizer.running_mean f4 [5]
0	0x402f617f	2.7403257
1	0x3f05624b	0.5210311
2	0x3fcd60c0	1.6045151
3	0x3f207704	0.62681603
4	0x3ea477f4	0.32122767

network_body.observation_encoder.processors.1.normalizer.running_variance f4 [5]
0	0x4afa3ed7	8.2000435e+06
1	0x48257803	169440.05
2	0x4a9ddd95	5.1729385e+06
3	0x4a9d9cde	5.164655e+06
4	0x4a8939f4	4.496634e+06

network_body.processors.0.normalizer.running_mean f4 [28]
0	0x3d2974ad	0.041371036
1	0x00000000	0.0
2	0x3ec48303	0.38381204
3	0x3f28ad9e	0.6588992
4	0x3b0f875d	0.002190075
5	0x00000000	0.0
6	0x3f052fa1	0.520258
7	0x3f46038b	0.77349156
8	0x3d852a58	0.06502217
9	0x00000000	0.0
10	0x3eaf828a	0.3427928
11	0x3f1cc843	0.61243075
12	0x3be81522	0.0070825974
13	0x00000000	0.0
14	0x3ed6fa81	0.41987994
15	0x3f2d2e73	0.67649
16	0x3e01fc51	0.12693907
17	0x00000000	0.0
18	0x3ed3d7c7	0.41375563
19	0x3f2568b7	0.6461291
20	0x3c013e46	0.007888382
21	0x39de6002	0.0004241467
22	0x3ec44f50	0.3834176
23	0x3f1d80a6	0.61524427
24	0x3e022d46	0.12712583
25	0x00000000	0.0
26	0x3eee62bc	0.46559703
27	0x3f2bacee	0.67060745

network_body.processors.0.normalizer.running_variance f4 [28]
0	0x48683052	237761.28
1	0x3f800000	1.0
2	0x49ad3730	1.418982e+06
3	0x491ce73d	642675.8
4	0x464cbad4	13102.707
5	0x3f800000	1.0
6	0x49b6c5b1	1.4972701e+06
7	0x4920eeb9	659179.56
8	0x48b28fb0	365693.5
9	0x3f800000	1.0
10	0x49a4f8d3	1.3514504e+06
11	0x49191ceb	627150.7
12	0x4724a550	42149.312
13	0x3f800000	1.0
14	0x49b2684c	1.4615135e+06
15	0x493b0c30	766147.0
16	0x49227718	665457.5
17	0x3f800000	1.0
18	0x49b1740c	1.4536975e+06
19	0x492b3638	701283.5
20	0x4736eb10	46827.062
21	0x451ecd81	2540.844
22	0x49ad3cca	1.4191612e+06
23	0x493ec204	781344.25
24	0x4922a7b6	666235.4
25	0x3f800000	1.0
26	0x49b65229	1.4935731e+06
27	0x493619b6	745883.4

network_body.processors.1.normalizer.running_mean f4 [5]
0	0x402f617f	2.7403257
1	0x3f05624b	0.5210311
2	0x3fcd60c0	1.6045151
3	0x3f207704	0.62681603
4	0x3ea477f4	0.32122767

network_body.processors.1.normalizer.running_variance f4 [5]
0	0x4afa3ed7	8.2000435e+06
1	0x48257803	169440.05
2	0x4a9ddd95	5.1729385e+06
3	0x4a9d9cde	5.164655e+06
4	0x4a8939f4	4.496634e+06

network_body._body_endoder.seq_layers.0.weight f4 [128, 33]
0	0x3f0768f8	0.52894545
1	0x3d619d5a	0.055081703
2	0xbd1bd6a1	-0.038046483
3	0xbd232087	-0.039825942
4	0x3e394874	0.18094045
5	0x3dbd82bf	0.092534535
6	0x3e764e25	0.24053247
7	0x3e363487	0.17793475
8	0xbd364dc2	-0.04450775
9	0x3c9d7883	0.019222504
10	0x3d283ed2	0.041075535
11	0xbc50d0b2	-0.012745069
12	0xbe975d2d	-0.29563275
13	0x3e622986	0.22086152
14	0x3e0026c9	0.12514795
15	0x3e23a6d7	0.15981613
16	0x3e10e82f	0.14151071
17	0x3e3e7b1d	0.18601651
18	0x3e8dbbdb	0.27682385
19	0xbdaac388	-0.08338076
20	0xbd98f39b	-0.07468339
21	0x3e3834fc	0.17988962
22	0x3c0391b0	0.00803034
23	0xbe06e268	-0.13172305
24	0x3e3513bd	0.17683311
25	0xbe3473b4	-0.17622262
26	0xbe00e7b4	-0.12588388
27	0x3e6349f7	0.22196184
28	0xbe20c2c8	-0.15699303
29	0xbe5374af	-0.2064998
30	0x3e8a4eab	0.27013144
31	0xbeba3d5a	-0.36374933
32	0x3e1aac62	0.15104821
33	0xbe217119	-0.157658
34	0xbdad2971	-0.0845517
35	0xbe25743e	-0.16157624
36	0xbde403a9	-0.111335106
37	0xbed0d1df	-0.4078512
38	0x3e1d36d3	0.15352945
39	0xbeb91e3c	-0.3615588
40	0xbe4f8bbb	-0.20268147
41	0xbe052a2d	-0.1300437
42	0x3caac74f	0.02084699
43	0xbdcb8bca	-0.09938772
44	0x3e5d8a5b	0.2163481
45	0x3c043f4c	0.008071732
46	0x3d9922a9	0.07477314
47	0x3ecfe11e	0.40601438
48	0x3e700b68	0.23441851
49	0x3e71a5ac	0.23598355
50	0x3d5e0398	0.054202646
51	0xbb4d36d3	-0.0031313195
52	0xbcd86e28	-0.026419714
53	0xbca2466f	-0.019808976
54	0xbe8e592e	-0.27802414
55	0x3d8f7461	0.070046194
56	0xbd1b8a6b	-0.037973803
57	0xbeb37f21	-0.3505793
58	0x3ee90493	0.45511302
59	0xbde23dc8	-0.1104694
60	0x3e3b4c25	0.18290766
61	0xbdf47a46	-0.11937384
62	0x3e393e00	0.18090057
63	0xbd078678	-0.033087224
64	0xbda6be16	-0.08141725
65	0xbca869cd	-0.020558262
66	0xbe27a8ec	-0.16373032
67	0xbdf3c6ef	-0.11903178
68	0x3cb6c6fb	0.022311678
69	0x3e438063	0.19091944
70	0xbdaac9a1	-0.08339239
71	0xbe9b578c	-0.3034023
72	0x3d834d93	0.064112805
73	0xbdc80693	-0.09766879
74	0x3e8ccfd1	0.275023
75	0xbc90c284	-0.017670877
76	0x3da789d4	0.081805855
77	0x3e3ac9a5	0.18240984
78	0xbd808662	-0.062756315
79	0x3e8c44cb	0.27396235
80	0x3e53f779	0.20699872
81	0xbdb22aa4	-0.08699539
82	0xbd91352a	-0.07090218
83	0xbe276c21	-0.16349842
84	0xbe39d087	-0.18145953
85	0x3f022e9e	0.5085238
86	0x3cadadcc	0.021201037
87	0x3e42324b	0.18964498
88	0x3e0d1197	0.13776241
89	0x3e914261	0.28370956
90	0xbe12ec7c	-0.14348024
91	0xbe40dbcb	-0.18833844
92	0x3c0303cb	0.00799651
93	0xbefcf6cc	-0.4940704
94	0x3e0cef06	0.13763055
95	0x3dd6a2f6	0.10480301
96	0xbe739441	-0.23787023
97	0xbd489a14	-0.048975065
98	0x3e403813	0.1877139
99	0x3e4039b5	0.18772013
100	0xbc61f4d5	-0.013791283
101	0xbd9bd742	-0.076094165
102	0x3e18444d	0.14869805
103	0x3e02b291	0.1276343
104	0x3d469087	0.048477676
105	0xbe59ae3c	-0.21257871
106	0xbc78833d	-0.015168008
107	0x3cd561a9	0.026047545
108	0x3e1c7ecc	0.15282744
109	0x3e5fb0b7	0.21844755
110	0x3c21bd05	0.009871726
111	0xbe598bfc	-0.21244806
112	0x3e03f735	0.12887271
113	0xbd8afae5	-0.067861356
114	0x3d5b4698	0.05353412
115	0x3e1257d4	0.14291316
116	0xbeca4fbe	-0.39513963
117	0xbe2b2781	-0.16714288
118	0x3de91c41	0.11382342
119	0x3d5b615d	0.05355965
120	0x3dddd5bd	0.10831783
121	0xbc8398d7	-0.01606409
122	0x3ca8bba2	0.020597283
123	0x3d308980	0.04309988
124	0xbe355645	-0.1770869
125	0x3d986f35	0.07443086
126	0x3d92f2f8	0.07175249
127	0x3d260582	0.040532596
128	0x3d843ad4	0.06456533
129	0x3baa6fc5	0.0052013122
130	0xbe76d7b3	-0.2410572
131	0xbe3774f9	-0.17915715
132	0xbd80e006	-0.06292729
133	0x3dd35ccb	0.10320433
134	0x38f99f1b	0.00011902881
135	0xbd1f2504	-0.03885366
136	0xbec4780b	-0.38372836
137	0xbe890bff	-0.26766965
138	0x3eada827	0.33917353
139	0xbe781cfd	-0.24229808
140	0xbd98712f	-0.07443463
141	0xbdd72593	-0.105052136
142	0xbe6e36fb	-0.23263161
143	0xbe4608df	-0.19339322
144	0xbbe76889	-0.007062022
145	0x3da7c22e	0.08191334
146	0xbe2ef9c3	-0.17087464
147	0x3cacac8a	0.021078367
148	0xbe0839e1	-0.13303329
149	0xbd46ef50	-0.04856807
150	0x3d761099	0.060074423
151	0x3ea74179	0.3266714
152	0xbdc28f93	-0.09500041
153	0xbe046b94	-0.12931663
154	0x3e689593	0.22713308
155	0xbe565707	-0.20931636
156	0xbdec7838	-0.115463674
157	0xbe486ada	-0.1957201
158	0x3d2ef57e	0.04271459
159	0xbd1cbd9f	-0.038266774
160	0xbee6ff2f	-0.45116565
161	0x3d25781e	0.040397756
162	0x3cc732b1	0.024316164
163	0xbe95e202	-0.29273993
164	0xbe8d6720	-0.2761774
165	0x3d68a7a0	0.056800485
166	0xbd9744dd	-0.073861815
167	0xbdc0a3ec	-0.094062656
168	0xbbc89f36	-0.006122495
169	0x3df5adca	0.11996038
170	0x3e63ff60	0.22265387
171	0xbe1109ef	-0.14163946
172	0xbbe75205	-0.007059338
173	0xbe509fac	-0.2037341
174	0xbbe682fa	-0.0070346566
175	0xbe753843	-0.23947243
176	0x3df964ed	0.12177453
177	0x3ca741b1	0.020417066
178	0x3ebefe74	0.37303507
179	0xbea7fc00	-0.32809448
180	0x3c59b407	0.013287551
181	0xbddd087a	-0.107926324
182	0x3e034042	0.12817481
183	0xbd2c927e	-0.042131893
184	0x3e3325c4	0.17494875
185	0xbbd9119c	-0.0066244137
186	0xbd97ee6a	-0.07418521
187	0xbde85b17	-0.11345499
188	0x3e14f007	0.14544688
189	0xbe3758eb	-0.17905013
190	0xbd7955f4	-0.060872987
191	0xbe949c3c	-0.29025447
192	0xbd8f376e	-0.06992994
193	0x3e833a56	0.25630444
194	0x3d0c02d2	0.034182377
195	0xbd95d51b	-0.07316037
196	0x3e2f863d	0.17141052
197	0x3b669b5a	0.0035187812
198	0xbe9d3464	-0.30704033
199	0xbe58c615	-0.21169312
200	0x3cf6a89f	0.030109702
201	0x3e5a602b	0.21325748
202	0xbe09988b	-0.13437097
203	0xb9fa2b86	-0.00047716143
204	0xbf1c0141	-0.60939413
205	0xbb29acd5	-0.002589037
206	0x3ce84d49	0.028357165
207	0x3e33155d	0.17488618
208	0x3e39244e	0.18080255
209	0xbd42dac6	-0.04757192
210	0x3e3110d7	0.1729158
211	0xbe412cec	-0.18864793
212	0xbeeb41a0	-0.45948505
213	0xbe913fa8	-0.28368878
214	0xbd45fdae	-0.04833763
215	0xbdcb8a2d	-0.09938464
216	0xbd188c60	-0.037243247
217	0xbdbfc667	-0.09364014
218	0xbbe8d95f	-0.007105991
219	0xbf04788d	-0.51746446
220	0xbbb2f7a5	-0.0054616504
221	0xbea0efb9	-0.31432894
222	0xbcb04259	-0.021516012
223	0x3dd9eb92	0.106406346
224	0xbe0c073e	-0.13674638
225	0xbccdb2c7	-0.025109662
226	0xbeaed204	-0.34144604
227	0x3e2b1412	0.16706875
228	0xbe367983	-0.1781979
229	0xbe81f3a8	-0.25381207
230	0xbe60bd4d	-0.21947213
231	0xbe42ad59	-0.1901144
232	0x3e3cf206	0.184517
233	0xbe4ee82b	-0.20205753
234	0x3da3750b	0.079813085
235	0xbdfa7f59	-0.12231321
236	0x3c645770	0.013936862
237	0x3e877d6b	0.26462874
238	0x3e972838	0.29522872
239	0xbe01983c	-0.12655729
240	0xbdcec096	-0.100953266
241	0x3ea9b427	0.33145258
242	0x3d6d29e0	0.057901263
243	0x3dd8daf1	0.10588635
244	0x3d9341de	0.071902975
245	0x3adc00e1	0.001678493
246	0x3eb453d6	0.35220212
247	0xbdf86e7c	-0.12130448
248	0xbe4f81f9	-0.20264424
249	0x3e02b75d	0.1276526
250	0x3e68ed76	0.22746834
251	0xbe1a8ab4	-0.15091974
252	0xbe25f887	-0.16208087
253	0x3e15eb28	0.14640486
254	0x3e0223ff	0.12709044
255	0xbe23dd6c	-0.16002434

network_body._body_endoder.seq_layers.0.bias f4 [128]
0	0x3d673098	0.056442827
1	0x3df84db9	0.121241994
2	0x3d903ccf	0.07042848
3	0x3d6688c5	0.056282777
4	0x3d302870	0.043007314
5	0x3dd8c978	0.10585302
6	0xbc03254f	-0.0080045005
7	0x3d3b3a96	0.04571017
8	0x3d92ce2b	0.0716823
9	0x3defc6bc	0.117078274
10	0x3daeb0ad	0.08529792
11	0x3d78f5b3	0.060781192
12	0x3d69669e	0.05698263
13	0x3bb10b9b	0.005402995
14	0xbd3d3a31	-0.046198074
15	0x3c8cfa60	0.017209232
16	0xbccce8c3	-0.025013333
17	0x3db0adbd	0.08626888
18	0xbd853a8c	-0.065053076
19	0xbcc04363	-0.023469632
20	0x3d39ea9c	0.045389757
21	0x3e012d3a	0.12614909
22	0x3d72acae	0.05924671
23	0xbd815b0c	-0.06316194
24	0x3c8784f0	0.016542882
25	0x3db89921	0.09013582
26	0x3d0f7e47	0.035032537
27	0xbd676bbd	-0.05649923
28	0x3dd95e89	0.10613734
29	0x3dc94e05	0.09829334
30	0xbbd5011a	-0.0065003755
31	0x3e01341c	0.12617534
32	0xbd1007a5	-0.03516354
33	0x3dc0a42e	0.09406315
34	0xbaf637b2	-0.0018784909
35	0x3daf7c53	0.08568635
36	0x3d13fe3b	0.036131125
37	0x3db7bc97	0.089715175
38	0x3d41ab04	0.047282234
39	0x3d25130b	0.040301364
40	0x3d916f8d	0.07101355
41	0x3e07733c	0.13227552
42	0x3c40f3e1	0.011776895
43	0x3de06358	0.10956448
44	0x3da89c99	0.08232994
45	0x3bdf9f5b	0.0068244166
46	0x3ca9a269	0.020707326
47	0x3debb620	0.11509347
48	0xbd6bb639	-0.057546828
49	0xbcccb031	-0.024986358
50	0x3d8f7af6	0.07005875
51	0x3cf3799e	0.029721078
52	0xba593a0f	-0.00082865445
53	0x3de36b94	0.11104503
54	0x3dee3e61	0.116329916
55	0x3d9248b8	0.07142776
56	0x3dd6b494	0.10483661
57	0xbd3570a5	-0.04429688
58	0x3d094fad	0.03352325
59	0x3d85aee7	0.065275006
60	0x3db4a87f	0.088212006
61	0x3dbd7aea	0.092519596
62	0x3d2bae14	0.04191406
63	0xbc1a6d1f	-0.009425431
64	0x3dcedd86	0.10100846
65	0x3db24a3a	0.08705564
66	0x3d242298	0.040072054
67	0x3de4ac4c	0.111656755
68	0x3cbef156	0.023308437
69	0xbcc01dd3	-0.023451721
70	0x3dde050d	0.10840807
71	0x3e0bd1c7	0.13654242
72	0xbd8a8257	-0.067631416
73	0x3d24adef	0.04020494
74	0x3cdeaa66	0.027180862
75	0x3df84001	0.12121583
76	0x3e00eb91	0.12589861
77	0x3d885606	0.06657033
78	0x3bd6a26d	0.0065501244
79	0xbd81d041	-0.063385494
80	0x3dae1afd	0.08501241
81	0x3daff4bb	0.085916005
82	0x3d11c7a4	0.035590783
83	0x3d93d261	0.07217861
84	0x3def5aeb	0.11687263
85	0x3d3f5765	0.046714205
86	0x3df168ad	0.117875434
87	0xbb014458	-0.0019724574
88	0x3db4a556	0.08820598
89	0x3d7f1859	0.06227908
90	0xbb5cfd56	-0.0033720336
91	0xbcb9365c	-0.022608928
92	0x3d163b53	0.03667767
93	0x3dbe2cf1	0.09285916
94	0x3dbfd2f3	0.09366407
95	0x3c9addaf	0.018904535
96	0x3dca110b	0.09866532
97	0x3d9557cc	0.072921365
98	0x3d60a95a	0.054849006
99	0x3df5df8d	0.120055296
100	0xbdb34889	-0.08754069
101	0xbbed0373	-0.007233077
102	0xbd67af45	-0.056563634
103	0x3daafac7	0.08348613
104	0x3dd13090	0.10214341
105	0xbb77e087	-0.0037823038
106	0x3cde8430	0.027162641
107	0x3e0302d6	0.1279405
108	0x3d6acae3	0.057322394
109	0x3db9c716	0.09071176
110	0x3d12d98d	0.035852004
111	0xbd4fea88	-0.050760776
112	0x3d8b259d	0.067942835
113	0x3db97e8d	0.09057341
114	0xbcbc1ac3	-0.02296198
115	0xb8611c4a	-5.3670527e-05
116	0x3d50936f	0.050921854
117	0xbc69d07e	-0.0142709
118	0x3dd29ce1	0.102838285
119	0x3dac7fbd	0.08422802
120	0x3c397915	0.011320372
121	0x3e02535b	0.1272711
122	0x3d7fe6fa	0.062476136
123	0x3cba6e49	0.022757666
124	0xbd018a2d	-0.031625915
125	0x3c98e698	0.018664643
126	0x3dc2c3b2	0.09509982
127	0x3e02eb4a	0.12785068

network_body._body_endoder.seq_layers.2.weight f4 [128, 128]
0	0xbbd2cc05	-0.0064330124
1	0x3d9f967e	0.07792376
2	0x3e5d8069	0.21631016
3	0x3dd883b3	0.10571995
4	0x3d566ed7	0.0523518
5	0xbd77de58	-0.060514778
6	0x3e09b0e3	0.13446383
7	0x3dfe5888	0.1241923
8	0x3b0e7adc	0.002174071
9	0x3d669ca9	0.056301747
10	0x3db2791c	0.08714506
11	0x3d1803db	0.03711305
12	0x3d99975a	0.07499571
13	0xbde79324	-0.11307362
14	0x3e16470e	0.14675543
15	0xbd971ff3	-0.07379141
16	0x3e435ede	0.19079158
17	0xbd375806	-0.04476168
18	0xbdc723c2	-0.09723617
19	0xbc375d6c	-0.011191707
20	0xbdd22e20	-0.10262704
21	0x3d6c371f	0.057669755
22	0x3e2aab1f	0.1666684
23	0xbdc39d4e	-0.09551488
24	0x3c93ea02	0.01805592
25	0xbdb7bfe8	-0.0897215
26	0x3bd95c85	0.0066333436
27	0xbca89c9b	-0.020582488
28	0x3e276739	0.1634797
29	0x3d7311f1	0.059343282
30	0x3d177148	0.036973268
31	0xbd234c18	-0.03986749
32	0x3ccf965e	0.025340255
33	0xbe14492c	-0.14481038
34	0x3d6b554d	0.057454396
35	0xbdc7765c	-0.09739372
36	0x3d64cb1b	0.05585776
37	0x3c697435	0.014248897
38	0xbd4d511c	-0.05012618
39	0xbe0c802d	-0.1372077
40	0x3ca1f83c	0.019771688
41	0x3e4e26e4	0.20132023
42	0x3dcf2872	0.10115136
43	0xbdc5447c	-0.09632203
44	0x3d8333d3	0.06406369
45	0xbd91673c	-0.070997685
46	0xbc9e4e45	-0.019324431
47	0x3cd8478d	0.026401306
48	0x3e41d894	0.18930274
49	0x3d996719	0.074903674
50	0x3cddf4a2	0.02709419
51	0x3c5c86a0	0.0134598315
52	0x3d4ebbfd	0.05047225
53	0x3df26f07	0.11837583
54	0x3dbba95e	0.091631636
55	0xbd2cb311	-0.04216296
56	0x3ce1c8cc	0.027561568
57	0x3ded7fc7	0.11596637
58	0x3d69bf9c	0.0570675
59	0x3d9ceafa	0.07662006
60	0x3df57a82	0.11986257
61	0xbb2efd9f	-0.0026701463
62	0xbd6e2468	-0.05814019
63	0x3de8d95d	0.11369584
64	0x3d970998	0.07374877
65	0x3e7655e1	0.24056198
66	0x3c8f500a	0.01749422
67	0xbdf2bf2c	-0.118528694
68	0xbe163cd3	-0.1467164
69	0x3d4cb541	0.049977545
70	0xbe09dea4	-0.13463837
71	0xbd7c656d	-0.061620165
72	0xbe0b1f3d	-0.13586135
73	0x3b8deb5e	0.0043310365
74	0x3da9a779	0.08283896
75	0x3e34e536	0.17665562
76	0xbd197335	-0.037463386
77	0x3dd8404a	0.10559137
78	0x3e4c7f49	0.1997043
79	0xbcf65063	-0.030067628
80	0x3db8c4af	0.090218894
81	0xbd6c11ef	-0.05763429
82	0xbc9c1cbd	-0.019056672
83	0x3daf4708	0.0855847
84	0xbdb21777	-0.08695882
85	0x3e017724	0.12643105
86	0x3e4800b6	0.19531521
87	0xbdee4d21	-0.11635805
88	0xbd77cb02	-0.060496338
89	0x3d2b8085	0.041870613
90	0x3d94c500	0.07264137
91	0x3d917aa7	0.07103472
92	0xbdb66413	-0.089058064
93	0x3cab290f	0.020893602
94	0xbe296c74	-0.16545278
95	0x3d776012	0.060394354
96	0x3d607c49	0.054806028
97	0x3b97ba1c	0.0046303403
98	0x3be5a3cb	0.007008051
99	0x3e1348d6	0.14383253
100	0x3ddbb4b4	0.10727826
101	0xbce73724	-0.028224535
102	0xbda8d509	-0.08243758
103	0x3d44df16	0.048064314
104	0xbd924750	-0.07142508
105	0x3dc0da3d	0.09416626
106	0xbe65f19c	-0.22455448
107	0x3e4d5ed1	0.20055701
108	0x3e88a257	0.26686355
109	0x3dffdb63	0.124930166
110	0xbd0be5d4	-0.034154728
111	0xbe41e187	-0.18933688
112	0x3b667d80	0.0035170019
113	0xbd46dcc8	-0.048550397
114	0x3dde12b4	0.10843411
115	0x3dab20c7	0.08355861
116	0x3db9db82	0.09075071
117	0xbd0b5cba	-0.034023978
118	0x3ded6fbb	0.115935765
119	0xbd401c37	-0.046901908
120	0xbc615487	-0.013753063
121	0x3e360c88	0.17778218
122	0xbc105dde	-0.008811442
123	0x3d7030ae	0.058640175
124	0xbda79799	-0.08183212
125	0x3d132090	0.035919726
126	0xbd95a7aa	-0.0730737
127	0x3e1a0670	0.15041518
128	0x3e5f1442	0.21785071
129	0xbe28f0ec	-0.16498154
130	0xbe23bace	-0.15989229
131	0x3d062c56	0.032757126
132	0x3e865ff9	0.26245096
133	0xbc8c96f5	-0.017161826
134	0x3c5d9b24	0.013525758
135	0x3be5f679	0.007017907
136	0x3ad7919f	0.0016446597
137	0xbd799471	-0.06093258
138	0xbd29d950	-0.04146701
139	0xbd66643f	-0.056247946
140	0xbd575b73	-0.052577447
141	0x3cc0b4cb	0.023523709
142	0xbd1e8efa	-0.03871057
143	0x3d5b8a18	0.053598493
144	0xbdd1b902	-0.102403656
145	0x3de21a5b	0.11040183
146	0x3d62e99f	0.05539858
147	0xbcb00ca1	-0.021490397
148	0xbd8119e0	-0.063037634
149	0xbdc32dd6	-0.09530227
150	0xbdf5a83a	-0.11994977
151	0xbdd2f4f8	-0.1030063
152	0x3b0271b4	0.0019904198
153	0x3cefa83e	0.029255029
154	0xbd41f9da	-0.047357418
155	0xbdc08130	-0.093996406
156	0xbc993355	-0.018701235
157	0xbd7b5cab	-0.061367672
158	0x3e009005	0.12554939
159	0x3e14c9db	0.14530127
160	0x3e03a591	0.12856127
161	0x3dc720e7	0.097230725
162	0xbde45387	-0.11148744
163	0x3d97fa14	0.074207455
164	0x3dfff3b4	0.124976546
165	0xbd91876b	-0.07105907
166	0x3d03ee1e	0.032209508
167	0xbda14733	-0.07874908
168	0xbdcdd7d0	-0.100509286
169	0xbe234bc2	-0.15946868
170	0xba9dd4e2	-0.0012041593
171	0xbde6ad34	-0.112635046
172	0x3dd3ffc1	0.103515156
173	0x3c96b091	0.01839474
174	0xbd9e17af	-0.07719361
175	0xbda021e7	-0.07818966
176	0xbd9767e3	-0.07392862
177	0x3e218e05	0.15776832
178	0xbe230b56	-0.15922293
179	0x3d8aa38c	0.06769475
180	0x3e5c0df9	0.21489705
181	0xbbbf27e3	-0.0058336123
182	0xbd7dc564	-0.061955824
183	0xbd413311	-0.04716784
184	0xbe0d9411	-0.13826014
185	0x3e16b2e9	0.14716686
186	0xbccbf023	-0.02489478
187	0xbd3077f6	-0.043083154
188	0x3def33ad	0.11679778
189	0x3c18d849	0.00932891
190	0x3df41f6a	0.11920054
191	0x3d759403	0.059955608
192	0xbd27f62d	-0.041006256
193	0xbd8cd1a8	-0.06875926
194	0x3e05c1de	0.13062236
195	0xbcc695d6	-0.02424137
196	0x3d2569bb	0.040384036
197	0x3acb6cd8	0.0015520109
198	0xbddbdf1e	-0.107359156
199	0x3db053c2	0.086097255
200	0xbce6db76	-0.028180819
201	0xbc9294db	-0.017893245
202	0x3cece14e	0.028916027
203	0x3cc13204	0.02358342
204	0x3d89b65d	0.06724236
205	0x3c345c54	0.011008341
206	0xbe196af4	-0.14982206
207	0x3d436686	0.047705196
208	0xbd5dd4c8	-0.054158002
209	0x3d8414dc	0.06449291
210	0xbe9f6c6d	-0.3113741
211	0xbe03f211	-0.1288531
212	0xbb1984f5	-0.0023425196
213	0xbd3181f1	-0.043336812
214	0x3d5ed889	0.054405723
215	0x3d29a236	0.041414462
216	0xbdd460c4	-0.10370019
217	0x3bb7fc22	0.0056147734
218	0xbbf2aaee	-0.0074056303
219	0xbca54cf3	-0.020178294
220	0x3d9655b1	0.07340563
221	0xbe38115d	-0.17975374
222	0xbd25aa33	-0.040445518
223	0x3d00a938	0.03141138
224	0xbe372b34	-0.17887574
225	0x3d8bbc5f	0.06823038
226	0xbc43941d	-0.011937168
227	0xbe02961c	-0.12752575
228	0x3e8ba2db	0.27272686
229	0xbd9b9a6a	-0.075978115
230	0x3d6c0bff	0.057628628
231	0xbe2cbedd	-0.16869684
232	0xbd65d9ee	-0.056116037
233	0x3ce744aa	0.028230984
234	0xbe0d814c	-0.13818854
235	0xbd9e087f	-0.07716464
236	0x3d263372	0.040576406
237	0x3d26bef8	0.040709466
238	0x3ce22833	0.02760706
239	0x3e3b8be7	0.18315087
240	0x3e171f8e	0.14758131
241	0x3d1f9835	0.038963515
242	0x3e6580c8	0.22412407
243	0xbe11d066	-0.14239654
244	0x3e18cc53	0.14921694
245	0x3e13a936	0.14420018
246	0xbd6b1e1d	-0.057401765
247	0x3dbb7653	0.09153428
248	0xbe4ba8cf	-0.19888614
249	0xbdf4678f	-0.11933815
250	0xbdf5b2a8	-0.119969666
251	0x3df2fd79	0.11864752
252	0xbca0731d	-0.01958614
253	0x3d7599e2	0.059961207
254	0xbcb94133	-0.022614097
255	0xbd5dad4d	-0.05412035

network_body._body_endoder.seq_layers.2.bias f4 [128]
0	0x3dc239a3	0.094836496
1	0x3a68ba6b	0.0008877876
2	0x3d3619f6	0.044458352
3	0x3dc6cdec	0.09707245
4	0xbd807ec0	-0.06274176
5	0x3cabd74d	0.020976687
6	0x3de02768	0.10945016
7	0x3d7f2e4c	0.06230001
8	0x3c9aad5d	0.018881494
9	0x3dc7e798	0.0976097
10	0x3ca0e702	0.019641403
11	0xbd83c2a4	-0.06433609
12	0x3bc43f1a	0.0059889676
13	0x3d3a7f9c	0.045531854
14	0xbd0186fc	-0.03162287
15	0x3d822d6d	0.063563205
16	0xbd79a211	-0.060945574
17	0xbdcd0334	-0.100103766
18	0x3dc49042	0.095978275
19	0x3d88ade8	0.06673795
20	0x3dbe1926	0.092821404
21	0x3d9f3ad4	0.077748924
22	0x3d80ee4b	0.06295451
23	0x3daa8ed0	0.083280206
24	0x3daa9cb5	0.08330671
25	0x3db7227f	0.089421265
26	0xbdab3381	-0.08359433
27	0xbdc5ff3e	-0.09667824
28	0x3dab7522	0.08371951
29	0x3d933227	0.071873
30	0x3db8396b	0.089953266
31	0x3cff70f1	0.031181784
32	0x3da2833a	0.07935186
33	0x3d7ce4e7	0.061741736
34	0x3de7e55b	0.11323043
35	0x3dd05348	0.10172135
36	0x3dd4e5e8	0.10395414
37	0x3d908819	0.070572086
38	0x3c5e4d13	0.013568181
39	0x3dd2f24e	0.10300122
40	0x3d22c341	0.03973699
41	0x3ddd89ea	0.10817321
42	0xbd32df9b	-0.043670278
43	0x3d50f558	0.051015228
44	0x3cbad436	0.022806268
45	0x3c9d24eb	0.019182643
46	0x3dd6b3e6	0.10483532
47	0x3cd32d6e	0.025778499
48	0x3ddfbc2f	0.10924565
49	0x3d869ab0	0.06572473
50	0x3d3a62d2	0.0455044
51	0x3dc5f8ef	0.09666621
52	0xbd5ca498	-0.053867906
53	0x3de5de4c	0.112240404
54	0x3ccd2a4d	0.025044585
55	0x3ddc2aef	0.107503764
56	0xbcb0592a	-0.021526892
57	0x3cc07280	0.023492098
58	0xbd492170	-0.049104154
59	0x3dc1fa77	0.094716005
60	0x3d89ec7e	0.067345604
61	0x3dc02184	0.093813926
62	0x3c2502b2	0.010071443
63	0x3dc2daa6	0.0951436
64	0x3dd12f3c	0.10214087
65	0xbc908b32	-0.017644498
66	0x3d7252ff	0.059161182
67	0x3bcf8a4a	0.006333624
68	0xbdb2eba7	-0.08736353
69	0x3d9a09d8	0.07521409
70	0xbc6bf924	-0.0144026615
71	0x3da5b94b	0.080919825
72	0x3de1f734	0.110334784
73	0x3d7c2d8c	0.061566874
74	0xbda38b56	-0.079855606
75	0x3dbece62	0.09316708
76	0x3df131f9	0.1177711
77	0x3de546e6	0.111951634
78	0x3d683b71	0.056697313
79	0x3dbb22f8	0.09137529
80	0xbd404205	-0.04693796
81	0x3da1dd1b	0.07903501
82	0x3ddcdbf8	0.10784143
83	0xbd19a49d	-0.037510503
84	0x3cbdf2d3	0.023187077
85	0x3d1021e0	0.035188556
86	0x3d8957d3	0.06706204
87	0xba5db496	-0.00084573904
88	0x3dc313fc	0.09525296
89	0xbdef9f51	-0.11700309
90	0x3dcbfa76	0.09959881
91	0x3d804c87	0.062645964
92	0xbcad24f3	-0.021135783
93	0x3d5aa7fc	0.05338286
94	0x3d541302	0.05177594
95	0xbd891442	-0.06693317
96	0xbcc1878d	-0.023624206
97	0x3c3447db	0.01100346
98	0x3d96a8af	0.073563926
99	0xbd293553	-0.04131062
100	0x3d0fda74	0.035120443
101	0x3da441e9	0.08020384
102	0x3cdce0a8	0.026962593
103	0x3e0afef2	0.13573816
104	0xbd85c712	-0.0653211
105	0x3e0239c4	0.12717348
106	0x3df22d5c	0.11825058
107	0x3ce1d061	0.027565183
108	0x3d44ad7e	0.048017018
109	0x3b0a38d0	0.0021090992
110	0xbc8d5a7f	-0.017255066
111	0xbc5c329a	-0.013439799
112	0x3d8e75a1	0.0695603
113	0x3db7c479	0.08973021
114	0xbd0e8d66	-0.034802817
115	0xbc9cebb0	-0.019155353
116	0x3cb2e3bd	0.02183711
117	0x3dce792c	0.100817055
118	0xbdc6d2e9	-0.09708197
119	0xbc8f1bd0	-0.017469317
120	0x3df2ec85	0.11861519
121	0x3d896fdb	0.06710788
122	0x3d71fddd	0.059079994
123	0x3af1daac	0.001845201
124	0xbdbf5ff4	-0.093444735
125	0x3da4660b	0.08027276
126	0xbcfb6b12	-0.030690704
127	0x3d0f0241	0.03491426

action_model._continuous_distribution.log_sigma f4 [1, 2]
0	0xbf7a9e8b	-0.9789817
1	0xbf087c90	-0.5331507

action_model._continuous_distribution.mu.weight f4 [2, 128]
0	0x3d4688f4	0.048470452
1	0x3d756691	0.059912268
2	0xbd61c536	-0.055119716
3	0x3d24beb3	0.040220927
4	0x3d015faa	0.031585373
5	0x3da736f9	0.08164782
6	0x3a69a752	0.00089131773
7	0xbdc36c94	-0.09542194
8	0xbd6a97f7	-0.05727383
9	0xbb1a7965	-0.0023570892
10	0xbddc227c	-0.10748765
11	0xbc94bcdb	-0.01815646
12	0xbd903614	-0.070415646
13	0x3dcef145	0.10104612
14	0x3910a75c	0.00013795256
15	0xbd4a6875	-0.049416024
16	0x3b9c939c	0.0047783386
17	0xbc44f29e	-0.012020735
18	0x3d5b8b77	0.0535998
19	0x3dba3bf6	0.09093468
20	0xbcdf68d9	-0.027271675
21	0xbc4c30d3	-0.0124628125
22	0x3def57b5	0.11686651
23	0x3d3bee9c	0.045881853
24	0xbde76f21	-0.11300493
25	0xbcb49bed	-0.022047007
26	0xbd51ab61	-0.05118883
27	0x3c259266	0.010105705
28	0x3d7c7406	0.061634086
29	0x3dbd8635	0.092541136
30	0x3d2ac088	0.04168752
31	0x3dff9077	0.12478726
32	0x3d9897e6	0.07450847
33	0x3ce3b142	0.027794484
34	0x3ceacde9	0.028662639
35	0x3c393d04	0.011306051
36	0xbcdd555f	-0.027018247
37	0x3d89d76d	0.06730542
38	0x3df42457	0.11920994
39	0xbe06c022	-0.1315923
40	0x3dee2002	0.11627199
41	0xbb532c5c	-0.0032222485
42	0xbbf9af6c	-0.007619789
43	0x3dda99e8	0.106738865
44	0x3dc26d07	0.094934516
45	0xbd81c3a3	-0.06336143
46	0xbceafecd	-0.028685952
47	0x3dd69028	0.104767144
48	0xbdb3521b	-0.08755895
49	0x3df798b1	0.120896704
50	0x3daafa6a	0.08348544
51	0x3c861415	0.016366998
52	0x3e143518	0.14473379
53	0xbdc64e43	-0.09682896
54	0xbdd1f8af	-0.10252511
55	0xbc533d8b	-0.012893091
56	0xbd7f7b10	-0.06237322
57	0x3d9b89cf	0.07594644
58	0x3d483a14	0.048883513
59	0x3d220572	0.039555974
60	0x3ddb5b24	0.10710743
61	0xbd004b14	-0.0313216
62	0xbda06478	-0.07831663
63	0xbd521999	-0.051293943
64	0xbc82cafc	-0.015965931
65	0xbdf00a0d	-0.11720667
66	0x3e067999	0.13132323
67	0xbb3cc07d	-0.0028801255
68	0xbd021b40	-0.03176427
69	0x3d831361	0.064001806
70	0x3d824fb7	0.06362861
71	0xbdc4d484	-0.09610847
72	0xbccc8a51	-0.024968298
73	0x3d924473	0.07141962
74	0xbda4d943	-0.08049252
75	0xbd821067	-0.06350785
76	0x3b795255	0.0038043458
77	0x3cd9a039	0.026565658
78	0x3da02e8f	0.0782138
79	0x3dc037a9	0.09385616
80	0x3d87c209	0.06628806
81	0x3d33b6e2	0.043875583
82	0x3d649fa5	0.05581631
83	0xbdf34db1	-0.11880053
84	0x3dd71fbc	0.105041
85	0xbda5968b	-0.080853544
86	0x3d26d739	0.040732596
87	0x3da04b9d	0.07826922
88	0xbc82f516	-0.015986007
89	0xbbc184d7	-0.0059057283
90	0xbd5f85f1	-0.054571096
91	0x3d02cd74	0.031934217
92	0x3dbe0680	0.092785835
93	0xbdbd6fd7	-0.092498474
94	0x3dda3dba	0.10656305
95	0x3db96afa	0.09053607
96	0x3c924438	0.017854795
97	0x3e01984e	0.12655756
98	0xbd4a3fd8	-0.049377292
99	0xbc5bad1d	-0.013407973
100	0x3e111b30	0.14170527
101	0x3d6797fa	0.05654142
102	0x3d1f4158	0.038880676
103	0xbdb4ed4b	-0.088343225
104	0xbd31f8f5	-0.043450315
105	0xbd85dba9	-0.065360375
106	0xbc11c4ba	-0.008897001
107	0xbdfeaa6b	-0.124348484
108	0xbd0e4eaf	-0.034743007
109	0x3dfcb153	0.123385094
110	0xbd8dd87d	-0.069260575
111	0xbde49b0a	-0.11162384
112	0x3d9abce2	0.07555558
113	0x3d50af97	0.050948706
114	0xbd9666b9	-0.073438115
115	0x3db398fb	0.08769413
116	0x3d9d2f24	0.07675007
117	0x3b57608d	0.0032863945
118	0xbcbdef1a	-0.023185302
119	0x3d87b31f	0.066259615
120	0xbc426215	-0.011864205
121	0xbd74a902	-0.05973149
122	0xbd741a8b	-0.059595626
123	0xbe000b95	-0.12504418
124	0xbd074919	-0.033028696
125	0x3dc44a9a	0.095845416
126	0xbdc1b7b4	-0.09458867
127	0x3da06158	0.07831067
128	0x3d9719f3	0.07377996
129	0xbe03430e	-0.12818548
130	0x3d6944ca	0.056950368
131	0x3d88fdf1	0.066890605
132	0xbdfd0f18	-0.123563945
133	0xbd28517f	-0.041093346
134	0x3dca9981	0.0989256
135	0x3d66dd01	0.05636311
136	0x3d792eb0	0.06083554
137	0x3dc736c3	0.09727242
138	0xbb8c72f6	-0.0042861653
139	0xbdd174d4	-0.10227361
140	0xbb1e8479	-0.0024187847
141	0xbbb045c4	-0.0053794105
142	0xbe50663d	-0.20351501
143	0x3d521ef6	0.051299058
144	0xbdf3bb65	-0.11900977
145	0xbd53c87d	-0.051704872
146	0x3db6ea96	0.089314625
147	0x3cbd9767	0.023143483
148	0x3dc0c75e	0.09413026
149	0x3d7b971e	0.061423413
150	0x3c8d5ef8	0.017257199
151	0x3dbcc281	0.09216786
152	0x3dcb6e07	0.099330954
153	0x3de1b1fe	0.110202774
154	0xbd98b7f1	-0.07456959
155	0xbe162fcc	-0.1466667
156	0x3cff5600	0.031168938
157	0x3d72e106	0.05929663
158	0x3dba9d16	0.09111993
159	0x3c44eaa9	0.012018838
160	0x3d3847cd	0.04499035
161	0x3d64cc72	0.055859037
162	0x3db9d043	0.09072926
163	0x3d9f8cbf	0.07790517
164	0x3dcffe1e	0.10155891
165	0x3c07bde3	0.008285019
166	0xbd66e0ba	-0.05636666
167	0x3dccaad6	0.09993522
168	0xbdb50209	-0.08838279
169	0x3d99b813	0.075058125
170	0xbdd84998	-0.10560912
171	0xbe192ae5	-0.14957769
172	0x3c8b6374	0.017015196
173	0x3d464e6a	0.048414625
174	0x3e0b963b	0.13631527
175	0xbd129b5b	-0.03579269
176	0x3de072f4	0.109594256
177	0xbb140ebd	-0.0022591793
178	0x3b9eba59	0.0048439917
179	0x3d591acf	0.053004082
180	0xbde0d520	-0.1097815
181	0x3dd9c8be	0.10633992
182	0x3d24a455	0.04019578
183	0x3dc90a39	0.09816403
184	0x3bb857e7	0.005625713
185	0x3c1e8f1b	0.009677674
186	0xbe232183	-0.15930752
187	0x3d8dd786	0.069258735
188	0x3b9c99d0	0.004779078
189	0x3d95511c	0.07290861
190	0xbdad90c8	-0.084748805
191	0x3dd95428	0.10611755
192	0x3dc4c84b	0.09608515
193	0xbbd43b95	-0.0064768293
194	0x3cdbcfba	0.02683245
195	0x3d5fa630	0.054601848
196	0xbd8693bb	-0.06571146
197	0x3d4b28b7	0.049599376
198	0xbd68eae0	-0.05686462
199	0x3dcd20c0	0.10016012
200	0x3dc93619	0.098247714
201	0x3cbe07e3	0.02319712
202	0xbd86e0d0	-0.06585848
203	0x3e0c573b	0.13705151
204	0x3db61742	0.08891155
205	0x3de0fb88	0.10985476
206	0x3d36bda6	0.044614457
207	0x3d748df1	0.05970568
208	0xbe21a5de	-0.1578593
209	0x3d1d9609	0.038473163
210	0x3dd3032c	0.10303339
211	0xbc9677a9	-0.018367605
212	0xbc92681a	-0.017871905
213	0x3d98d4fd	0.07462499
214	0x3d8ce0f6	0.068788454
215	0xbd75103f	-0.059829947
216	0x3da838ac	0.08213934
217	0xbd662d73	-0.056195688
218	0x3deaee04	0.11471179
219	0x3d4177d4	0.047233418
220	0xbdd718b9	-0.10502762
221	0x3d9a0d6d	0.07522092
222	0x3d4504ed	0.0481004
223	0xbe1f5ded	-0.15563174
224	0xbb5f0e38	-0.0034035575
225	0xbce40e81	-0.027838947
226	0x3d90e071	0.07074059
227	0xbdb41013	-0.087921284
228	0xbda0d135	-0.07852403
229	0x3d4f4b27	0.05060878
230	0xbc5f802a	-0.013641397
231	0x3e061fd3	0.13098077
232	0xbe05484e	-0.13015863
233	0x3e1bdcd5	0.1522096
234	0x3df2f45f	0.11863016
235	0x3d18d803	0.03731538
236	0x3d83f0da	0.06442423
237	0xbda606e7	-0.08106785
238	0x3c893724	0.016749926
239	0xbd294a34	-0.04133053
240	0x3c9c6821	0.019092621
241	0x3da0dbfe	0.0785446
242	0xbd288e9c	-0.041151628
243	0xbdc2fae6	-0.09520511
244	0xbd939894	-0.07206836
245	0x3da13189	0.07870776
246	0xbe0e860a	-0.1391832
247	0xbde08e31	-0.10964621
248	0x3e0c9ca5	0.1373163
249	0x3d88062f	0.066418044
250	0x3e10e2c4	0.14149004
251	0xbc6df6d4	-0.01452418
252	0xbd599fc9	-0.0531309
253	0x3d1f03f9	0.038822148
254	0xbd1eaf00	-0.03874111
255	0xbcfcba89	-0.030850666

action_model._continuous_distribution.mu.bias f4 [2]
0	0x3cb1bf6a	0.021697719
1	0x3dd8fea3	0.10595443

exp_avg f4 [128, 33]
0	0xb9e754c9	-0.00044122923
1	0x00000000	0.0
2	0x3accaa18	0.0015614657
3	0x3a718034	0.0009212524
4	0x384e048a	4.9118455e-05
5	0x00000000	0.0
6	0x392e96b5	0.00016650076
7	0x39afdeb2	0.00033544522
8	0xb9744a8c	-0.00023297424
9	0x00000000	0.0
10	0x3ad6471c	0.0016348097
11	0x3a3fdddf	0.0007319133
12	0x38f85fd2	0.000118434094
13	0x00000000	0.0
14	0x3a9c4a4c	0.0011923998
15	0x3a5ee98e	0.000850343
16	0xb99c354c	-0.00029794348
17	0x00000000	0.0
18	0x3ab0238e	0.001343833
19	0x3a40f958	0.0007361374
20	0x38bff4fe	9.153223e-05
21	0x37b535d9	2.1601956e-05
22	0x3a2686b3	0.0006352469
23	0x3a8dfa8a	0.0010832113
24	0xb99bcf36	-0.00029718288
25	0x00000000	0.0
26	0x3af2c3c6	0.001852148
27	0x3a91e959	0.0011132165
28	0x3a40dffb	0.00073575944
29	0x39c8d967	0.0003830895
30	0x3a67afa6	0.00088381243
31	0xba4c02e3	-0.00077824126
32	0xb9ae2f0d	-0.00033222922
33	0xb94a23f7	-0.00019277619
34	0x00000000	0.0
35	0xb98dad82	-0.0002702289
36	0x39aa2df9	0.0003245918
37	0xb82962cf	-4.0384763e-05
38	0x00000000	0.0
39	0xb9b5c7d6	-0.000346719
40	0x399f39fe	0.0003037005
41	0xb96f1e69	-0.00022804145
42	0x00000000	0.0
43	0xb992df95	-0.00028013872
44	0xb8c69154	-9.468445e-05
45	0x38f26bbd	0.00011559527
46	0x00000000	0.0
47	0xb8f25987	-0.00011556135
48	0x3a05c2c7	0.00051025714
49	0xb961f2f4	-0.00021548179
50	0x00000000	0.0
51	0xb99b611c	-0.00029636256
52	0xba9ba148	-0.0011873627
53	0xb7ad2864	-2.0642015e-05
54	0xb794fd52	-1.7760936e-05
55	0xba98d63d	-0.0011660528
56	0xb9ac91ec	-0.00032915117
57	0xb9625275	-0.00021583757
58	0x00000000	0.0
59	0xb8d31a27	-0.00010066135
60	0x39f511c2	0.00046743272
61	0x396af3b6	0.00022406768
62	0x399220a4	0.0002787161
63	0x39ec52cb	0.00045075113
64	0x39ce7cbb	0.00039384313
65	0x3a5660be	0.0008177868
66	0xb80b49e5	-3.3209002e-05
67	0x00000000	0.0
68	0xb8fda7a1	-0.000120952034
69	0xb8aaf05c	-8.151002e-05
70	0xb7b399a4	-2.1410007e-05
71	0x00000000	0.0
72	0xb8cbd347	-9.719148e-05
73	0x35e7a306	1.7258287e-06
74	0xb72dd707	-1.03616685e-05
75	0x00000000	0.0
76	0xb9bf2f4a	-0.00036465592
77	0x38d9971a	0.00010375511
78	0x379f4669	1.8987064e-05
79	0x00000000	0.0
80	0xb98d01bd	-0.0002689491
81	0x399ace3b	0.00029526823
82	0x382ef217	4.1710297e-05
83	0x00000000	0.0
84	0xb95b7315	-0.00020928339
85	0xb970e306	-0.00022972756
86	0xb70972f6	-8.192603e-06
87	0xb71df94e	-9.415975e-06
88	0xb9c3e4c4	-0.00037363742
89	0xb9c44692	-0.00037436612
90	0x382dc581	4.1430354e-05
91	0x00000000	0.0
92	0xb996d293	-0.0002876712
93	0xb924ce2a	-0.00015717061
94	0xb666aa35	-3.4371744e-06
95	0xb787422f	-1.6124073e-05
96	0xb6815f4e	-3.8555945e-06
97	0xb5ed9014	-1.7699808e-06
98	0x3a247bcc	0.00062745507
99	0xb94e0f85	-0.00019651472
100	0x00000000	0.0
101	0xb935ed6d	-0.00017349953
102	0x39b062f3	0.0003364306
103	0xb7ecfeb1	-2.8251992e-05
104	0x00000000	0.0
105	0xb9f36538	-0.00046423986
106	0x394e89c2	0.0001969701
107	0xb8c96603	-9.603428e-05
108	0x00000000	0.0
109	0xb96db3f2	-0.00022669116
110	0xba05f979	-0.00051107217
111	0xb8723d69	-5.775449e-05
112	0x00000000	0.0
113	0xb9ac3542	-0.00032846077
114	0xb9a0707b	-0.00030601383
115	0xb9acdf6f	-0.00032972867
116	0x00000000	0.0
117	0xb9bb5cc2	-0.0003573653
118	0xba2922ac	-0.0006452005
119	0xb925b8a1	-0.00015804406
120	0xb7507512	-1.2425024e-05
121	0xba35cb93	-0.0006934937
122	0x396e4be4	0.0002272572
123	0xb9acf2dd	-0.00032987344
124	0x00000000	0.0
125	0x39c73054	0.00037992245
126	0x3a7c7c03	0.00096315163
127	0x38ff147c	0.00012163163
128	0x3990444b	0.00027516703
129	0x3925792b	0.00015780765
130	0x39e02761	0.0004275395
131	0x390d9bd5	0.0001350486
132	0x38fefa14	0.000121582445
133	0x00000000	0.0
134	0x3a83b839	0.001004941
135	0x3a5fa92e	0.00085319846
136	0x38133790	3.5099278e-05
137	0x00000000	0.0
138	0xba9096f9	-0.0011031321
139	0xba1d958d	-0.00060113595
140	0x39391b46	0.00017653135
141	0x00000000	0.0
142	0x3a99abb3	0.0011724144
143	0x38da84d1	0.00010419789
144	0x3890297d	6.874183e-05
145	0x00000000	0.0
146	0x3a42c808	0.00074303197
147	0xb88081c2	-6.127685e-05
148	0x39921952	0.00027866155
149	0x00000000	0.0
150	0x3aa1a38a	0.0012332064
151	0x3a285081	0.00064206874
152	0x38904e75	6.881069e-05
153	0x37817d6b	1.54364e-05
154	0x3a12fdb2	0.00056072616
155	0x3a3ada58	0.00071278727
156	0x39923bcb	0.0002789184
157	0x00000000	0.0
158	0x3aae9ec3	0.0013322461
159	0x3aa604ab	0.0012666186
160	0x3a5f755c	0.0008524263
161	0xb97889b8	-0.00023702427
162	0xb826270f	-3.961386e-05
163	0xb8a18e1c	-7.703548e-05
164	0x39997929	0.00029272705
165	0xb9012a61	-0.00012318186
166	0x00000000	0.0
167	0xba496c40	-0.0007683672
168	0xba113ea2	-0.0005540644
169	0xb880e0da	-6.1453975e-05
170	0x00000000	0.0
171	0x3ad8d4d2	0.0016542918
172	0x3a4d9ea4	0.00078437687
173	0xb960d16e	-0.00021440323
174	0x00000000	0.0
175	0xba455ad8	-0.00075284904
176	0x39beffc0	0.00036430173
177	0x3941968b	0.00018461996
178	0x00000000	0.0
179	0xba57cdb0	-0.0008232249
180	0x39787eb2	0.00023698321
181	0x3881f450	6.196706e-05
182	0x00000000	0.0
183	0xba2704b5	-0.0006371246
184	0xba83c3ac	-0.0010052822
185	0x39303edd	0.00016808086
186	0xb7e2b81a	-2.7027028e-05
187	0xba760679	-0.000938512
188	0xba9c09df	-0.0011904797
189	0x388056ec	6.119706e-05
190	0x00000000	0.0
191	0xba8a334e	-0.0010543854
192	0xba81e727	-0.0009910808
193	0xba665a19	-0.00087872293
194	0x38b03f11	8.404081e-05
195	0x399ee564	0.00030307018
196	0xba15607b	-0.00056982756
197	0x3a9151cf	0.0011087003
198	0xb998fa9d	-0.0002917842
199	0x00000000	0.0
200	0xb841009e	-4.601536e-05
201	0x3a6b8056	0.0008983662
202	0xb840e8d2	-4.5993198e-05
203	0x00000000	0.0
204	0xb95f8e81	-0.00021320024
205	0x3a3fa4dc	0.0007310638
206	0xb869b058	-5.5715762e-05
207	0x00000000	0.0
208	0xb8c73ec7	-9.500753e-05
209	0xb9de5da0	-0.00042412896
210	0x3923bcdc	0.00015615247
211	0x00000000	0.0
212	0xba086eb9	-0.0005204487
213	0xba212395	-0.0006146965
214	0xb9c7ce85	-0.00038110107
215	0x00000000	0.0
216	0xb87852de	-5.9204984e-05
217	0xba2ca19f	-0.0006585363
218	0xb9634f9a	-0.00021678061
219	0xb7a9ae37	-2.0227495e-05
220	0xba5c2497	-0.00083977863
221	0xb8e6ec0d	-0.000110112225
222	0xb9c7fa50	-0.00038142735
223	0x00000000	0.0
224	0x3997e315	0.00028970154
225	0x3b0dd605	0.0021642458
226	0xba23a3c5	-0.000624236
227	0x39c35a3a	0.00037260522
228	0xb9e50ab4	-0.00043686258
229	0x3ab4bfa3	0.0013790022
230	0xb78cecea	-1.6799622e-05
231	0x38861e20	6.395229e-05
232	0x00000000	0.0
233	0x39ea961d	0.000447438
234	0x396044e0	0.00021387963
235	0x375ff3fd	1.3348644e-05
236	0x00000000	0.0
237	0x385cbdf4	5.2628995e-05
238	0xb8af2cba	-8.352981e-05
239	0x389f8bc8	7.607747e-05
240	0x00000000	0.0
241	0x39fb2d79	0.0004790833
242	0xb92f8ee2	-0.00016742529
243	0x38014e05	3.0828658e-05
244	0x00000000	0.0
245	0x394f67ae	0.00019779682
246	0xb9538da9	-0.000201753
247	0x3911ab37	0.0001389206
248	0x00000000	0.0
249	0x394e5ddc	0.00019680656
250	0xb9e94c9a	-0.00044498296
251	0x382ed49a	4.1682833e-05
252	0x36c4fc74	5.8706446e-06
253	0xb98d6fba	-0.00026976858
254	0x3902cb85	0.00012473583
255	0x3911c051	0.00013899921

exp_avg_sq f4 [128, 33]
0	0x38a34d75	7.786873e-05
1	0x00000000	0.0
2	0x3910da63	0.00013814266
3	0x38db1de4	0.00010448301
4	0x3493a523	2.7501036e-07
5	0x00000000	0.0
6	0x38ce3629	9.8329336e-05
7	0x38991468	7.2994095e-05
8	0x3868e4f0	5.5526325e-05
9	0x00000000	0.0
10	0x3925a7bb	0.0001579811
11	0x390582e9	0.00012732636
12	0x3561ffd4	8.419131e-07
13	0x00000000	0.0
14	0x39006833	0.00012245848
15	0x38cc7959	9.750081e-05
16	0x38741039	5.8189242e-05
17	0x00000000	0.0
18	0x38f096b5	0.00011472163
19	0x38c97556	9.6062824e-05
20	0x360f3eaf	2.1345147e-06
21	0x33664333	5.3612165e-08
22	0x38ca2f43	9.640914e-05
23	0x38c44689	9.3591465e-05
24	0x3873e5b0	5.8149628e-05
25	0x00000000	0.0
26	0x38cc4e14	9.742021e-05
27	0x38bc2b63	8.97262e-05
28	0x38ba3dbb	8.880669e-05
29	0x38864664	6.402729e-05
30	0x39016818	0.00012341177
31	0x39091c64	0.00013075914
32	0x3852b642	5.0237642e-05
33	0x3609f65d	2.0557993e-06
34	0x00000000	0.0
35	0x380de04a	3.3825905e-05
36	0x378ca199	1.676455e-05
37	0x33c883ec	9.337222e-08
38	0x00000000	0.0
39	0x38232b90	3.89028e-05
40	0x3720131d	9.541193e-06
41	0x3648e4b1	2.9935438e-06
42	0x00000000	0.0
43	0x3812cfd7	3.500268e-05
44	0x37cbba09	2.4286115e-05
45	0x35a9b585	1.264431e-06
46	0x00000000	0.0
47	0x382212e7	3.8641414e-05
48	0x37c9b1a6	2.4043791e-05
49	0x36f55f43	7.312659e-06
50	0x00000000	0.0
51	0x38185fa0	3.632868e-05
52	0x37dce184	2.6331058e-05
53	0x36885d41	4.063972e-06
54	0x329afb2e	1.8042183e-08
55	0x38129e29	3.495641e-05
56	0x37e8d57b	2.7755965e-05
57	0x36f5ac9d	7.321664e-06
58	0x00000000	0.0
59	0x381665b5	3.585751e-05
60	0x37f3a603	2.9045163e-05
61	0x381c4687	3.7258982e-05
62	0x36b49177	5.3813524e-06
63	0x3827ea3f	4.003406e-05
64	0x38812a53	6.159083e-05
65	0x377b6535	1.498433e-05
66	0x36455ddd	2.9409923e-06
67	0x00000000	0.0
68	0x389a5f3d	7.361032e-05
69	0x38509c61	4.9736704e-05
70	0x341fb6c6	1.4874522e-07
71	0x00000000	0.0
72	0x385d356b	5.2740255e-05
73	0x37d7c320	2.572086e-05
74	0x36ef857a	7.1382938e-06
75	0x00000000	0.0
76	0x389718cc	7.20486e-05
77	0x3868c24d	5.5494067e-05
78	0x3510bfd1	5.392331e-07
79	0x00000000	0.0
80	0x3894bd1f	7.0924165e-05
81	0x383d6e6b	4.5163946e-05
82	0x3748fa6b	1.1979234e-05
83	0x00000000	0.0
84	0x3862eedf	5.4105065e-05
85	0x38266d3b	3.9679213e-05
86	0x35db1007	1.6321436e-06
87	0x3312663c	3.4086256e-08
88	0x388dfe3d	6.7707595e-05
89	0x385e2123	5.2959786e-05
90	0x3749355b	1.1992956e-05
91	0x00000000	0.0
92	0x384af876	4.839195e-05
93	0x382989b2	4.042098e-05
94	0x384fb8bb	4.952469e-05
95	0x372a728d	1.01594605e-05
96	0x3879d2de	5.956261e-05
97	0x38a74740	7.976452e-05
98	0x37b90b05	2.205885e-05
99	0x37dfb3ac	2.6667338e-05
100	0x00000000	0.0
101	0x37d889e8	2.5813424e-05
102	0x37a8a3f6	2.010351e-05
103	0x3381e97b	6.0495005e-08
104	0x00000000	0.0
105	0x37c3e5ff	2.3352912e-05
106	0x3783c0a3	1.570612e-05
107	0x37a8febd	2.0145782e-05
108	0x00000000	0.0
109	0x380039c2	3.057137e-05
110	0x37d69a30	2.5582587e-05
111	0x346c24e2	2.199263e-07
112	0x00000000	0.0
113	0x37ac192b	2.0515718e-05
114	0x379d5097	1.8753386e-05
115	0x379043d3	1.719772e-05
116	0x00000000	0.0
117	0x37d8cc14	2.5844238e-05
118	0x37c352a3	2.3284292e-05
119	0x361116d0	2.1619962e-06
120	0x32498840	1.17307195e-08
121	0x37ab851a	2.0446769e-05
122	0x37a871cd	2.0080153e-05
123	0x3790213b	1.7181612e-05
124	0x00000000	0.0
125	0x37d403e4	2.5274181e-05
126	0x37c78a28	2.3786983e-05
127	0x37aea41d	2.0818838e-05
128	0x37aba3b0	2.0461011e-05
129	0x37ca1e91	2.409451e-05
130	0x38040df9	3.1484265e-05
131	0x3763fb99	1.3588834e-05
132	0x361f826d	2.3768764e-06
133	0x00000000	0.0
134	0x384cc3c1	4.88197e-05
135	0x37db05a1	2.6109456e-05
136	0x3401dbd8	1.209404e-07
137	0x00000000	0.0
138	0x38367aa8	4.3506414e-05
139	0x377e5fe8	1.516191e-05
140	0x368475e8	3.9476326e-06
141	0x00000000	0.0
142	0x3863f03a	5.4344746e-05
143	0x3819ef6e	3.670103e-05
144	0x34c6d78e	3.703721e-07
145	0x00000000	0.0
146	0x3833e30b	4.2888376e-05
147	0x380ac289	3.308294e-05
148	0x3700870d	7.6608385e-06
149	0x00000000	0.0
150	0x38567a9f	5.1135776e-05
151	0x38136451	3.5140958e-05
152	0x351d712c	5.8651744e-07
153	0x32c98d65	2.3463778e-08
154	0x38279411	3.99538e-05
155	0x381a73cf	3.6824316e-05
156	0x3700c75e	7.675813e-06
157	0x00000000	0.0
158	0x383ea65b	4.545446e-05
159	0x380c78d6	3.349114e-05
160	0x389600d5	7.152712e-05
161	0x36d58bc5	6.364166e-06
162	0x3833cf67	4.2870084e-05
163	0x38b68320	8.70286e-05
164	0x37728733	1.4455803e-05
165	0x36826546	3.8860917e-06
166	0x00000000	0.0
167	0x381cfbad	3.742769e-05
168	0x37959c67	1.7835015e-05
169	0x3407f7c6	1.2662994e-07
170	0x00000000	0.0
171	0x384d0889	4.8883758e-05
172	0x37840f9d	1.5742897e-05
173	0x36a135db	4.8044435e-06
174	0x00000000	0.0
175	0x38152a67	3.556386e-05
176	0x37c8211a	2.3857272e-05
177	0x36234235	2.432743e-06
178	0x00000000	0.0
179	0x381d4d48	3.750369e-05
180	0x37e7fb52	2.7654376e-05
181	0x378630dd	1.5996799e-05
182	0x00000000	0.0
183	0x382f19c1	4.1747237e-05
184	0x37eb61c7	2.8059714e-05
185	0x36c05662	5.732102e-06
186	0x32f51877	2.853288e-08
187	0x381df93a	3.7663827e-05
188	0x381a966e	3.685656e-05
189	0x37862c61	1.599471e-05
190	0x00000000	0.0
191	0x383b2de2	4.4627006e-05
192	0x381def27	3.7654445e-05
193	0x385524ce	5.0817434e-05
194	0x37304158	1.05056315e-05
195	0x383d6b9c	4.516133e-05
196	0x38d8ec22	0.00010343666
197	0x37f28a87	2.8913155e-05
198	0x37810212	1.5378962e-05
199	0x00000000	0.0
200	0x3831fcd6	4.243556e-05
201	0x381959b1	3.6561574e-05
202	0x3402c6c4	1.2179504e-07
203	0x00000000	0.0
204	0x3858ac68	5.165898e-05
205	0x3837b499	4.3798795e-05
206	0x37a11840	1.9203988e-05
207	0x00000000	0.0
208	0x38482296	4.7715926e-05
209	0x383e42ac	4.5361623e-05
210	0x37074591	8.062824e-06
211	0x00000000	0.0
212	0x38227b3b	3.8738577e-05
213	0x385517a8	5.080519e-05
214	0x38677dc5	5.5191824e-05
215	0x00000000	0.0
216	0x3848ae46	4.784602e-05
217	0x3839bf77	4.4285753e-05
218	0x36a4a51b	4.9068017e-06
219	0x32c6897a	2.311275e-08
220	0x3810deb4	3.4539684e-05
221	0x3843c953	4.667912e-05
222	0x38672fd1	5.5119224e-05
223	0x00000000	0.0
224	0x384fa43b	4.9505597e-05
225	0x3854dd89	5.075106e-05
226	0x38895f52	6.550424e-05
227	0x38145039	3.5360663e-05
228	0x384c3045	4.8682345e-05
229	0x38c37b8f	9.321339e-05
230	0x3887e1ac	6.479336e-05
231	0x35c0d69c	1.4367574e-06
232	0x00000000	0.0
233	0x3817b2b7	3.6167647e-05
234	0x37be4246	2.2680626e-05
235	0x33acc5bd	8.0453425e-08
236	0x00000000	0.0
237	0x37eb3f0c	2.8043542e-05
238	0x373892eb	1.1001462e-05
239	0x361e509f	2.3590762e-06
240	0x00000000	0.0
241	0x3829b09d	4.0457224e-05
242	0x37fd8641	3.0222467e-05
243	0x34897c12	2.5608512e-07
244	0x00000000	0.0
245	0x38090f70	3.2677723e-05
246	0x37ad921f	2.069125e-05
247	0x36a612e3	4.949384e-06
248	0x00000000	0.0
249	0x38050143	3.1710846e-05
250	0x37c54c8d	2.3519877e-05
251	0x34e3f222	4.245822e-07
252	0x3287e684	1.5820895e-08
253	0x37f80470	2.956597e-05
254	0x37bfe332	2.287477e-05
255	0x36a666fe	4.9591754e-06

exp_avg f4 [128]
0	0xba8956de	-0.0010478159
1	0x3a61d86c	0.0008615318
2	0x39ef7682	0.00045673928
3	0x3a1dfd04	0.0006026777
4	0xba4446b2	-0.0007487341
5	0x3aabd523	0.0013109784
6	0x3a809a32	0.0009811579
7	0xb9954872	-0.0002847347
8	0x3a2a9b4d	0.0006508127
9	0x3aba4832	0.001421219
10	0x3a16c66c	0.0005751613
11	0x39ee2466	0.00045422016
12	0x3abcffe2	0.0014419521
13	0x3a63400b	0.0008668906
14	0xb9e367bf	-0.0004337411
15	0x39b14d34	0.00033817592
16	0x39af5603	0.00033442685
17	0x39e25095	0.00043166117
18	0xba0013b0	-0.0004885746
19	0x3967d478	0.00022109027
20	0xb5ec581c	-1.7609013e-06
21	0x3a3ceda5	0.00072070427
22	0x3997e040	0.00028968044
23	0x38dc3357	0.0001049998
24	0x39867c2f	0.00025650996
25	0x39dfdd11	0.00042698582
26	0x3a6d7acd	0.0009059131
27	0x39355e8c	0.00017296727
28	0x3b1817c4	0.0023207525
29	0x39b9cb49	0.0003543741
30	0xb8e8e12b	-0.00011104563
31	0x3a18a821	0.0005823393
32	0xbaef95bd	-0.0018278878
33	0x3a19b775	0.0005863824
34	0xb987c676	-0.00025897071
35	0x3a907927	0.0011022434
36	0xba9ea17f	-0.0012102573
37	0x3aa2b5f7	0.0012413849
38	0x3a7b9ff7	0.0009598727
39	0x39cd4cd9	0.00039157903
40	0x3a6c6b44	0.00090186694
41	0x3a608083	0.00085640716
42	0x3a1c2d6f	0.0005957698
43	0x3a2195bb	0.0006163974
44	0x3a19522c	0.00058487314
45	0x398f428c	0.00027324667
46	0x39810abb	0.00024612792
47	0x39d0b145	0.00039804928
48	0xb8ba0973	-8.870931e-05
49	0x3703e538	7.861578e-06
50	0x3a75e896	0.00093806663
51	0x396e7d36	0.00022744093
52	0xbad8ccbb	-0.0016540507
53	0x3abc4c34	0.0014365972
54	0x3944d01c	0.00018769543
55	0x3941a03f	0.0001846561
56	0x3a70e7c9	0.0009189812
57	0xba440ef8	-0.0007479037
58	0xba25d980	-0.00063266605
59	0x39bf19e7	0.00036449658
60	0x3a943d4d	0.0011309773
61	0x3a37b4e8	0.0007007853
62	0x38f4bca7	0.00011669966
63	0xb9766aa7	-0.0002350012
64	0x3a0e07d1	0.0005418035
65	0x3a9068a1	0.001101751
66	0xb9ef423c	-0.0004563498
67	0x3a043e38	0.00050446717
68	0x36ee1ce0	7.096314e-06
69	0x3a8554ec	0.0010172403
70	0x3a10eacf	0.0005528153
71	0x39a1e8aa	0.0003088166
72	0xba00d542	-0.00049145904
73	0x3824163b	3.912135e-05
74	0xb9a160bb	-0.00030780383
75	0x3b075ff4	0.0020656558
76	0x3b143084	0.0022611925
77	0x3a1e4186	0.00060369854
78	0x39d2b2a8	0.0004018743
79	0x3949519f	0.0001919926
80	0x3a0b2586	0.00053080206
81	0x3aa2df89	0.0012426238
82	0xb8a52013	-7.8737874e-05
83	0xb9ed20d6	-0.00045228627
84	0x3a52a8a5	0.0008035994
85	0x3a2931cf	0.00064542604
86	0x3a0b84c2	0.00053222117
87	0xb87da469	-6.047302e-05
88	0x3a309821	0.0006736536
89	0x3a064531	0.00051220047
90	0xba6d4431	-0.0009050994
91	0x3958f3a2	0.00020690126
92	0x396a702c	0.00022357766
93	0x3a52425f	0.00080207543
94	0x3a216ced	0.0006157894
95	0xb87f6f7c	-6.0900566e-05
96	0x3a8fb7ac	0.0010964773
97	0x3a6b2478	0.0008969973
98	0x3a093f88	0.0005235602
99	0x3b12a37b	0.0022375274
100	0xba2244dd	-0.0006190071
101	0x36a52904	4.922158e-06
102	0x3992f68d	0.00028030985
103	0x3ab185a6	0.0013543859
104	0x3adb2bce	0.0016721429
105	0x39f03a0d	0.00045819618
106	0x398acc4a	0.00026473618
107	0x3a91b338	0.0011116033
108	0x3a13665e	0.0005622859
109	0x39e0c89d	0.00042874078
110	0xb81b637b	-3.7047528e-05
111	0xbb17d473	-0.00231674
112	0x385f8765	5.329344e-05
113	0x39cb2285	0.00038744896
114	0xb859254f	-5.1771578e-05
115	0x3a746e99	0.00093243417
116	0x3a3210a2	0.00067926396
117	0xb9b94285	-0.0003533551
118	0x3ae0f75c	0.0017163563
119	0xba2bf5fe	-0.0006559788
120	0x3a1fb76d	0.0006092701
121	0x3a5dfa3e	0.000846777
122	0x39fc06f4	0.00048070366
123	0xbaae2aaa	-0.0013287861
124	0xb948fcef	-0.00019167711
125	0xb9002cb4	-0.00012223684
126	0x3a1203b7	0.00055700116
127	0x3ae7bc96	0.0017680104
