results/ParkingTest_02/CarParking/CarParking-5499991.onnx (onnx, 90958 bytes, 11 tensors)

network_body.observation_encoder.processors.0.normalizer.running_mean f4 [28]
00000000: 659f 233d 0000 0000 2b2a c13e 426b 273f
00000010: 8793 1c3b 0000 0000 80a5 053f a859 463f
00000020: 2213 843d 0000 0000 1eae ae3e 955e 1c3f
00000030: 9522 de3b 0000 0000 1bc1 d63e 5b68 2d3f
00000040: f6eb fe3d 0000 0000 ca51 d53e 8f1e 263f
00000050: 6940 023c ff7c f239 e0fe c63e 4ed3 1e3f
00000060: a35a ff3d 0000 0000 a2ca f03e 0dda 2c3f
0.039946932 0.0 0.37727484 0.6539804 0.0023891644 0.0 0.5220566 0.77480555
0.06448962 0.0 0.34117216 0.6108182 0.006779025 0.0 0.41944203 0.6773736
0.1244735 0.0 0.41663963 0.6489038 0.007949927 0.00046250966 0.3886633 0.62041175
0.124684595 0.0 0.47029597 0.6752022

network_body.observation_encoder.processors.1.normalizer.running_mean f4 [5]
00000000: b854 3040 1cae 053f 9ed3 cb3f a221 1a3f
00000010: 3df4 9d3e
2.7551708 0.52218795 1.5923955 0.6020757 0.30850402

network_body._body_endoder.seq_layers.0.weight f4 [128, 33]
00000000: 562d 073f 5a9d 613d 7fde 14bd 34d2 19bd
00000010: 6295 363e bf82 bd3d 59a2 743e aab4 363e
00000020: 4f4f 3bbd 8378 9d3c 8e85 353d eef2 13bc
00000030: 6e45 99be 8629 623e 99d1 023e 5cd7 293e
00000040: f504 0f3e 1d7b 3e3e ddbf 8e3e 47c1 abbd
00000050: a6a5 99bd 5246 363e a757 073c 587e 06be
00000060: f72f 333e b473 34be 287c febd b29d 653e
00000070: 744f 1ebe 4f26 52be 755d 8d3e 03ec bbbe
00000080: 7176 1f3e 86ed 1dbe 7129 adbd 51a0 1dbe
00000090: 4aa4 dbbd 6005 d0be d336 1d3e 93ff b8be
000000a0: ac06 50be 32c4 01be 4fc7 aa3c 8728 ccbd
000000b0: b5ae 583e 1b28 113c a922 993d e814 cf3e
000000c0: be8c 683e caa3 733e 9803 5e3d 36fe b7bb
000000d0: 76bc e7bc 0e99 a8bc 417c 8dbe da16 983d
000000e0: 20f4 08bd 0780 b2be 9304 e93e ecad d8bd
000000f0: 0ba5 3e3e e266 efbd 65c2 353e 2173 13bd
00000100: 1df7 a5bd 91fd a6bc 0e9b 2abe efc6 f3bd
00000110: b5e9 b43c bdd3 433e e2be aebd 8c57 9bbe
00000120: c465 863d 48da c7bd b9d2 8c3e 84c2 90bc
00000130: b3fb a13d 8d09 383e 1992 82bd cb44 8c3e
00000140: 46fb 503e 4a90 babd 61c0 91bd 216c 27be
00000150: c512 3cbe be58 023f 836e 983c aab0 3d3e
00000160: ebbb 0b3e 831d 913e d932 13be cbdb 40be
00000170: 3c45 173b 506d ffbe 235f 0a3e 31e9 d63d
00000180: a024 76be 6fc1 44bd f7fd 3c3e 0409 3d3e
00000190: d5f4 61bc f06a 94bd 9be8 193e 8171 023e
000001a0: 8790 463d 5d8a 5dbe 3fac 72bc 18a2 ce3c
000001b0: cc7e 1c3e 507c 623e 6c1f 443c 9a7c 56be
000001c0: 35f7 033e dd51 85bd 3722 703d 9702 113e
000001d0: be4f cabe d171 2bbe a63d e93d 658b 553d
000001e0: da87 df3d 5488 78bc acdf b03c cf34 2b3d
000001f0: 4556 35be fb92 983d b5a7 963d 53e2 403d
00000200: 5187 863d b1c0 173c 6618 7bbe 0f10 35be
00000210: 186d 76bd cb5c d33d e1b4 cdba 8263 2cbd
00000220: d025 c3be ff0b 89be 675a a93e afec 7dbe
00000230: 6809 93bd 9325 d7bd 6505 6ebe ab70 46be
00000240: e2c7 39bb 2ec2 a73d 632e 2fbe 6ca4 e03c
00000250: 4c57 05be 50ef 46bd d809 6d3d 05b7 a43e
00000260: 1e32 bfbd 7cff 01be 1262 693e f86b 55be
00000270: 3cb3 e6bd da6a 48be bceb 1c3d be58 1abd
00000280: 74df e2be 3d63 1c3d e83e ec3c 9519 98be
00000290: e21e 87be 922c 623d dd44 97bd fa7f b3bd
000002a0: af78 093b e904 f43d 60ff 633e d76b 0bbe
000002b0: ff28 c0bb 77a2 51be fa82 e6bb 1de5 72be
000002c0: 20c9 f63d d431 603c 74fe be3e 3b45 a8be
000002d0: 4697 373c 74bf dfbd 4240 033e 529a 1dbd
000002e0: 7e70 333e 3ebd 12bc 6a97 9ebd 4458 dfbd
000002f0: f563 1d3e 78b4 38be f455 79bd ba05 92be
00000300: 9e2a 95bd de02 833e d1ab 113d 176e 98bd
00000310: 8f54 303e 1697 043c c2aa 9ebe 15c6 58be
00000320: 56d3 003d 70fa 563e 3324 0abe 862b fab9
00000330: 2b13 1ebf 0639 c9bb 8c69 fd3c 5d15 333e
00000340: 0402 373e 11a2 58bd 03b3 353e ec2c 41be
00000350: 59f2 eabe a2c1 91be dd42 3fbd 2d8a cbbd
00000360: e81c 2ebd 8749 c3bd 40fa babb d889 04bf
00000370: 9f39 02ba dd2d 9fbe 23cd a2bc 92eb d93d
00000380: 4e0c 0bbe e98c b9bc e59e abbe 1f54 283e
00000390: 0554 32be e236 80be 3ec7 63be e870 42be
000003a0: 06f2 3c3e 7fd2 4cbe 5e0d a73d a826 fabd
000003b0: 7057 643c ba96 863e 1fbb 963e ca7c 01be
000003c0: 96c0 cebd c36d aa3e 5e97 733d f2d8 d43d
000003d0: de41 933d 361f a63b 1924 b63e 0b49 f8bd
000003e0: f981 4fbe 49df 013e 4225 663e 71d7 17be
000003f0: eb1f 26be 8eeb 143e 1353 003e a7ca 23be
0.5280355 0.055081703 -0.036345 -0.03755398 0.17830423 0.092534535 0.23890056 0.17842355
-0.04572993 0.019222504 0.04431682 -0.009030087 -0.29935783 0.22086152 0.12775268 0.1658606
0.13966735 0.18601651 0.27880755 -0.08386474 -0.07502298 0.17800263 0.008260644 -0.13134134
0.17498766 -0.17622262 -0.12426025 0.22423437 -0.15459996 -0.20522426 0.27610365 -0.367035
0.15572526 -0.15422639 -0.0845517 -0.15393187 -0.10724695 -0.406291 0.15352945 -0.36132488
-0.20315045 -0.12672499 0.02084699 -0.099686675 0.21160395 0.00885966 0.07477314 0.40445638
0.22709939 0.2379295 0.054202646 -0.005615021 -0.028288107 -0.020580795 -0.2763386 0.074262336
-0.03343594 -0.34863302 0.45511302 -0.10580048 0.18617646 -0.11689545 0.17749937 -0.035998467
-0.08103774 -0.020384582 -0.16660711 -0.11903178 0.022084096 0.1912374 -0.08532502 -0.3034023
0.06562379 -0.09758431 0.2750452 -0.017670877 0.07909336 0.17972393 -0.06375522 0.27396235
0.20408353 -0.09109552 -0.071167715 -0.16349842 -0.18366535 0.5091666 0.018607384 0.18524423
0.13645904 0.28342828 -0.14374866 -0.18833844 0.0023082038 -0.49888086 0.13512854 0.104936965
-0.24037409 -0.048036035 0.18456255 0.1846047 -0.013791283 -0.07246959 0.15030138 0.12738611
0.048477676 -0.21634813 -0.0148115745 0.025223777 0.15282744 0.22117734 0.011970382 -0.20945969
0.12887271 -0.06509755 0.05862638 0.14161144 -0.39513963 -0.16742636 0.11388712 0.05213489
0.109145835 -0.015169222 0.02159103 0.04179841 -0.1770869 0.07449909 0.07356206 0.04709084
0.06568778 0.00926225 -0.24521026 -0.17681907 -0.060162634 0.10320433 -0.0015694165 -0.042087086
-0.38114786 -0.26766965 0.33076784 -0.24797319 -0.071795285 -0.105052136 -0.23244245 -0.19378917
-0.00283479 0.08191334 -0.17107539 0.027422152 -0.13021582 -0.04856807 0.057870716 0.32170883
-0.09335731 -0.12695116 0.22791317 -0.20841968 -0.11264655 -0.1957201 0.03831075 -0.037682287
-0.44311106 0.03818058 0.02883859 -0.29707018 -0.2639075 0.055218287 -0.073861815 -0.08764644
0.0020976474 0.11914999 0.22265387 -0.13615356 -0.005864262 -0.20472132 -0.0070346566 -0.23720212
0.1205008 0.013683755 0.37303507 -0.3286532 0.0112055 -0.10925189 0.12817481 -0.03847725
0.17523381 -0.008956252 -0.07743724 -0.10905507 0.15370162 -0.18037593 -0.060872987 -0.28519994
-0.07283519 0.25588125 0.035564248 -0.07442873 0.17219757 0.008092662 -0.30989653 -0.21169312
0.031451546 0.20993972 -0.13490371 -0.00047716143 -0.61748 -0.006140831 0.030934118 0.17488618
0.17871863 -0.052888934 0.17744069 -0.18864793 -0.45888022 -0.28468043 -0.046694625 -0.09938464
-0.042508036 -0.095355086 -0.0057061017 -0.5177283 -0.00049676927 -0.31089678 -0.019873207 0.106406346
-0.13578913 -0.022650199 -0.33519664 0.1643834 -0.17414863 -0.25041872 -0.22243974 -0.18988383
0.184517 -0.20002173 0.081568465 -0.12214404 0.013936862 0.2628687 0.29439637 -0.1264526
-0.100953266 0.33286867 0.059470527 0.103929415 0.071902975 0.0050696386 0.35574415 -0.12123307
-0.20264424 0.12682833 0.2247515 -0.14828278 -0.16223113 0.14542982 0.1253169 -0.15995274

network_body._body_endoder.seq_layers.0.bias f4 [128]
00000000: 215d 723d 0200 f53d 5451 943d a597 673d
00000010: 4d4b 253d 137d da3d 5d67 f4bb 4988 3a3d
00000020: ee9d 943d 9f4f f13d b852 ac3d 7141 753d
00000030: a30c 673d 7a52 dd3b 28c1 3dbd a9d9 653c
00000040: e06c cfbc 6b44 b33d 2df2 86bd 6429 bbbc
00000050: 3d4b 403d 0f8c 003e b2cd 7c3d 24cc 8bbd
00000060: d717 973c ca31 b93d a209 163d 3568 78bd
00000070: f1c9 d73d a1c5 c93d 080d b5bb cd8c 003e
00000080: 970f 11bd 13c6 be3d 2b27 653a 3df7 b03d
00000090: 3306 0f3d c3c8 b63d 5d71 473d 8646 263d
000000a0: d74c 903d 92e4 073e b0f9 403c 434e df3d
000000b0: 3b59 a83d a62b cc3b 5af7 c23c 1674 e93d
000000c0: e9fb 6bbd 7963 bdbc 8e1c 913d faa6 023d
000000d0: 6bc1 9eba 08a8 e03d 3d26 ef3d d541 933d
000000e0: 42ce d33d f8a5 2fbd d7f7 163d a31a 893d
000000f0: 9295 b33d c1e6 be3d 7dcf 2b3d b7e7 36bc
00000100: f697 cb3d a3db b33d 3245 263d 896b e33d
00000110: 9629 bd3c 11e3 dfbc e997 db3d bc73 0e3e
00000120: 3e95 8cbd 53b9 213d e922 de3c c497 f83d
00000130: 7334 013e 4a50 863d 6f5b ca3b 6d52 89bd
00000140: 4e32 aa3d 1479 b33d bd83 143d f005 933d
00000150: 1955 ee3d 1a2b 3f3d c2e1 ef3d bdf2 76bb
00000160: eb18 b43d 5395 803d 663c 2cbb a1aa babc
00000170: 6987 103d d660 be3d 1906 bc3d 295d 8e3c
00000180: 3784 c63d 264b 963d d995 5b3d 57a3 f53d
00000190: 4659 b7bd 205b 04bc 8560 5dbd d533 af3d
000001a0: 6f5f d23d 5bf2 9ebb b9a5 ef3c 3346 013e
000001b0: 1efe 6f3d 9251 ba3d 9aeb 133d 7ce4 4dbd
000001c0: c7a6 8b3d f1ab b23d 51dc b8bc f2a7 9db9
000001d0: b5ca 4e3d f2e1 6abc 76d3 d13d 751c ac3d
000001e0: 00d1 453c 5ca8 013e 1ad0 7e3d b6af bd3c
000001f0: af74 febc 1615 963c c5c7 bf3d ba0e 033e
0.059170846 0.11962892 0.072420746 0.056541104 0.040355016 0.10668387 -0.007458611 0.045540128
0.07256685 0.11782765 0.08414215 0.059876863 0.056408536 0.0067542167 -0.046326786 0.014028945
-0.02532047 0.08753284 -0.0658916 -0.022846885 0.046946753 0.12553428 0.061719604 -0.06826046
0.018443985 0.090427 0.03663028 -0.060646255 0.10536564 0.09852148 -0.005525235 0.12553711
-0.03541526 0.093151234 0.0008741493 0.08640907 0.03491802 0.08925011 0.048692096 0.0405946
0.07045906 0.13270786 0.01177828 0.10903599 0.08220144 0.0062307892 0.023799587 0.11399095
-0.057613287 -0.023118721 0.070855245 0.031897523 -0.0012112086 0.109695494 0.11677215 0.07190291
0.10342075 -0.04288289 0.036857452 0.06694534 0.08768763 0.093213566 0.041945923 -0.011163644
0.099410936 0.08782127 0.040593334 0.11104495 0.023091119 -0.027329953 0.10722334 0.13911337
-0.06864403 0.03948338 0.027116256 0.12138322 0.12617664 0.06558283 0.0061754505 -0.067051746
0.08310376 0.08763328 0.036258448 0.07178867 0.11637325 0.046671964 0.11712982 -0.0037681304
0.08793815 0.06278481 -0.0026281117 -0.02278644 0.035285387 0.09295814 0.091808505 0.017378407
0.09693187 0.07338552 0.053609703 0.11994045 -0.089525744 -0.0080783665 -0.054047126 0.08554808
0.10272109 -0.0048506684 0.029253827 0.12624435 0.058591954 0.090975896 0.03611336 -0.050266728
0.0681892 0.087242015 -0.022565993 -0.00030070503 0.050486285 -0.014336096 0.10245411 0.08403865
0.012073755 0.1266188 0.06221018 0.023155075 -0.031061498 0.018320601 0.09364275 0.12798586

network_body._body_endoder.seq_layers.2.weight f4 [128, 128]
00000000: 6761 00bc 38bf 9c3d d698 613e 930e df3d
00000010: a8bc 2c3d a0df 78bd e720 0a3e a233 ff3d
00000020: 3d60 2eb9 110a 6b3d 465a aa3d d038 2a3d
00000030: d14f 953d 63a0 f1bd 6536 143e f79c 9dbd
00000040: dc25 413e 69c6 1bbd aa1d c6bd 77c7 1cbc
00000050: 0b8c c8bd 04b8 6c3d 97a6 2a3e 759c c0bd
00000060: b8f8 7b3c bc01 bfbd e1a0 333c 7756 b7bc
00000070: ae3c 223e 808c 7b3d 8ade 2e3d ff11 15bd
00000080: c008 c73c 181f 14be c434 723d 6b03 c7bd
00000090: 1ea1 533d b8fa 0e3c f0dc 51bd 1b54 08be
000000a0: 388e b33c f81c 533e 76fe d33d 5255 c7bd
000000b0: 2cee 853d f5f5 95bd eedd aabc 04e0 e93c
000000c0: 7044 433e 928c 9f3d 7c93 f23c cc49 873c
000000d0: e0ae 403d 7465 ee3d b093 ba3d be06 3dbd
000000e0: 4703 cc3c 6338 ea3d 61de 753d 8061 9b3d
000000f0: 3d09 f03d 1a0c 50bb db7e 71bd 51ae e13d
00000100: 8ef7 973d 7e2e 763e 59fc 943c d1c1 f2bd
00000110: 92a2 10be 57e8 133d 8a3f 0cbe 52a2 5ebd
00000120: e13a 05be cf89 c83b 873d a93d c873 363e
00000130: b5bf 23bd 0ca0 d73d 83a4 4d3e ce74 d1bc
00000140: 1b5c bc3d 0df4 70bd 19e8 86bc 3c67 b43d
00000150: c2da adbd 7226 023e 94c4 463e a806 f9bd
00000160: 907f 6fbd 43e8 2f3d b81a 9b3d c666 973d
00000170: 7346 b2bd 6282 a13c a5bb 27be 6323 803d
00000180: 0de3 593d c9cb 873b b639 0e3c b62f 113e
00000190: bc78 d93d 82a9 d6bc ed41 a6bd 03e2 603d
000001a0: cc23 86bd 3a7b c23d 6d54 65be 5d1f 503e
000001b0: 345b 883e 90f5 023e afbc 01bd 8f42 44be
000001c0: 4a3e 043c b1cc 43bd 4a22 e53d a132 b83d
000001d0: 3c40 b93d d133 0ebd ec9f ea3d 963b 43bd
000001e0: 9bb5 4ebc 898f 343e e102 c3bb c49b 673d
000001f0: 7dd2 9ebd 5b13 0b3d 1a83 95bd a8a7 1c3e
00000200: 8a31 633e bcbd 23be dbf4 24be 049c 183d
00000210: 966f 833e dbb2 7dbc be1e 763c f5d4 1d3c
00000220: f498 98b9 3174 60bd 425c 2abd 6674 69bd
00000230: 128f 59bd 16a9 8d3c 485e 0bbd 0c0c 543d
00000240: 0b35 cabd 7123 e13d 7507 523d 7614 c7bc
00000250: 3c4a 74bd 8d46 c8bd 39d3 ecbd b6a9 d3bd
00000260: 36fa 2c3b 25ad 093d 8105 4bbd eb55 cbbd
00000270: f920 8cbc 5ea2 75bd 982b 003e d978 153e
00000280: 5d85 fd3d 6996 c23d 90a4 e7bd 4582 983d
00000290: 50b5 f73d a36b 98bd 52c8 e03c 2d7e 9fbd
000002a0: dd3c ccbd e56a 24be 931d d139 9fa5 e3bd
000002b0: 9fd2 d33d cc5d 863c 8e62 97bd 6e02 94bd
000002c0: fd28 87bd 9fe4 243e 32e9 21be f47e 843d
000002d0: cf77 5b3e ead8 17bc 9054 7dbd 6be0 48bd
000002e0: 3cdc 0ebe 2650 183e 4675 0ebd afb8 20bd
000002f0: 8640 f23d fd0c 743b 9138 f33d 7ee1 653d
00000300: 5179 17bd 9396 8ebd 756c 013e 1844 cfbc
00000310: 7ab4 133d c312 92bb 2feb cebd 03f0 ae3d
00000320: 3744 05bd 6375 72bc b18b 003d 56ff bf3c
00000330: 2ea8 8c3d 65fb 183c 4d75 1dbe 049e 523d
00000340: 63d1 57bd 3f6d 793d 5d7f 9ebe 78e4 03be
00000350: 7e50 e1bb 2197 3dbd e71c 6f3d c59d 253d
00000360: ee3e d4bd 9c61 613b bca5 efbb f6c7 b2bc
00000370: dc28 993d c914 36be 06dc 15bd e686 c93c
00000380: 9979 35be da15 903d 1f02 04bc b8eb febd
00000390: 3c34 883e fabf 96bd 3081 5f3d 103d 28be
000003a0: ec7e 62bd c575 013d 7149 11be 0aa8 90bd
000003b0: 5425 223d 4b7a 203d b62c db3c 5a14 393e
000003c0: 0018 183e 9a7b 283d 8735 653e 111d 10be
000003d0: 45cb 163e 201e 0f3e 7f9b 80bd 7b6b b73d
000003e0: 8b68 4ebe 79e3 efbd 47e5 ecbd 4f87 ee3d
000003f0: f875 8fbc 8ccf 723d 9884 b0bc 9626 5abd
-0.0078357225 0.076536596 0.22030959 0.10891452 0.042172104 -0.06076014 0.13489114 0.1246102
-0.00016629785 0.057382647 0.083179995 0.041558087 0.072906144 -0.117981695 0.14473875 -0.07695954
0.18862098 -0.038031016 -0.09673627 -0.0095690405 -0.09792336 0.05779268 0.16665111 -0.09404842
0.015379123 -0.09326503 0.0109636495 -0.022380097 0.1584346 0.061413288 0.0426927 -0.036394116
0.024296165 -0.14464986 0.059132352 -0.09717449 0.051667325 0.008726768 -0.051236093 -0.13313334
0.021918401 0.2061652 0.10351269 -0.097330704 0.06539568 -0.07322303 -0.020857777 0.028549202
0.19069076 0.077904835 0.029611342 0.016514681 0.047041774 0.116404444 0.091102004 -0.046149008
0.024903907 0.11436536 0.06002653 0.07586956 0.11720512 -0.0031745494 -0.05895887 0.11019576
0.07420264 0.24041173 0.018186735 -0.11853374 -0.14124516 0.03611025 -0.13696113 -0.05435402
-0.13010742 0.0061199437 0.082636885 0.17817605 -0.039977748 0.105285734 0.20082287 -0.025568392
0.09197255 -0.058826495 -0.016468095 0.08808753 -0.0848899 0.12709978 0.19410926 -0.12159473
-0.058471262 0.04294611 0.075734556 0.07392649 -0.08704843 0.019715492 -0.16380174 0.062567495
0.053195048 0.004144166 0.008680752 0.14178357 0.106187314 -0.026203874 -0.08118043 0.05490304
-0.065497965 0.0949616 -0.22395487 0.20324464 0.26632082 0.12788987 -0.031674083 -0.19166015
0.0080714915 -0.04780263 0.11188181 0.08994032 0.09045455 -0.034717385 0.11456284 -0.047664247
-0.01261654 0.1763288 -0.005951271 0.056545034 -0.07754991 0.033954006 -0.07300396 0.15298331
0.22186866 -0.15990347 -0.1610903 0.037258163 0.2567107 -0.015484537 0.015021978 0.009633292
-0.00029105658 -0.05479831 -0.04159189 -0.05699577 -0.053114958 0.01729254 -0.03402546 0.0517693
-0.098733984 0.10993088 0.051276643 -0.024301749 -0.059641108 -0.097790815 -0.11563725 -0.10335104
0.0026394255 0.03361239 -0.049565796 -0.09928497 -0.017105566 -0.0599693 0.1251663 0.14596881
0.12378953 0.09501345 -0.11310685 0.07446722 0.120951295 -0.07442405 0.02743927 -0.07787738
-0.09972546 -0.16056402 0.0003988562 -0.11115574 0.10342907 0.016402148 -0.07391845 -0.07227026
-0.06599615 0.16102837 -0.15811613 0.06469527 0.21432422 -0.009268025 -0.061848223 -0.049042147
-0.139512 0.14874324 -0.03477981 -0.039238628 0.11828713 0.0037239187 0.118760236 0.05612325
-0.03698093 -0.069623135 0.1263903 -0.025301024 0.036060788 -0.004457803 -0.101034515 0.08541872
-0.032535758 -0.014798495 0.03138322 0.023437183 0.06868015 0.009337281 -0.15376778 0.051420227
-0.05268992 0.0608952 -0.30956545 -0.12880123 -0.0068760505 -0.046286706 0.058377173 0.040433664
-0.103635654 0.0034390455 -0.0073134582 -0.021823864 0.074784964 -0.17781366 -0.036586784 0.024600457
-0.17722167 0.07035418 -0.008057146 -0.124473035 0.26602352 -0.073608354 0.054566562 -0.16429543
-0.055296823 0.031606454 -0.14188172 -0.07063301 0.03958638 0.039179128 0.026754718 0.1807417
0.14852905 0.0411335 0.223837 -0.14073588 0.14725979 0.13976336 -0.062796585 0.08956047
-0.20157067 -0.11713309 -0.11567169 0.11646902 -0.017512307 0.059279963 -0.0215476 -0.053259455

network_body._body_endoder.seq_layers.2.bias f4 [128]
00000000: bcad c13d 08aa 613a 3b61 333d d1af c53d
00000010: 8ee4 7cbd b528 a73c b162 dd3d b6fb 803d
00000020: 21b2 a63c 9f02 c73d 6519 9b3c 3f95 87bd
00000030: ee51 b83b 8c3c 393d 7f0c fcbc a774 833d
00000040: 4f72 83bd c3c6 c8bd 61fb c43d 3b8c 873d
00000050: 4a0c c03d 021c 9c3d 8855 7f3d 16f7 aa3d
00000060: 5126 ae3d e08d b33d 522c a9bd 39ea c3bd
00000070: 0ad5 a83d 16b4 923d c176 b83d 3285 043d
00000080: e698 a23d 965d 7b3d 7b5a e83d bbe4 cf3d
00000090: ac74 d43d 85a1 923d 6c11 563c e1a9 d43d
000000a0: cd65 273d b95c de3d 85ae 39bd 2849 493d
000000b0: 2107 b33c 7af3 b23c a123 d43d a23b d03c
000000c0: 1f3a df3d 090d 863d c8fd 3a3d ba4e c73d
000000d0: cd47 5dbd d417 e53d 8af0 cb3c 9f41 db3d
000000e0: 8015 a7bc d334 bf3c 184a 40bd 15f0 be3d
000000f0: 3d9a 883d 6669 c13d 5076 353c bb07 c33d
00000100: 3efb d03d 05e5 90bc b456 6f3d 64d7 ae3b
00000110: 1a05 bcbd 89d8 983d 4e86 60bc 0648 a43d
00000120: 3c9a e03d b21d 7a3d 0af6 98bd 23eb be3d
00000130: e9e8 f03d 10f8 e23d ccb5 683d 61c2 b83d
00000140: 13e7 3dbd 6c0e 9f3d 5ced dd3d 77b7 14bd
00000150: 623d bb3c d797 0d3d bda4 863d 983c 1abb
00000160: 79f8 bf3d c74d edbd f9c8 ca3d 8c3f 7e3d
00000170: 0524 abbc 99d2 5a3d ce87 5d3d b3b5 87bd
00000180: 3b53 d0bc 82f6 883c f62c 973d 82f0 24bd
00000190: 2955 153d 05c8 a43d 2639 d43c c1e8 0a3e
000001a0: 56a7 8bbd 947d 013e 16a8 f03d 0d58 eb3c
000001b0: ba5c 443d ebb0 823a f0f2 94bc 7bbb 51bc
000001c0: 342d 8e3d be92 b53d 9e6f 09bd 6b0c 9dbc
000001d0: 909e af3c f30b cd3d 47ec c6bd f9f7 97bc
000001e0: 08ee f23d e354 883d 5856 773d 2003 1e3b
000001f0: a619 b9bd 8087 a43d dced 02bd e322 0b3d
0.09456965 0.00086084055 0.043793898 0.09652675 -0.061741404 0.020405153 0.108098395 0.0629801
0.02034861 0.09717297 0.018933007 -0.06620263 0.005625001 0.045223758 -0.030767677 0.06418734
-0.06418287 -0.09803536 0.09618259 0.06618544 0.09377344 0.076225296 0.06233743 0.08347909
0.08503402 0.08767295 -0.082604066 -0.09566159 0.08243759 0.07163255 0.090070255 0.032353587
0.07939319 0.061368547 0.11345383 0.10151049 0.10373816 0.07159714 0.013065677 0.10383964
0.04086857 0.10857529 -0.04533245 0.049142033 0.021853985 0.021844614 0.10358358 0.02541906
0.108997576 0.06545455 0.04565218 0.09731813 -0.054023553 0.111861855 0.024894971 0.107058756
-0.020395994 0.023340618 -0.04694566 0.09323136 0.066700436 0.09443931 0.011075571 0.09522959
0.10204171 -0.01768733 0.058432296 0.005335735 -0.091806605 0.07463176 -0.013703896 0.0802155
0.10966918 0.061063476 -0.07468803 0.093221925 0.11763174 0.110824704 0.056814 0.0902145
-0.046362948 0.07766423 0.10836288 -0.03630778 0.022856418 0.034568634 0.0657439 -0.0023534652
0.09373564 -0.115871005 0.09901614 0.06207232 -0.020891199 0.053423498 0.05408459 -0.06626453
-0.025430312 0.016719107 0.073816225 -0.04026843 0.03645817 0.08045963 0.025906157 0.13565351
-0.06819026 0.1264556 0.1175081 0.02872851 0.047939993 0.0009970939 -0.018182248 -0.0128010465
0.069422156 0.088658795 -0.033553712 -0.01917096 0.021437913 0.10012045 -0.09713035 -0.01855086
0.11861807 0.06656816 0.06038508 0.002411075 -0.09038095 0.08033657 -0.03196512 0.033968817

action_model._continuous_distribution.log_sigma f4 [1, 2]
00000000: 7d87 71bf 6135 09bf
-0.94347364 -0.53597075

action_model._continuous_distribution.mu.weight f4 [2, 128]
00000000: dbb3 463d 0c7e 6b3d bff3 59bd 4371 253d
00000010: 8392 fa3c e8ab a43d 7343 8b3a f2ec c5bd
00000020: 5aea 74bd f054 20bb ac2d d4bd 4a84 a7bc
00000030: 8f32 8fbd 241a cd3d 29f4 9c3b 71fe 51bd
00000040: 75a3 813b c33d 3abc 2c32 653d 2def b83d
00000050: f7e5 f5bc eea2 50bc 1079 ed3d 066e 3e3d
00000060: 5b8e eabd cf92 b7bc 81fe 50bd 56f6 123c
00000070: d635 6f3d 2b4b ba3d 99ff 2d3d 826f 023e
00000080: 7f51 963d 007d ea3c 6fd9 e33c 55e3 503c
00000090: d198 dcbc 0800 8f3d 44d4 f03d 97a5 07be
000000a0: 8bdc ef3d 195d faba a700 06bc 3dbf df3d
000000b0: 6c1b bd3d cb0d 84bd f181 dabc 517e d43d
000000c0: 7088 b4bd 5c5b f53d bebd ac3d 03c0 923c
000000d0: b6f7 103e a4c5 c2bd 9a33 d3bd ee7e 46bc
000000e0: fff6 82bd 20c6 983d 18e7 403d dcad 1a3d
000000f0: 1d2a d83d 330a efbc f720 97bd b979 5ebd
00000100: 579d 8cbc c7d9 eebd bbd5 053e 6871 b9bb
00000110: bbad bfbc 4883 833d 5e5b 833d 9653 c5bd
00000120: 32ef cdbc 48ca 943d c718 a2bd e25d 87bd
00000130: 16a5 4d3b e4af dd3c 9901 a03d 4370 bf3d
00000140: 1a70 833d f7a9 253d f0b1 6a3d 2840 eebd
00000150: 3b44 d63d 081b a6bd f66b 1a3d 84da 9d3d
00000160: 41ee 7dbc 59cd fbba c30b 65bd 6f9b fd3c
00000170: c2d2 bc3d cef2 bfbd 2f44 de3d 4bc5 b53d
00000180: 3b82 4b3c acaf 053e d47e 40bd ed05 fdbb
00000190: cdce 143e c864 6a3d 10de 163d de4d b5bd
000001a0: a41b 2cbd 5592 87bd 23bc 16bc e5d2 f8bd
000001b0: 4c32 0dbd 192a f93d 6dd4 85bd 75bc d4bd
000001c0: 625c 9b3d 80ef 523d 47d2 88bd e20c b63d
000001d0: 8384 993d c142 2d3b 88cd babc 7b37 833d
000001e0: cd02 31bc ee9c 74bd cb5a 86bd eb98 febd
000001f0: 002b 06bd e529 c63d 8d58 bcbd 9960 9b3d
00000200: a168 963d adf3 fcbd 0b2b 653d 961c 873d
00000210: 2b8a f3bd f194 27bd 4d9c cc3d 4aca 6a3d
00000220: 091f 773d 5496 cc3d f40c 953a db0b c4bd
00000230: bba7 0c3a 973a bdbb 258a 46be 56d3 513d
00000240: bb6b f0bd 2fb1 54bd a09b b83d c7ea ba3c
00000250: 4569 bc3d 1e41 7a3d 1118 773c 2ebc b93d
00000260: b9da cd3d 37b4 df3d 691d 98bd 9be0 14be
00000270: 3e68 023d 7a12 783d ded2 bb3d f5c8 883c
00000280: dc69 383d 94ac 6d3d 9c7c bb3d 84c8 a33d
00000290: 9795 cf3d c62b 1d3c b755 72bd daa9 c83d
000002a0: 8457 b3bd f624 a03d ff30 d8bd 74d0 13be
000002b0: 0575 9e3c e0dc 603d 82c5 083e fb8f 14bd
000002c0: 7c23 db3d db80 9dba 54ea 633b 821c 543d
000002d0: adce d5bd 3631 d83d 4e01 2a3d cbbe c93d
000002e0: f747 f83b 363a 143c aa1d 25be 03a7 883d
000002f0: 99c4 b13b 84ef 953d 400a a6bd d8b1 da3d
00000300: 375d c53d 11dd ccbb 61d8 e43c 5a33 6d3d
00000310: dad6 62bd 7ba7 4a3d 860f 6dbd c49d cd3d
00000320: 92ab cd3d 0435 c23c 5d91 84bd be01 0c3e
00000330: 4333 b93d eacb dd3d a54b 3c3d 2f44 783d
00000340: f565 1ebe 779a 1f3d 76fa d43d 3436 7fbc
00000350: 1dab 82bc 7595 963d 57e7 8a3d 85cb 6ebd
00000360: 693b a83d a2d9 67bd b913 e73d 28fc 473d
00000370: bd70 cbbd bbbe 963d 2985 4a3d 0d91 1bbe
00000380: 48d7 cbba 02e2 b5bc 8927 913d 994d a7bd
00000390: 9cb6 95bd cf03 553d cfd7 33bc 6a76 043e
000003a0: d425 03be 7435 1b3e 5745 f73d f224 2b3d
000003b0: e3b7 873d 727c a6bd dbb3 863c 5699 17bd
000003c0: fbed 973c 0d58 a13d 649e 1fbd aa12 b5bd
000003d0: 795c 8fbd e65d a23d b248 0dbe ace5 d9bd
000003e0: 4e2c 0f3e 1e08 863d 5453 103e 074a 39bc
000003f0: bcb0 58bd 511a 203d fff8 06bd ec67 f6bc
0.048511367 0.057493255 -0.05321097 0.040391218 0.03058744 0.08040601 0.001062496 -0.09664334
-0.059793808 -0.002446469 -0.10360274 -0.020448823 -0.06992065 0.100147516 0.0047898483 -0.051268045
0.003956253 -0.011367264 0.05595605 0.09029994 -0.030016882 -0.012734158 0.115953565 0.046491645
-0.114529334 -0.022408871 -0.051023964 0.008969864 0.05840095 0.090963684 0.042480085 0.1273785
0.07339763 0.028624058 0.027813641 0.012749513 -0.026928337 0.06982428 0.117592365 -0.13246761
0.11711987 -0.0019101232 -0.0081788665 0.10925148 0.09233746 -0.06447943 -0.026673289 0.103756554
-0.08815086 0.11980316 0.08434628 0.017913824 0.14156994 -0.09510353 -0.103125766 -0.012115223
-0.06394767 0.07459664 0.04709539 0.03776346 0.105549075 -0.029179668 -0.073793344 -0.054315303
-0.01716487 -0.116626315 0.13069813 -0.005659271 -0.02339827 0.06421524 0.06413911 -0.096350834
-0.025138471 0.072651446 -0.07914882 -0.066097036 0.0031378916 0.02706141 0.07812805 0.09347584
0.06417866 0.040445294 0.0572986 -0.116333306 0.10462233 -0.081106246 0.037700616 0.07707694
-0.015498699 -0.0019210979 -0.05591942 0.030957906 0.09219886 -0.09372483 0.10852849 0.08875521
0.012421186 0.13055295 -0.046995953 -0.0077216537 0.14532013 0.05722502 0.03683287 -0.088527426
-0.042018548 -0.066197075 -0.009200129 -0.121496 -0.034471795 0.121662326 -0.065346576 -0.10387508
0.0758598 0.051497936 -0.06680732 0.08889176 0.07495978 0.0026437494 -0.022803083 0.064070664
-0.01080389 -0.059719972 -0.06560286 -0.124315105 -0.03275585 0.096759595 -0.09196577 0.07586784
0.07344175 -0.12351165 0.055949252 0.06597249 -0.11891588 -0.040913526 0.099907495 0.057321824
0.06033233 0.0998961 0.0011371658 -0.09572574 0.000536557 -0.0057748067 -0.19388635 0.051226936
-0.11739298 -0.051926788 0.09014058 0.022817029 0.09199766 0.061097257 0.0150814215 0.090690956
0.10051484 0.10923045 -0.074274845 -0.14538805 0.031837694 0.060564496 0.09171079 0.016697386
0.04502283 0.05802591 0.09154627 0.0799723 0.10135954 0.009592956 -0.059163775 0.097980216
-0.08756927 0.0781955 -0.1055622 -0.14434987 0.019342909 0.054898143 0.13356593 -0.036270123
0.107001275 -0.0012016551 0.0034777122 0.051785 -0.10439811 0.10556261 0.04150515 0.09850844
0.0075769383 0.009047082 -0.16124597 0.0667248 0.0054250476 0.073210746 -0.08107424 0.10678452
0.0963692 -0.006251939 0.027935209 0.0579103 -0.05538068 0.049476128 -0.057876132 0.10039857
0.1004249 0.02370692 -0.06473038 0.1367254 0.090429805 0.10829909 0.045970578 0.0606119
-0.15468581 0.03896567 0.10399334 -0.015576888 -0.015950734 0.073527254 0.06782406 -0.05829956
0.082144566 -0.056604035 0.11283059 0.04882446 -0.099336125 0.07360598 0.049443398 -0.15192051
-0.001555183 -0.022202495 0.07087619 -0.081690975 -0.073102206 0.052005585 -0.010976746 0.12935796
-0.12807399 0.1515711 0.120737724 0.04178328 0.066268705 -0.08129205 0.016443184 -0.037011467
0.018546095 0.078781225 -0.038969412 -0.088414505 -0.0700006 0.07928066 -0.13797262 -0.106395096
0.13981745 0.06544517 0.14094287 -0.011309153 -0.052902922 0.039087597 -0.032952305 -0.03007885

action_model._continuous_distribution.mu.bias f4 [2]
00000000: c1fa af3c 8ab3 d73d
0.021481873 0.10532291

onnx::Div_61 f4 [28]
00000000: 267f 483e ac8e df39 b333 f83e 6c7c a73e
00000010: e5eb 473d ac8e df39 ebc4 ff3e ac58 a93e
00000020: 40b9 7b3e ac8e df39 acb9 f23e 3b8a a53e
00000030: 06f8 a73d ac8e df39 aaa7 fc3e 2a6b b63e
00000040: 032f a93e ac8e df39 ed45 fc3e 06fa ae3e
00000050: 20ab b53d 5c0a b03c b694 f93e 943f b83e
00000060: 2050 a93e ac8e df39 888a ff3e 8108 b43e
0.19579753 0.00042640173 0.48476943 0.32712114 0.04880895 0.00042640173 0.49954924 0.33075464
0.24582386 0.00042640173 0.4740728 0.32332024 0.082016036 0.00042640173 0.49346668 0.35628635
0.3304368 0.00042640173 0.492721 0.34175128 0.0887053 0.021489315 0.4874627 0.35986006
0.33068943 0.00042640173 0.49910378 0.35162738

onnx::Div_64 f4 [5]
00000000: 5fdc 953f 399b 2a3e 9a14 6e3f f258 693f
00000010: b605 5b3f
1.1707877 0.16660775 0.93000185 0.91151345 0.8555559
