results/test/CarParking.onnx (onnx, 88962 bytes, 7 tensors)

network_body._body_endoder.seq_layers.0.weight f4 [128, 33]
-0.26404205 -0.11949212 0.0568835 0.17924686 -0.11773806 -0.11035231 0.013033932 0.08687645
0.0690626 0.059793748 0.20281874 0.048954904 0.2675822 -0.22649099 -0.0266121 -0.17961003
-0.050431717 0.09584772 0.21834746 0.002317737 -0.20286709 -0.12466377 -0.01199905 -0.056008603
0.16325286 0.19373545 0.023586165 0.0040332545 0.23299304 0.19051588 0.093919836 0.24461989
0.2290512 -0.3721459 -0.25090465 0.085554875 0.0006595966 0.28002465 -0.22917078 0.108214244
0.16304907 -0.0540788 -0.041862246 -0.20063917 -0.057761554 0.19945475 -0.041730896 -0.17510584
-0.104686394 -0.05614088 -0.26270705 -0.3424235 0.17769788 0.18773662 -0.35895076 0.035231296
0.014542537 -0.25777492 -0.4495584 0.113929935 0.19756803 -0.026790056 0.07367184 -0.4253772
-0.053808454 0.26608378 0.13473503 0.10319672 -0.0013030418 -0.18347266 -0.0068627824 0.20328622
-0.07053371 -0.16143197 0.20304719 -0.17165355 0.049487937 0.21713674 -0.10003169 0.00158681
-0.11395056 0.0034627959 0.11053567 -0.5743998 -0.114052184 -0.001470488 0.12476137 0.092599876
-1.8366472e-05 -0.040142026 -0.18514726 0.19062112 -0.12817658 0.21713519 0.00516289 -0.08847275
0.21093892 -0.0902277 -0.05437955 -0.0994524 -0.0049691875 0.3253061 -0.17525512 0.11346046
0.017724853 0.17999654 -0.21063802 0.1973004 -0.02715442 0.08019746 0.123164654 -0.0793205
0.065834284 -0.11295557 0.27134788 -0.017040197 0.23952076 -0.08465652 -0.07344117 -0.15934768
-0.08602542 0.042324416 -0.0911932 0.17759937 0.07898441 -0.0089855455 0.12086859 -0.17406137
-0.3405284 -0.24809107 -0.16469488 -0.22382957 0.072861485 0.14170319 0.05305431 -0.0028916195
0.28582454 -0.25668645 0.2550332 -0.1774302 0.065879986 0.051133085 -0.0044965865 0.026113782
-0.28211743 0.029090311 0.028251844 0.20566133 0.012153368 0.19050324 0.017040513 -0.07136968
-0.019839538 0.04461599 -0.23428741 -0.13431507 -0.117502436 0.09983863 -0.060619727 0.18778636
-0.02121435 -0.038076717 0.2274722 0.030870862 -0.31730813 0.100132175 0.24448285 -0.1130728
-0.06468556 -0.12907954 -0.064406164 -0.06259457 -0.026872644 0.18299015 -0.16252153 -0.13462952
0.17135625 0.21142158 0.2753011 -0.2143029 0.32003552 -0.16979791 0.07043096 -0.18110278
-0.12987821 0.096422866 -0.32234702 0.1685105 0.077968106 -0.08608578 0.15422967 0.11280291
-0.15958604 -0.322855 0.18371706 0.28619453 0.08110008 0.097547695 0.113790445 0.24207096
-0.31771973 -0.12603903 0.16726704 -0.06457778 0.041896634 0.022419019 -0.25738955 0.12513527
0.41335738 -0.03391964 0.18662752 -0.18604714 0.04039577 0.30064556 -0.10573528 -0.5369495
0.13540582 -0.32897246 0.28189248 -0.27722242 0.031717982 0.18722227 0.024237756 0.021769082
0.044227388 -0.08673506 -0.22285561 0.3504533 -0.18146051 -0.020179108 0.06556945 0.082406186
0.18052523 0.2706608 0.030727448 -0.03168829 0.10458304 0.11273583 -0.3634944 -0.21961242
-0.054846134 -0.044927463 -0.09222437 -0.014553607 0.12898658 0.24653071 0.16357203 -0.18579794
0.0031528673 0.04451003 0.053592384 -0.123780556 0.0666734 -0.24715833 0.173273 -0.019945178
00000000: 8530 87be 49b8 f4bd acfe 683d 7d8c 373e
00000010: a720 f1bd 6400 e2bd 468c 553c 48ec b13d
00000020: b170 8d3d 4aea 743d b7af 4f3e f084 483d
00000030: 8900 893e 41ed 67be 9e01 dabc b1eb 37be
00000040: 7d91 4ebd cf4b c43d 7a96 5f3e 2de5 173b
00000050: 64bc 4fbe b84f ffbd aa97 44bc 4769 65bd
00000060: c22b 273e 9662 463e c637 c13c 6429 843b
00000070: ba95 6e3e 9816 433e 0b59 c03d a37d 7a3e
00000080: 668c 6a3e e889 bebe 9376 80be 6537 af3d
00000090: c7e8 2c3a 645f 8f3e bfab 6abe 6e9f dd3d
000000a0: 56f6 263e bb81 5dbd bf77 2bbd 5b74 4dbe
000000b0: 6197 6cbd de3d 4c3e 04ee 2abd f24e 33be
000000c0: d265 d6bd fbf3 65bd 8a81 86be 2252 afbe
000000d0: 6ff6 353e 073e 403e 65c8 b7be b14e 103d
000000e0: d243 6e3c 13fb 83be 852c e6be 1954 e93d
000000f0: 464f 4a3e d276 dbbc 43e1 963d 0acb d9be
00000100: 4166 5cbd 223c 883e fbf7 093e cd58 d33d
00000110: d4ca aaba 42e0 3bbe 31e1 e0bb 432a 503e
00000120: fa73 90bd 6c4e 25be 9aeb 4f3e f3c5 2fbe
00000130: ddb3 4a3d 1859 5e3e 6add ccbd 82fc cf3a
00000140: e95e e9bd 13f0 623b 8660 e23d de0b 13bf
00000150: 3194 e9bd 64bd c0ba e482 ff3d 01a5 bd3d
00000160: b311 9ab7 f76b 24bd 3e97 3dbe 2f32 433e
00000170: b940 03be b058 5e3e 762d a93b 3331 b5bd
00000180: 5f00 583e 4dc9 b8bd 17bd 5ebd b3ad cbbd
00000190: 91d4 a2bb 858e a63e 1476 33be f55d e83d
000001a0: b633 913c 0351 383e 7eb1 57be 1e09 4a3e
000001b0: f272 debc 913e a43d c03d fc3d c972 a2bd
000001c0: 20d4 863d 4055 e7bd 1cee 8a3e e297 8bbc
000001d0: ee44 753e 6660 adbd 5368 96bd 0a2c 23be
000001e0: 182e b0bd 5e5c 2d3d 80c3 babd 9cdc 353e
000001f0: 94c2 a13d 1c38 13bc f489 f73d 253d 32be
00000200: bd59 aebe 960b 7ebe c6a5 28be 9433 65be
00000210: 6738 953d a41a 113e 7a4f 593d 5381 3dbb
00000220: 9857 923e 686c 83be b693 823e 43b0 35be
00000230: 16ec 863d ed70 513d 1a58 93bb 92ec d53c
00000240: b271 90be ce4e ee3c 6970 e73c e298 523e
00000250: ec1e 473c 4813 433e 8c98 8b3c 442a 92bd
00000260: 8786 a2bc 42bf 363d 0ae9 6fbe e489 09be
00000270: 1ea5 f0bd 3278 cc3d 644c 78bd 114b 403e
00000280: b7c9 adbc 55f6 1bbd 79ee 683e e4e4 fc3c
00000290: 3676 a2be 1912 cd3d b659 7a3e b692 e7bd
000002a0: dd79 84bd 6d2d 04be 61e7 83bd 9531 80bd
000002b0: 0524 dcbc c561 3b3e 0b6c 26be 52dc 09be
000002c0: 0378 2f3e e67e 583e 44f4 8c3e 3872 5bbe
000002d0: b2db a33e 81df 2dbe 1b3e 903d 0273 39be
000002e0: cbfe 04be 5a79 c53d ab0a a5be 048e 2c3e
000002f0: bead 9f3d be4d b0bd 62ee 1d3e 3605 e73d
00000300: 866a 23be 404d a5be 5320 3c3e 1788 923e
00000310: cc17 a63d 16c7 c73d f70a e93d 73e1 773e
00000320: 29ac a2be 6010 01be 0d48 2b3e 5b41 84bd
00000330: ce9b 2b3d 17a8 b73c 90c8 83be 7623 003e
00000340: 94a3 d33e 52ef 0abd 491b 3f3e 2483 3ebe
00000350: 0976 253d 37ee 993e bd8b d8bd 8675 09bf
00000360: d3a7 0a3e 146f a8be 3654 903e 19f0 8dbe
00000370: b7ea 013d 32b7 3f3e 428e c63c 1355 b23c
00000380: c727 353d 27a2 b1bd 4334 64be 9d6e b33e
00000390: c9d0 39be a84e a5bc 4749 863d 93c4 a83d
000003a0: 9bdb 383e 0d94 8a3e 21b8 fb3c 95cb 01bd
000003b0: a22f d63d 0be2 e63d f01b babe 14e2 60be
000003c0: 57a6 60bd dc05 38bd 21e0 bcbd 4172 6ebc
000003d0: 0f15 043e 8c72 7c3e 6d7f 273e d141 3ebe
000003e0: 56a0 4e3b 2650 363d b083 5b3d a980 fdbd
000003f0: 108c 883d 1317 7dbe 7a6e 313e 1264 a3bc

network_body._body_endoder.seq_layers.0.bias f4 [128]
0.007781649 0.017519092 0.051467005 0.009179835 0.01462546 -0.052879944 0.003435208 0.012787024
-0.012810992 0.037730455 0.01608257 0.03323577 0.04297861 0.020370955 -0.010311384 0.0070699365
0.0065000514 0.018334752 0.00978768 -0.0024000155 -0.0007774616 0.027082209 -0.008126846 0.008244919
-0.017368214 -0.0030738742 0.038804468 -0.0036252828 0.01371078 0.026663736 0.03128367 0.010427373
0.004236921 0.04228559 -0.025444815 0.020201422 -0.00762241 0.010548891 -0.0077901846 0.047518067
0.016154211 0.024004444 0.05150054 0.0004937542 0.015124593 0.010997212 0.014829272 -0.021774124
0.019126153 -0.02822613 0.00671262 -0.0029785165 0.017565895 -0.005059935 0.0111077605 0.04283975
-0.017222345 0.023808397 0.014731175 -0.0055914 0.004246687 0.011223676 0.0034829075 -0.0036659597
0.017390838 0.013340822 0.016827576 0.0010278573 -0.019757843 0.016069679 0.014424987 0.034809913
0.032908615 0.022561537 -0.0016606872 0.012537731 -0.04598648 0.06979461 -0.007815708 0.009218317
0.007597169 -0.0037645635 -0.004451919 -0.0065800464 0.00841414 -0.015564527 -0.005019901 0.025357725
0.02601408 -0.02457101 0.012761706 0.003256464 -0.0047397297 0.007017959 -0.03930187 -0.00023159364
0.022895133 0.0015482695 0.004095923 0.015740966 0.014009813 -0.04248879 0.0054703876 0.005071974
-0.019741705 0.0035322316 0.034561057 0.02905322 0.0012042599 0.018686723 0.001346608 0.015346711
-0.005588248 0.012822862 -0.019801585 0.00034225872 0.018659156 -0.035062525 0.033032626 0.0113862455
-0.008960547 -0.003984929 0.039239388 -0.006509635 0.016002668 -0.009969025 0.032958232 -0.020760022
00000000: 34fd fe3b 3384 8f3c 11cf 523d 0567 163c
00000010: a09f 6f3c a498 58bd 3a21 613b aa80 513c
00000020: 32e5 51bc 408b 1a3d 98bf 833c 3b22 083d
00000030: 570a 303d fde0 a63c 14f1 28bc edaa e73b
00000040: 62fe d43b c332 963c 815c 203c 9449 1dbb
00000050: 91ce 4bba 82db dd3c 7626 05bc b215 073c
00000060: c947 8ebc 0d73 49bb 6ff1 1e3d 2796 6dbb
00000070: 2ea3 603c e86d da3c 4e23 003d 93d7 2a3c
00000080: dfd5 8a3b a833 2d3d a571 d0bc 747d a53c
00000090: 69c5 f9bb 41d5 2c3c ce44 ffbb 4ea2 423d
000000a0: d655 843c f8a4 c43c 3bf2 523d 496f 013a
000000b0: 24cd 773c a62d 343c 7af6 723c a65f b2bc
000000c0: 73ae 9c3c 7c3a e7bc 8af5 db3b 3733 43bb
000000d0: 5ae6 8f3c d0cd a5bb 53fd 353c bc78 2f3d
000000e0: e015 8dbc d409 c33c 075b 713c 1038 b7bb
000000f0: cb27 8b3b 82e3 373c 7e41 643b 9940 70bb
00000100: 3b77 8e3c 7793 5a3c fcd9 893c 2bb9 863a
00000110: 33db a1bc 8fa4 833c c856 6c3c d794 0e3d
00000120: 2fcb 063d f9d2 b83c 6aab d9ba 0e6b 4d3c
00000130: 525c 3cbd 7af0 8e3d 750d 00bc 6d08 173c
00000140: acf1 f83b e5b6 76bb 67e1 91bb 6e9d d7bb
00000150: 76db 093c 5c02 7fbc fb7d a4bb 01bb cf3c
00000160: 7b1b d53c 2549 c9bc 7916 513c 666a 553b
00000170: bc4f 9bbb e8f6 e53b fffa 20bd f2d7 72b9
00000180: 938e bb3c 4eef ca3a 1837 863b 33f3 803c
00000190: 6a89 653c ba08 2ebd f040 b33b cd32 a63b
000001a0: 5bb9 a1bc 037d 673b e58f 0d3d 0501 ee3c
000001b0: 42d8 9d3a e614 993c ab80 b03a c570 7b3c
000001c0: 9f1d b7bb fb16 523c ef36 a2bc 3071 b339
000001d0: 16db 983c b99d 0fbd 384d 073d 608d 3a3c
000001e0: 42cf 12bc 0294 82bb 7bb9 203d c74e d5bb
000001f0: 0718 833c 1f55 23bc 36ff 063d ec10 aabc

network_body._body_endoder.seq_layers.2.weight f4 [128, 128]
-0.18451282 0.10842351 -0.13190514 0.10573167 -0.07425403 0.046454232 0.03354119 0.046581704
0.07615187 0.012080296 -0.057143465 0.03571017 -0.07195771 -0.041462366 0.16477977 -0.09611067
0.04534863 -0.15134881 0.120840535 -0.025868222 0.021851288 0.036232047 0.24835263 -0.07046795
0.054814912 0.04254555 -0.04169641 -0.029508037 -0.17465137 -0.054440457 0.015099319 0.07646175
-0.09089894 0.075820856 -0.010449877 -0.01566688 0.09003373 -0.08688473 0.02573046 0.070673645
0.01817324 -0.009595993 -0.017136091 -0.075805604 0.032904204 -0.058660205 0.005813942 -0.032769393
0.07083859 0.010952446 -0.024767391 -0.056842357 0.07694257 0.046093658 0.010855099 0.019258626
-0.11457696 0.14391431 0.05582924 0.02479728 0.08489083 -0.037088357 0.045670886 -0.08185394
-0.116524026 0.00540641 0.13652153 0.14570056 0.08596078 -0.07832586 0.05019927 -0.01374125
0.097358726 0.002309604 -0.06522657 -0.11179061 -0.15605175 -0.05341387 0.11041956 -0.043196782
0.058579836 0.0509129 0.038563114 0.07195188 -0.035789993 0.06492599 -0.050737426 -0.0023390653
-0.1467618 -0.06091029 0.04660136 -0.03289405 0.084514946 0.07914318 0.027300645 0.08341335
-0.27864978 0.038454723 0.1516771 0.06905939 -0.041114375 0.085390754 0.024990594 -0.018825453
0.022063553 0.05841657 -0.026932681 0.013060902 0.066981904 0.09055728 0.08624786 0.089682676
0.019559905 -0.06918052 -0.05351239 0.1554135 0.080859505 -0.0691317 -0.054099787 -0.0017176089
0.085395716 -0.078418046 0.13794349 0.102618806 0.1524311 0.0446725 -0.10501142 0.08064395
0.13013108 -0.111717075 -0.088240705 0.15081902 0.028476061 -0.16776393 0.075008005 -0.234259
-0.13038099 0.06435188 -0.10824896 -0.03377762 0.009459866 -0.039094336 0.0066400543 -0.04236033
0.0073998086 0.053845298 -0.19293801 -0.119740054 -0.07459904 -0.061995387 -0.14826357 -0.06596155
-0.08418488 -0.1205962 0.08263105 -0.03219442 -0.011246018 0.02186109 0.08806567 0.005481432
0.065987945 0.076302305 -0.12019366 0.07564993 -0.16249444 0.20688528 -0.08398599 0.07178323
-0.25920907 0.018000225 0.10489849 0.07298362 -0.08586311 -0.08972155 -0.018817216 0.05073802
0.041701835 -0.12087982 0.081652135 0.06432428 0.09494255 -0.11772141 -0.056987416 -0.18159914
0.0032050218 0.077711634 -0.010602786 -0.06179254 0.047841456 -0.09499638 0.09654433 -0.06705319
0.020867473 0.113030985 0.012442339 0.1548279 -0.020663064 0.1411953 0.05763083 0.068437584
0.11961366 0.07236068 -0.14529242 0.0020813728 0.018160649 0.005240945 -0.038595267 -0.04798797
-0.08128193 -0.23262608 0.15001202 0.20048462 -0.071423665 0.00094273017 -0.12754694 -0.020277152
0.09608931 -0.01463503 0.012830307 0.017194554 -0.021083865 0.101742834 -0.037093513 0.11156114
0.0688128 0.063497 0.18299904 -0.044924974 -0.048552066 -0.010320362 0.10719597 0.10943954
-0.21310942 -0.081731655 0.091291666 -0.039761208 -0.049025252 0.07813889 0.040544257 -0.05637917
-0.054409087 -0.041020993 -0.101954795 0.014549639 -0.11817944 -0.17763579 0.044383295 -0.11449286
0.10229024 0.12932102 -0.07856512 -0.09126693 -0.06836834 0.084595256 -0.10413062 -0.049450636
00000000: eef0 3cbe 250d de3d 2412 07be d989 d83d
00000010: 7f12 98bd cb46 3e3d 7d62 093d 75cc 3e3d
00000020: 83f5 9b3d 6fec 453c 440f 6abd d444 123d
00000030: 905e 93bd 71d4 29bd 07bc 283e acd5 c4bd
00000040: 7cbf 393d 2ffb 1abe 3e7b f73d 98e9 d3bc
00000050: 7901 b33c 0e68 143d 2750 7e3e 8051 90bd
00000060: 9a85 603d 3e44 2e3d dbc9 2abd d7ba f1bc
00000070: cfd7 32be f5fc 5ebd 2263 773c fa97 9c3d
00000080: 3929 babd f747 9b3d f635 2bbc d457 80bc
00000090: 9b63 b83d 9ff0 b1bd b0c8 d23c 58bd 903d
000000a0: 0ce0 943c 8338 1dbc fd60 8cbc f83f 9bbd
000000b0: 8fc6 063d af45 70bd e182 be3b 3339 06bd
000000c0: d313 913d e371 333c fce4 cabc 88d3 68bd
000000d0: 1194 9d3d b4cc 3c3d 96d9 313c 44c4 9d3c
000000e0: 53a7 eabd 465e 133e 33ad 643d aa23 cb3c
000000f0: 3edb ad3d f6e9 17bd 6511 3b3d 0aa3 a7bd
00000100: 26a4 eebd 4128 b13b 4dcc 0b3e 8732 153e
00000110: 350c b03d 4f69 a0bd c09d 4d3d fb22 61bc
00000120: 0364 c73d ba5c 173b 8295 85bd 7af2 e4bd
00000130: 08cc 1fbe 81c8 5abd a623 e23d 1cef 30bd
00000140: 69f1 6f3d 0c8a 503d 5bf4 1d3d 825b 933d
00000150: 8798 12bd ebf7 843d 0cd2 4fbd 014b 19bb
00000160: ba48 16be 117d 79bd 11e1 3e3d e9bb 06bd
00000170: 2c16 ad3d d215 a23d 9aa5 df3c 9ed4 aa3d
00000180: 2fab 8ebe b382 1d3d 3e51 1b3e 026f 8d3d
00000190: 8c67 28bd 59e1 ae3d 13b9 cc3c d637 9abc
000001a0: a0be b43c 3746 6f3d eda1 dcbc 65fd 553c
000001b0: cf2d 893d 1876 b93d b8a2 b03d 8dab b73d
000001c0: 183c a03c 84ae 8dbd cf2f 5bbd b724 1f3e
000001d0: ab99 a53d ec94 8dbd bd97 5dbd 6421 e1ba
000001e0: f3e3 ae3d a499 a0bd 0f41 0d3e cf29 d23d
000001f0: e616 1c3e 83fa 363d 3a10 d7bd a828 a53d
00000200: 1541 053e eccb e4bd 8bb7 b4bd 4d70 1a3e
00000210: a146 e93c 4fca 2bbe cc9d 993d 97e1 6fbe
00000220: 9882 05be ebca 833d a1b1 ddbd 675a 0abd
00000230: 8efd 1a3c 6221 20bd d094 d93b 0682 2dbd
00000240: 187a f23b e38c 5c3d 8b91 45be 463a f5bd
00000250: 62c7 98bd e0ee 7dbd 68d2 17be d916 87bd
00000260: 1f69 acbd 24fb f6bd 783a a93d 4cde 03bd
00000270: 3841 38bc 0716 b33c c65b b43d 969d b33b
00000280: b024 873d 6244 9c3d 1828 f6bd 5aee 9a3d
00000290: f164 26be bcd9 533e d900 acbd 1603 933d
000002a0: 0db7 84be 3575 933c 05d5 d63d 7078 953d
000002b0: 00d9 afbd efbf b7bd 9026 9abc acd2 4f3d
000002c0: 8bcf 2a3d d78f f7bd 3c39 a73d 73bc 833d
000002d0: 3d71 c23d ec17 f1bd a36b 69bd 20f5 39be
000002e0: 580b 523b 4727 9f3d 4fb7 2dbc 2d1a 7dbd
000002f0: 67f5 433d 768d c2bd 09b9 c53d 2f53 89bd
00000300: 43f2 aa3c ca7c e73d f4da 4b3c 348b 1e3e
00000310: 9645 a9bc 8095 103e 4e0e 6c3d 0129 8c3d
00000320: 02f8 f43d d631 943d 89c7 14be a467 083b
00000330: a4c5 943c 3cbc ab3b 1216 1ebd 098f 44bd
00000340: 2477 a6bd 8835 6ebe c09c 193e d74b 4d3e
00000350: 9246 92bd 8d21 773a aa9b 02be 451c a6bc
00000360: 79ca c43d c4c7 6fbc 3536 523c 98db 8c3c
00000370: 12b8 acbc 8c5e d03d 5eef 17bd 2b7a e43d
00000380: baed 8c3d b70a 823d 1a64 3b3e 4003 38bd
00000390: 88de 46bd bc16 29bc 9089 db3d d621 e03d
000003a0: 5b39 5abe ed62 a7bd 20f7 ba3d a6dc 22bd
000003b0: b4ce 48bd 4807 a03d bc11 263d d8ed 66bd
000003c0: 10dc 5ebd a105 28bd adcd d0bd 9c61 6e3c
000003d0: 1008 f2bd 28e6 35be 42cb 353d 3c7b eabd
000003e0: 8c7d d13d bb6c 043e c0e6 a0bd 28ea babd
000003f0: b304 8cbd 4740 ad3d 6f42 d5bd c08c 4abd

network_body._body_endoder.seq_layers.2.bias f4 [128]
-0.009467569 0.03810482 0.006841239 -0.010509999 0.0074431575 -0.02517691 0.032642957 0.010453153
0.02716835 0.036912337 -0.009033654 0.0061466275 0.015096842 0.0023218838 -0.0045605036 -0.003607698
-0.0012106322 0.028440215 0.01576071 0.023211773 0.014428676 -0.0049825814 0.007998906 -0.007314015
0.010269556 -0.013428896 -0.024773197 0.0018424947 0.01951198 0.004250736 0.01558099 0.018590216
-0.020376489 -0.026965141 0.019020714 -0.011771006 0.0025255354 0.011411087 0.005070073 0.011535812
0.015694754 0.018024478 0.02481577 0.008964252 -0.020610986 -0.0060181348 -0.0029729519 -0.00071445963
0.03246891 -0.0022165582 0.024569146 -0.0069143036 0.0104890615 -0.007128607 0.011915633 0.0153476475
0.023559514 0.005628321 0.0018416248 0.0029703488 0.0068765227 0.0013830478 0.014143865 0.041297484
0.037215807 -0.013237495 0.016087154 -0.014291695 0.010163175 0.009822654 0.022220168 -0.004239909
0.014216239 0.017463932 0.009194026 0.0008811292 -0.012407732 -0.02125718 0.036529664 -0.0047337813
0.026486743 0.008790926 0.015571009 0.010209332 0.0031020816 0.0030858263 0.0058160773 0.015503483
0.03748788 0.010002127 0.0094806785 -0.0030900345 -0.008317718 -0.006691243 -0.015232976 0.024577994
0.0018535448 0.03345986 0.010184446 -0.024863938 0.009924546 0.009187807 -0.0018336222 -0.013007302
0.03150291 -0.032090724 0.01011545 0.010314719 -0.005612365 0.015238921 -0.023050517 -0.01248245
0.019319883 0.023235984 0.030355783 0.014588174 -0.0039424477 0.0025956281 -0.009110706 -0.017931907
-0.023031905 -1.7033916e-06 -0.01265466 0.0049247327 0.0060521634 -0.011159744 -0.013092567 0.007486117
00000000: dd1d 1bbc cd13 1c3d 792c e03b 2132 2cbc
00000010: bbe5 f33b cf3f cebc 9fb4 053d b443 2b3c
00000020: 2990 de3c 6431 173d e401 14bc a669 c93b
00000030: bf58 773c bf2a 183b 4770 95bb 216f 6cbb
00000040: 13ae 9eba 74fb e83c 9b1c 813c 9e26 be3c
00000050: 4166 6c3c ec44 a3bb d80d 033c 68aa efbb
00000060: a441 283c df04 5cbc 29f1 cabc dd7f f13a
00000070: 96d7 9f3c c249 8b3b 6947 7f3c 824a 983c
00000080: 98ec a6bc 00e6 dcbc 54d1 9b3c 2ddb 40bc
00000090: 7483 253b 91f5 3a3c db22 a63b b400 3d3c
000000a0: 4992 803c 12a8 933c 714a cb3c ccde 123c
000000b0: 5fd8 a8bc c633 c5bb dbd5 42bb 934a 3bba
000000c0: 1ffe 043d ad43 11bb 3c45 c93c 6291 e2bb
000000d0: 50da 2b3c 1797 e9bb ca39 433c b374 7b3c
000000e0: e2ff c03c c76d b83b ad62 f13a 2faa 423b
000000f0: 7454 e13b 6247 b53a abbb 673c 8d27 293d
00000100: 9a6f 183d 14e2 58bc 35c9 833c b727 6abc
00000110: 7283 263c 32ef 203c 1207 b63c efee 8abb
00000120: 3aeb 683c 8510 8f3c 8aa2 163c 94fb 663a
00000130: cd49 4bbc 8a23 aebc 21a0 153d d61d 9bbb
00000140: bafa d83c d107 103c 8c1d 7f3c 0b45 273c
00000150: 4b4c 4b3b 933b 4a3b cb94 be3b 5202 7e3c
00000160: e48c 193d f6df 233c d954 1b3c 2d82 4abb
00000170: 0a47 08bc 3742 dbbb bb93 79bc ca57 c93c
00000180: a5f2 f23a 350d 093d aadc 263c 75af cbbc
00000190: 909a 223c 7588 163c 2756 f0ba 941c 55bc
000001a0: 3209 013d 9071 03bd 46bb 253c 11ff 283c
000001b0: eee7 b7bb abac 793c 70d4 bcbc 3183 4cbc
000001c0: bb44 9e3c 6459 be3c b1ac f83c 3d03 6f3c
000001d0: a62f 81bb 6a1b 2a3b 1245 15bc efe5 92bc
000001e0: 68ad bcbc 17a0 e4b5 7e55 4fbc a75f a13b
000001f0: 3a51 c63b 5cd7 36bc 3582 56bc 1a4e f53b

action_model._continuous_distribution.log_sigma f4 [1, 2]
-0.08838542 -0.03738228
00000000: 6a03 b5bd 291e 19bd

action_model._continuous_distribution.mu.weight f4 [2, 128]
-0.027554026 0.037126876 -0.0036082761 -0.06594269 -0.005000769 -0.023924557 0.028278453 0.029502274
0.0004983167 0.060357574 -0.030102335 0.023446966 0.043639593 -0.014600749 -0.06639889 -0.029380674
-0.03605654 -0.0080945715 0.043802533 0.044022005 0.03510487 -0.038619433 0.023315772 -0.0047342316
0.017652549 -0.01738007 -0.038493138 -0.047277894 0.055569604 0.014085136 0.036502168 0.053344984
-0.04111881 -0.011537869 0.041892268 -0.047399566 -0.0021863221 -0.0072713094 -0.049389433 -0.05218186
-0.013203194 0.048739262 -0.0009529342 0.024662647 -0.022612453 -0.005009492 -0.051403504 -0.027893752
0.05336252 -0.062636465 0.049067184 -0.016859192 0.025213413 0.0011847384 0.0064952835 0.057145663
0.05924534 -0.0406918 -0.0044612447 -0.030471202 0.021041181 -0.036649633 0.016098646 0.07484047
0.032064743 -0.011769581 0.03449882 -0.0048470437 0.026898663 0.026445258 0.016301392 -0.06965017
0.026336238 0.047958482 0.05514759 0.019326875 -0.016920058 -0.027822247 0.015449858 -0.033751804
0.05901991 -0.06511983 0.03485573 -0.053662516 0.018796492 0.0026140262 -0.039458565 0.03827984
0.032419078 -0.011471055 0.046092268 -0.039972823 -0.035317574 -0.024264783 -0.014510624 0.057067376
-0.06094458 0.08157286 -0.048769776 -0.0035009645 0.014612773 -0.018367695 -0.05008005 -0.028008152
0.051385514 -0.016412638 0.060549244 0.014294835 0.006878024 -0.025126223 -0.016935421 -0.042277448
0.03508487 0.008296043 0.054868117 0.036710523 -0.029032245 0.028044019 -0.027618768 -0.034917593
-0.017568437 -0.04270248 -0.028668024 -0.0477702 -0.042063642 -0.0027762763 -0.01644091 0.022102805
-0.027895838 0.037694782 0.010599595 -0.002660591 0.02265773 -0.018181367 0.07326891 -0.003400584
0.061724555 0.036498167 -0.029062856 -0.064362556 -0.021310765 0.016191222 -0.0020777523 -0.0046014767
-0.010191337 0.053193863 -0.020481447 -0.010175763 -0.011500865 0.008290611 -0.014646151 -0.0009601342
-0.015245282 -0.011903172 0.0034163012 0.0034169436 -0.035400398 -0.022076996 0.0031113678 0.0037024035
-0.031717315 -0.03207087 -0.0408717 -0.041865245 -0.0070579853 0.038697056 0.026855871 -0.0039280974
0.030250767 0.020400016 0.054768972 -0.052059453 -0.014762531 0.009147276 0.011790513 0.022023926
0.0042184107 -0.031779695 0.014828134 -0.024102958 -0.021807428 -0.025680128 0.046284255 0.019193383
0.02617769 0.011945845 0.004359007 0.00042940988 -0.0021978181 -0.0059988233 0.04481577 0.035651255
0.066637166 -0.0004300625 -0.01547623 -0.039865892 -0.023020985 -0.042083688 0.044478513 -0.011395724
-0.041836597 -0.018799348 0.008733876 -0.04039369 -0.01949272 -0.02229895 0.034147907 0.01336437
0.089313954 -0.036302604 -0.015805267 0.031272452 -0.05796772 -0.043950994 0.04416932 0.00054884976
-0.001617972 0.04828715 -0.014097423 0.022394659 -0.023291362 -0.017762318 -0.029318955 0.007644233
0.003509087 0.059254766 0.058658846 -0.012055966 0.012279102 0.030968057 -0.011930814 -0.03129735
0.041057926 -0.013013987 -0.022761188 -0.06551331 -0.033516105 0.046315346 -0.0028057324 -0.006585681
0.008640623 0.05833728 0.034345306 0.019772308 -0.015725128 -0.033331696 0.0070594763 -0.017856373
0.0051002726 -0.029080942 -0.021809617 0.024024295 0.021322435 -0.039969523 -0.04358549 -0.047721736
00000000: fbb8 e1bc 5a12 183d d478 6cbb f60c 87bd
00000010: 7edd a3bb 6ffd c3bc 37a8 e73c c1ae f13c
00000020: 78a1 023a 8139 773d 2c99 f6bc da13 c03c
00000030: 6ebf 323d fb37 6fbc 24fc 87bd bdaf f0bc
00000040: 06b0 13bd 189f 04bc 496a 333d 6b50 343d
00000050: 20ca 0f3d 692f 1ebd b800 bf3c 9d21 9bbb
00000060: 149c 903c a660 8ebc fbaa 1dbd 77a6 41bd
00000070: f49c 633d 58c5 663c 4c83 153d 4580 5a3d
00000080: 336c 28bd 5509 3dbc 3a97 2b3d 0c26 42bd
00000090: 6648 0fbb 2a44 eebb 934c 4abd a5bc 55bd
000000a0: 3652 58bc d2a2 473d 55ce 79ba 5209 ca3c
000000b0: c03d b9bc aa26 a4bb 7b8c 52bd 7081 e4bc
000000c0: a892 5a3d 8c47 80bd acfa 483d 4a1c 8abc
000000d0: 5c8c ce3c 3949 9b3a 63d6 d43b 9211 6a3d
000000e0: 3eab 723d 72ac 26bd a22f 92bb be9e f9bc
000000f0: 8e5e ac3c ed1d 16bd 4fe1 833c f645 993d
00000100: 5256 033d 33d5 40bc a24e 0d3d f3d3 9ebb
00000110: 965a dc3c baa3 d83c 7f8a 853c c0a4 8ebd
00000120: 18bf d73c 1d70 443d 70e2 613d 6553 9e3c
00000130: ef9b 8abc 7beb e3bc 6721 7d3c 553f 0abd
00000140: dcbe 713d 8c5d 85bd e2c4 0e3d 3acd 5bbd
00000150: 1afb 993c 1550 2b3b 4e9f 21bd 52cb 1c3d
00000160: dec9 043d 18f1 3bbc 3fcb 3c3d 8bba 23bd
00000170: 29a9 10bd f0c6 c6bc f8bd 6dbc 7bbf 693d
00000180: 06a1 79bd ac0f a73d d1c2 47bd 7070 65bb
00000190: 6a6a 6f3c d977 96bc bd20 4dbd 5a71 e5bc
000001a0: 9e79 523d cc73 86bc 7c02 783d e234 6a3c
000001b0: 0c61 e13b 82d5 cdbc 27bc 8abc 1e2b 2dbd
000001c0: 27b5 0f3d 20ec 073c 64bd 603d c65d 163d
000001d0: 08d5 edbc 92bc e53c c140 e2bc c005 0fbd
000001e0: afeb 8fbc cce8 2ebd 34d9 eabc afaa 43bd
000001f0: ed4a 2cbd 30f2 35bb 16af 86bc f110 b53c
00000200: d085 e4bc d865 1a3d eca9 2d3c 4f5d 2ebb
00000210: b49c b93c 17f1 94bc 030e 963d 55dc 5ebb
00000220: e3d2 7c3d 1a7f 153d 3a15 eebc 84d0 83bd
00000230: ea93 aebc 74a3 843c e62a 08bb fcc7 96bb
00000240: 91f9 26bc cfe1 593d b5c8 a7bc 3eb8 26bc
00000250: 206e 3cbc 58d5 073c 69f6 6fbc 84b1 7bba
00000260: 59c7 79bc 8605 43bc 06e4 5f3b cdee 5f3b
00000270: 0200 11bd d1da b4bc 17e8 4b3b 06a4 723b
00000280: 04ea 01bd bf5c 03bd 1569 27bd e47a 2bbd
00000290: ac46 e7bb ce80 1e3d d800 dc3c 45b7 80bb
000002a0: 75d0 f73c ef1d a73c 6e55 603d 4b3c 55bd
000002b0: 8bde 71bc 75de 153c ff2c 413c 856b b43c
000002c0: 983a 8a3b 6d2b 02bd b4f1 723c 9173 c5bc
000002d0: 7ea5 b2bc 225f d2bc 8f94 3d3d 713b 9d3c
000002e0: 9872 d63c 81b8 433c 00d6 8e3b 6b22 e139
000002f0: 4509 10bb c791 c4bb be90 373d 0d07 123d
00000300: 1179 883d 037a e1b9 0390 7dbc 6b4a 23bd
00000310: 8196 bcbc f25f 2cbd 1a2f 363d 21b5 3abc
00000320: da5c 2bbd 1701 9abc 8818 0f3c db73 25bd
00000330: 32af 9fbc 4aac b6bc adde 0b3d 3bf6 5a3c
00000340: 3cea b63d 0ab2 14bd 0c7a 81bc 8b17 003d
00000350: 8f6f 6dbd f505 34bd e4ea 343d afe0 0f3a
00000360: 2212 d4ba bfc8 453d e1f8 66bc 0175 b73c
00000370: 87cd bebc 4882 91bc 4e2e f0bc 797c fa3b
00000380: b6f8 653b 20b5 723d 4244 703d 6386 45bc
00000390: 492e 493c b9b0 fd3c 7679 43bc a631 00bd
000003a0: 5b2c 283d 9e38 55bc ac75 babc d82b 86bd
000003b0: 2f48 09bd 29b5 3d3d 61e0 37bb b2cc d7bb
000003c0: 6691 0d3c 12f3 6e3d aaad 0c3d 89f9 a13c
000003d0: fcd1 80bc d186 08bd 2e53 e73b 8747 92bc
000003e0: 3020 a73b 283b eebc 15aa b2bc 99ce c43c
000003f0: 63ac ae3c 15b7 23bd b386 32bd de77 43bd

action_model._continuous_distribution.mu.bias f4 [2]
0.010995725 0.008775296
00000000: 6a27 343c 42c6 0f3c
